processed/3_logs-models_scale_3/epoch_27_model.pth (torch_old, 93448 bytes, 6 tensors)

weight f4 [64, 1, 5, 5]
0	0x3e0a7231	0.13520123
1	0x3e1d5b3d	0.15366836
2	0xbd806349	-0.06268937
3	0x3e2c95f7	0.16854082
4	0xbd78ddde	-0.060758464
5	0x3d01f891	0.031731192
6	0xbdd825f4	-0.10554114
7	0x3dde3fff	0.1085205
8	0x3e2d01f3	0.16895275
9	0xbe20031c	-0.15626186
10	0x3e2b3d4e	0.16722605
11	0x3d092171	0.033479158
12	0x3e19edf9	0.15032186
13	0x3cbeb806	0.023281109
14	0x3db42e82	0.08797933
15	0xbd291498	-0.041279405
16	0x3e17a450	0.14808774
17	0x3cdcf54e	0.02697244
18	0xbdc77fd0	-0.09741175
19	0x3d38790e	0.04503732
20	0xbdcf4069	-0.10119707
21	0xbcf3a027	-0.029739453
22	0xbda81c02	-0.08208467
23	0x3e0478d8	0.12936723
24	0xbe2824fe	-0.16420361
25	0xbdb9be16	-0.09069459
26	0xbd53d081	-0.051712517
27	0xbdee71ec	-0.116428226
28	0x3cb96968	0.02263327
29	0xbe449f9d	-0.19201513
30	0x3e3bda46	0.18344983
31	0xbe28656b	-0.16444938
32	0x3e2339b5	0.15939982
33	0x3d137984	0.03600456
34	0xbd73a8c3	-0.059487116
35	0x3e01b1fb	0.1266555
36	0x3d2688eb	0.04065792
37	0x3e32b8e2	0.1745334
38	0x3ce85506	0.028360855
39	0xbd6288f4	-0.05530639
40	0x3d6626a8	0.05618921
41	0xbd439e99	-0.047758672
42	0x3dc14a11	0.09437955
43	0x3e3e5d25	0.1859022
44	0x3df6acd6	0.120446846
45	0xbdb57298	-0.08859748
46	0x3df01386	0.11722474
47	0x3d1649f8	0.036691636
48	0x3dd33185	0.103121795
49	0xbdf2b193	-0.11850276
50	0xbe132ae2	-0.14371827
51	0xbd052113	-0.032502245
52	0xbdfae586	-0.12250809
53	0x3e2ceef0	0.16888022
54	0x3d3e8df0	0.04652208
55	0x3de6a25a	0.11261435
56	0x3dd3966d	0.10331426
57	0x3d1d8fd4	0.038467243
58	0x3e44303d	0.19159026
59	0xbe08d380	-0.13361931
60	0x3d37fed8	0.044920772
61	0xbe04332e	-0.12910149
62	0x3e0630fa	0.1310462
63	0xbd523673	-0.051321458
64	0x3da27e71	0.07934273
65	0xbd0872ef	-0.033312734
66	0x3e66730e	0.22504827
67	0xbdbb678c	-0.091506094
68	0xbdbb5843	-0.09147694
69	0xbdbb7e3a	-0.09154935
70	0x3e2291f7	0.15875994
71	0x3d70b5af	0.058767017
72	0x3e700cda	0.23442402
73	0xbe22524b	-0.15851705
74	0xbe0d958b	-0.13826577
75	0xbdbe550f	-0.092935674
76	0xbd88460a	-0.06653984
77	0x3d819cfb	0.0632877
78	0x3d3432eb	0.04399387
79	0x3d906ad2	0.07051624
80	0x3941a548	0.00018467486
81	0xbe1114af	-0.14168046
82	0x3e285e41	0.16442205
83	0xbdc035cc	-0.09385261
84	0x3dd88934	0.105730444
85	0xbd55871b	-0.0521308
86	0x3e521dd7	0.20519195
87	0xbe0854ad	-0.13313551
88	0xbd7bf6ab	-0.061514538
89	0x3d6211d7	0.055192795
90	0x3d9bda16	0.07609956
91	0xbd49a8bb	-0.04923318
92	0x3e45d041	0.19317724
93	0x3e2d2766	0.1690956
94	0xbdf9739f	-0.12180256
95	0xbdc68282	-0.09692861
96	0x3e56c568	0.20973742
97	0xbd80fd24	-0.06298283
98	0xbd14961c	-0.036275968
99	0xbdd69b49	-0.10478837
100	0xbd87d5e9	-0.06632597
101	0x3de864d0	0.113473535
102	0x3d783b6e	0.06060355
103	0xbe2b3cfb	-0.16722481
104	0x3d089678	0.033346623
105	0xbddd9636	-0.10819666
106	0xbe23db9f	-0.16001748
107	0xb943d2de	-0.00018675203
108	0xbe453c27	-0.19261228
109	0xbd823d64	-0.063593656
110	0x3e813f3a	0.2524355
111	0x3e1f0ebf	0.15532969
112	0x3e83246a	0.2561372
113	0xbdd263a4	-0.10272911
114	0xba3ec8e7	-0.00072778616
115	0xbd7ca1a5	-0.061677594
116	0x3e00bc39	0.12571801
117	0xbd83a875	-0.06428615
118	0xbc9c434d	-0.01907506
119	0xbc468afa	-0.0121180955
120	0x3d6692bb	0.056292277
121	0xbc8e13fd	-0.017343516
122	0x3dae9172	0.08523835
123	0xbdc6f408	-0.09714514
124	0xbbda1ac9	-0.006656025
125	0xbdca0d28	-0.098657906
126	0xbd4421be	-0.04788374
127	0xbe165dca	-0.14684215
128	0x3e2ba43b	0.16761868
129	0xbd1e0e25	-0.038587708
130	0x3e3389fb	0.17533104
131	0x3d9e5b83	0.07732298
132	0xbe3b117f	-0.18268393
133	0x3e147f25	0.14501627
134	0xbd727d91	-0.05920178
135	0xbd98b762	-0.074568525
136	0xbe2ae7e8	-0.16690028
137	0xbe681934	-0.22665864
138	0x3d7ec0fa	0.062195756
139	0xbd081c6a	-0.033230223
140	0x3dc0fc44	0.09423116
141	0xbe1b697e	-0.15176961
142	0x3e220514	0.1582225
143	0xbe0935e3	-0.13399462
144	0xbbb8e0dd	-0.00564204
145	0x3ce3822a	0.027772028
146	0x3dbf893b	0.093523465
147	0x3e049a17	0.12949406
148	0x3e3a927a	0.18219939
149	0xbe1ea83a	-0.15493861
150	0x3d8110eb	0.06302055
151	0xbda447c0	-0.08021498
152	0xbc291cf6	-0.010321846
153	0xbe125fb0	-0.14294314
154	0x3e42fbcd	0.19041367
155	0xbe09f049	-0.13470568
156	0x3df0b7dc	0.117538184
157	0x3db6bb55	0.089224495
158	0x3db11850	0.08647215
159	0xbdca6a04	-0.09883502
160	0x3e47325f	0.19452809
161	0x3d87daed	0.06633554
162	0x3d86098b	0.06544789
163	0xbe246c6c	-0.16056985
164	0x3de78c9c	0.11306116
165	0xbc81e62d	-0.015856827
166	0xbda5ed40	-0.081018925
167	0x3e4da77c	0.20083421
168	0x3d84623f	0.064640515
169	0xbdae3056	-0.08505313
170	0xbdb8f782	-0.09031583
171	0xbb343be3	-0.0027501516
172	0x3de5459f	0.1119492
173	0xbd114d7e	-0.035474293
174	0xbdbfa0e4	-0.09356859
175	0xbd903fd0	-0.07043421
176	0xbe19b09c	-0.15008777
177	0x3d95488d	0.072892286
178	0x3e1df16a	0.15424123
179	0xbe41e54c	-0.18935126
180	0x3d36a3f8	0.044589967
181	0x3dda5fe5	0.10662822
182	0x3d194dcf	0.03742772
183	0xbd8982ed	-0.06714425
184	0x3dd603a5	0.10449914
185	0x3dd4f81c	0.103988856
186	0x3da12239	0.078678556
187	0xbccd5716	-0.02506594
188	0xbd54f4a1	-0.05199111
189	0x3cc69424	0.02424056
190	0xbd23f4d6	-0.040028416
191	0xbd6faa7a	-0.05851219
192	0x3e0462c7	0.12928306
193	0x3e32bc92	0.17454746
194	0xbca4db26	-0.02012403
195	0xbd5aba37	-0.053400245
196	0xbae489e8	-0.0017436119
197	0xbc55197d	-0.013006565
198	0x3d34e2cf	0.044161614
199	0x3d588a03	0.052865993
200	0xbdee9609	-0.11649711
201	0xbca3ef1a	-0.020011473
202	0x3e5b2401	0.21400453
203	0x3dbe9746	0.09306197
204	0x3c4225c2	0.0118498225
205	0xbd6ec667	-0.05829468
206	0xbd927ecf	-0.07153093
207	0xbe1492a7	-0.14509068
208	0xbcb5b4cf	-0.022180943
209	0x3dd4d3ca	0.10391958
210	0x3e15a66d	0.14614268
211	0x3e07ef3c	0.13274854
212	0xbe314552	-0.173116
213	0xbdbcaeaa	-0.09213002
214	0x3b7baf59	0.0038404076
215	0x3e56c4fe	0.20973584
216	0x3d4fe990	0.050759852
217	0xbcdc395f	-0.026882825
218	0x3df83519	0.121195026
219	0xbd29a596	-0.04141768
220	0xbddcdcb6	-0.10784285
221	0x3e308047	0.17236434
222	0xbd5f928b	-0.054583114
223	0x3a3805e0	0.00070199184
224	0xbe145846	-0.14486799
225	0x3dc16307	0.09442716
226	0x3d8d57d5	0.06901518
227	0x3d1a0cff	0.03761005
228	0xbe1d92d4	-0.15388042
229	0xbe1219cb	-0.14267652
230	0xbe159607	-0.14608012
231	0x3e1ad6e0	0.15121031
232	0x3e002df2	0.12517527
233	0x3e738e01	0.23784639
234	0x3de842f2	0.11340894
235	0x3d016b32	0.03159637
236	0x3d2cd593	0.042195868
237	0xbe46c45e	-0.19410846
238	0xbdf6e5a7	-0.120555215
239	0xbe4a1b70	-0.19737029
240	0x3dbd7cc4	0.09252313
241	0xbdd1ad03	-0.102380775
242	0x3d801f7e	0.06256007
243	0xbe0169df	-0.12638043
244	0x3d2a8fa7	0.041640904
245	0xbda3582f	-0.07975804
246	0xbdb4af73	-0.08822527
247	0x3d3a83b5	0.045535762
248	0x3c9351a4	0.017983265
249	0x3e05fc47	0.13084517
250	0xbd20830c	-0.039187476
251	0xbe0adedf	-0.13561581
252	0xbc5c78f2	-0.01345657
253	0xbdbcc9f0	-0.09218204
254	0xbd56c7e1	-0.052436713
255	0xbe3ed614	-0.18636352

bias f4 [64]
0	0xbe37d35d	-0.17951722
1	0x3dc5eb10	0.09663975
2	0xbccc89b2	-0.024968002
3	0x3d341cfc	0.043972954
4	0x3d95fee5	0.07324008
5	0x3e1a894c	0.15091437
6	0xbccd8737	-0.02508889
7	0x3d49c2c6	0.049258016
8	0x3da64825	0.08119229
9	0x3e054be8	0.13017237
10	0x3c8621fe	0.01637363
11	0x3d960349	0.07324845
12	0xbdfbb6cd	-0.12290726
13	0xbe0e515a	-0.1389822
14	0x3e32ce6c	0.17461556
15	0xbe308f2d	-0.17242117
16	0x3ce741c1	0.028229596
17	0xbc6d63bc	-0.014489111
18	0x3e40b696	0.18819651
19	0xbcfb6876	-0.03068946
20	0xbdc2c6cf	-0.09510576
21	0xbd802d38	-0.06258625
22	0x3e1aaa4c	0.15104026
23	0x3e0315de	0.1280131
24	0x3e1d2b2f	0.15348504
25	0x3dea7db0	0.11449754
26	0x3d9966e4	0.07490328
27	0xbe586325	-0.2113157
28	0x3d8d0e90	0.06887543
29	0x3dbd47c2	0.09242202
30	0x3e0cfe35	0.13768847
31	0xbbf507e7	-0.0074777487
32	0xbd3794d1	-0.044819657
33	0x3cebc3a5	0.028779814
34	0xbe1044bc	-0.1408872
35	0xbe1a192b	-0.15048663
36	0xbe50d9b2	-0.20395544
37	0x3d7d5139	0.061845038
38	0x3def01d8	0.116702735
39	0x3d49cf1d	0.049269784
40	0x3da8fe1b	0.08251592
41	0x3d92663b	0.07148405
42	0xbdef285d	-0.116776206
43	0xbcada3a8	-0.021196201
44	0xbd300890	-0.042976916
45	0x3c90bea0	0.017669022
46	0x3e249083	0.16070752
47	0xbc73ebe7	-0.0148877865
48	0x3cb766cb	0.022387883
49	0xbe3aa3d3	-0.18226556
50	0xbd890028	-0.06689483
51	0xbd991414	-0.07474533
52	0x3d8fe54f	0.07026159
53	0xbd806e58	-0.062710464
54	0x3df6cf24	0.12051228
55	0xbe2a242a	-0.16615358
56	0x3e1704da	0.14747944
57	0xbde84e89	-0.113431044
58	0x3dc050c8	0.09390408
59	0x3cf73036	0.030174356
60	0xbc31472a	-0.0108201895
61	0xbcd54ca7	-0.026037527
62	0x3de95110	0.113924146
63	0x3d1787c9	0.03699473

weight f4 [32, 64, 3, 3]
0	0xbd161f4a	-0.036650933
1	0x3c07fd78	0.008300178
2	0xbc6bc7dd	-0.014390913
3	0x3d0eeaec	0.034892008
4	0x3c8b5a94	0.017010964
5	0x3c0ab601	0.008466245
6	0xbbf8ba2b	-0.0075905523
7	0x3d0a3a39	0.03374693
8	0xbc2a6c1a	-0.01040175
9	0x3d0a7799	0.033805463
10	0x3d234a5b	0.039865833
11	0x3d378463	0.04480399
12	0x3cf238c0	0.029568076
13	0xbca313a8	-0.019906834
14	0x3d4b2dc6	0.0496042
15	0xbb43fb27	-0.0029904337
16	0x3b14fd3d	0.002273395
17	0x3bfc79ff	0.0077049728
18	0xbc83981b	-0.01606374
19	0x3cd99235	0.026558975
20	0x3d53627e	0.0516076
21	0xbc079964	-0.008276317
22	0xbb04de52	-0.0020274115
23	0x3d0bcb99	0.034129713
24	0xbd752589	-0.05985025
25	0x3d394bd5	0.045238335
26	0xbd744d04	-0.05964376
27	0xbc715d23	-0.014731678
28	0x3d8eefe3	0.069793485
29	0x3d5e9e3e	0.05435013
30	0x3a077b1e	0.0005168187
31	0x3b2dc171	0.0026513005
32	0x3ca84a8e	0.020543363
33	0x3d01520e	0.031572394
34	0xbcae800b	-0.02130129
35	0xbd05cc2a	-0.03266541
36	0xbd858829	-0.06520111
37	0xbbf86ece	-0.0075815683
38	0x3db95351	0.090490945
39	0xbd1d8982	-0.038461216
40	0xbb8d2b64	-0.004308151
41	0x3d82ff3f	0.063963406
42	0x3c671aea	0.014105538
43	0xbd3c46c6	-0.045965932
44	0xbc80b633	-0.01571188
45	0x3d04091e	0.032235257
46	0x3d2fd4ec	0.042927667
47	0x3d137a45	0.036005277
48	0xbc9a2f5f	-0.018821416
49	0x3b5eec61	0.0034015405
50	0x3c351143	0.011051479
51	0xbcf318e1	-0.02967495
52	0xbbf7cc45	-0.0075621926
53	0xbcf0fcc9	-0.029417412
54	0x3c377f21	0.0111997435
55	0xbc7b4cd0	-0.015338138
56	0x3ca3de89	0.020003574
57	0xbc59d2e5	-0.01329491
58	0x3c2c9fef	0.010536178
59	0xbcaa6cf9	-0.020803915
60	0xbc9affac	-0.018920742
61	0xbb64f2d8	-0.0034934785
62	0x3d4e1c2b	0.05031983
63	0xbc53a917	-0.012918732
64	0x3ca89c90	0.020582467
65	0xbc0a77a8	-0.00845138
66	0xbb85940f	-0.004076488
67	0x3d4d7f32	0.05017013
68	0x3d10a2a3	0.035311352
69	0xbba52261	-0.0050394987
70	0x3c8eb674	0.017420985
71	0x3ccab663	0.024745172
72	0x3cfafd9a	0.030638505
73	0x3c5e2547	0.013558692
74	0x3c040122	0.008056911
75	0x3d3d9b40	0.046290636
76	0xbbdf537a	-0.006815371
77	0x3a277705	0.000638828
78	0xbcbe7e51	-0.023253592
79	0xbd07b0f9	-0.03312776
80	0x3d55c316	0.052188
81	0x3b0aaa0d	0.0021158487
82	0xbc3c24dd	-0.011483398
83	0x3ce7c83d	0.028293723
84	0xbd1806e7	-0.037115958
85	0xbc2ea8e2	-0.010660382
86	0x3cfa37a7	0.030544115
87	0x3b772817	0.0037713104
88	0xbd18d725	-0.037314553
89	0x3d3ee856	0.04660829
90	0x3d0ec7a3	0.034858357
91	0xbc9c7c4f	-0.019102244
92	0x3d31ef47	0.043441083
93	0xbcb2bfa6	-0.0218199
94	0x3d29ad37	0.041424956
95	0x3d193fb5	0.03741427
96	0xbcc87eb0	-0.024474472
97	0xbd0833a5	-0.033252377
98	0xbd1b7b38	-0.037959307
99	0xbe4e5f5e	-0.20153567
100	0xbe487b75	-0.19578345
101	0x3cfda9a1	0.030964674
102	0x3e1beb6b	0.15226524
103	0xbbd1f36d	-0.0064071924
104	0xbdeeb40a	-0.116554335
105	0xbdc76487	-0.09735971
106	0x3d3b6e6a	0.045759596
107	0xbcc4b451	-0.024011763
108	0xbcf12528	-0.029436663
109	0x3c8c694e	0.017140057
110	0x3d5255b6	0.05135127
111	0x3c64ef45	0.013973062
112	0x3b065979	0.0020500107
113	0xbc5f55ee	-0.013631327
114	0xbca14a64	-0.019688793
115	0xbcfe1c49	-0.031019347
116	0x3d0d4c46	0.03449657
117	0xbbde7408	-0.0067887343
118	0xbd16c4b7	-0.036808696
119	0x3b927738	0.0044697784
120	0x3b4628d0	0.0030236728
121	0xbba8af60	-0.0051478595
122	0x3c745ebc	0.014915165
123	0x3cb78fde	0.022407468
124	0xbd207f26	-0.03918376
125	0xbd02bf0f	-0.03192049
126	0xbc85acf4	-0.016317822
127	0xbd3bd7fd	-0.04586028
128	0xbce60f23	-0.02808339
129	0x3d11071f	0.03540718
130	0xbc482194	-0.012215037
131	0xbceb4b40	-0.028722405
132	0xbcd599f5	-0.026074389
133	0xbd451d13	-0.04812343
134	0x3c94c357	0.018159552
135	0xbd0c69b6	-0.0342805
136	0x3cfa51e3	0.030556625
137	0xbd41300f	-0.047164973
138	0x3cb8c08c	0.022552751
139	0x3c2a4311	0.010391966
140	0xbc803957	-0.015652342
141	0xbcd772e1	-0.026299896
142	0x3cc21fe8	0.023696855
143	0x3c3f3a66	0.011671638
144	0x3db6cea6	0.08926134
145	0x3a4b1930	0.00077475887
146	0xbad5ee81	-0.001632169
147	0x3b375119	0.0027971922
148	0x3cd62a75	0.026143292
149	0x3ce93627	0.028468205
150	0x3cf461ed	0.02983185
151	0x3d94833c	0.072515935
152	0xbd80ed59	-0.062952705
153	0xbb89dc55	-0.004207174
154	0xbc91d9d7	-0.01780407
155	0x3d22bbfc	0.039730057
156	0xbce58f19	-0.028022336
157	0x3ca46e4b	0.020072123
158	0x3bd7eb3e	0.0065893224
159	0x3c5f29f7	0.013620845
160	0x3c962a53	0.018330729
161	0xbcb5db53	-0.022199308
162	0x3d248e09	0.040174518
163	0xbcba7897	-0.02276258
164	0xbb541ea7	-0.0032366903
165	0x3d2f0b51	0.0427354
166	0x3cc06223	0.023484295
167	0x3ba3bde7	0.0049970034
168	0xbba843ba	-0.0051350268
169	0xbc98b9f8	-0.018643364
170	0x3cf5963e	0.029978868
171	0x3b9ebbf7	0.0048441845
172	0x3c67f40e	0.014157308
173	0x3cab6512	0.020922218
174	0x3d1d6108	0.038422614
175	0xbc080172	-0.008301126
176	0xbbaabecf	-0.0052107344
177	0x3cdbee26	0.026846956
178	0x3c8d227d	0.01722836
179	0xbcd5053f	-0.026003478
180	0xbc2ee139	-0.010673814
181	0x3c2d946a	0.010594467
182	0x3d02b024	0.031906262
183	0x3c55527b	0.013020153
184	0x3d0770d4	0.033066586
185	0xbd1cc180	-0.038270473
186	0x3c8ef060	0.017448604
187	0xbca13396	-0.019677918
188	0x3cc2836d	0.02374431
189	0x3d3c3715	0.045950968
190	0x3cc02980	0.023457289
191	0x3d1ee3bc	0.038791403
192	0xbc7f49c7	-0.015581555
193	0xbcec52a5	-0.028848002
194	0xbd12ceee	-0.035841875
195	0x3d039e8c	0.032133624
196	0x3c329656	0.010900101
197	0xbd15da4b	-0.036585134
198	0xbbdefa43	-0.006804736
199	0xbce5843e	-0.02801716
200	0xbdd14d23	-0.10219791
201	0x3c8bad7c	0.017050497
202	0x3cb583ba	0.022157539
203	0x3cf63a01	0.030056955
204	0x3b81b532	0.0039583677
205	0x3d0ea738	0.03482744
206	0x3ce8839d	0.02838307
207	0x3d00457d	0.03131627
208	0xb9f3c4e8	-0.00046495278
209	0x3c13e916	0.00902774
210	0xbd72fec3	-0.05932499
211	0xbb56c8d4	-0.0032773511
212	0x3a99101d	0.0011677776
213	0x3d34de51	0.04415733
214	0x3b29c761	0.0025906193
215	0x3c01d213	0.007923621
216	0xbd14d1ee	-0.036333017
217	0xbceb51a8	-0.02872546
218	0x3c9649e2	0.018345777
219	0x3d066750	0.03281337
220	0xbca236e0	-0.019801557
221	0xbb2d48ab	-0.0026441019
222	0xba5c0956	-0.0008393725
223	0x3c3ea9a5	0.011637126
224	0xbbf6726e	-0.0075209653
225	0xbc0c1e81	-0.008552195
226	0x3d21d9c5	0.03951432
227	0x3d5459b9	0.05184338
228	0xbd0a8c1a	-0.033825018
229	0x3d372879	0.044716332
230	0xbcb1e78b	-0.021716854
231	0x3bef6e70	0.0073068663
232	0xbcfcf599	-0.030878829
233	0xbd1a5360	-0.03767717
234	0x3d2b808c	0.04187064
235	0xbc310e18	-0.010806583
236	0x3ce45ade	0.02787536
237	0xbcda3e50	-0.026641041
238	0xbc4dd866	-0.0125638
239	0x3c0d84c4	0.008637611
240	0x3d1b5dc9	0.037931237
241	0x3ca93c63	0.020658677
242	0xbcf6a867	-0.030109597
243	0x3c3537dc	0.011060681
244	0xbca96e10	-0.020682365
245	0x3c2738df	0.01020643
246	0xbcfa2714	-0.030536212
247	0xbbb94b39	-0.005654719
248	0x3cc33999	0.023831176
249	0xbcf12afe	-0.029439446
250	0xbd2647d9	-0.040595863
251	0x3c4c8970	0.0124839395
252	0x3c3bf989	0.011473068
253	0xbc19bae6	-0.009382939
254	0x3d3231d6	0.04350456
255	0xbd0c1eb8	-0.034208983

bias f4 [32]
0	0x3d25c387	0.040469673
1	0x3cae84bc	0.021303527
2	0xbd0176ac	-0.031607315
3	0x3c8edbe3	0.017438835
4	0x3c5e5830	0.01357083
5	0x3c977021	0.018486084
6	0x3cbd13fd	0.02308082
7	0xbd2674f6	-0.040638886
8	0xbbccf0a1	-0.006254271
9	0xbc4cbf61	-0.0124968
10	0x3cca0272	0.02465937
11	0xbcb11c49	-0.021619933
12	0xbc70908c	-0.0146829
13	0xbcb9db47	-0.022687567
14	0xbcab2ea9	-0.020896273
15	0xbc71aa77	-0.014750115
16	0x3cb66e17	0.022269292
17	0xbd1e9521	-0.03871644
18	0xbae49cc9	-0.0017441745
19	0xbc7003fa	-0.014649386
20	0x3d02c8de	0.031929843
21	0xbc43c2bd	-0.011948285
22	0xbd27ca52	-0.040964432
23	0xbc739c91	-0.014868871
24	0xbd33f17c	-0.04393147
25	0xbcba82d5	-0.022767464
26	0x3cb04499	0.021517085
27	0xbcd04967	-0.025425626
28	0xbc3468e5	-0.011011337
29	0x3cf2541c	0.029581122
30	0xba72c9a8	-0.00092616165
31	0x3cdd6e51	0.027030142

weight f4 [9, 32, 3, 3]
0	0x3d534433	0.05157871
1	0x3d6b2ea2	0.05741752
2	0xbbc2cc5b	-0.005944771
3	0xbcaff0ad	-0.021477068
4	0x3bc01d17	0.005862843
5	0x3d02e420	0.03195584
6	0x3c87bc5a	0.016569305
7	0xbccadb80	-0.024762869
8	0x3d839c79	0.06426329
9	0xbd67e424	-0.056614056
10	0xbc205a50	-0.009787157
11	0xbcc4a051	-0.024002226
12	0x3dcd03fd	0.10010526
13	0x3caa7006	0.02080537
14	0xbcabeba0	-0.020986378
15	0xbd1680da	-0.036743976
16	0x3cf8d40c	0.03037455
17	0xbcef5e4c	-0.029219769
18	0x3d1747ae	0.036933593
19	0xbc9fc099	-0.019501017
20	0x3cbe376d	0.023219788
21	0xbd477520	-0.048695683
22	0xbcf981f1	-0.030457469
23	0x3d6a3a96	0.05718478
24	0x3d55a38b	0.05215792
25	0xbd381e24	-0.04495062
26	0xbcebfee6	-0.028808068
27	0xbd7aab33	-0.061198425
28	0x3c7b435f	0.015335887
29	0xbc2d8e64	-0.010593031
30	0x3c05eea5	0.008174573
31	0x3d243cbb	0.04009698
32	0x3d0c56b5	0.034262378
33	0xba712a88	-0.0009199758
34	0x3c8834cb	0.016626736
35	0xbd1d51f4	-0.038408235
36	0x3da0f367	0.07858925
37	0xbcb1a874	-0.02168677
38	0x3cdce01b	0.02696233
39	0x3dcfa1ae	0.1013826
40	0x3e05d5a0	0.13069773
41	0x3d82270d	0.063551046
42	0xbc6a90a6	-0.014316713
43	0xbe0c3016	-0.13690218
44	0xbd25b0cd	-0.040451813
45	0xbd073053	-0.03300507
46	0x3cf27808	0.029598251
47	0xbcd6ba6a	-0.026211936
48	0x3d526368	0.051364332
49	0x3ce49267	0.027901841
50	0xbd040b8a	-0.032237567
51	0x3c11f7b7	0.0089091575
52	0x3d0b334d	0.03398447
53	0x3d9dc3bc	0.07703349
54	0xbc684d3a	-0.0141785685
55	0xbd275d09	-0.04086021
56	0xbb13ae8d	-0.002253446
57	0xbbb254f2	-0.005442255
58	0x3d183af9	0.037165616
59	0xbbcfeb27	-0.006345171
60	0x3d104282	0.035219677
61	0xbd3c9cbe	-0.04604792
62	0xbd8cdd1a	-0.06878109
63	0x3bf294d8	0.0074029975
64	0x3d17c3d1	0.03705198
65	0x3d61d0cb	0.05513076
66	0x3c055af5	0.008139362
67	0x3a2079c5	0.00061216607
68	0x3d0caf83	0.03434707
69	0x3d289757	0.041159954
70	0xbd486b4d	-0.048930455
71	0xbcc1e6c4	-0.023669608
72	0x3d18a5f3	0.037267637
73	0xbc2ccc12	-0.010546701
74	0xbd263c7a	-0.04058502
75	0xbd20f24a	-0.039293565
76	0xbc5cccd0	-0.0134765655
77	0x3bf5e255	0.0075037875
78	0xbb396051	-0.0028286169
79	0xbd34897b	-0.044076424
80	0x3d7b0e17	0.061292734
81	0xbb2b956f	-0.0026181599
82	0x3d6d66ce	0.05795937
83	0xbc606acc	-0.013697337
84	0x3d4c400c	0.049865767
85	0x3cf58b06	0.029973518
86	0xbd2f3cdc	-0.04278265
87	0x3d081275	0.033220727
88	0x3d12fb56	0.035884224
89	0xbd261fef	-0.040557798
90	0x3d793399	0.060840223
91	0x39b03017	0.00033605166
92	0xbc39ddbe	-0.011344371
93	0xbb933812	-0.004492768
94	0xbce3ef66	-0.027824115
95	0x3d8162d2	0.063176766
96	0xbc324222	-0.010880025
97	0xbcd375ee	-0.02581307
98	0x3d8675ed	0.06565461
99	0xbdb29e97	-0.08721655
100	0xbd4fe909	-0.05075935
101	0x3cafb728	0.02144964
102	0x3cbe72c7	0.02324809
103	0xbce1259b	-0.027483752
104	0xbc7f7919	-0.015592837
105	0xbd64827d	-0.055788506
106	0x3d66b571	0.05632538
107	0x3cdde2f9	0.027085768
108	0xbd201ece	-0.039091878
109	0xbca3b368	-0.019983009
110	0xbd2e089c	-0.04248868
111	0x3ce393a9	0.02778037
112	0xbcc55653	-0.024089014
113	0x3c180316	0.0092780795
114	0x3d371391	0.044696394
115	0x3d3de0cc	0.04635696
116	0xbd59ef83	-0.05320693
117	0x3cee52db	0.029092243
118	0x3d881f9b	0.06646653
119	0x3d4fddc5	0.050748605
120	0x3c9cbf7a	0.019134272
121	0x3c515bd0	0.012778237
122	0xbc962be1	-0.01833147
123	0xbcc4776b	-0.023982724
124	0xbcb848e5	-0.022495696
125	0xbac72d1d	-0.001519594
126	0x3d894e5f	0.06704401
127	0x3d1b1bcc	0.037868306
128	0x3cdd7446	0.027032983
129	0xbcc07cc2	-0.02349699
130	0x3c34b9e0	0.011030644
131	0xbd1cff7a	-0.03832958
132	0xbcfd2802	-0.030902866
133	0x3c0f0066	0.008728122
134	0x3bb1b116	0.0054227216
135	0x3b9576fa	0.0045613023
136	0x3d01e68c	0.031714007
137	0x3c33a4e8	0.01096461
138	0x3cc87467	0.024469567
139	0x3c2e6d7e	0.010646222
140	0xbd2bb615	-0.041921694
141	0x3a9e5324	0.0012079221
142	0x3d037ed2	0.032103367
143	0xbcee25a6	-0.029070687
144	0x3b52db8f	0.0032174324
145	0x3d2e0139	0.042481635
146	0xbce3a583	-0.027788883
147	0x3d01fb9a	0.031734087
148	0xbcd1fe7d	-0.025634045
149	0x3d2c22c2	0.042025335
150	0x3cda00d9	0.026611732
151	0x3d0cd496	0.034382425
152	0xbcd47ba3	-0.02593786
153	0xbb010d62	-0.0019691815
154	0xbd72aee9	-0.05924884
155	0xbc578d8d	-0.013156307
156	0x374f5fbf	1.2360454e-05
157	0xbd58508f	-0.0528112
158	0x3c9ddc65	0.019270131
159	0xbbad4f88	-0.005289022
160	0x3dca1ec1	0.09869147
161	0xbd35603a	-0.044281222
162	0xbc405167	-0.011738158
163	0x3c9d0dfe	0.019171711
164	0x3d19b984	0.037530437
165	0xbc50b52e	-0.012738509
166	0x3da3befd	0.079954125
167	0x3cf168a5	0.029468844
168	0x3aee658d	0.0018188223
169	0xbcff2db6	-0.031149726
170	0xbd0af88e	-0.033928446
171	0x3d7abc56	0.061214767
172	0x3c32c916	0.0109122
173	0xbc2f9d09	-0.010718592
174	0xbb7aa923	-0.0038247786
175	0xbc80181b	-0.015636494
176	0x3d265ddc	0.040616855
177	0x3c8db482	0.017297987
178	0x3c9005a8	0.017580822
179	0xbc2f525c	-0.010700788
180	0x3c47459a	0.01216259
181	0x3d646f7c	0.055770382
182	0x3d0a623e	0.033785097
183	0x3d313dd7	0.043271866
184	0x3cbf85e9	0.023379283
185	0x3d160b75	0.03663202
186	0xbc9ac905	-0.018894682
187	0xbd0a65d6	-0.033788525
188	0x3d0fbd45	0.03509261
189	0x3b0ea1d3	0.0021763935
190	0xbc5d9308	-0.0135238245
191	0x3c69a1b2	0.014259743
192	0x3cd0f779	0.02550863
193	0xbc1052d4	-0.00880881
194	0x3ca9b7c7	0.020717515
195	0x3d365e01	0.044523243
196	0xbb62e5e1	-0.0034621882
197	0xbc1a4181	-0.009415031
198	0xbcafd422	-0.021463457
199	0x3d30ce1e	0.04316532
200	0xbc272201	-0.010200978
201	0x3c9ff1cb	0.019524476
202	0xbd0ce1d1	-0.034395043
203	0x3cc6e7a2	0.024280373
204	0xbd1d9482	-0.038471706
205	0x3c7ba1ef	0.015358432
206	0xbce8b4f1	-0.028406592
207	0xbd31ccfd	-0.043408383
208	0x3c5df89b	0.013548042
209	0x3ceffb5c	0.029294662
210	0xbcff7c53	-0.031187212
211	0xbcb80bb6	-0.022466522
212	0x3d48c1e1	0.049013022
213	0xbb09f032	-0.0021047709
214	0x3d3541cb	0.0442522
215	0xbcc61041	-0.024177672
216	0xbbef2e82	-0.0072992453
217	0x3d20a0be	0.039215796
218	0xbd312602	-0.043249138
219	0x3cd3d3ab	0.025857767
220	0xbce4f2db	-0.027947834
221	0xbca55757	-0.020183248
222	0x3ca5ce4c	0.020239972
223	0x3d2e7770	0.042594373
224	0xbcb44b3a	-0.022008527
225	0x3c40d408	0.011769302
226	0xbb263837	-0.0025363097
227	0xbd107f66	-0.035277747
228	0xbb4c74ff	-0.0031197665
229	0x3c4b126c	0.012394529
230	0xbcafcb21	-0.021459164
231	0xbcbf35c8	-0.023341075
232	0x3d5d4a29	0.054025803
233	0xbcf14307	-0.029450906
234	0x3be2235e	0.0069011888
235	0x3d90c70b	0.070692144
236	0xbda5581e	-0.08073448
237	0x3db061f5	0.08612434
238	0x3db497c0	0.088180065
239	0xbd334819	-0.04376993
240	0xbd4690fb	-0.048478108
241	0xbdb70661	-0.089367636
242	0xbc008506	-0.007844215
243	0x3ce74896	0.028232854
244	0xbd559773	-0.052146386
245	0x3cd80fd0	0.026374727
246	0x3ce7d11a	0.02829795
247	0xbcaa7083	-0.020805603
248	0x3d5075b1	0.05089349
249	0xbc762a33	-0.0150247095
250	0x3d02ba7e	0.031916134
251	0xbd5cb722	-0.053885587
252	0xbc9abb86	-0.018888246
253	0x3d053bbc	0.03252767
254	0xbcec9971	-0.02888176
255	0xbd60e859	-0.054909084

bias f4 [9]
0	0x3cdaf939	0.026730167
1	0x3b65d7d7	0.0035071278
2	0x3cded242	0.027199868
3	0x3c3159ac	0.010824602
4	0xbbfa9c58	-0.007648032
5	0xbbc0acf2	-0.0058799917
6	0xbb9e80f8	-0.0048371516
7	0x3b9fc04c	0.0048752185
8	0xb9bdb38c	-0.00036182662
