.best_processed/logs_scale_3_crop_420-tanh/epoch_9_model.pth (torch_old, 93458 bytes, 6 tensors)

weight f4 [64, 1, 5, 5]
0.117303096 0.13683623 -0.07497773 0.1622296 -0.06448162 0.013492589 -0.1169072 0.10537678
0.16383883 -0.1645615 0.15351407 0.028795661 0.1500692 0.016792523 0.08108468 -0.05377524
0.14226526 0.016626067 -0.11597853 0.028810786 -0.11607748 -0.042726796 -0.101088844 0.10916708
-0.1847373 -0.10436337 -0.06268309 -0.12581336 0.009911985 -0.20181124 0.16752061 -0.18354334
0.15111183 0.024401378 -0.074659854 0.11233716 0.030071577 0.16848913 0.0138144195 -0.07045297
0.040435884 -0.0599298 0.08429031 0.16940941 0.10328962 -0.10432021 0.10468829 0.027946748
0.08804319 -0.13881221 -0.18857801 -0.06505988 -0.15302266 0.171186 0.06773815 0.09742528
0.05961643 -0.0015880264 0.16784951 -0.13414302 0.017555824 -0.14185548 0.05477417 -0.07281539
0.0594504 -0.031634487 0.17938542 -0.12846763 -0.12159618 -0.11541084 0.19108516 0.07300044
0.19342914 -0.15948911 -0.18378021 -0.13265967 -0.12294851 0.090813406 0.08903072 0.18205144
-0.10126217 -0.1367084 0.12688716 -0.07922384 0.14817229 -0.03148509 0.13435937 -0.17536908
-0.1098206 0.083430424 0.06675018 -0.04327992 0.14136848 0.16013555 -0.1309393 -0.0887033
0.20661484 -0.06456612 -0.06055711 -0.17413998 -0.09435772 0.058691632 -0.027508017 -0.14157838
0.027487233 -0.12969005 -0.1792307 -0.1261601 -0.18832567 -0.12252119 0.18990849 0.019310689
0.027900072 -0.21384184 -0.13599944 -0.067491 0.014497146 -0.20449856 -0.10598213 -0.11676798
0.015229647 -0.076032 -0.016291367 -0.13162103 -0.11409595 -0.098147474 -0.05924904 -0.16356534
0.16786028 -0.038394954 0.1791214 0.061835244 -0.19549166 0.13550915 -0.057545777 -0.07332658
-0.18934615 -0.23839761 0.0545814 -0.04893582 0.0918093 -0.16181587 0.14894043 -0.14658397
-0.027693778 0.04951444 0.11203939 0.16758655 0.19438396 -0.15584365 0.0567299 -0.083258666
-0.013259797 -0.14615454 0.19762275 -0.14494519 0.11673908 0.09312249 0.0706422 -0.09275574
0.1964496 0.063353576 0.05524131 -0.17586412 0.1021202 -0.024278507 -0.089048415 0.19578353
0.048280753 -0.09853894 -0.09372501 -0.007767724 0.12131147 -0.042231932 -0.10244514 -0.08549045
-0.15682471 0.06677571 0.1496178 -0.19724192 0.03584634 0.10495161 0.0362083 -0.07657235
0.09929335 0.09830021 0.074331015 -0.02853674 -0.056603815 0.014045727 -0.048804794 -0.06949943
0.12450374 0.16498113 -0.035003867 -0.059114315 -0.008161726 -0.015134675 0.03786185 0.0448763
-0.1606616 -0.053924773 0.18535274 0.09771476 0.01021873 -0.10107177 -0.10648282 -0.17208755
-0.054728597 0.08566213 0.1418418 0.104075074 -0.17991464 -0.1076732 -0.014235459 0.20998777
0.047584314 -0.040501256 0.09872332 -0.057315595 -0.11388023 0.1632749 -0.0749706 -0.02134231
-0.17652434 0.15080176 0.16398974 0.078745715 -0.13415411 -0.1919975 -0.15125172 0.16575277
0.10524443 0.17884971 0.11279557 0.062204905 0.0008070999 -0.17804876 -0.17805295 -0.18258195
0.09849134 -0.09217599 -0.038038056 -0.113541245 -0.025081927 -0.12628981 -0.11910288 0.0798848
-0.045252547 0.1444997 -0.060659844 -0.17975642 -0.035826083 -0.120297536 -0.058558423 -0.21945894
00000000: 9b3c f03d cc1e 0c3e ed8d 99bd 841f 263e
00000010: f10e 84bd 0510 5d3c 0b6d efbd c8cf d73d
00000020: 5ec5 273e cf82 28be cb32 1d3e e1e4 eb3c
00000030: beab 193e 7990 893c ba0f a63d 6d43 5cbd
00000040: fcad 113e 6433 883c 2786 edbd 9904 ec3c
00000050: 08ba edbd 4b02 2fbd ab07 cfbd fd92 df3d
00000060: c62b 3dbe 76bc d5bd fe5f 80bd 38d5 00be
00000070: e165 223c 9ba7 4ebe 868a 2b3e c9f2 3bbe
00000080: 0fbd 1a3e 66e5 c73c 44e7 98bd 0611 e63d
00000090: ab58 f63c 6a88 2c3e e055 623c a649 90bd
000000a0: 19a0 253d f378 75bd 66a0 ac3d a979 2d3e
000000b0: 8289 d33d d6a5 d5bd d066 d63d 94f0 e43c
000000c0: fd4f b43d ca24 0ebe 981a 41be 1d3e 85bd
000000d0: f9b1 1cbe 624b 2f3e 4dba 8a3d e886 c73d
000000e0: 5c30 743d 5325 d0ba bee0 2b3e ca5c 09be
000000f0: 3bd1 8f3c 9042 11be e15a 603d 3c20 95bd
00000100: 4382 733d 2a93 01bd d0b0 373e 058d 03be
00000110: 6b07 f9bd 855c ecbd d4ab 433e 4181 953d
00000120: 4a12 463e 1d51 23be e130 3cbe f0d7 07be
00000130: 6ecc fbbd 61fc b93d bd55 b63d b16b 3a3e
00000140: 8a62 cfbd 49fd 0bbe b5ee 013e 1c40 a2bd
00000150: 7aba 173e 82f6 00bd 8195 093e f493 33be
00000160: 9fe9 e0bd 92dd aa3d 52b4 883d 4946 31bd
00000170: e6c2 103e 93fa 233e f414 06be 13aa b5bd
00000180: d792 533e 3e3b 84bd bb0a 78bd c051 32be
00000190: 9f3e c1bd a366 703d 7e58 e1bc ecf9 10be
000001a0: e82c e13c 78cd 04be 4188 37be 1d30 01be
000001b0: 72d8 40be 64ec fabd 5f77 423e 7331 9e3c
000001c0: b18e e43c 5bf9 5abe 7043 0bbe b938 8abd
000001d0: 7085 6d3c 1268 51be 290d d9bd 0d24 efbd
000001e0: c585 793c aab6 9bbd 7975 85bc aac7 06be
000001f0: 23ab e9bd 8b01 c9bd 1faf 72bd ac7d 27be
00000200: 91e3 2b3e 0744 1dbd 9a6b 373e f446 7d3d
00000210: f72e 48be e9c2 0a3e 1fb5 6bbd 3f2c 96bd
00000220: f5e3 41be 811e 74be bf90 5f3d ed70 48bd
00000230: 8406 bc3d 0fb3 25be d783 183e 1c1a 16be
00000240: 10de e2bc a7cf 4a3d e874 e53d cf9b 2b3e
00000250: 970c 473e 7a95 1fbe 9d5d 683d 8583 aabd
00000260: 9f3f 59bc 89a9 15be 9e5d 4a3e 836c 14be
00000270: e614 ef3d 01b7 be3d dcac 903d b9f6 bdbd
00000280: 152a 493e 85bf 813d b644 623d b915 34be
00000290: 6524 d13d b8e3 c6bc 045f b6bd 7a7b 483e
000002a0: 0ac2 453d c9ce c9bd e6f2 bfbd 6488 febb
000002b0: 2672 f83d 64fb 2cbd c2ce d1bd 9e15 afbd
000002c0: a896 20be b4c1 883d 6935 193e c9f9 49be
000002d0: 9dd3 123d dff0 d63d 284f 143d f7d1 9cbd
000002e0: 505a cb3d 9f51 c93d dc3a 983d e2c5 e9bc
000002f0: 67d9 67bd 0d20 663c 89e7 47bd b855 8ebd
00000300: d1fb fe3d d0f0 283e 3760 0fbd da21 72bd
00000310: c3b8 05bc 6ef7 77bc 0715 1b3d 36d0 373d
00000320: 7984 24be 39e0 5cbd 1ccd 3d3e ad1e c83d
00000330: 766c 273c b7fe cebd aa13 dabd b837 30be
00000340: 182b 60bd a06f af3d fa3e 113e 5025 d53d
00000350: 8b3b 38be c483 dcbd d83b 69bc 0907 573e
00000360: c5e7 423d a5e4 25bd 742f ca3d c2c3 6abd
00000370: 0a3a e9bd 8931 273e 308a 99bd 11d6 aebc
00000380: ccc2 34be c76b 1a3e edec 273e 6f45 a13d
00000390: b25f 09be fe9a 44be bbe1 1abe 18bb 293e
000003a0: 648a d73d 6124 373e 5d01 e73d 92ca 7e3d
000003b0: 8f93 533a 6a52 36be 8353 36be c3f6 3abe
000003c0: d4b5 c93d c4c6 bcbd cbcd 1bbd 5088 e8bd
000003d0: 9d78 cdbc 1e52 01be 36ec f3bd a49a a33d
000003e0: bc5a 39bd bbf7 133e 7576 78bd 1112 38be
000003f0: 5fbe 12bd 8e5e f6bd f5da 6fbd d8b9 60be

bias f4 [64]
-0.19991392 0.10398343 -0.19038221 -0.034436297 0.087763496 0.13964356 -0.068337396 0.057050053
0.04157772 0.12997714 -0.005585869 0.07808722 -0.13479434 -0.14631818 0.21484753 -0.15733068
-0.027010623 -0.019114275 0.20732248 -0.04599541 -0.15263887 -0.07498463 0.11040378 0.09821745
0.18343331 -0.043116834 0.09434741 -0.22806272 0.114433125 0.15518185 0.12682813 -0.11935322
-0.064447075 0.05451017 -0.15615852 -0.1826583 -0.20527668 0.02211623 0.13260394 0.05615219
0.0032745453 0.109599024 -0.1325534 0.012884031 -0.0834661 -0.12107923 0.18350175 -0.1550771
0.018537747 -0.17749971 -0.016557567 -0.09091391 0.07768384 -0.14128341 0.19285114 -0.20761871
0.1267604 -0.16565368 0.10347629 -0.08208599 0.0034479806 -0.061367847 0.14209545 0.06999697
00000000: 3cb6 4cbe 44f5 d43d 8ef3 42be 130d 0dbd
00000010: 59bd b33d b9fe 0e3e 7af4 8bbd 51ad 693d
00000020: 664d 2a3d ba18 053e aa09 b7bb 31ec 9f3d
00000030: 8707 0abe 6fd4 15be fe00 5c3e 4b1b 21be
00000040: 6245 ddbc 8a95 9cbc 584c 543e af65 3cbd
00000050: 5d4d 1cbe 8b91 99bd 611b e23d 3b26 c93d
00000060: f1d5 3b3e 479b 30bd 3739 c13d 4689 69be
00000070: ea5b ea3d fee7 1e3e 3cdf 013e 766f f4bd
00000080: d4fc 83bd 0e46 5f3d 05e8 1fbe c70a 3bbe
00000090: 0d34 52be 192d b53c 54c9 073e d7ff 653d
000000a0: c199 563b 7475 e03d 14bc 07be 8b17 533c
000000b0: 46f0 aabd 63f8 f7bd e2e7 3b3e 88cc 1ebe
000000c0: 79dc 973c 7cc2 35be bca3 87bc 1231 babd
000000d0: b518 9f3d 99ac 10be c57a 453e 009a 54be
000000e0: 7acd 013e 1ea1 29be 61eb d33d b31c a8bd
000000f0: 84f7 613b da5c 7bbd 7881 113e 925a 8f3d

weight f4 [32, 64, 3, 3]
-0.022495594 0.0009643395 -0.013904735 0.028588258 0.0062978845 -0.007528591 -0.014055891 0.028246934
-0.028427897 0.032526825 0.03634205 0.040201332 0.033552725 -0.017605325 0.05141315 -0.0022342582
0.013109318 0.006231131 0.020227045 0.007915826 -0.0064538014 0.00028211472 -0.05502982 -0.017708277
-0.050683055 0.00082295306 -0.052771665 -0.021772902 0.030712785 0.026637103 -0.021158414 -0.040697202
0.0026972685 0.011124935 -0.02339075 -0.018741513 -0.027387505 0.0126599055 0.034136545 -0.019884747
0.015740458 0.013262349 0.036806557 -0.0055556204 -0.0028447178 0.014851838 0.04403521 0.021616863
-0.023625221 0.039913848 0.02343189 -0.036555786 0.0077672363 -0.03412154 0.031450506 -0.023881456
0.005832335 0.017027225 -0.01626296 -0.053848427 0.0008248746 0.0069386973 0.03939529 -0.0132893175
0.022705592 -0.008036651 0.0021519111 0.056147225 0.037511624 -0.0013720542 0.023731733 0.024935845
0.0011729383 -0.019976543 -0.031542294 0.018896896 -0.0064067435 0.00525018 -0.024459139 0.0055198935
0.023502989 0.008872423 0.021500021 0.044271942 -0.0030775517 0.013227024 0.021294853 0.03500306
-0.01850202 0.04858447 0.050164014 -0.107946806 0.05351455 -0.066383004 0.12144208 -0.033269905
0.003227306 -0.05923697 -0.0045569474 -0.011893219 -0.043819446 -0.0170576 0.007168406 0.021623418
0.016383072 0.015006936 0.0135992495 -0.03391201 -0.04556643 0.008219126 0.026904931 0.01715552
-0.017934497 -0.009711991 -0.0062893457 -0.024852563 0.03145148 -0.016119525 -0.050702117 -0.006956757
-0.007098502 -0.01771633 0.0033571424 0.013067029 -0.04943424 -0.041578986 0.007179871 -0.023996985
-0.019406883 0.049169786 0.003233061 -0.006162907 -0.019406525 -0.018861216 0.037850056 -0.023584135
-0.034284346 -0.041411668 0.014819875 -0.030903542 -0.019638004 -0.009806303 -0.02109633 -0.021065155
0.029190008 -0.037087042 -0.004246914 -0.044730723 -0.03203131 0.026112689 -0.011133874 0.030591514
-0.022408213 -0.0108129475 -0.03926959 0.052634735 -0.04142018 0.038944487 0.013024058 0.028404003
0.034003366 -0.014038964 0.043722652 -0.017321913 0.0028572888 0.052966263 0.036878373 0.017824138
0.0015499723 -0.0046607177 0.04254965 0.0026838752 0.015540593 0.0018908507 0.044151373 -0.007877969
0.0018010006 0.043466482 0.02849372 -0.007015151 -0.048198897 -0.025128553 0.014321143 -0.014847048
0.0034265344 -0.051300623 0.0031099003 -0.044418357 0.006784575 0.044035334 0.003350516 0.048465315
-0.031897336 -0.037004728 -0.040683713 0.027820155 0.019621432 -0.036336746 0.016999124 0.038306706
-0.03916921 0.021233967 0.0029515226 -0.00039199638 0.023789493 0.035421427 0.009992357 0.049931556
-0.00701385 0.02701023 -0.049473118 0.006292097 -0.0009301937 0.031093031 0.0074036354 0.0056220093
-0.051555887 -0.022859963 0.045014527 0.025161026 0.023603063 -0.006408427 -0.01575222 -0.002739043
0.015811553 -0.025963487 0.015428589 0.01815753 -0.04896247 -0.009154643 -0.021614596 -0.028063841
0.0034656269 -0.012811466 0.048948213 -0.0051467507 0.028670387 -0.018509876 -0.008464439 0.02016114
0.046039663 0.030727554 -0.016720243 -0.008286129 -0.052876934 0.0010488877 -0.04458462 -0.012337979
0.017259357 -0.036047064 -0.05346473 0.012826738 0.028810965 -0.014020397 0.055967793 -0.008131902
00000000: ae48 b8bc bacb 7c3a b0d0 63bc ec31 ea3c
00000010: 7c5e ce3b 66b2 f6bb ae4a 66bc 1d66 e73c
00000020: 9fe1 e8bc d93a 053d 67db 143d 27aa 243d
00000030: 956e 093d 0b39 90bc 9896 523d a26c 12bb
00000040: 77c8 563c 842e cc3b 30b3 a53c 61b1 013c
00000050: 697a d3bb cce8 9339 f366 61bd f310 91bc
00000060: 0999 4fbd 72bb 573a 1a27 58bd 165d b2bc
00000070: 6199 fb3c 0e36 da3c 6954 adbc 1cb2 26bd
00000080: a8c4 303b 5c45 363c f59d bfbc cd87 99bc
00000090: c35b e0bc 7e6b 4f3c c3d2 0b3d 56e5 a2bc
000000a0: 22f2 803c 534a 593c 79c2 163d ec0b b6bb
000000b0: 726e 3abb 2055 733c 445e 343d d915 b13c
000000c0: ae89 c1bc b47c 233d 3cf4 bf3c 85bb 15bd
000000d0: 4d84 fe3b 07c3 0bbd 3fd2 003d 0ba3 c3bc
000000e0: 2c1d bf3b ae7c 8b3c e639 85bc 2b90 5cbd
000000f0: 663c 583a 035e e33b f55c 213d 70bb 59bc
00000100: 1401 ba3c 28ac 03bc 1407 0d3b a2fa 653d
00000110: caa5 193d 80d6 b3ba 0d69 c23c 4246 cc3c
00000120: 47bd 993a d9a5 a3bc 7e32 01bd aacd 9a3c
00000130: a9ef d1bb b409 ac3b 885e c8bc 39e0 b43b
00000140: 5789 c03c a45d 113c d020 b03c 7f56 353d
00000150: c0b0 49bb 29b6 583c 8b72 ae3c 5e5f 0f3d
00000160: 8c91 97bc 8200 473d c878 4d3d 3713 ddbd
00000170: 1332 5b3d d0f3 87bd a0b6 f83d 0646 08bd
00000180: 3681 533b 77a2 72bd 7252 95bb c7db 42bc
00000190: 057c 33bd 61bc 8bbc f3e4 ea3b 9823 b13c
000001a0: cb35 863c a7df 753c 63cf 5e3c 52e7 0abd
000001b0: dda3 3abd 83a9 063c bb67 dc3c bc89 8c3c
000001c0: 5eeb 92bc 0b1f 1fbc db16 cebb 9a97 cbbc
000001d0: 44d3 003d 180d 84bc 06ad 4fbd 82f5 e3bb
000001e0: 8d9a e8bb d621 91bc 8103 5c3b 1817 563c
000001f0: 8f7b 4abd ba4e 2abd 2045 eb3b 5395 c4bc
00000200: 2ffb 9ebc 4266 493d c3e1 533b 36f2 c9bb
00000210: 6ffa 9ebc d682 9abc a908 1b3d 8433 c1bc
00000220: be6d 0cbd 489f 29bd 10cf 723c 6d29 fdbc
00000230: e1df a0bc 9eaa 20bc 36d2 acbc d590 acbc
00000240: e21f ef3c 95e8 17bd b229 8bbb 9037 37bd
00000250: 4333 03bd 47ea d53c da6a 36bc 0e9b fa3c
00000260: 6e91 b7bc ca28 31bc 26d9 20bd 8597 573d
00000270: 35a8 29bd 4184 1f3d dc62 553c 83af e83c
00000280: 1d47 0b3d af03 66bc 8616 333d afe6 8dbc
00000290: 5a41 3b3b 27f3 583d c70d 173d ed03 923c
000002a0: 7128 cb3a efb8 98bb 8b48 2e3d f4e3 2f3b
000002b0: f99d 7e3c 6cd6 f73a 12d8 343d 9912 01bc
000002c0: 8d0f ec3a e909 323d a96b e93c 5adf e5bb
000002d0: 356c 45bd 65da cdbc 3aa3 6a3c 0841 73bc
000002e0: b58f 603b 9a20 52bd 78cf 4b3b 06f0 35bd
000002f0: 2451 de3b 655e 343d 5594 5b3b 9183 463d
00000300: c8a6 02bd 4592 17bd f7a3 26bd 18e7 e33c
00000310: 20bd a03c d7d5 14bd bf41 8b3c 7ee7 1c3d
00000320: e56f 20bd dbf2 ad3c 556e 413b dd84 cdb9
00000330: 2fe2 c23c 0f16 113d fcb6 233c 0885 4c3d
00000340: 70d4 e5bb 8f44 dd3c 53a4 4abd ef2d ce3b
00000350: 3ed8 73ba d0b6 fe3c 329a f23b d538 b83b
00000360: 442c 53bd d144 bbbc 2761 383d 7f1e ce3c
00000370: 365b c13c c8fd d1bb cd0a 81bc 8481 33bb
00000380: 3b87 813c 61b1 d4bc 31c8 7c3c 1abf 943c
00000390: df8c 48bd 5bfd 15bc 1811 b1bc 24e6 e5bc
000003a0: 921f 633b 2fe7 51bc ec7d 483d 13a6 a8bb
000003b0: 29de ea3c 06a2 97bc 6eae 0abc fa28 a53c
000003c0: 1694 3c3d 5ab8 fb3c e4f8 88bc 8bc2 07bc
000003d0: 7c95 58bd d57a 893a 5d9e 36bd 3c25 4abc
000003e0: 7f63 8d3c 16a6 13bd d5fd 5abd 3d27 523c
000003f0: f904 ec3c cfb5 65bc 7c3e 653d ab3b 05bc

bias f4 [32]
0.055484742 -0.026815731 -0.027463205 0.029877827 -0.030912448 0.027801584 0.04135826 -0.047206625
-0.0016221246 0.0026008459 0.0074464954 -0.024714524 0.0061915983 -0.01539401 0.0026680592 -0.03286462
0.037683528 -0.045982208 -0.03724639 0.0026783173 0.035896346 -0.039232604 -0.0193819 -0.023441112
-0.05115845 -0.04059888 0.03935568 -0.020089697 -0.031134205 0.017217344 0.0022327339 0.031598024
00000000: f843 633d aaac dbbc 84fa e0bc 58c2 f43c
00000010: 1a3c fdbc 26c0 e33c 4767 293d bc5b 41bd
00000020: 789d d4ba f472 2a3b bb01 f43b 1d76 cabc
00000030: e4e2 ca3b 2837 7cbc 9bda 2e3b 0d9d 06bd
00000040: 0b5a 1a3d d757 3cbd ac8f 18bd b586 2f3b
00000050: 0c08 133d 5eb2 20bd cac6 9ebc 9307 c0bc
00000060: 868b 51bd 034b 26bd 6c33 213d 2693 a4bc
00000070: 290d ffbc 630b 8d3c 0f53 123b ee6c 013d

weight f4 [9, 32, 3, 3]
0.06593882 0.061072964 -0.008439694 -0.01000715 0.0020800764 0.028414873 0.018082691 -0.027039662
0.06606659 -0.036152493 0.028791089 -0.013298288 0.005065186 -0.011245147 0.0065569826 -0.047133543
0.012468867 -0.040104017 0.057192646 -0.037086796 0.05684101 -0.05913672 -0.04960151 0.06666053
0.05639747 -0.053665686 -0.04143596 -0.04967435 0.018314129 -0.0058805733 0.015069507 0.036599465
0.037637394 0.007639098 0.01791885 -0.038110036 0.040839758 -0.07357608 -0.033926927 -0.064640574
-0.007193446 0.008562417 0.016072297 -0.05261992 -0.022423552 -0.026004242 0.037344936 -0.032941107
0.06441675 0.028691176 -0.036536288 0.009066737 0.02920149 0.06903224 -0.0038168402 -0.029290209
-0.026299194 0.037738778 0.04158021 -0.00854374 0.038385414 -0.045145556 -0.0587412 0.0043833596
0.0648879 0.04432352 0.002132983 -0.046686783 0.029183798 0.045888443 -0.06425753 -0.015618559
0.056400508 0.005991708 -0.049496762 -0.031800024 -0.013503235 0.015214781 0.01970471 -0.029653978
0.087113105 0.013287943 0.06415566 -0.014282349 0.059681907 0.043234676 -0.046635993 0.04652531
0.044715367 -0.04135371 0.036365055 -0.027754325 -0.03382199 -0.031458486 -0.056976758 0.037380673
-0.03609647 -0.04819565 0.046385784 -0.06517116 -0.021691626 -0.0064408258 0.031575628 -0.032708965
-0.047330275 -0.023324512 0.060988113 0.027996343 0.021738186 -0.05880797 -0.09121538 0.0145042855
-0.015492448 0.02454391 0.01273412 0.050332323 -0.039804634 0.04579463 0.07018006 0.050689865
0.031252515 0.0068169003 -0.017718472 -0.020572543 -0.033494003 -0.0065919664 0.023280805 0.031812757
-0.0014893623 -0.050999537 -0.019517666 -0.04819343 -0.078064024 -0.038706075 -0.021883616 -0.0029856584
0.040396523 -0.006065214 0.028600078 -0.005895617 -0.06282469 -0.021401908 -0.0015652216 -0.048430257
0.017233498 0.05014921 -0.022629146 0.045089267 -0.020467507 0.047006067 0.033942305 0.04003578
-0.023949426 0.023614505 -0.046176434 -0.0329318 0.01942444 -0.05865891 0.018738512 0.012384645
0.050110325 -0.049452815 0.026249336 0.06583886 -0.001827348 0.06776016 0.1446529 -0.0028277948
0.026995687 -0.008690326 -0.034750152 0.073218204 0.013433869 0.00043165404 0.0073618493 -0.012907019
0.049507994 0.020501072 0.024419285 0.00043030962 0.02574407 0.07246851 0.049792472 0.060547955
0.05508924 0.05979241 0.0010992505 -0.0159723 0.05565652 -0.010462916 0.007092441 -0.009912732
0.028136723 -0.019780457 -0.0061306977 0.03694714 -0.010853646 -0.0010891184 -0.02096598 0.046329718
-0.024924908 0.010885264 -0.023863124 0.031073533 -0.040664084 0.0037429791 -0.024122918 -0.066608384
-0.0058820797 0.010381504 -0.045084007 -0.04008894 0.029865274 -0.02082252 0.024289547 -0.03723906
-0.015995376 0.02633523 -0.060886063 0.0044545825 -0.043473497 -0.03143344 -0.0010833021 0.028904239
-0.037204828 -0.013468041 -0.01597833 -0.045130495 -0.015287113 -0.011127218 -0.045970447 -0.041773837
0.032194734 -0.053128764 -0.014047095 0.05901994 -0.033340372 -0.017944785 -0.026442034 -0.036462475
0.056679115 -0.022209486 0.0370614 -0.0012492777 -0.0025642742 0.025846697 0.059109543 -0.011915171
0.021271214 -0.015008982 0.047844186 -0.070983246 -0.038557664 -0.0017691143 -0.057221808 -0.06728243
00000000: ef0a 873d a527 7a3d a446 0abc 07f5 23bc
00000010: e451 083b 4fc6 e83c 2722 943c 4882 ddbc
00000020: ec4d 873d a314 14bd 4adb eb3c 10e1 59bc
00000030: dcf9 a53b 913d 38bc f5db d63b 1a0f 41bd
00000040: 384a 4c3c 1c44 24bd d642 6a3d 53e8 17bd
00000050: 1ed2 683d 5839 72bd f42a 4bbd 5185 883d
00000060: 0901 673d 8dd0 5bbd c1b8 29bd 5577 4bbd
00000070: 8307 963c d3b1 c0bb 18e6 763c 52e9 153d
00000080: ab29 1a3d 6651 fa3b 8dca 923c 4519 1cbd
00000090: 9747 273d 0eaf 96bd f6f6 0abd 4762 84bd
000000a0: 00b7 ebbb 6149 0c3c 0daa 833c fc87 57bd
000000b0: 99b1 b7bc d906 d5bc 01f7 183d 41ed 06bd
000000c0: eeec 833d c209 eb3c 13a7 15bd a78c 143c
000000d0: f737 ef3c c660 8d3d f423 7abb 05f2 efbc
000000e0: 6871 d7bc fa93 1a3d 0350 2a3d 0bfb 0bbc
000000f0: 063a 1d3d 8cea 38bd 9d9a 70bd 49a2 8f3b
00000100: f3e3 843d 948c 353d 84c9 0b3b a43a 3fbd
00000110: dc12 ef3c 85f5 3b3d 7499 83bd fce4 7fbc
00000120: 3804 673d 1756 c43b 1ebd 4abd be40 02bd
00000130: ac3c 5dbc 6b47 793c c66b a13c e6ec f2bc
00000140: 5b68 b23d acb5 593c 0b64 833d 8300 6abc
00000150: 0475 743d d816 313d 6205 3fbd 5391 3e3d
00000160: 7627 373d 8262 29bd 86f3 143d 0a5d e3bc
00000170: ed88 0abd 9dda 00bd 7660 69bd 7a1c 193d
00000180: e4d9 13bd cd68 45bd 05ff 3d3d 7578 85bd
00000190: a3b2 b1bc 900d d3bb 7255 013d d6f9 05bd
000001a0: 64dd 41bd 0c13 bfbc acce 793d 9658 e53c
000001b0: 4814 b23c a0e0 70bd 21cf babd 62a3 6d3c
000001c0: 09d4 7dbc 4f10 c93c c5a2 503c 4429 4e3d
000001d0: 2f0a 23bd 2693 3b3d 90ba 8f3d 2da0 4f3d
000001e0: a302 003d 4e60 df3b 5426 91bc c087 a8bc
000001f0: 0231 09bd 6c01 d8bb 63b7 be3c 184e 023d
00000200: b536 c3ba e4e4 50bd 83e3 9fbc 7966 45bd
00000210: 08e0 9fbd 438a 1ebd 4545 b3bc 09ab 43bb
00000220: d376 253d b4be c6bb b64a ea3c 0530 c1bb
00000230: 3baa 80bd 0e53 afbc 1f28 cdba ce5e 46bd
00000240: 442d 8d3c 4269 4d3d c260 b9bc 86af 383d
00000250: 79ab a7bc 6f89 403d 1607 0b3d 8ffc 233d
00000260: 9631 c4bc 3573 c13c 8023 3dbd 7fe3 06bd
00000270: 0120 9f3c 5344 70bd 8281 993c f7e8 4a3c
00000280: 7c40 4d3d 098f 4abd d908 d73c 86d6 863d
00000290: a083 efba d7c5 8a3d e41f 143e 8652 39bb
000002a0: 0f26 dd3c de61 0ebc 2d56 0ebd 6df3 953d
000002b0: bb19 5c3c a04f e239 ab3b f13b f677 53bc
000002c0: e5c8 4a3d ddf1 a73c f40a c83c 2e9b e139
000002d0: 3ae5 d23c 5f6a 943d 31f3 4b3d 2201 783d
000002e0: 41a5 613d e3e8 743d ba14 903a 57d8 82bc
000002f0: 17f8 633d a76c 2bbc b567 e83b 0369 22bc
00000300: fc7e e63c a00a a2bc 05e4 c8bb e255 173d
00000310: 7ed3 31bc c0c0 8eba d9c0 abbc 3bc4 3d3d
00000320: 522f ccbc 1b58 323c 997c c3bc ec8d fe3c
00000330: 628f 26bd c54c 753b 6d9d c5bc fa69 88bd
00000340: 76be c0bb 2f17 2a3c 02aa 38bd 4d34 24bd
00000350: 05a8 f43c fd93 aabc dffa c63c fc87 18bd
00000360: bc08 83bc fbbc d73c aa63 79bd bff7 913b
00000370: 4411 32bd 5ac0 00bd 96fd 8dba 95c8 ec3c
00000380: 1764 18bd 0fa9 5cbc fde4 82bc c1da 38bd
00000390: cd76 7abc ef4e 36bc 824b 3cbd 0b1b 2bbd
000003a0: a0de 033d 8c9d 59bd c925 66bc e5be 713d
000003b0: ea8f 08bd f100 93bc f79c d8bc ad59 15bd
000003c0: 5c28 683d abf0 b5bc b2cd 173d cebe a3ba
000003d0: 620d 28bb 74bc d33c d91c 723d d937 43bc
000003e0: f840 ae3c 3ce8 75bc 44f8 433d aa5f 91bd
000003f0: a4ee 1dbd a0e1 e7ba 6a61 6abd 5fcb 89bd

bias f4 [9]
0.07633648 0.017604373 0.062208842 0.032681838 -0.011762098 -0.0024741262 -0.003991797 0.04483961
0.030422365
00000000: 4d56 9c3d 0c37 903c b3ce 7e3d 64dd 053d
00000010: d1b5 40bc f324 22bb 9fcd 82bb bda9 373d
00000020: 5338 f93c
