.processed/1_logs_scale_3_crop_256/epoch_9_model.pth (torch_old, 93448 bytes, 6 tensors)

weight f4 [64, 1, 5, 5]
0.116917975 0.13637212 -0.075335376 0.16099095 -0.06438215 0.013579147 -0.117408305 0.10571378
0.16411981 -0.16390447 0.15427178 0.029919984 0.15261284 0.017540343 0.08183887 -0.05354527
0.14270264 0.017077332 -0.11518456 0.029119514 -0.115081005 -0.042410042 -0.10046496 0.10920489
-0.1841526 -0.104031764 -0.06320166 -0.12632711 0.009382845 -0.20187707 0.16753675 -0.18315457
0.15113734 0.024067502 -0.07468382 0.11272766 0.030477095 0.16974983 0.014096145 -0.070694774
0.04127376 -0.059048153 0.08468416 0.16937248 0.1033354 -0.10331621 0.10448719 0.027692514
0.08698529 -0.1388916 -0.18707839 -0.06415756 -0.15153722 0.173253 0.07006568 0.098100625
0.06088106 -0.0020661156 0.16928731 -0.13153166 0.017951615 -0.14306663 0.052354336 -0.073058546
0.060158428 -0.030890046 0.17995837 -0.1289557 -0.121331684 -0.11314313 0.19039138 0.07316913
0.19338499 -0.15834188 -0.18278795 -0.12906615 -0.12434146 0.08955094 0.09243443 0.18310869
-0.10173297 -0.13999408 0.13325953 -0.07965659 0.15437181 -0.03121306 0.13952939 -0.18459332
-0.11189403 0.08866227 0.07046624 -0.044529557 0.1441761 0.16537169 -0.1341576 -0.08551786
0.21066922 -0.06539343 -0.060170412 -0.1694189 -0.10219591 0.050437342 -0.037408084 -0.14917333
0.020609858 -0.13742736 -0.18677922 -0.13436548 -0.19627742 -0.13046256 0.18015537 0.010717571
0.01998038 -0.22187895 -0.14619829 -0.075215 0.008049631 -0.21136491 -0.11124132 -0.12263473
0.008028968 -0.082382955 -0.023296436 -0.13651885 -0.11841825 -0.09989785 -0.06026025 -0.16303833
0.16728766 -0.03938379 0.17800431 0.061877616 -0.19379808 0.13493095 -0.058676608 -0.074378476
-0.18777412 -0.2363436 0.05325228 -0.049386013 0.090300135 -0.16127552 0.1474907 -0.14547068
-0.027986543 0.048232142 0.1109495 0.1654818 0.19240329 -0.156274 0.05656867 -0.082407005
-0.012187777 -0.14431566 0.19817106 -0.1438519 0.11667841 0.093985416 0.071746394 -0.092081256
0.1956527 0.06514015 0.056252707 -0.17219475 0.101890214 -0.023912216 -0.087720945 0.195588
0.050028514 -0.09852445 -0.093690485 -0.0068631144 0.12219714 -0.04248618 -0.10150907 -0.08608699
-0.15838176 0.06625037 0.14824672 -0.19783892 0.034663606 0.10478548 0.03693548 -0.077175535
0.09819828 0.09818989 0.075318605 -0.027923979 -0.056098502 0.013550475 -0.048711874 -0.06979877
0.124735065 0.16352056 -0.035355743 -0.059224904 -0.008040655 -0.015546422 0.037464343 0.04515204
-0.16155826 -0.054348182 0.18520695 0.09745395 0.009878142 -0.10201948 -0.10701701 -0.17245597
-0.05412221 0.086173385 0.14084807 0.10304368 -0.18131715 -0.10806948 -0.01367386 0.20804866
0.0468685 -0.04163131 0.09881889 -0.05760885 -0.115119465 0.16284573 -0.07480285 -0.021059172
-0.17624334 0.15066381 0.16444647 0.07977894 -0.13344426 -0.19232102 -0.15183143 0.16605644
0.105258286 0.17832275 0.11148226 0.061470818 0.00037575208 -0.18145813 -0.17982115 -0.18304683
0.097833484 -0.09193613 -0.038554296 -0.11258477 -0.023900054 -0.12751517 -0.11885541 0.081267685
-0.04341981 0.14674704 -0.057496063 -0.17374077 -0.03885308 -0.113604575 -0.06364586 -0.21494293
00000000: b172 ef3d 22a5 0b3e 6f49 9abd d0da 243e
00000010: cada 83bd 127b 5e3c c473 f0bd 7780 d83d
00000020: 060f 283e 93d6 27be 6cf9 1d3e c11a f53c
00000030: 8a46 1c3e c4b0 8f3c 239b a73d 4952 5bbd
00000040: a420 123e c3e5 8b3c e2e5 ebbd 0c8c ee3c
00000050: 97af ebbd 27b6 2dbd 93c0 cdbd d0a6 df3d
00000060: 8092 3cbe 9b0e d5bd df6f 81bd e55b 01be
00000070: 81ba 193c ddb8 4ebe c18e 2b3e df8c 3bbe
00000080: bfc3 1a3e 3629 c53c d5f3 98bd c2dd e63d
00000090: 1aab f93c e6d2 2d3e 84f3 663c 6cc8 90bd
000000a0: ad0e 293d 7adc 71bd e46e ad3d fb6f 2d3e
000000b0: 83a1 d33d 7397 d3bd 61fd d53d 69db e23c
000000c0: 5825 b23d 9939 0ebe 7a91 3fbe 0a65 83bd
000000d0: 932c 1bbe 3c69 313e 987e 8f3d fbe8 c83d
000000e0: 6b5e 793d ab67 07bb a759 2d3e 3cb0 06be
000000f0: 440f 933c 0f80 12be 8071 563d b89f 95bd
00000100: af68 763d 1f0d fdbc 0247 383e f70c 04be
00000110: bf7c f8bd 96b7 e7bd f5f5 423e b2d9 953d
00000120: b706 463e 6024 22be c42c 3bbe eb29 04be
00000130: bca6 febd 7c66 b73d 434e bd3d d880 3b3e
00000140: 6059 d0bd 9c5a 0fbe 3075 083e ff22 a3bd
00000150: a513 1e3e 88b2 ffbc cbe0 0e3e 0806 3dbe
00000160: b228 e5bd 9094 b53d 9b50 903d a064 36bd
00000170: e6a2 133e 3257 293e 9c60 09be fd23 afbd
00000180: acb9 573e feec 85bd 4075 76bd 267c 2dbe
00000190: 174c d1bd 6397 4e3d 3839 19bd e5c0 18be
000001a0: 01d6 a83c c2b9 0cbe 0d43 3fbe 1b97 09be
000001b0: f3fc 48be fa97 05be a67a 383e c098 2f3c
000001c0: e5ad a33c 3c34 63be 01b5 15be 520a 9abd
000001d0: 99e2 033c 0b70 58be 7dd2 e3bd eb27 fbbd
000001e0: ef8b 033c 65b8 a8bd 2bd8 bebc 99cb 0bbe
000001f0: 4485 f2bd 3e97 ccbd 74d3 76bd 85f3 26be
00000200: 754d 2b3e e650 21bd c346 363e 6273 7d3d
00000210: 0173 46be 572b 0a3e e256 70bd be53 98bd
00000220: dc47 40be 0f04 72be 101f 5a3d fd48 4abd
00000230: 47ef b83d 6925 25be cd07 173e 44f6 14be
00000240: 0944 e5bc 118f 453d 7e39 e33d 1074 293e
00000250: 5e05 453e 4b06 20be 8db4 673d 01c5 a8bd
00000260: 3eaf 47bc 7cc7 13be 5bed 4a3e ea4d 13be
00000270: 17f5 ee3d 6d7b c03d c6ef 923d 1995 bcbd
00000280: 2e59 483e 3368 853d 3d69 663d d253 30be
00000290: d1ab d03d 8de3 c3bc 0aa7 b3bd 3848 483e
000002a0: b3ea 4c3d 30c7 c9bd cce0 bfbd fae3 e0bb
000002b0: 7e42 fa3d fd05 2ebd fde3 cfbd 604e b0bd
000002c0: d42e 22be 46ae 873d fdcd 173e 4996 4abe
000002d0: 6dfb 0d3d c599 d63d a849 173d 350e 9ebd
000002e0: 2e1c c93d c817 c93d a440 9a3d d4c0 e4bc
000002f0: 8bc7 65bd d002 5e3c 1a86 47bd a8f2 8ebd
00000300: 1975 ff3d ef71 273e 2fd1 10bd d095 72bd
00000310: f4bc 03bc 6cb6 7ebc 3674 193d 58f1 383d
00000320: 876f 25be 339c 5ebd e4a6 3d3e f095 c73d
00000330: eed7 213c 97ef d0bd bc2b dbbd 4c98 30be
00000340: 40af 5dbd ac7b b03d 7a3a 103e 9108 d33d
00000350: 34ab 39be 8853 ddbd 5308 60bc b50a 553e
00000360: 2ff9 3f3d 9885 2abd 8f61 ca3d 42f7 6bbd
00000370: c1c3 ebbd 08c1 263e 3d32 99bd 4984 acbc
00000380: 2279 34be 9d47 1a3e a864 283e 2463 a33d
00000390: 9da5 08be cdef 44be b379 1bbe b30a 2a3e
000003a0: a891 d73d 3d9a 363e d050 e43d d3c8 7b3d
000003b0: 9700 c539 29d0 39be 0923 38be a170 3bbe
000003c0: ec5c c83d 0249 bcbd 1ceb 1dbd d892 e6bd
000003d0: 0cca c3bc 5693 02be 776a f3bd ac6f a63d
000003e0: f8d8 31bd db44 163e fe80 6bbd 1ae9 31be
000003f0: 6824 1fbd 84a9 e8bd c358 82bd 001a 5cbe

bias f4 [64]
-0.20090961 0.105584756 -0.19322145 -0.042564064 0.07534686 0.13639653 -0.06625975 0.05817813
0.04234323 0.13189897 0.00075769844 0.07412282 -0.13591251 -0.14903632 0.20822336 -0.16195594
-0.026681373 -0.018234784 0.2085616 -0.04576532 -0.1541034 -0.081482306 0.10971713 0.10347192
0.1846575 -0.04405856 0.09510413 -0.22424394 0.10686728 0.15379503 0.12742501 -0.12194919
-0.064621225 0.053087592 -0.15496215 -0.18600757 -0.20657015 0.019900164 0.14430365 0.06062142
-0.00016074369 0.10840553 -0.13236904 0.007970308 -0.08427026 -0.12784645 0.18458846 -0.15611553
0.019526599 -0.1790923 -0.012880225 -0.09112804 0.08032749 -0.13614185 0.19936338 -0.19241664
0.12711078 -0.20513597 0.105477065 -0.08561188 0.0044013625 -0.06490522 0.14540602 0.06874308
00000000: 40bb 4dbe d23c d83d d8db 45be a857 2ebd
00000010: 744f 9a3d 88ab 0b3e 31b3 87bd 314c 6e3d
00000020: 1870 2d3d 8610 073e 48a0 463a b4cd 973d
00000030: a62c 0bbe fa9c 18be 8138 553e c7d7 25be
00000040: e592 dabc 1d61 95bc 2c91 553e 6b74 3bbd
00000050: 48cd 1dbe 32e0 a6bd 60b3 e03d 16e9 d33d
00000060: db16 3d3e c076 34bd f4c5 c23d 34a0 65be
00000070: 3cdd da3d 727c 1d3e b47b 023e 7fc0 f9bd
00000080: 2258 84bd 6072 593d 66ae 1ebe c578 3ebe
00000090: 2087 53be ab05 a33c 56c4 133e 2b4e 783d
000000a0: 4e8d 28b9 b803 de3d c08b 07be e595 023c
000000b0: e395 acbd 2eea 02be c204 3d3e c0dc 1fbe
000000c0: 3ff6 9f3c f963 37be 9407 53bc 56a1 babd
000000d0: bd82 a43d c568 0bbe ea25 4c3e de08 45be
000000e0: 5429 023e 2a0f 52be 5c04 d83d 4855 afbd
000000f0: 4e39 903b 07ed 84bd 51e5 143e 2cc9 8c3d

weight f4 [32, 64, 3, 3]
-0.022390638 0.0014838665 -0.013298356 0.029766383 0.007269484 -0.0057079187 -0.012863986 0.027351813
-0.02658928 0.03261298 0.0364214 0.040658493 0.0335417 -0.015319218 0.050066933 -0.0006796017
0.012212302 0.008142265 0.018453369 0.009630495 -0.008995438 0.0012549099 -0.05753639 -0.017124584
-0.051062066 0.0005288065 -0.05268274 -0.019291569 0.029601116 0.032479674 -0.02146017 -0.037558302
0.00015158758 0.011774488 -0.024386533 -0.017080233 -0.030484734 0.010123322 0.031117767 -0.023087902
0.012384198 0.010819136 0.03320077 -0.008710908 -0.0057443692 0.019381471 0.035160713 0.021973459
-0.028727105 0.034011003 0.014653067 -0.037546236 8.146208e-05 -0.031633742 0.029819397 -0.019372718
0.006643355 0.023390893 -0.017560039 -0.045116033 -0.005557061 0.015066782 0.034896668 -0.013452152
0.022551129 -0.007554 0.00079005695 0.0570437 0.0375032 0.00010055866 0.023555156 0.025059925
0.0010736164 -0.021718504 -0.03102857 0.017712232 -0.008065281 0.0045889416 -0.025736522 0.0048216437
0.02269796 0.0061568245 0.017456604 0.042940803 -0.007957014 0.011737034 0.022938043 0.033524428
-0.016796466 0.04727323 0.033544615 -0.065363586 0.028385444 -0.033620104 0.09013195 0.006963428
-0.0075211455 -0.02823994 -0.027197173 -0.012862155 -0.044976696 -0.01912923 0.0057225856 0.020733966
0.015388658 0.014939384 0.012422917 -0.03492708 -0.041912753 0.004048494 0.030431915 0.0133402
-0.016254243 -0.014901062 -0.0019305035 -0.03055234 0.03556134 -0.016332336 -0.050825387 -0.007157372
-0.007457806 -0.018600054 0.0025832623 0.012972247 -0.049803507 -0.041811038 0.0077228313 -0.027414829
-0.020953272 0.04449117 0.0029809044 -0.0073259505 -0.019017346 -0.021804065 0.03646255 -0.019407857
-0.036435332 -0.040737778 0.013173595 -0.032754127 -0.024381867 -0.0063076005 -0.025722608 -0.018965177
0.02958195 -0.03633697 -0.0042919614 -0.04313582 -0.030251374 0.025925139 -0.010447484 0.030521477
-0.021542173 -0.0122078555 -0.0292968 0.04646427 -0.034186564 0.030441558 0.018386832 0.025483985
0.035747856 -0.013642943 0.042956293 -0.016012147 0.0024736691 0.053971455 0.0379385 0.017908936
0.0020328602 -0.003877803 0.043089505 0.0033444841 0.016565539 0.0049879584 0.047837894 -0.006477325
-0.0008611027 0.043624233 0.027271666 -0.006774304 -0.050684866 -0.02217827 0.010401694 -0.01411205
-0.0016346496 -0.051142626 0.0021058493 -0.044649106 0.0062141577 0.044600863 0.0072656632 0.04645424
-0.028702794 -0.041426696 -0.041610606 0.02684608 0.019744767 -0.03562976 0.014301471 0.034989715
-0.04022672 0.019281004 0.0044133137 0.0011052281 0.02382673 0.034728035 0.010365369 0.04452239
-0.0065696584 0.023425903 -0.041028894 0.00046808532 0.0031815378 0.03005466 0.013421024 0.0054747574
-0.04912769 -0.023733893 0.04390161 0.02636184 0.0271786 -0.0068951873 -0.013079508 -0.0054688333
0.01593151 -0.026440693 0.015013023 0.018251227 -0.04867442 -0.010745591 -0.022418419 -0.029775033
0.0038103515 -0.013705463 0.04912723 -0.0056778057 0.02969491 -0.018774156 -0.008586113 0.019158749
0.045608398 0.030134318 -0.017542863 -0.013355507 -0.05186566 -0.0042137355 -0.04627172 -0.023542378
0.01608906 -0.040081915 -0.054959346 0.009380727 0.021535667 -0.013289286 0.051521216 -0.00909372
00000000: 926c b7bc 4c7e c23a 59e1 59bc a1d8 f33c
00000010: da34 ee3b 7e09 bbbb 78c3 52bc e910 e03c
00000020: c3d1 d9bc 3095 053d 9b2e 153d 8589 263d
00000030: 0663 093d 75fd 7abc fc12 4d3d 4c27 32ba
00000040: 1b16 483c 2267 053c 852b 973c 39c9 1d3c
00000050: 9a61 13bc ca7b a43a 47ab 6bbd db48 8cbc
00000060: 7526 51bd 9a9f 0a3a dbc9 57bd 5a09 9ebc
00000070: 0a7e f23c 6809 053d 3dcd afbc bcd6 19bd
00000080: 7bf3 1e39 c8e9 403c 44c6 c7bc d8eb 8bbc
00000090: 1fbb f9bc 4adc 253c b0ea fe3c d722 bdbc
000000a0: 17e7 4a3c bf42 313c 88fd 073d 32b8 0ebc
000000b0: 433b bcbb e4c5 9e3c ae04 103d af01 b43c
000000c0: 1b55 ebbc 1f4f 0b3d 6b13 703c 15ca 19bd
000000d0: 9fd6 aa38 6292 01bd cf47 f43c 89b3 9ebc
000000e0: 80b0 d93b 429e bf3c 12da 8fbc 97cb 38bd
000000f0: 0218 b6bb aada 763c cfef 0e3d 6a66 5cbc
00000100: 25bd b83c 8b87 f7bb d31b 4f3a a8a6 693d
00000110: f59c 193d 05e3 d238 bef6 c03c 794a cd3c
00000120: 97b8 8c3a 01eb b1bc a12f febc 3e19 913c
00000130: 3e24 04bc d55e 963b 66d5 d2bc e1fe 9d3b
00000140: 12f1 b93c 30bf c93b 2701 8f3c b2e2 2f3d
00000150: 235e 02bc b04c 403c 90e8 bb3c e950 093d
00000160: be98 89bc 93a1 413d 1466 093d 58dd 85bd
00000170: 9788 e83c 3cb5 09bd 1a97 b83d 782d e43b
00000180: f173 f6bb 7257 e7bc 9bcc debc cabb 52bc
00000190: 7c39 38bd e7b4 9cbc 8784 bb3b 47da a93c
000001a0: b620 7c3c 51c4 743c 7e89 4b3c b30f 0fbd
000001b0: b5ac 2bbd 3ba9 843b 5a4c f93c db90 5a3c
000001c0: 9e27 85bc 9523 74bc f308 fdba e748 fabc
000001d0: c5a8 113d 64cb 85bc 482e 50bd 6388 eabb
000001e0: 9c60 f4bb 245f 98bc f34b 293b 8c89 543c
000001f0: c3fe 4bbd 0d42 2bbd ce0f fd3b 1095 e0bc
00000200: 32a6 abbc 603c 363d 475b 433b 870e f0bb
00000210: 44ca 9bbc 709e b2bc c159 153d 3afd 9ebc
00000220: 373d 15bd a8dc 26bd 10d6 573c 3129 06bd
00000230: 7bbc c7bc fdaf cebb 38b8 d2bc dc5c 9bbc
00000240: d855 f23c 13d6 14bd 95a3 8cbb 30af 30bd
00000250: bbd1 f7bc f560 d43c ed2b 2bbc 2d08 fa3c
00000260: 3679 b0bc 7503 48bc d8ff efbc 5251 3e3d
00000270: 3607 0cbd 9360 f93c fb9f 963c cac3 d03c
00000280: 586c 123d a786 5fbc f0f2 2f3d e82b 83bc
00000290: 481d 223b 2c11 5d3d 6765 1b3d c3b5 923c
000002a0: bc39 053b bd22 7ebb 9f7e 303d 222f 5b3b
000002b0: 74b4 873c 0772 a33b abf1 433d be3f d4bb
000002c0: a0bb 61ba 53af 323d d468 df3c fbfa ddbb
000002d0: ef9a 4fbd 34af b5bc de6b 2a3c 3a36 67bc
000002e0: bd41 d6ba ee7a 51bd 4a02 0a3b fbe1 36bd
000002f0: 22a0 cb3b 65af 363d cd14 ee3b cd46 3e3d
00000300: 1f22 ebbc 0aaf 29bd e26f 2abd 4fec db3c
00000310: c7bf a13c 83f0 11bd b850 6a3c 6051 0f3d
00000320: c6c4 24bd 32f3 9d3c 8f9d 903b 4ddd 903a
00000330: 4630 c33c fc3e 0e3d 82d3 293c 1c5d 363d
00000340: 4a46 d7bb aee7 bf3c ea0d 28bd 5969 f539
00000350: 5981 503b 3135 f63c dbe3 5b3c 9865 b33b
00000360: 1e3a 49bd 956d c2bc 2dd2 333d c9f4 d73c
00000370: a8a5 de3c 06f1 e1bb 6f4b 56bc e633 b3bb
00000380: cc82 823c 279a d8bc 2ff9 753c 9983 953c
00000390: d45e 47bd 460e 30bc d5a6 b7bc c5ea f3bc
000003a0: 17b7 793b e18c 60bc a239 493d e30c babb
000003b0: bd42 f33c 42cc 99bc c5ac 0cbc cff2 9c3c
000003c0: dfcf 3a3d 3fdc f63c 0db6 8fbc 0ed1 5abc
000003d0: 1671 54bd 6013 8abb 6a87 3dbd f2db c0bc
000003e0: 34cd 833c ef2c 24bd 0d1d 61bd 9fb1 193c
000003f0: 916b b03c 4ebb 59bc e907 533d d3fd 14bc

bias f4 [32]
0.056720227 -0.02772016 -0.027700592 0.030850416 -0.028751014 0.029024946 0.041941218 -0.045119043
-0.0022418709 0.0029980806 0.0066927485 -0.022973243 0.00805825 -0.015568493 0.003550689 -0.03169166
0.037755862 -0.045031562 -0.030196603 0.0036854604 0.036086276 -0.044085268 -0.019247955 -0.02381544
-0.050991617 -0.042651277 0.04020998 -0.019499049 -0.03158756 0.016769623 0.00037051336 0.03419963
00000000: 7853 683d 6415 e3bc 5aec e2bc 03ba fc3c
00000010: 3f87 ebbc b9c5 ed3c 8eca 2b3d bfce 38bd
00000020: 5aec 12bb 727b 443b d84e db3b 6232 bcbc
00000030: c006 043c fe12 7fbc adb2 683b 1dcf 01bd
00000040: e4a5 1a3d 0473 38bd de5e f7bc c487 713b
00000050: 34cf 133d c192 34bd e3ad 9dbc 9918 c3bc
00000060: 96dc 50bd 1bb3 2ebd 38b3 243d 78bc 9fbc
00000070: f561 01bd 7360 893c 7641 c239 e914 0c3d

weight f4 [9, 32, 3, 3]
0.06323407 0.061020695 -0.007396869 -0.009191512 0.005246243 0.030770937 0.018062327 -0.023116188
0.06425059 -0.034061074 0.029402303 -0.013302282 0.006942182 -0.012392793 0.0054570753 -0.0455587
0.012089316 -0.040461414 0.05660967 -0.040703837 0.055727184 -0.06028062 -0.050723888 0.06653442
0.057968732 -0.054913722 -0.043086674 -0.05101399 0.01865409 -0.0060158186 0.014704955 0.038339697
0.037833594 0.0056735873 0.018675836 -0.038110405 0.041342128 -0.07754884 -0.036693487 -0.061950922
-0.005164022 0.010959254 0.018689359 -0.054818597 -0.021622034 -0.027464459 0.037229493 -0.033337347
0.064425334 0.030642465 -0.036746982 0.007508216 0.0300472 0.06898198 -0.0040958794 -0.024499223
-0.026295358 0.035375427 0.044136077 -0.0061538937 0.038296193 -0.042121384 -0.059908085 0.006381466
0.063168965 0.043571748 0.0010132524 -0.051468633 0.027721815 0.041705724 -0.07302158 -0.02690707
0.057381034 0.008647846 -0.050058205 -0.029945375 -0.012242568 0.015081351 0.021546071 -0.027289318
0.08669408 0.010873537 0.06469194 -0.014102737 0.05988456 0.044934124 -0.04698502 0.044767372
0.044110157 -0.04216968 0.038382966 -0.027329516 -0.03373934 -0.030235901 -0.05872765 0.03706103
-0.03382061 -0.04831157 0.04742322 -0.06573158 -0.01979776 -0.008213944 0.029494913 -0.036545753
-0.049156446 -0.025262801 0.05970255 0.0244151 0.026018215 -0.068027705 -0.09247008 0.015794711
-0.0133791035 0.027313074 0.0070128744 0.047725596 -0.043547828 0.044079047 0.07054437 0.050904337
0.030405324 0.0063778386 -0.018523192 -0.021934822 -0.033510994 -0.00750734 0.01865201 0.027900806
-0.0059662983 -0.055023815 -0.023959376 -0.05048487 -0.07486824 -0.036711257 -0.021510165 -0.0026116108
0.047416676 -0.0059097908 0.028374055 -0.008411142 -0.05968318 -0.022122134 -0.0020789588 -0.045748677
0.015508954 0.050238162 -0.022435697 0.043349184 -0.018890934 0.047829796 0.032668654 0.040459752
-0.023440532 0.024311267 -0.046288177 -0.03362843 0.018306127 -0.059608866 0.020200618 0.014543249
0.050442055 -0.047690436 0.020249363 0.066069305 -0.0056397635 0.06513881 0.1430695 -0.009462114
0.016582217 -0.01379802 -0.033959225 0.073000245 0.014213054 0.0018436406 0.009690065 -0.010656318
0.049566947 0.019474875 0.024591988 0.0007328998 0.031112637 0.073355 0.05040895 0.06267105
0.056499615 0.05691093 0.0011191571 -0.014813478 0.055550225 -0.01432163 -0.0014570842 -0.01378696
0.02253709 -0.023539534 -0.004613803 0.035499673 -0.013177854 -0.00848038 -0.022716682 0.049717247
-0.024895787 0.012350286 -0.021690529 0.028938651 -0.040796224 0.005752655 -0.024084466 -0.066447034
-0.00663816 0.010569107 -0.044968687 -0.042325363 0.029226443 -0.020975055 0.022186274 -0.03759786
-0.01647619 0.02597319 -0.062264614 0.004699825 -0.04170373 -0.030864174 -0.000868659 0.028173078
-0.036591623 -0.014544594 -0.01715175 -0.04672838 -0.016031208 -0.013576215 -0.046321325 -0.0419624
0.03118852 -0.051722396 -0.017570015 0.056010567 -0.03328207 -0.020705342 -0.025373923 -0.035258677
0.05530239 -0.021640245 0.036286704 0.004605237 -0.0058516464 0.023284525 0.052026913 -0.009526045
0.021770703 -0.0152249215 0.0512944 -0.07180857 -0.03849269 -0.0022588929 -0.060434587 -0.067094944
00000000: dd80 813d d6f0 793d 6f61 f2bb ff97 16bc
00000010: ade8 ab3b 5513 fc3c 72f7 933c 295e bdbc
00000020: d095 833d a083 0bbd 19dd f03c d1f1 59bc
00000030: 3e7b e33b 240b 4bbc 44d1 b23b c29b 3abd
00000040: 4412 463c deba 25bd 8bdf 673d 11b9 26bd
00000050: 3042 643d d0e8 76bd dac3 4fbd 3343 883d
00000060: 9f70 6d3d 36ed 60bd a77b 30bd 0cf4 50bd
00000070: 76d0 983c 5820 c5bb 0ded 703c 160a 1d3d
00000080: 66f7 1a3d 80e9 b93b 11fe 983c a819 1cbd
00000090: 5d56 293d edd1 9ebd e94b 16bd 40c0 7dbd
000000a0: f536 a9bb 718e 333c 6d1a 993c 7789 60bd
000000b0: b120 b1bc 25fd e0bc f47d 183d be8c 08bd
000000c0: 6ef1 833d e805 fb3c 0184 16bd 7b07 f63b
000000d0: 8c25 f63c 6d46 8d3d ba36 86bb 98b2 c8bc
000000e0: 5d69 d7bc d3e5 103d 08c8 343d 9aa6 c9bb
000000f0: 78dc 1c3d 7987 2cbd 2e62 75bd 9e1b d13b
00000100: bb5e 813d 4a78 323d 1ccf 843a c6d0 52bd
00000110: dc18 e33c 9fd3 2a3d 578c 95bd 376c dcbc
00000120: 6008 6b3d b2af 0d3c d509 4dbd 0150 f5bc
00000130: 0d95 48bc c517 773c 6381 b03c d98d dfbc
00000140: aa8c b13d eb26 323c 357d 843d 2b0f 67bc
00000150: 8349 753d d80c 383d 5d73 40bd fe5d 373d
00000160: daac 343d 1dba 2cbd 7537 1d3d 26e2 dfbc
00000170: 4332 0abd 48b1 f7bc 688c 70bd 4ecd 173d
00000180: 7b87 0abd 5ae2 45bd da3e 423d 479e 86bd
00000190: e92e a2bc c793 06bc 519f f13c 00b1 15bd
000001a0: 4558 49bd eff3 cebc a98a 743d 2d02 c83c
000001b0: 2724 d53c 1c52 8bbd f460 bdbd e963 813c
000001c0: 0734 5bbc abbf df3c 41cc e53b ea7b 433d
000001d0: 355f 32bd 3b8c 343d 9179 903d 1181 503d
000001e0: 9614 f93c 30fd d03b f3bd 97bc a8b0 b3bc
000001f0: d342 09bd 2200 f6bb 1acc 983c 3b90 e43c
00000200: f080 c3bb a760 61bd 7446 c4bc 39c9 4ebd
00000210: 8554 99bd 8b5e 16bd 1636 b0bc 8f27 2bbb
00000220: fd37 423d eba6 c1bb b570 e83c e3ce 09bc
00000230: 5a76 74bd 7a39 b5bc 243f 08bb f762 3bbd
00000240: 4519 7e3c 88c6 4d3d 11cb b7bc ea8e 313d
00000250: 29c1 9abc 2de9 433d 91cf 053d 20b9 253d
00000260: 5c06 c0bc 6c28 c73c ac98 3dbd f7bd 09bd
00000270: bbf6 953c 6d28 74bd c47b a53c cf46 6e3c
00000280: 549c 4e3d 0c57 43bd fee1 a53c 584f 873d
00000290: c4cd b8bb 7f67 853d d080 123e fc06 1bbc
000002a0: 6ed7 873c 1711 62bc d418 0bbd 2781 953d
000002b0: dfdd 683c 50a6 f13a 14c3 1e3c d697 2ebc
000002c0: b606 4b3d c689 9f3c 2375 c93c 1320 403a
000002d0: eedf fe3c 253b 963d 9d79 4e3d ae59 803d
000002e0: 246c 673d 6f1b 693d aeb0 923a 3bb4 72bc
000002f0: a288 633d 45a5 6abc a2fb beba b4e2 61bc
00000300: b49f b83c fbd5 c0bc 622f 97bb 1b68 113d
00000310: ede7 57bc 4bf1 0abc 5618 babc 50a4 4b3d
00000320: 40f2 cbbc db58 4a3c 56b0 b1bc c010 ed3c
00000330: f119 27bd c580 bc3b c94c c5bc 6215 88bd
00000340: ec84 d9bb 0c2a 2d3c 1631 38bd 5c5d 2dbd
00000350: 4b6c ef3c e1d3 abbc fdbf b53c 3700 1abd
00000360: 13f9 86bc bac5 d43c 2e09 7fbd fd00 9a3b
00000370: 88d1 2abd ddd6 fcbc b8b6 63ba 3acb e63c
00000380: 19e1 15bd 734c 6ebc d481 8cbc 4266 3fbd
00000390: e153 83bc c66e 5ebc 6ebb 3dbd c4e0 2bbd
000003a0: 117f ff3c ddda 53bd feee 8fbc 566b 653d
000003b0: c852 08bd 409e a9bc f9dc cfbc 676b 10bd
000003c0: c284 623d e246 b1bc 5ea1 143d 87e7 963b
000003d0: 2bbf bfbb 30bf be3c 2c1a 553d 2113 1cbc
000003e0: 7958 b23c f371 79bc 141a 523d 5f10 93bd
000003f0: 83aa 1dbd ef09 14bb 428a 77bd 1369 89bd

bias f4 [9]
0.0769223 0.01786175 0.061917894 0.033339243 -0.010223188 -0.0018451626 -0.004509859 0.045316353
0.03207682
00000000: 7089 9d3d ce52 923c 9e9d 7d3d bb8e 083d
00000010: 297f 27bc 62d9 f1ba 70c7 93bb a49d 393d
00000020: fc62 033d
