.processed/1_logs_scale_3_crop_256/epoch_28_model.pth (torch_old, 93458 bytes, 6 tensors)

weight f4 [64, 1, 5, 5]
0	0x3deffea3	0.1171849
1	0x3e0c7c65	0.13719328
2	0xbd9990c1	-0.07498313
3	0x3e2706cb	0.16311185
4	0xbd7736b7	-0.060354915
5	0x3c73ee43	0.014888349
6	0xbded4bf9	-0.11586756
7	0x3de09969	0.10966761
8	0x3e2db0da	0.16961995
9	0xbe23da41	-0.16001226
10	0x3e20fe7f	0.15722083
11	0x3d0daa93	0.0345865
12	0x3e24403f	0.16040133
13	0x3cabd5a3	0.020975893
14	0x3db027e4	0.086013585
15	0xbd4b003c	-0.04956077
16	0x3e173586	0.14766511
17	0x3ca6983c	0.020336263
18	0xbde6d6d7	-0.11271446
19	0x3d0053e3	0.03133
20	0xbddbc8d0	-0.10731661
21	0xbd1a5041	-0.037674192
22	0xbdc5fc42	-0.09667255
23	0x3de6cd7b	0.11269661
24	0xbe37cc10	-0.17948937
25	0xbdcd1dec	-0.10015473
26	0xbd70f2f4	-0.05882545
27	0xbdfad9ed	-0.12248597
28	0x3c5211a5	0.01282159
29	0xbe48d396	-0.19611964
30	0x3e3058c8	0.17221367
31	0xbe389d4e	-0.18028757
32	0x3e212208	0.15735638
33	0x3ce230ca	0.027611155
34	0xbd8e9fac	-0.06964049
35	0x3df193bc	0.11795756
36	0x3d100286	0.035158657
37	0x3e3b8aac	0.18314618
38	0x3c9a43bd	0.018831128
39	0xbd86dba1	-0.0658486
40	0x3d3d770f	0.04625612
41	0xbd6219e9	-0.05520049
42	0x3dbf47b3	0.093398474
43	0x3e31994d	0.17343636
44	0x3ddbd982	0.10734846
45	0xbdcc46d0	-0.09974444
46	0x3ddee8eb	0.10884269
47	0x3d07b70c	0.03313355
48	0x3db682a0	0.089116335
49	0xbe0a947d	-0.13533206
50	0xbe434ad4	-0.19071513
51	0xbd85180a	-0.06498726
52	0xbe1ff430	-0.15620494
53	0x3e2f9881	0.1714802
54	0x3d8b4904	0.06801036
55	0x3dc46320	0.09589219
56	0x3d75de41	0.06002641
57	0xbc100ab1	-0.0087916115
58	0x3e2dbaba	0.16965762
59	0xbe07b2fd	-0.13251872
60	0x3c608ad1	0.013704971
61	0xbe19fdb8	-0.15038192
62	0x3d330f7c	0.04371594
63	0xbd9b42b2	-0.075810805
64	0x3d7535f1	0.059865896
65	0xbd05f9d9	-0.032708976
66	0x3e3635b9	0.17793931
67	0xbe0e01c2	-0.13867858
68	0xbdfe306b	-0.12411579
69	0xbdeb3e21	-0.114864595
70	0x3e4393d6	0.19099364
71	0x3d924be9	0.07143385
72	0x3e4321b7	0.1905583
73	0xbe23dae7	-0.16001473
74	0xbe394526	-0.18092784
75	0xbdf33588	-0.11875445
76	0xbe014ac9	-0.12626185
77	0x3dcd6a66	0.100300595
78	0x3dddacd0	0.10823977
79	0x3e3598c7	0.17734061
80	0xbdf208ac	-0.1181806
81	0xbe2f50ed	-0.17120714
82	0x3e1cf561	0.1532798
83	0xbd9fa789	-0.07795627
84	0x3e24a4af	0.16078447
85	0xbcc834cf	-0.024439244
86	0x3e276bfa	0.16349784
87	0xbe7f3b1c	-0.24924892
88	0xbe0c6bf5	-0.13713057
89	0x3dc34c37	0.09536021
90	0x3d998d9c	0.07497713
91	0xbd0215e0	-0.031759143
92	0x3e1b38f6	0.15158448
93	0x3e40e61d	0.18837781
94	0xbe0faca1	-0.14030696
95	0xbda7a7b7	-0.08186286
96	0x3e6173d3	0.2201684
97	0xbd81e661	-0.063427694
98	0xbd2abd1d	-0.04168426
99	0xbe15cc11	-0.14628626
100	0xbdf5e51d	-0.120065905
101	0x3d018f98	0.031631082
102	0xbd6c1e6c	-0.0576462
103	0xbe2b984d	-0.16757317
104	0x3bc8b27e	0.0061247936
105	0xbe274170	-0.16333556
106	0xbe5dbacd	-0.2165329
107	0xbe288293	-0.1645606
108	0xbe67f96d	-0.22653742
109	0xbe1dce17	-0.15410648
110	0x3e1be978	0.1522578
111	0xbca38853	-0.019962465
112	0xbbfc05eb	-0.007691135
113	0xbe827f53	-0.25487766
114	0xbe329c43	-0.17442422
115	0xbdcd9728	-0.100385964
116	0xbc9fe08d	-0.019516254
117	0xbe7531d0	-0.23944783
118	0xbe13b5f0	-0.14424872
119	0xbe19e9f5	-0.15030654
120	0xbc2d6d38	-0.010585122
121	0xbdd1c0c9	-0.10241849
122	0xbd43417c	-0.047669873
123	0xbe25cada	-0.16190663
124	0xbe0deb17	-0.13859211
125	0xbdcb859b	-0.099375926
126	0xbd732f4c	-0.059371278
127	0xbe26e978	-0.16299999
128	0x3e29560f	0.16536735
129	0xbd28e2a0	-0.04123175
130	0x3e33a870	0.17544723
131	0x3d7f2db5	0.06229945
132	0xbe4cd881	-0.20004465
133	0x3e0835b1	0.13301732
134	0xbd811997	-0.06303709
135	0xbda05e9e	-0.07830547
136	0xbe48717b	-0.1957454
137	0xbe7edef1	-0.24889733
138	0x3d4f23de	0.050571315
139	0xbd5a3d83	-0.05328132
140	0x3db19738	0.08671421
141	0xbe28ddac	-0.16490811
142	0x3e141e93	0.14464788
143	0xbe1801b9	-0.14844407
144	0xbcf834c4	-0.030298598
145	0x3d28dda1	0.041226987
146	0x3ddc10d9	0.10745401
147	0x3e265f7a	0.16247359
148	0x3e442dfb	0.19158165
149	0xbe246974	-0.16055852
150	0x3d61e2a5	0.055147786
151	0xbdb0036f	-0.08594405
152	0xbc58099e	-0.013185887
153	0xbe145845	-0.14486797
154	0x3e4a6664	0.19765621
155	0xbe1764c5	-0.14784534
156	0x3debf413	0.11521163
157	0x3dc93235	0.09824029
158	0x3d8f95b3	0.07010975
159	0xbdbdf242	-0.09274723
160	0x3e496e85	0.19671066
161	0x3d88c891	0.0667888
162	0x3d81303d	0.06308029
163	0xbe357348	-0.17719758
164	0x3dd1094b	0.102068506
165	0xbcd3ad8b	-0.025839588
166	0xbdb98e90	-0.09060395
167	0x3e4f21f9	0.20227803
168	0x3d45314b	0.048142713
169	0xbdcb76fc	-0.09934804
170	0xbdbfc068	-0.093628705
171	0xbbfc07cb	-0.0076913587
172	0x3df86ea0	0.12130475
173	0xbd3396cc	-0.043844983
174	0xbdcfc95b	-0.101458274
175	0xbdab7f8d	-0.08373938
176	0xbe21abcb	-0.1578819
177	0x3d8e2439	0.06940503
178	0x3e19350d	0.14961644
179	0xbe4a743e	-0.19770905
180	0x3d0ed707	0.034873035
181	0x3ddb1e05	0.10699085
182	0x3d293085	0.041306037
183	0xbd9bf261	-0.076145895
184	0x3dcae4ba	0.099069074
185	0x3dcda3af	0.10040986
186	0x3da453a6	0.08023767
187	0xbcb4d41e	-0.022073802
188	0xbd5f7de4	-0.054563418
189	0x3c72b72a	0.0148141775
190	0xbd449633	-0.047994804
191	0xbd8e4ab5	-0.06947843
192	0x3e045b76	0.12925515
193	0x3e288f66	0.16460952
194	0xbd101ebe	-0.035185568
195	0xbd6eea39	-0.05832884
196	0xbbe35867	-0.0069380286
197	0xbc58b7f9	-0.013227456
198	0x3d1bf0fd	0.03807162
199	0x3d3c7583	0.046010505
200	0xbe22faf7	-0.15916048
201	0xbd5438d5	-0.05181201
202	0x3e41da5d	0.18930955
203	0x3dcafc2e	0.09911381
204	0x3c12bc5c	0.008956041
205	0xbdcd63ed	-0.10028825
206	0xbdd9209f	-0.10601925
207	0xbe3275e3	-0.17427783
208	0xbd53cb19	-0.05170736
209	0x3db4eacc	0.088338464
210	0x3e116931	0.14200284
211	0x3dd96f46	0.10616927
212	0xbe3eb7d7	-0.18624817
213	0xbdd6d521	-0.1048987
214	0xbc285ee5	-0.010276531
215	0x3e563eec	0.2092244
216	0x3d4e60f2	0.050385423
217	0xbd2b16a8	-0.041769654
218	0x3dd36471	0.10321892
219	0xbd5f3bdf	-0.054500457
220	0xbdeb7d2d	-0.11498485
221	0x3e282d9f	0.16423653
222	0xbd9746f2	-0.073865786
223	0xbc8c41d4	-0.017121233
224	0xbe3302c1	-0.1748152
225	0x3e1d6847	0.1537181
226	0x3e2908d3	0.16507272
227	0x3da3d312	0.07999243
228	0xbe0b9f7c	-0.13635057
229	0xbe47d3d4	-0.195144
230	0xbe1e73d1	-0.15473868
231	0x3e2954c8	0.16536248
232	0x3ddefe57	0.10888355
233	0x3e359029	0.17730774
234	0x3dd5d103	0.104402564
235	0x3d70fb15	0.0588332
236	0xbad59bd8	-0.0016297055
237	0xbe46a2fb	-0.1939811
238	0xbe4103ab	-0.18849055
239	0xbe3e7814	-0.18600494
240	0x3dc1061b	0.09424993
241	0xbdc1fc4d	-0.09471951
242	0xbd18507c	-0.03718613
243	0xbdeb510e	-0.11490069
244	0xbcbb506b	-0.022865495
245	0xbe0b1e89	-0.13585867
246	0xbdfbb4bd	-0.122903325
247	0x3da8a3a7	0.08234339
248	0xbd2e5eb4	-0.042570785
249	0x3e156018	0.14587438
250	0xbd4dc18c	-0.05023341
251	0xbe3983d5	-0.18116696
252	0xbd0745df	-0.03302562
253	0xbdf31b93	-0.11870494
254	0xbd8d2f27	-0.06893759
255	0xbe673d39	-0.22581948

bias f4 [64]
0	0xbe569b28	-0.20957625
1	0x3ddd106b	0.10794147
2	0xbe4cedbe	-0.20012566
3	0xbd519e53	-0.05117638
4	0x3d8ce09e	0.0687878
5	0x3e1146b3	0.14187126
6	0xbd92b53a	-0.071634725
7	0x3d69cb98	0.057078928
8	0x3d4ce7e6	0.050025843
9	0x3e185297	0.14875256
10	0x3be678ff	0.007033467
11	0x3dad3f40	0.084593296
12	0xbe1ab348	-0.15107453
13	0xbe186682	-0.14882854
14	0x3e6f3aa4	0.23362213
15	0xbe3a0e49	-0.18169512
16	0xbc85ddbf	-0.016341088
17	0xbc1082aa	-0.008820215
18	0x3e589354	0.21149951
19	0xbd580483	-0.052738678
20	0xbe224c27	-0.15849362
21	0xbd9ebf17	-0.07751291
22	0x3de46c24	0.11153439
23	0x3df30488	0.11866099
24	0x3e4c9638	0.19979179
25	0xbd23b276	-0.039965115
26	0x3dbe9e4c	0.093075365
27	0xbe7530a5	-0.23944338
28	0x3ddb2d19	0.10701961
29	0x3e3961e3	0.18103747
30	0x3e074e92	0.13213566
31	0xbdf63f15	-0.12023751
32	0xbd970a71	-0.073750384
33	0x3d702c8e	0.05863624
34	0xbe293754	-0.16525012
35	0xbe588b88	-0.21146977
36	0xbe5eef5f	-0.21771
37	0x3ce635a0	0.028101742
38	0x3e1b19d2	0.15146568
39	0x3d956344	0.07294324
40	0x3ae87d4b	0.0017737536
41	0x3e018c31	0.12651135
42	0xbe0e859b	-0.13918154
43	0x3bd506b0	0.0065010414
44	0xbdcf92a7	-0.101353936
45	0xbe105a92	-0.1409705
46	0x3e3eea44	0.18644053
47	0xbe1e446a	-0.15455785
48	0x3c73d3a1	0.014881999
49	0xbe44c4d2	-0.19215706
50	0xbade3884	-0.0016954099
51	0xbdc7252f	-0.09723889
52	0x3dabebb5	0.08394567
53	0xbe201a28	-0.15634978
54	0x3e70bbc6	0.2350913
55	0xbe4d6190	-0.20056748
56	0x3e0968ea	0.13418928
57	0xbe662d93	-0.22478323
58	0x3dd6dad8	0.1049096
59	0xbda3f893	-0.08006396
60	0xbacbdf06	-0.0015554137
61	0xbdc12678	-0.094311655
62	0x3e2335ff	0.15938567
63	0x3d917c6d	0.071038105

weight f4 [32, 64, 3, 3]
0	0xbcc724dd	-0.02430957
1	0xbbac912c	-0.0052663293
2	0xbc8f4a58	-0.017491505
3	0x3cff3008	0.031150833
4	0x3ba1d566	0.004938769
5	0xbbe13db5	-0.006873811
6	0xbc2e146c	-0.010624986
7	0x3cc72d0b	0.02431347
8	0xbce6322b	-0.028100094
9	0x3d249fd7	0.040191498
10	0x3d43aab6	0.047770225
11	0x3d3fcd0d	0.04682641
12	0x3d3631a7	0.044480946
13	0x3aa16dc4	0.0012316038
14	0x3d73d0f5	0.05952545
15	0x3bfd93ec	0.007738581
16	0x3cc22170	0.023697585
17	0x3c6f8253	0.014618474
18	0x3c38c642	0.011277737
19	0x3991fce6	0.0002784498
20	0xbc83bbec	-0.01608082
21	0xbbc3748e	-0.005964822
22	0xbd8da6d9	-0.06916589
23	0xbcca9200	-0.024727821
24	0xbd67164b	-0.056417745
25	0xbbbbfd05	-0.0057369494
26	0xbd6a1bd7	-0.057155456
27	0xbcb3052e	-0.021853056
28	0x3d0f0a4b	0.034921926
29	0x3d0d171d	0.03444587
30	0xbcfe6f7d	-0.031059021
31	0xbd34a69b	-0.0441042
32	0x3aa330cb	0.0012450455
33	0x3c5279c9	0.012846419
34	0xbc6b9de9	-0.01438091
35	0xbbd46984	-0.006482305
36	0xbd15fb56	-0.036616646
37	0x3b1a5b4d	0.0023552955
38	0x3cc4fd0b	0.024046442
39	0xbcf08dbc	-0.02936446
40	0x3bb61666	0.0055568693
41	0x3bc3f800	0.0059804916
42	0x3cea5360	0.02860421
43	0xbc618f2b	-0.013767044
44	0xbc0a1a1a	-0.008429075
45	0x3ccb0b5a	0.024785686
46	0x3d0ae31a	0.033907987
47	0x3d04cdc8	0.03242281
48	0xbcd3935b	-0.0258271
49	0x3c6871f1	0.014187322
50	0x3c2c0b16	0.01050069
51	0xbd18d3f1	-0.037311498
52	0xbc39d2be	-0.011341749
53	0xbcc480c5	-0.023987183
54	0x3cc7656e	0.024340358
55	0xbbeea72d	-0.0072831125
56	0xbb6bf934	-0.003600669
57	0x3bc1a0a4	0.0059090424
58	0xbc0c85a5	-0.008576785
59	0xbd236a01	-0.039896015
60	0xbba3202f	-0.004978202
61	0x3d1442b1	0.036196414
62	0x3d0fddab	0.03512351
63	0xbc13b77e	-0.009015916
64	0x3cfb52e7	0.03067918
65	0xba8c60d0	-0.0010710005
66	0x3be06e38	0.0068490766
67	0x3d885b3a	0.06658025
68	0x3d3194e1	0.043354873
69	0x3b94e460	0.004543826
70	0x3d04605d	0.03231846
71	0x3cfec0b8	0.031097755
72	0xbb20d42b	-0.0024540524
73	0xbd0278ff	-0.031853672
74	0xbd0b448e	-0.034000926
75	0x3c2aa0f6	0.010414353
76	0xbc954a06	-0.018223774
77	0x3baf6d19	0.0053535816
78	0xbcf45e0c	-0.029830001
79	0xba92be16	-0.0011195566
80	0x3cd744d4	0.026277937
81	0x3c87a503	0.016558176
82	0x3ca7a800	0.02046585
83	0x3d45229a	0.0481287
84	0xbc76e066	-0.015068149
85	0x3c93d7b2	0.018047187
86	0x3d1dc44b	0.038517278
87	0x3d2e58ab	0.04256503
88	0xbb1f53bd	-0.0024311387
89	0x3d67c85a	0.056587555
90	0x3c4080c4	0.01174945
91	0xbd617b0b	-0.055048984
92	0x3cf0dc6f	0.029401986
93	0xbcf737b0	-0.030177921
94	0x3e1d7875	0.15377982
95	0x3cb70d65	0.022345254
96	0xbc11a162	-0.008888574
97	0xbc3fd51a	-0.011708522
98	0xbd37d2c5	-0.04487874
99	0xbc4805aa	-0.012208382
100	0xbd34cd36	-0.044141017
101	0xbc9650c3	-0.018349057
102	0x3c6f4c8e	0.014605654
103	0x3cfbb9dd	0.030728275
104	0x3c83cda6	0.016089272
105	0x3c8f4c96	0.017492574
106	0x3c781b4c	0.015143227
107	0xbd0ebe41	-0.03484941
108	0xbd4c4d67	-0.049878504
109	0xbb61eab7	-0.0034472176
110	0x3cbc05f2	0.022952054
111	0x3bfe60d0	0.007763006
112	0xbd08f9ce	-0.033441357
113	0xbd022f05	-0.031783123
114	0xbc10b9f3	-0.008833396
115	0xbd385491	-0.045002524
116	0x3cc2aa5e	0.023762878
117	0xbccfe00b	-0.025375387
118	0xbd77e100	-0.06051731
119	0xbc846da7	-0.016165568
120	0xbc85d52d	-0.016337002
121	0xbcf12bfd	-0.02943992
122	0xbbde1c4b	-0.006778275
123	0x3bab0b4c	0.0052198526
124	0xbd73db56	-0.059535347
125	0xbd4c5722	-0.049887784
126	0x3c4e63c7	0.012597031
127	0xbcd05719	-0.025432156
128	0xbc3f446c	-0.011674028
129	0x3d3fb7f0	0.046806276
130	0x3bb4e88f	0.005520887
131	0xbacddc79	-0.0015705965
132	0xbc9ecab7	-0.019383771
133	0xbca3b9c8	-0.019986048
134	0x3d277909	0.040886912
135	0xbc8dd619	-0.017314004
136	0xbd2a4f97	-0.04157981
137	0xbd4416c8	-0.04787329
138	0x3c5a9655	0.013341506
139	0xbd38ebf4	-0.045146897
140	0xbd16cdce	-0.036817364
141	0xbbe33990	-0.006934352
142	0xbcf22830	-0.029560179
143	0xbca9dab6	-0.020734172
144	0x3ce71c62	0.028211776
145	0xbceb270a	-0.028705139
146	0x3a2ed5fa	0.0006669458
147	0xbd09e8d1	-0.033669297
148	0xbc88aec9	-0.016684907
149	0x3cdddf8e	0.027084138
150	0xbc2eefaa	-0.010677258
151	0x3ce67d4e	0.028135922
152	0xbcc459f4	-0.023968674
153	0xbb36df25	-0.0027904
154	0xbccf49f7	-0.025303824
155	0x3d384899	0.04499111
156	0xbd0d1ff3	-0.034454297
157	0x39ce996b	0.00039405687
158	0x3c021bc5	0.007941191
159	0x3d0edc8c	0.0348783
160	0x3c831c6c	0.016004764
161	0xbc9c68aa	-0.019092876
162	0x3d5278fe	0.05138492
163	0xbbb440d4	-0.005500892
164	0x3c25a472	0.010110008
165	0x3d7f9c49	0.062404905
166	0x3d4f3667	0.05058899
167	0x3ce50f12	0.027961288
168	0x3c2ea6e4	0.010659907
169	0x3c02fb2a	0.0079944525
170	0x3d4f46ad	0.05060451
171	0xbb3865e2	-0.0028136899
172	0x3c7946be	0.01521462
173	0x3c0ba372	0.008522855
174	0x3d73deca	0.05953864
175	0xbc5f21a5	-0.013618861
176	0xbc4eac90	-0.012614384
177	0x3d28a299	0.04117069
178	0x3b908a3b	0.0044110096
179	0xbcb84cc9	-0.022497552
180	0xbd5b59aa	-0.053552307
181	0xbd0154d2	-0.03157503
182	0x3b154674	0.002277759
183	0xbcae86de	-0.021304544
184	0xbc91c5b6	-0.017794471
185	0xbd7e6659	-0.062109325
186	0xbb548bc2	-0.0032431935
187	0xbd5dc261	-0.054140452
188	0x3b37744b	0.00279929
189	0x3d44c9ff	0.0480442
190	0x3badcbcb	0.005303835
191	0x3d1ff27f	0.03904962
192	0xbd0df37b	-0.03465603
193	0xbd78078a	-0.060554065
194	0xbd685ee9	-0.05673114
195	0x3cd1b79c	0.025600247
196	0x3c63be9b	0.013900424
197	0xbd2a01c7	-0.0415056
198	0x3c464983	0.0121024875
199	0x3d0061a9	0.031343136
200	0xbd1008b5	-0.035164554
201	0x3c79a671	0.015237437
202	0x3c9b3e00	0.018950462
203	0x3cd5a5b9	0.02608
204	0x3d00e90e	0.03147226
205	0x3d4174e4	0.047230616
206	0x3cab6d9b	0.020926287
207	0x3d48e7ec	0.049049303
208	0xbc4a226f	-0.012337311
209	0x3ccab416	0.024744075
210	0xbcebf73d	-0.028804416
211	0x3c15363e	0.009107171
212	0x3bff15fd	0.0077846036
213	0x3d0febb4	0.035136893
214	0x3c8a54d3	0.01688615
215	0x3c1ee8e4	0.00969908
216	0xbd212354	-0.039340332
217	0xbca6df84	-0.020370252
218	0x3d5bacfb	0.053631764
219	0x3d14a750	0.036292374
220	0x3d0fb7d6	0.03508743
221	0x3baa82a0	0.00520356
222	0xbbbde419	-0.0057950136
223	0xbb8eaff6	-0.0043544723
224	0x3ca957ac	0.020671688
225	0xbd0245e0	-0.03180492
226	0x3c323e08	0.010879047
227	0x3c2fdd11	0.010733859
228	0xbd6c0ba5	-0.057628293
229	0xbc9f909a	-0.019478131
230	0xbcfdb083	-0.030967956
231	0xbd11b383	-0.035571586
232	0xba2d7992	-0.00066175417
233	0xbc9ac839	-0.018894302
234	0x3d605922	0.054772504
235	0x3a2723b8	0.0006375867
236	0x3d1b7190	0.0379501
237	0xbc3cf705	-0.011533503
238	0xbb5a41f0	-0.0033303462
239	0x3cc7cd2f	0.024389831
240	0x3d4ce07f	0.050018784
241	0x3d092e41	0.033491377
242	0xbc5b078c	-0.0133684985
243	0xbc6fcc32	-0.014636086
244	0xbd791239	-0.060808394
245	0xbc4ecfa7	-0.01262275
246	0xbd677948	-0.056512147
247	0xbd314939	-0.04328272
248	0x3b5c2d5e	0.0033596377
249	0xbd3cef5f	-0.04612672
250	0xbd882ac6	-0.066487834
251	0x3b85d458	0.0040841512
252	0x3c15e14f	0.009147956
253	0xbc7ab136	-0.015301039
254	0x3d4a39f1	0.049371663
255	0xbc96e637	-0.018420322

bias f4 [32]
0	0x3d9076bc	0.07053897
1	0xbd34e1d1	-0.044160668
2	0xbd15fd66	-0.036618613
3	0x3d2cb8ec	0.042168543
4	0xbccfb48c	-0.025354646
5	0x3d1a30bf	0.037644144
6	0x3d3f0caf	0.046642955
7	0xbd514092	-0.05108697
8	0xb9760e04	-0.0002346561
9	0x3c29c66c	0.010362249
10	0xbc002ab0	-0.0078226775
11	0xbc5e07dc	-0.0135516785
12	0x3c55e48d	0.013054979
13	0xbc37d482	-0.011220099
14	0x3d0842ea	0.03326694
15	0xbcffbade	-0.031217035
16	0x3d5fc778	0.054633588
17	0xbd40bd13	-0.047055315
18	0xbd2adba1	-0.04171336
19	0x3c2ecb42	0.010668578
20	0x3d343128	0.04399219
21	0xbd2901a4	-0.04126133
22	0xbc9f7fc6	-0.019470107
23	0xbcbbb762	-0.022914592
24	0xbd5494c0	-0.05189967
25	0xbd3df4ef	-0.046376165
26	0x3d35eeb8	0.044417113
27	0xbcb31e50	-0.02186504
28	0xbd13cb40	-0.036082506
29	0x3ad9e4d4	0.0016623982
30	0xbc5336fb	-0.012891526
31	0x3cecb074	0.028892733

weight f4 [9, 32, 3, 3]
0	0x3d827682	0.0637026
1	0x3d84c926	0.064836785
2	0xbbf2a2c5	-0.0074046575
3	0xbc0017e8	-0.0078182
4	0x3c5c30d9	0.013439381
5	0x3d096a34	0.03354855
6	0x3c848b87	0.016179813
7	0xbca532b5	-0.02016578
8	0x3d83d2f9	0.06436724
9	0xbd21687b	-0.03940628
10	0x3cb9880c	0.02264788
11	0xbc9e4db2	-0.019324157
12	0x3ba10754	0.0049142037
13	0xbcb5f4aa	-0.022211391
14	0xba1f818a	-0.00060846715
15	0xbd3b334b	-0.045703214
16	0x3bfb7a49	0.0076744896
17	0xbd291868	-0.04128304
18	0x3d3f29a1	0.04667056
19	0xbd71cbd9	-0.059032295
20	0x3dc6f101	0.097139366
21	0xbd63f0ca	-0.055649556
22	0xbd87cab1	-0.06630457
23	0x3db57ad4	0.08861318
24	0x3d184780	0.037177563
25	0xbd3d7c33	-0.046261024
26	0xbd1c9a32	-0.03823299
27	0xbd4f56f5	-0.050620038
28	0x3ca1a6b1	0.019732805
29	0xbc0c8296	-0.008576056
30	0x3c4f9846	0.012670582
31	0x3d29595f	0.041344997
32	0x3d1b2435	0.037876327
33	0xb97113db	-0.00022990948
34	0x3c8f272b	0.017474731
35	0xbd36cbcd	-0.044627953
36	0x3cff5934	0.031170465
37	0xbda9d07d	-0.08291719
38	0xbd0dbf74	-0.034606412
39	0xbcd344b5	-0.025789598
40	0x3ce25c77	0.027631981
41	0x3d14705e	0.036239974
42	0xbbcab684	-0.0061863083
43	0xbd93b7aa	-0.072127655
44	0xbc93f17f	-0.01805949
45	0xbcf5b96b	-0.02999564
46	0x3d1407f4	0.036140397
47	0xbd1c642a	-0.03818146
48	0x3d71edf4	0.05906482
49	0x3cfae5c8	0.030627146
50	0xbd1fb2a3	-0.03898872
51	0x3b832a03	0.004002811
52	0x3ced2a2c	0.028950773
53	0x3d809ada	0.062795356
54	0x3c91554d	0.01774087
55	0xbc933868	-0.017971233
56	0xbcc930d4	-0.024559416
57	0x3a9d1a34	0.0011985959
58	0x3d2e7ab4	0.042597488
59	0xbc61295d	-0.013742772
60	0x3d0a72cf	0.033800896
61	0xbd1a18bf	-0.037621256
62	0xbd8db702	-0.069196716
63	0x3cadac36	0.02120028
64	0x3d83523b	0.064121686
65	0x3cf6a198	0.03010635
66	0x3c0f769a	0.008756304
67	0xbd928e11	-0.07156003
68	0x3cc50b81	0.024053337
69	0x3d808fb3	0.062774085
70	0xbda407d4	-0.080093056
71	0xbc0c16b0	-0.008550331
72	0x3d27130c	0.04078965
73	0x3c98f2c3	0.018670445
74	0xbd7a6435	-0.06113072
75	0xbc944e8a	-0.018103857
76	0x3b9fbc76	0.004874761
77	0x3c571932	0.013128566
78	0x3cb9ce69	0.022681432
79	0xbccd7151	-0.025078448
80	0x3d93fb9a	0.072257236
81	0x3b9a5077	0.004709299
82	0x3d84f885	0.06492714
83	0xbc9da3a0	-0.019243062
84	0x3d76bec5	0.060240526
85	0x3d4cba48	0.04998234
86	0xbd53876e	-0.051642828
87	0x3d0f534a	0.03499154
88	0x3d184390	0.037173808
89	0xbd564e84	-0.052320972
90	0x3d100c19	0.035167787
91	0xbd0a9757	-0.033835735
92	0xbd0919f9	-0.033472035
93	0xbcf4914b	-0.029854437
94	0xbd8998a6	-0.067185685
95	0x3d12fa20	0.03588307
96	0xbd073ed4	-0.033018902
97	0xbd4f9e81	-0.05068827
98	0x3d515679	0.051107857
99	0xbcb29b6b	-0.021802625
100	0x3c99b5a4	0.01876337
101	0x3c48da03	0.012259009
102	0x3ba27363	0.004957603
103	0xbd59d996	-0.05318602
104	0xbd911b09	-0.07085235
105	0xbcdf4888	-0.027256265
106	0x3d9cb20b	0.076511465
107	0x3cb214b0	0.02173838
108	0x3d3002ed	0.04297154
109	0xbdbdae08	-0.092617095
110	0xbdb7bf75	-0.089720644
111	0x3be949ea	0.007119407
112	0xbc43d913	-0.01195361
113	0x3d56fb5f	0.05248582
114	0xbbb294c2	-0.005449862
115	0x3cb89b41	0.022534968
116	0xbd2e3481	-0.04253054
117	0x3d0678db	0.0328301
118	0x3d82d91c	0.063890666
119	0x3d37f1fd	0.044908512
120	0x3cd2f47f	0.02575135
121	0x3b6076c7	0.0034250484
122	0xbcc81cf9	-0.024427878
123	0xbd0898e7	-0.033348944
124	0xbd3ea7fe	-0.04654693
125	0xbc99e07c	-0.0187838
126	0x3cd444fc	0.0259118
127	0x3cf6edf9	0.030142771
128	0xbc4c581b	-0.012472178
129	0xbd766efb	-0.060164433
130	0xbcadfd61	-0.021238985
131	0xbd53e89e	-0.051735513
132	0xbdb9dcf2	-0.09075345
133	0xbd2849ce	-0.04108601
134	0xbce7ec50	-0.028310925
135	0x3d09dca6	0.033657692
136	0x3d8f6b48	0.07002884
137	0xb89eff52	-7.581584e-05
138	0x3ccb6229	0.02482708
139	0xbb92384b	-0.004462277
140	0xbd4956b4	-0.049154952
141	0xbc366fd7	-0.011135063
142	0xbaab1984	-0.0013053869
143	0xbc0f140b	-0.008732806
144	0x3cb6c6ea	0.022311646
145	0x3d68bc53	0.056820225
146	0xbc90f769	-0.0176961
147	0x3d4185f5	0.047246892
148	0xbc28bc18	-0.010298751
149	0x3d5b5099	0.05354366
150	0x3d0bde99	0.034147833
151	0x3d3a6d87	0.04551461
152	0xbcafd791	-0.021465095
153	0x3d318e39	0.043348525
154	0xbd0fbc1f	-0.035091516
155	0xbcb0c6bf	-0.021579145
156	0x3ca4a97f	0.020100353
157	0xbd72dd7d	-0.05929326
158	0x3cde281c	0.027118735
159	0x3c95c0f9	0.018280493
160	0x3d4c0e3c	0.049818262
161	0xbd2a6bda	-0.04160676
162	0x3c79a8bc	0.015237983
163	0x3d82a7a6	0.06379633
164	0xbc9f932d	-0.019479359
165	0x3dc16d39	0.09444661
166	0x3e45f2ef	0.19330953
167	0xbce8f049	-0.02843489
168	0xbc1a533a	-0.009419257
169	0xbcd5276e	-0.026019778
170	0xbc2c6f1f	-0.01052454
171	0x3d93b0ac	0.07211432
172	0x3c1dc004	0.0096283
173	0x3b6aaf99	0.003581023
174	0x3bddb629	0.0067661
175	0xbcab506c	-0.020912372
176	0x3d36e0e5	0.04464807
177	0x3c45bf39	0.012069517
178	0x3ca445f4	0.020052887
179	0xbb5c2820	-0.0033593252
180	0x3c2befb1	0.010494159
181	0x3d51c147	0.051209714
182	0x3c55ca60	0.013048738
183	0x3d7f36f1	0.062308256
184	0x3d599932	0.053124614
185	0x3cf54bb2	0.02994332
186	0xba07b939	-0.00051774416
187	0xba8202ba	-0.0009919025
188	0x3d0ee75f	0.03488862
189	0x3cd7e5db	0.02635472
190	0x3c864cca	0.016394038
191	0xbbffa50f	-0.007801659
192	0x3cffc9ea	0.03122421
193	0xbca93614	-0.02065567
194	0xbc16d4b8	-0.00920599
195	0x3cdaf2eb	0.02672716
196	0xbcb1f26a	-0.021722037
197	0x3c320c5d	0.010867205
198	0xbcf029c0	-0.029316783
199	0x3d468138	0.048463076
200	0xbd06ed1f	-0.03294098
201	0x3c525a5c	0.012838926
202	0xbc972934	-0.018452264
203	0x3cd6be3b	0.026213756
204	0xbd66f749	-0.056388173
205	0xbbf7ce74	-0.007562453
206	0xbcad2415	-0.02113537
207	0xbd4128ad	-0.047157932
208	0x3c8128f8	0.015766606
209	0x3cea27a3	0.028583353
210	0xbd17af7a	-0.037032582
211	0xbd27e7cc	-0.040992543
212	0x3d1f09ce	0.03882771
213	0xbc844830	-0.016147703
214	0x3ca86e67	0.020560456
215	0xbce2698a	-0.027638216
216	0xbb27b570	-0.0025590323
217	0x3d00b85a	0.03142581
218	0xbd1b254e	-0.037877373
219	0x3ca82c9e	0.020529088
220	0xbcf24f3c	-0.029578798
221	0xbc82c8c6	-0.015964877
222	0x3bdb62ca	0.006695126
223	0x3cfdeaa6	0.030995678
224	0xbca5e7bf	-0.020252107
225	0xbb8e5981	-0.004344166
226	0xbc59a931	-0.013284967
227	0xbd16f923	-0.03685869
228	0xbc1838ae	-0.009290857
229	0xbc0f5a93	-0.008749622
230	0xbd1fa9ee	-0.038980417
231	0xbd0f3e7e	-0.034971707
232	0x3d113c22	0.035457738
233	0xbd34946a	-0.04408685
234	0xbd045f5e	-0.03231751
235	0x3d47b048	0.0487521
236	0xbd57666f	-0.052587923
237	0xbcd7ac43	-0.026327258
238	0xbc8043ed	-0.01565739
239	0xbcf2f1f0	-0.02965638
240	0x3d3f6016	0.046722494
241	0xbcddd2c4	-0.02707804
242	0x3d0d5dfa	0.03451345
243	0x3ad52873	0.0016262665
244	0xbcac68c6	-0.021046054
245	0x3c8ffd2a	0.017576773
246	0x3d847e85	0.06469444
247	0xbcd86a81	-0.026417973
248	0x3c99c7aa	0.018771965
249	0xbc5041de	-0.012711016
250	0x3d0d015b	0.03442512
251	0xbd547bfe	-0.05187606
252	0xbcd61111	-0.026131185
253	0x3c8a82bb	0.01690804
254	0xbd663005	-0.05619814
255	0xbd559ed9	-0.052153442

bias f4 [9]
0	0x3dbac43b	0.09119459
1	0x3cf86d35	0.030325511
2	0x3d9e05dd	0.07715962
3	0x3d6456b5	0.055746753
4	0x3bf4d33c	0.00747147
5	0x3c7b22cf	0.015328123
6	0x3c4f022a	0.012634793
7	0x3d7914a5	0.060810704
8	0x3d455911	0.048180643
