.processed/4_logs_scale_3_crop_256/epoch_24_model.pth (torch_old, 93448 bytes, 6 tensors)

weight f4 [64, 1, 5, 5]
0.13732399 0.15598263 -0.060222916 0.17107375 -0.05835415 0.03285384 -0.10414588 0.10922948
0.16976877 -0.15530252 0.16829729 0.03376809 0.15033741 0.023495324 0.08864507 -0.039973266
0.14896263 0.027549142 -0.09666521 0.04587538 -0.100918286 -0.029492373 -0.08238062 0.12950242
-0.16423532 -0.08949241 -0.05069239 -0.11557282 0.02334186 -0.19173135 0.18422592 -0.16397035
0.1598366 0.036555607 -0.059215743 0.12708022 0.040530656 0.17434177 0.028566647 -0.05553616
0.056848098 -0.047745094 0.094157316 0.18593864 0.12029069 -0.08722423 0.117855884 0.037130713
0.10354856 -0.1181422 -0.15220815 -0.037788678 -0.12508327 0.17275308 0.050887965 0.11160991
0.10355759 0.0413586 0.19858769 -0.13240135 0.042212654 -0.12784255 0.13538373 -0.04929346
0.076482475 -0.033447165 0.2243435 -0.088224724 -0.09371829 -0.09610778 0.16341187 0.061545122
0.23593652 -0.15825947 -0.14369275 -0.09574875 -0.06992753 0.064649455 0.0476326 0.077048086
-0.002571611 -0.14233674 0.16477151 -0.09129661 0.113656394 -0.053582646 0.20176768 -0.13070616
-0.060116515 0.056800224 0.073138334 -0.052250896 0.19361678 0.16713654 -0.12323677 -0.09878718
0.20563933 -0.06662405 -0.04080294 -0.10978131 -0.0689555 0.11544199 0.06288946 -0.1684553
0.035418473 -0.10270692 -0.15380146 0.004528034 -0.19249184 -0.06481959 0.26376083 0.15663406
0.2633765 -0.09809314 0.0047695036 -0.055002432 0.12181447 -0.058073547 -0.017318789 -0.012926808
0.066186756 -0.01599811 0.08989317 -0.09606897 -0.009475947 -0.10097971 -0.052305132 -0.14685807
0.16736004 -0.038825843 0.17405456 0.07347693 -0.18236224 0.14323784 -0.06006238 -0.07117376
-0.16769953 -0.22385503 0.06318454 -0.034001183 0.093005516 -0.15785623 0.15088618 -0.13902564
-0.010657254 0.035413943 0.09807342 0.13270985 0.18308993 -0.15436128 0.06452171 -0.07899864
-0.008577711 -0.14056595 0.19343981 -0.13380067 0.11837332 0.09046907 0.08789405 -0.09746432
0.19557011 0.06707528 0.065854274 -0.15989988 0.11337389 -0.015298529 -0.08076221 0.20056228
0.06417677 -0.08573469 -0.08926045 -0.0017467339 0.1125925 -0.035169054 -0.09339842 -0.06977978
-0.14960274 0.07332329 0.15499526 -0.18899786 0.045083705 0.10680421 0.037630513 -0.066820554
0.104643926 0.10442271 0.07873616 -0.025172878 -0.051866326 0.024080116 -0.039242268 -0.058240984
0.12922953 0.17458397 -0.02019621 -0.05229213 -0.0011202695 -0.012713671 0.044768896 0.053347547
-0.118018754 -0.019434549 0.21276593 0.09337461 0.009783023 -0.060088065 -0.07178997 -0.14689262
-0.022037266 0.10503742 0.14685619 0.1328772 -0.17503226 -0.09444751 0.0014356541 0.21082142
0.053503413 -0.027353534 0.11842069 -0.04515239 -0.10884709 0.17463176 -0.056252234 -0.0028213607
-0.14960656 0.103581004 0.07764432 0.044795398 -0.15188326 -0.14282045 -0.14733304 0.14778571
0.123263486 0.23666492 0.11672789 0.028021257 0.03303895 -0.19270197 -0.11991322 -0.1924127
0.09352589 -0.10304586 0.05918475 -0.1319525 0.04025327 -0.08071532 -0.088572755 0.047569998
0.011953681 0.1354597 -0.04206848 -0.13631767 -0.014261277 -0.090132944 -0.051284507 -0.18709229
00000000: a99e 0c3e e9b9 1f3e 4eac 76bd f52d 2f3e
00000010: c304 6fbd c091 063d 6f4a d5bd b5b3 df3d
00000020: ddd7 2d3e a007 1fbe 2056 2c3e 6950 0a3d
00000030: 0df2 193e 4479 c03c 8c8b b53d 02bb 23bd
00000040: a989 183e bdae e13c 69f8 c5bd d3e7 3b3d
00000050: 3fae cebd fd99 f1bc 2cb7 a8bd 489c 043e
00000060: 4e2d 28be cc47 b7bd d3a2 4fbd 71b1 ecbd
00000070: 6e37 bf3c 3955 44be b8a5 3c3e d8e7 27be
00000080: 35ac 233e 55bb 153d 358c 72bd 5121 023e
00000090: 7903 263d a686 323e 9a04 ea3c e279 63bd
000000a0: 8dd9 683d 5c90 43bd 8dd5 c03d b366 3e3e
000000b0: f75a f63d 9ea2 b2bd 6d5e f13d 6016 183d
000000c0: 4411 d43d 8af4 f1bd 74dc 1bbe 4dc8 1abd
000000d0: d415 00be 2fe6 303e e66f 503d bd93 e43d
000000e0: 0016 d43d a367 293d 925a 4b3e 3894 07be
000000f0: 2de7 2c3d 28e9 02be 08a2 0a3e f0e7 49bd
00000100: d8a2 9c3d e5ff 08bd 4dba 653e 2aaf b4bd
00000110: 60ef bfbd 28d4 c4bd 7155 273e bd16 7c3d
00000120: 5899 713e c50e 22be 3124 13be ec17 c4bd
00000130: 2a36 8fbd ef66 843d 671a 433d 63cb 9d3d
00000140: 7988 28bb b9c0 11be ddb9 283e b8f9 babd
00000150: afc4 e83d 7a79 5bbd 309c 4e3e d6d7 05be
00000160: bc3c 76bd 5aa7 683d 8dc9 953d 0905 56bd
00000170: 7a43 463e d725 2b3e 8f63 fcbd ef50 cabd
00000180: 1e93 523e 3172 88bd fc20 27bd 06d5 e0bd
00000190: 8b38 8dbd da6c ec3d 30cc 803d 8c7f 2cbe
000001a0: f612 113d 0158 d2bd 217e 1dbe e75f 943b
000001b0: 951c 45be 22c0 84bd a90b 873e ae64 203e
000001c0: 49d9 863e 0ee5 c8bd 7f49 9c3b 3b4a 61bd
000001d0: dd79 f93d 87de 6dbd 22e0 8dbc f6ca 53bc
000001e0: ec8c 873d 780e 83bc e919 b83d cfbf c4bd
000001f0: 0141 1bbc 73ce cebd e83d 56bd f661 16be
00000200: 6e60 2b3e d907 1fbd 5c3b 323e 137b 963d
00000210: 2bbd 3abe f1ac 123e f803 76bd 8cc3 91bd
00000220: 6db9 2bbe 413a 65be e566 813d d344 0bbd
00000230: ad79 be3d 10a5 21be e881 1a3e bd5c 0ebe
00000240: c39b 2ebc 360e 113d b8da c83d 17e5 073e
00000250: ed7b 3b3e e210 1ebe f523 843d 0aca a1bd
00000260: 8789 0cbc 85f0 0fbe 1615 463e 0b03 09be
00000270: b66d f23d d947 b93d cc01 b43d 609b c7bd
00000280: 8843 483e c45e 893d 9bde 863d cbbc 23be
00000290: 9230 e83d aea6 7abc a866 a5bd 3360 4d3e
000002a0: 1c6f 833d ab95 afbd 2fce b6bd aaf2 e4ba
000002b0: e696 e63d 6d0d 10bd ac47 bfbd b4e8 8ebd
000002c0: 7631 19be 852a 963d 14b7 1e3e a888 41be
000002d0: b1a9 383d 2abc da3d 7422 1a3d 37d9 88bd
000002e0: 8e4f d63d 93db d53d 6d40 a13d 5a37 cebc
000002f0: c971 54bd aa43 c53c 80bc 20bd 198e 6ebd
00000300: bf54 043e 24c6 323e 8672 a5bc 4630 56bd
00000310: 02d6 92ba 004d 50bc 975f 373d f582 5a3d
00000320: d1b3 f1bd 3435 9fbc 50df 593e 303b bf3d
00000330: f948 203c e71e 76bd 9f06 93bd 056b 16be
00000340: 7f87 b4bc dc1d d73d 7861 163e f610 083e
00000350: a83b 33be b26d c1bd 8f2c bc3a 92e1 573e
00000360: 6526 5b3d 8514 e0bc 8c86 f23d b6f1 38bd
00000370: 39eb debd abd2 323e be68 66bd 94e6 38bb
00000380: 7632 19be 4722 d43d fc03 9f3d 617b 373d
00000390: 4987 1bbe 863f 12be 79de 16be 2355 173e
000003a0: 9171 fc3d 4a58 723e 080f ef3d d68c e53c
000003b0: da53 073d aa53 45be 1095 f5bd d607 45be
000003c0: 808a bf3d b509 d3bd b56b 723d 8e1e 07be
000003d0: 9de0 243d 134e a5bd a265 b5bd c2d8 423d
000003e0: 5fd9 433c f3b5 0a3e 0050 2cbd dc96 0bbe
000003f0: 22a8 69bc 9f97 b8bd b40f 52bd 1f95 3fbe

bias f4 [64]
-0.17920457 0.098480366 -0.034168255 0.04221559 0.07637928 0.15318571 -0.025121653 0.051063184
0.07771002 0.12850302 0.018796261 0.0778435 -0.12208309 -0.1389822 0.17285915 -0.15439983
0.028585132 -0.014895988 0.19046606 -0.031196475 -0.098154254 -0.060046345 0.15013628 0.13138886
0.14924994 0.110315174 0.07783567 -0.20268649 0.07292729 0.09468569 0.13564691 -0.014141098
-0.045914162 0.027988441 -0.14046638 -0.15069275 -0.19619207 0.058415987 0.12091642 0.050453115
0.079927534 0.073182955 -0.117907785 -0.007088973 -0.043451123 0.012174335 0.16307718 0.00047188118
0.023637153 -0.17939593 -0.060919613 -0.076778404 0.07193854 -0.06255238 0.124588005 -0.166717
0.1469724 -0.105002984 0.09608854 0.02769228 -0.009419423 -0.026990948 0.11771998 0.04889402
00000000: 6781 37be 13b0 c93d 03f4 0bbd 41ea 2c3d
00000010: bd6c 9c3d b7dc 1c3e edcb cdbc a127 513d
00000020: 6e26 9f3d 4c96 033e 9efa 993c 6a6c 9f3d
00000030: b306 fabd 5a51 0ebe fd01 313e fd1a 1ebe
00000040: 5e2b ea3c 4d0e 74bc 8909 433e c08f ffbc
00000050: 1905 c9bd 28f3 75bd 53bd 193e cd8a 063e
00000060: fad4 183e ecec e13d 4f68 9f3d 0c8d 4fbe
00000070: e75a 953d 92ea c13d 06e7 0a3e 10b0 67bc
00000080: 7d10 3cbd 0448 e53c 6bd6 0fbe 334f 1abe
00000090: 93e6 48be 9a45 6f3d 07a3 f73d eda7 4e3d
000000a0: 0cb1 a33d f2e0 953d a379 f1bd 9e4a e8bb
000000b0: cef9 31bd dd76 473c b4fd 263e d266 f739
000000c0: b4a2 c13c 91b3 37be d886 79bd ff3d 9dbd
000000d0: 8354 933d 761b 80bd ff27 ff3d dcb7 2abe
000000e0: ef7f 163e ce0b d7bd 12ca c43d ecda e23c
000000f0: ec53 1abc 1f1c ddbc 2c17 f13d 1945 483d

weight f4 [32, 64, 3, 3]
-0.03551008 0.008765068 -0.014727659 0.035211932 0.01652202 0.0072510727 -0.007819057 0.032585308
-0.011607749 0.03288096 0.03888576 0.043741614 0.028432177 -0.021029878 0.04831446 -0.0039781462
0.0011650114 0.006729393 -0.01579227 0.025972838 0.05019807 -0.008841746 -0.0023479466 0.033377983
-0.06057222 0.04415764 -0.06037815 -0.013830099 0.07043858 0.055717643 0.0017580899 0.0034129126
0.020922406 0.032025974 -0.020447679 -0.03165601 -0.06665063 -0.007630292 0.092285015 -0.038826827
-0.0047557075 0.06445833 0.015123612 -0.04740883 -0.016605215 0.032701824 0.040776778 0.033218924
-0.019054973 0.00514801 0.010390468 -0.03096012 -0.007627176 -0.02889831 0.010938321 -0.01515386
0.02107228 -0.012981197 0.010079286 -0.021292862 -0.018605407 -0.0040128785 0.05026669 -0.013780076
0.019926183 -0.008928626 -0.0047185286 0.049610503 0.034443535 -0.0054461644 0.016905488 0.023872122
0.029528037 0.011283837 0.005544834 0.04508874 -0.008669942 -0.0026590829 -0.025553253 -0.035466198
0.049856517 5.009964e-05 -0.012319863 0.028125327 -0.03586029 -0.009695342 0.031430013 0.0030855918
-0.03712451 0.048099246 0.036347892 -0.017664855 0.045091193 -0.02014981 0.043436643 0.03907295
-0.023424765 -0.030962192 -0.03657841 -0.2233545 -0.19356647 0.011055499 0.14819774 -0.011117442
-0.11245651 -0.107164696 0.04127367 -0.025071025 -0.028218344 0.017782044 0.052025292 0.015572371
0.0030771997 -0.014320402 -0.017103348 -0.029478587 0.035052013 -0.0067887343 -0.036808696 0.0044697784
0.0030236728 -0.0051478595 0.014915165 0.022407468 -0.03918376 -0.03192049 -0.013329997 -0.044709623
-0.029735025 0.03733041 -0.011341167 -0.025617437 -0.025919113 -0.046723295 0.019402087 -0.039880462
0.026739953 -0.05569413 0.0140712345 0.0017854369 -0.02086808 -0.026542777 0.00915836 0.008039384
0.0885279 -0.00032831563 -0.0025000358 0.0012130985 0.024777617 0.027483469 0.02847922 0.071546786
-0.06392575 -0.0032997297 -0.016536588 0.042652804 -0.027738828 0.019930962 0.006470082 0.014939291
0.020553367 -0.02011105 0.04011797 -0.022755915 -0.0032300663 0.042810764 0.023487851 0.0049835686
-0.005264982 -0.018853243 0.030199308 0.005975619 0.014662061 0.020807814 0.039230082 -0.008074554
-0.005258454 0.028530158 0.018438334 -0.025006125 -0.011796112 0.009016968 0.031102639 0.011772466
0.03148556 -0.039443735 0.017215544 -0.01951006 0.023555348 0.046695005 0.023819065 0.039626304
-0.015042389 -0.028309206 -0.035532128 0.03383319 0.013472419 -0.03430428 -0.0062749693 -0.027330777
-0.10200112 0.018425526 0.02218054 0.029859016 0.0030991735 0.03366076 0.025802352 0.03194441
0.00017090532 0.00889767 -0.0592842 -0.0018964312 0.0025701101 0.04262435 0.002283877 0.008817511
-0.04240203 -0.034630496 0.0041353144 0.030362584 -0.018504824 -0.013694795 -0.0069771344 0.0076432703
-0.015716074 -0.009068181 0.039684318 0.05289861 -0.033860322 0.045088578 -0.020544223 0.0069225947
-0.03027319 -0.036398828 0.042546656 -0.011206006 0.027495759 -0.026145313 -0.012301925 0.008835017
0.03833335 0.021446723 -0.029579781 0.012807665 -0.021205518 0.0076602413 -0.029054213 -0.0068419008
0.021303507 -0.025907438 -0.03865742 0.010841844 0.012789796 -0.009533011 0.04391433 -0.03166656
00000000: 0573 11bd 5c9b 0f3c 474c 71bc 633a 103d
00000010: 3059 873c 689a ed3b 811b 00bc 2c78 053d
00000020: 6e2e 3ebc 2fae 063d ad46 1f3d 682a 333d
00000030: 99ea e83c da46 acbc 62e5 453d 1c5b 82bb
00000040: 4cb3 983a 3d82 dc3b ca5e 81bc fdc4 d43c
00000050: 7e9c 4d3d f8dc 10bc 02e0 19bb 5ab7 083d
00000060: 931a 78bd a4de 343d 144f 77bd a497 62bc
00000070: 1a42 903d 2f38 643d b56f e63a 2cab 5f3b
00000080: 7765 ab3c ab2d 033d e481 a7bc bba9 01bd
00000090: 2080 88bd 8707 fabb edff bc3d e108 1fbd
000000a0: c4d5 9bbb bb02 843d 07c9 773c c32f 42bd
000000b0: a907 88bc 59f2 053d 8d05 273d 9110 083d
000000c0: 2d19 9cbc a3b0 a83b c83c 2a3c 14a0 fdbc
000000d0: 64ed f9bb 26bc ecbc a536 333c e547 78bc
000000e0: c69f ac3c 16af 54bc 9723 253c 5e6e aebc
000000f0: 5e6a 98bc 777e 83bb 72e4 4d3d d4c5 61bc
00000100: 3c3c a33c 5f49 12bc e39d 9abb 6234 4b3d
00000110: aa14 0d3d bd75 b2bb 617d 8a3c 788f c33c
00000120: c8e4 f13c d8df 383c 70b1 b53b f8ae 383d
00000130: 5f0c 0ebc 0244 2ebb 0e55 d1bc 0145 11bd
00000140: 5936 4c3d 1422 5238 40d9 49bc 1667 e63c
00000150: 3de2 12bd 36d9 1ebc c2bc 003d a437 4a3b
00000160: df0f 18bd b703 453d 87e1 143d e3b5 90bc
00000170: 8bb1 383d 3711 a5bc 9fea 313d f50a 203d
00000180: 4be5 bfbc 6ca4 fdbc 3ed3 15bd 0bb7 64be
00000190: 4a36 46be 2022 353c 26c1 173e ee25 36bc
000001a0: 994f e6bd 2a79 dbbd 940e 293d c061 cdbc
000001b0: 282a e7bc a6ab 913c 7918 553d 4223 7f3c
000001c0: d8aa 493b 1fa0 6abc 521c 8cbc 147d f1bc
000001d0: b392 0f3d 0874 debb b7c4 16bd 3877 923b
000001e0: d028 463b 60af a8bb bc5e 743c de8f b73c
000001f0: 267f 20bd 0fbf 02bd 0f66 5abc 7021 37bd
00000200: de96 f3bc c6e7 183d 4dd0 39bc a9db d1bc
00000210: 5254 d4bc ed60 3fbd 20f1 9e3c b259 23bd
00000220: bf0d db3c 871f 64bd 098b 663c 5205 ea3a
00000230: 89f3 aabc 3d70 d9bc f20c 163c 9fb7 033c
00000240: 1e4e b53d c721 acb9 a4d7 23bb d500 9f3a
00000250: 6efa ca3c 0325 e13c 414d e93c 1f87 923d
00000260: 81eb 82bd 4740 58bb bd77 87bc b5b4 2e3d
00000270: 8a3c e3bc 4246 a33c fb02 d43b eec3 743c
00000280: 895f a83c eebf a4bc be52 243d 9d6a babc
00000290: 85af 53bb 575a 2f3d 9869 c03c 344d a33b
000002a0: df85 acbb 1e72 9abc 8a64 f73c 20cf c33b
000002b0: 2439 703c 2675 aa3c b9af 203d 224b 04bc
000002c0: 1c4f acbb 14b8 e93c fd0b 973c a5d9 ccbc
000002d0: 7b44 41bc e8bb 133c f6ca fe3c 4de1 403c
000002e0: 01f7 003d c18f 21bd 9d07 8d3c 90d3 9fbc
000002f0: 25f7 c03c 4343 3f3d 3320 c33c 314f 223d
00000300: 5a74 76bc b5e8 e7bc 238a 11bd ac94 0a3d
00000310: 6cbb 5c3c a582 0cbd 429e cdbb cbe4 dfbc
00000320: f7e5 d0bd 21f1 963c f7b3 b53c e59a f43c
00000330: 811b 4b3b dddf 093d 745f d33c 24d8 023d
00000340: 0c35 3339 88c7 113c fdd3 72bd ac91 f8ba
00000350: 4b6f 283b df96 2e3d 19ad 153b 5277 103c
00000360: c0ad 2dbd b5d8 0dbd 8881 873b f4ba f83c
00000370: 6e97 97bc 2260 60bc 72a0 e4bb 6674 fa3b
00000380: ffbe 80bc b592 14bc 068c 223d 36ac 583d
00000390: 1fb1 0abd cdae 383d 5c4c a8bc efd6 e23b
000003a0: 7bff f7bc f016 15bd 6745 2e3d 6599 37bc
000003b0: c93e e13c b22e d6bc 038e 49bc bfc0 103c
000003c0: 6e03 1d3d 0ab1 af3c 4c51 f2bc 3ed7 513c
000003d0: 32b7 adbc c302 fb3b 1a03 eebc 0632 e0bb
000003e0: b184 ae3c d63b d4bc 3e57 1ebd fda1 313c
000003f0: 4b8c 513c 5930 1cbc 83df 333d cbb4 01bd

bias f4 [32]
0.039585978 0.016634246 -0.031607315 0.016214523 0.016066542 0.017251546 0.024219908 -0.040638886
-0.0066316845 -0.011975749 0.02465937 -0.023822388 -0.0146829 -0.023623673 -0.01989154 -0.014434956
0.021406787 -0.040315393 -0.0027214084 -0.014089349 0.032481037 -0.012635289 -0.040964432 -0.014868871
-0.04393147 -0.022767464 0.02332426 -0.027486179 -0.009216238 0.024697512 0.004236973 0.030784752
00000000: e824 223d 8b44 883c ac76 01bd 52d4 843c
00000010: fb9d 833c 1d53 8d3c d468 c63c f674 26bd
00000020: 9a4e d9bb ef35 44bc 7202 ca3c 2b27 c3bc
00000030: 8c90 70bc 6f86 c1bc 95f3 a2bc 9880 6cbc
00000040: 495d af3c c121 25bd a859 32bb 03d7 66bc
00000050: d60a 053d 3e04 4fbc 52ca 27bd 919c 73bc
00000060: 7cf1 33bd d582 babc 8512 bf3c b22a e1bc
00000070: b4ff 16bc 7052 ca3c 4ed6 8a3b 4e30 fc3c

weight f4 [9, 32, 3, 3]
0.05095656 0.056359284 -0.0069361324 -0.022868514 0.0038612995 0.03038514 0.015146576 -0.026168194
0.063383676 -0.05497063 -0.0046799188 -0.02224933 0.10084482 0.022548635 -0.018457554 -0.03562086
0.030802494 -0.02956125 0.036933593 -0.019501017 0.023219788 -0.048695683 -0.030457469 0.05718478
0.05215792 -0.04495062 -0.028808068 -0.061193712 0.015053045 -0.010889292 0.0071159396 0.039140686
0.033805665 -0.001705546 0.015515316 -0.038935106 0.083442375 -0.07337478 0.04561879 0.09242612
0.08473793 0.06302426 -0.01289048 -0.096083015 -0.009050568 -0.033967998 0.028946623 -0.02785386
0.050761543 0.027059393 -0.032646306 0.009433609 0.03383023 0.07749057 -0.01902049 -0.042329524
-0.007555023 -0.002424699 0.03670289 -0.0066247876 0.033187065 -0.04711186 -0.06446007 0.0074029975
0.03705198 0.05513076 0.008139362 0.00061216607 0.03434707 0.041159954 -0.048930455 -0.023669608
0.037742294 -0.010036726 -0.040656485 -0.03960524 -0.01478562 0.0076219947 -0.0019415324 -0.043453414
0.06265815 -0.0019475749 0.05909697 -0.0132542765 0.049685534 0.031007558 -0.041897286 0.035395905
0.03856486 -0.0374611 0.060840223 0.0003360512 -0.011344371 -0.004492768 -0.027824115 0.063176766
-0.010880025 -0.02581307 0.06565461 -0.08986605 -0.050865646 0.019421503 0.021959426 -0.031203272
-0.019855062 -0.056791756 0.052523736 0.024771728 -0.039091878 -0.019983009 -0.04248868 0.02778037
-0.024089014 0.0092780795 0.044696394 0.04635696 -0.05320693 0.028824069 0.065335885 0.04991556
0.018727738 0.011926955 -0.01908203 -0.025048781 -0.023644615 -0.001707761 0.06580054 0.039583985
0.027299251 -0.022961333 0.011380978 -0.03726528 -0.03394419 0.007477406 0.005039793 0.005614898
0.033291128 0.0113442475 0.027977144 0.013117665 -0.040688217 0.000676251 0.03027494 -0.02971745
0.0026380036 0.041359745 -0.028850442 0.030769456 -0.02702003 0.040472057 0.026180688 0.03393575
-0.026484694 0.0027895677 -0.055662125 -0.011026813 0.0038184458 -0.051597074 0.020640451 -0.0037938016
0.093290776 -0.046463493 -0.008977765 0.024766915 0.03984136 -0.011446246 0.08153887 0.033027645
0.0030690471 -0.029966477 -0.03159071 0.06057931 0.00947636 -0.01104144 -0.004683072 -0.016309457
0.03960888 0.018578548 0.018835397 -0.007999623 0.013764916 0.056679945 0.034481455 0.04517152
0.024813704 0.037531715 -0.01593539 -0.03105683 0.038294766 0.0030639237 -0.011925814 0.014828124
0.027440738 -0.006030722 0.023269998 0.04735021 -0.00064457505 -0.006719563 -0.021463457 0.04316532
-0.010200978 0.019524476 -0.034395043 0.024280373 -0.038471706 0.015358432 -0.028406592 -0.043408383
0.013548042 0.029294662 -0.031187212 -0.022466522 0.049013026 -0.0021047709 0.0442522 -0.02417767
-0.0072992453 0.039215796 -0.043249138 0.025857767 -0.027947834 -0.020183247 0.020239968 0.042594373
-0.022008527 0.011769302 -0.0025363097 -0.035277747 -0.0031197665 0.012394529 -0.021459164 -0.023341075
0.054025803 -0.029450906 0.0060044285 0.07145537 -0.08166436 0.08630626 0.0862397 -0.043915473
-0.05069861 -0.091445304 -0.008061858 0.028477106 -0.046425946 0.026232066 0.027597578 -0.0209531
0.042946745 -0.014952255 0.03540439 -0.05505393 -0.020915143 0.03136112 -0.03134034 -0.05169295
00000000: d3b7 503d fed8 663d 7f48 e3bb c056 bbbc
00000010: db0d 7d3b 42ea f83c 5829 783c ae5e d6bc
00000020: 4dcf 813d e228 61bd 015a 99bb 3a44 b6bc
00000030: bb87 ce3d eab7 b83c 4c34 97bc 2ee7 11bd
00000040: 8355 fc3c 6f2a f2bc ae47 173d 99c0 9fbc
00000050: 6d37 be3c 2075 47bd f181 f9bc 963a 6a3d
00000060: 8ba3 553d 241e 38bd e6fe ebbc 42a6 7abd
00000070: 0ca1 763c 0069 32bc d42c e93b fc51 203d
00000080: cf77 0a3d a18c dfba f433 7e3c 6b7a 1fbd
00000090: d6e3 aa3d 8445 96bd c5da 3a3d e849 bd3d
000000a0: 148b ad3d dd12 813d 9832 53bc 2cc7 c4bd
000000b0: d548 14bc 0722 0bbd 7821 ed3c c72d e4bc
000000c0: 56eb 4f3d a9ab dd3c 22b8 05bd 6d8f 1a3c
000000d0: 9191 0a3d 60b3 9e3d dcd0 9bbc b961 2dbd
000000e0: 2090 f7bb b3e7 1ebb c555 163d bf14 d9bb
000000f0: 29ef 073d 5ef8 40bd a403 84bd d894 f23b
00000100: d1c3 173d cbd0 613d f55a 053c c579 203a
00000110: 83af 0c3d 5797 283d 4d6b 48bd c4e6 c1bc
00000120: aa97 1a3d 1471 24bc 6a87 26bd 1b39 22bd
00000130: 633f 72bc edc1 f93b 047b feba 35fc 31bd
00000140: eb52 803d c545 ffba aa0f 723d 7728 59bc
00000150: 0f83 4b3d 9003 fe3c 7d9c 2bbd 4cfb 103d
00000160: 30f6 1d3d cf70 19bd 9933 793d 0730 b039
00000170: bedd 39bc 1238 93bb 66ef e3bc d262 813d
00000180: 2242 32bc ee75 d3bc ed75 863d b10b b8bd
00000190: 7f58 50bd d819 9f3c 41e4 b33c 019e ffbc
000001a0: 15a7 a2bc 799e 68bd 2123 573d 14ee ca3c
000001b0: ce1e 20bd 68b3 a3bc 9c08 2ebd a993 e33c
000001c0: 5356 c5bc 1603 183c 9113 373d cce0 3d3d
000001d0: 83ef 59bd 7420 ec3c d2ce 853d 4274 4c3d
000001e0: ea6a 993c 4669 433c eb51 9cbc 1a33 cdbc
000001f0: 5ab2 c1bc f3d6 dfba 6fc2 863d d122 223d
00000200: aea2 df3c 6819 bcbc 4877 3a3c 7aa3 18bd
00000210: 1009 0bbd 0705 f53b d924 a53b 2efd b73b
00000220: 475c 083d 39dd 393c 5330 e53c 7aeb 563c
00000230: b0a8 26bd 7046 313a 2703 f83c 0272 f3bc
00000240: 5be2 2c3b d668 293d c357 ecbc 3a10 fc3c
00000250: 1c59 ddbc 07c6 253d e278 d63c 3700 0b3d
00000260: 6ef6 d8bc 2ed1 363b f8fd 63bd cea9 34bc
00000270: e43e 7a3b 7457 53bd 2a16 a93c 6ea1 78bb
00000280: 3c0f bf3d 8150 3ebd 7a17 13bc fce3 ca3c
00000290: b230 233d 0989 3bbc dafd a63d ff47 073d
000002a0: 1122 493b 427c f5bc 4365 01bd 0322 783d
000002b0: bc42 1b3c 28e7 34bc 7574 99bb 699b 85bc
000002c0: ec3c 223d 0a32 983c b14c 9a3c da10 03bc
000002d0: 3e86 613c 3b29 683d 6d3c 0d3d c605 393d
000002e0: 1c46 cb3c dbba 193d ef8a 82bc e56a febc
000002f0: f9da 1c3d 1ccc 483b 7d64 43bc a9f1 723c
00000300: 66cb e03c 5d9d c5bb b9a0 be3c 4bf2 413d
00000310: b3f8 28ba c82f dcbb 22d4 afbc 1ece 303d
00000320: 0122 27bc cbf1 9f3c d1e1 0cbd a2e7 c63c
00000330: 8294 1dbd efa1 7b3c f1b4 e8bc fdcc 31bd
00000340: 9bf8 5d3c 5cfb ef3c 537c ffbc b60b b8bc
00000350: e2c1 483d 32f0 09bb cb41 353d 4010 c6bc
00000360: 822e efbb bea0 203d 0226 31bd abd3 d33c
00000370: dbf2 e4bc 5657 a5bc 4ace a53c 7077 2e3d
00000380: 3a4b b4bc 08d4 403c 3738 26bb 667f 10bd
00000390: ff74 4cbb 6c12 4b3c 21cb afbc c835 bfbc
000003a0: 294a 5d3d 0743 f1bc ccc0 c43b 3157 923d
000003b0: a53f a7bd 56c1 b03d 719e b03d b6e0 33bd
000003c0: 58a9 4fbd ad47 bbbd e215 04bc d248 e93c
000003d0: 2229 3ebd a1e4 d63c 5114 e23c d6a5 abbc
000003e0: ede8 2f3d 4efa 74bc 3204 113d 3b80 61bd
000003f0: 3c56 abbc 8574 003d ba5e 00bd fdbb 53bd

bias f4 [9]
0.026914053 0.0009634922 0.025795214 0.006850341 -0.012466901 -0.008355622 -0.0088385055 0.0039240248
-0.0012253543
00000000: dc7a dc3c de92 7c3a 7c50 d33c d378 e03b
00000010: f941 4cbc 05e6 08bc 61cf 10bc 1b95 803b
00000020: 119c a0ba
