.processed/4_logs_scale_3_crop_256/epoch_28_model.pth (torch_old, 93448 bytes, 6 tensors)

weight f4 [64, 1, 5, 5]
00000000: b97f 0a3e c185 1e3e df93 7dbd 2da3 2d3e
00000010: 7c84 73bd de13 033d 224a d6bd 6cfe de3d
00000020: e085 2d3e 3b50 1fbe d7c7 2b3e 8195 0c3d
00000030: c721 1b3e 8138 c63c 49b1 b43d 8202 27bd
00000040: 5330 183e 730b e13c 904b c6bd 99b7 3b3d
00000050: f943 cfbd 847e f2bc fc5f a6bd f200 053e
00000060: 124f 27be a68d b8bd fec2 50bd 9e8f ecbd
00000070: 6666 c23c eb5e 43be d7ff 3b3e d007 28be
00000080: 14b0 233e b7f2 153d ff1a 70bd 48a8 013e
00000090: e60c 273d 6176 333e 1743 ed3c daeb 61bd
000000a0: d1ad 663d a911 43bd 9f91 c13d 068e 3e3e
000000b0: b48a f63d 3066 b4bd 63bc f03d 8ad3 153d
000000c0: 7352 d33d 7ef6 f1bd dbaa 12be 631e 13bd
000000d0: aa49 01be d26f 293e 0da3 3d3d a9de e63d
000000e0: 93c4 d03d d70d 133d 3821 453e f37e 07be
000000f0: 4a3d 2a3d 3c3f 07be 1cdb 073e a302 4dbd
00000100: 7e47 9f3d fbfd 06bd 5758 643e 970b bfbd
00000110: e537 babd ecaf b4bd 6864 1d3e 647d 663d
00000120: 252e 6e3e da89 1fbe 3fed 07be 914a b7bd
00000130: 6a03 89bd 73a4 713d 8ea6 233d 8e89 833d
00000140: fdcc e23b 9d4e 12be 90ab 283e de41 c2bd
00000150: 9ffd d93d f785 54bd 6cd7 4f3e 05d6 06be
00000160: 074a 7fbd b725 5d3d 7d1e 953d 549e 62bd
00000170: 69da 453e 7dab 2a3e dd62 fbbd 4197 cabd
00000180: 35f4 4e3e 1b77 89bd fe19 13bd 0ab7 d3bd
00000190: 91e2 76bd 39ff e73d 2f99 853d dec3 27be
000001a0: e4e5 1b3d 23bc dfbd 2f7a 2bbe b695 35bb
000001b0: b319 48be 89cf 6dbd 8b5d 813e c631 1c3e
000001c0: c0c0 893e 1052 bdbd bc10 263c 9863 93bd
000001d0: f499 e43d 79a3 8dbd 3d1b 85bc f6e6 fabb
000001e0: 7fef 643d 8ad4 bcbc 9a19 a13d 077d babd
000001f0: fef7 433b a496 c9bd baac 48bd 44a4 12be
00000200: 65a6 2f3e 4174 16bd f937 323e bdd7 953d
00000210: 6bf8 3dbe 500b 173e 3eec 70bd 80a8 97bd
00000220: a942 33be c7ca 71be 907b 833d d048 02bd
00000230: 4ca6 c33d 0a50 1fbe 8f1d 1a3e f172 09be
00000240: 943e 87bb b8f9 f83c b545 be3d 884b ff3d
00000250: 5475 393e bb88 1bbe 17cd 823d 698b a5bd
00000260: 0135 27bc b951 10be fb2c 453e 7c4c 09be
00000270: 21fc ef3d 42e5 b73d aa68 b33d 45a0 c7bd
00000280: 1028 483e 752b 893d 14f1 893d d671 24be
00000290: 12bf e73d 6051 80bc d4af a6bd c24d 4d3e
000002a0: 0ca3 813d d1bb adbd 82df b6bd e7c6 43bb
000002b0: 48a8 e23d b324 10bd 0ee8 bcbd a103 91bd
000002c0: b8f7 19be c260 953d ee5c 1e3e 4eb0 41be
000002d0: cd55 343d d19d d93d 30cb 183d 38db 89bd
000002e0: 685a d53d 63cd d33d 80db a03d 54ee cdbc
000002f0: 4149 57bd b0cf c13c 8a49 25bd 42ae 70bd
00000300: fb0c 043e d635 323e 33e0 a8bc 0bf2 5abd
00000310: 374b 00bb d7c9 5abc 70cd 343d 88a2 583d
00000320: 6a81 ecbd 1fd4 8fbc 438e 563e 243d b53d
00000330: 0b9b dd3b eed5 6fbd 5a46 8ebd e5f4 15be
00000340: 654b b5bc 0473 d53d f09f 143e 47a2 093e
00000350: ebff 33be d219 bdbd d20e 4e3b de1f 523e
00000360: e23d 563d 069b d4bc 543d f83d 83f7 2cbd
00000370: 346a e2bd eca4 303e 473b 64bd 51fc 4e39
00000380: 4e82 12be b4c0 a53d 50cf 4f3d 909b f73c
00000390: dd2d 1bbe 22ec 0bbe 0f1a 0cbe 8d04 153e
000003a0: 998b ff3d 98cd 783e 1e11 e73d 3053 f63c
000003b0: 7955 1c3d da1b 4fbe b7df f8bd d3f1 48be
000003c0: 3b9b b63d 5d17 d1bd 30ba 7e3d 7eda 08be
000003d0: fad8 343d dba3 92bd 06d6 b2bd 1d1a 1c3d
000003e0: b7da 473c 5ca1 053e 11f9 12bd 6a1c 08be
000003f0: d247 28bc 571c b9bd 31f6 50bd ae16 3dbe
0.13525285 0.1548071 -0.0619086 0.16956778 -0.05945252 0.03200137 -0.104633585 0.10888371
0.169456 -0.15557949 0.16775452 0.034322266 0.15149604 0.024196865 0.08822877 -0.040773876
0.14862184 0.02747128 -0.09682381 0.04582939 -0.10120387 -0.029601343 -0.08123776 0.12988642
-0.16338757 -0.09011392 -0.05096721 -0.1155083 0.023730468 -0.19079177 0.18359314 -0.1640923
0.15985137 0.036608424 -0.058619495 0.1266185 0.040783785 0.17525627 0.028962655 -0.055156566
0.056318108 -0.047624264 0.09451603 0.18608865 0.12038174 -0.08808553 0.11754682 0.036578692
0.1031846 -0.11814593 -0.14322989 -0.03591765 -0.12625757 0.16546562 0.046298075 0.11272938
0.101937436 0.03590187 0.19250953 -0.13232021 0.041562356 -0.13207716 0.13267177 -0.050051343
0.07777308 -0.03295706 0.22299324 -0.093283825 -0.09092692 -0.08822617 0.15370333 0.056271926
0.2325979 -0.1557993 -0.13274096 -0.08949769 -0.06690104 0.05899472 0.03995376 0.06422721
0.006921409 -0.14287801 0.16471696 -0.094852194 0.106440775 -0.05188557 0.2029702 -0.1316758
-0.062326457 0.053991046 0.07281206 -0.055326775 0.19321598 0.1666698 -0.12274716 -0.09892131
0.20210345 -0.06712171 -0.03591346 -0.10337646 -0.060274664 0.11327977 0.06523358 -0.16383311
0.038061038 -0.10924556 -0.16745828 -0.0027707643 -0.19541053 -0.05805925 0.2526668 0.15253362
0.2690487 -0.09244168 0.010135826 -0.071967304 0.11162177 -0.069159456 -0.01624834 -0.007656927
0.055892464 -0.023050565 0.07866211 -0.09105878 0.0029902454 -0.098431855 -0.04899285 -0.14320475
0.17153318 -0.036731962 0.17404164 0.073165394 -0.18551795 0.14750409 -0.058819048 -0.07405186
-0.17505898 -0.2361251 0.06420052 -0.03180772 0.09553203 -0.15557876 0.15050338 -0.13422753
-0.004127333 0.030392513 0.09290639 0.12465578 0.18111163 -0.15188877 0.06386774 -0.08083231
-0.010205508 -0.14093675 0.1925544 -0.13408083 0.11718012 0.08979274 0.087601975 -0.09747366
0.19546533 0.06697742 0.06735435 -0.1605905 0.11315741 -0.015663803 -0.08139005 0.20049194
0.06329927 -0.08483089 -0.089293495 -0.0029873194 0.11067253 -0.03519125 -0.092239484 -0.0708077
-0.15035903 0.07293846 0.15465137 -0.18914911 0.04402714 0.10625804 0.03730315 -0.06731266
0.10417634 0.10341909 0.07854366 -0.025138058 -0.052560095 0.023658603 -0.040353335 -0.058759935
0.12895577 0.1740335 -0.020614719 -0.053453486 -0.0019576082 -0.013353786 0.044141233 0.052889377
-0.11548121 -0.017557202 0.20952706 0.08849552 0.0067628673 -0.05855363 -0.06947012 -0.14644201
-0.022130677 0.10422328 0.14514136 0.1344081 -0.17578094 -0.092334405 0.003144194 0.20519969
0.05230511 -0.025952827 0.121210724 -0.042228233 -0.11055413 0.17250413 -0.055720594 0.00019739686
-0.1430752 0.08093396 0.050734818 0.030225545 -0.15154214 -0.13664296 -0.13681816 0.14552517
0.12477798 0.24297178 0.11282562 0.030068964 0.03816745 -0.20225468 -0.12152045 -0.19623499
0.089163266 -0.10209534 0.06218928 -0.13364598 0.044152237 -0.07160159 -0.08732228 0.03811084
0.012198142 0.13049835 -0.03588206 -0.13292089 -0.01027103 -0.090386085 -0.051016036 -0.18465683

bias f4 [64]
00000000: e241 37be be33 c73d 6f42 b7bc 9120 3c3d
00000010: eb29 933d 2137 1a3e 12ad c4bc 267d 493d
00000020: 3f4d a43d 06ad 023e 55ae 953c ec2e 8e3d
00000030: 6012 fdbd 5a51 0ebe b88a 2f3e a871 31be
00000040: d65c e63c b754 63bc 8b98 403e 4621 f4bc
00000050: 4ceb c4bd b067 7cbd d635 213e 9204 063e
00000060: 3857 173e 78cd e43d dc96 9a3d 587f 56be
00000070: 7d4b 8b3d dbd3 be3d 87d6 0b3e 9ef9 18bb
00000080: cca7 38bd 9f5c bf3c af52 11be 0da0 1abe
00000090: 37f9 4bbe 87b0 693d 31d4 f53d 8a5d 473d
000000a0: 98bc ac3d 3ee8 8d3d b9a1 f1bd 319c 3cbc
000000b0: 48eb 31bd c937 863c 5cfe 243e 12fe b9ba
000000c0: aeb2 bb3c 4c98 3cbe 8010 a2bd 367d 98bd
000000d0: 09d7 913d 8054 7fbd 6f87 fb3d d2f9 32be
000000e0: e6ee 163e 907d d5bd c23c c23d 6fc8 fd3c
000000f0: d751 25bc d1ec babc 6137 e93d 25cd 243d
-0.17896226 0.09726666 -0.022370545 0.045929495 0.071857296 0.15060093 -0.024008308 0.049191616
0.08022546 0.12761316 0.018271605 0.069425434 -0.123570204 -0.1389822 0.17142761 -0.17328513
0.02812044 -0.013875178 0.1880819 -0.029801022 -0.09615192 -0.06162232 0.15743193 0.13087681
0.14779365 0.111720026 0.075483054 -0.20947015 0.068015076 0.09317752 0.13656054 -0.0023342143
-0.0450819 0.023359595 -0.14191698 -0.15100117 -0.19919287 0.057053115 0.12003363 0.04867319
0.08434409 0.06929062 -0.11798424 -0.011511848 -0.043437272 0.016384022 0.16112655 -0.0014190099
0.02291235 -0.18417472 -0.079133034 -0.07445757 0.07121093 -0.062336445 0.12281691 -0.17478111
0.1473957 -0.1042434 0.09484245 0.030979363 -0.010090313 -0.022818001 0.11387516 0.040234704

weight f4 [32, 64, 3, 3]
00000000: c0eb 18bd 548b f83b 2d21 6cbc 6821 0c3d
00000010: 9d4f 863c 8d4a 0b3c 2b78 f8bb 3c33 093d
00000020: d61b 28bc c292 093d 8f46 223d 71cc 363d
00000030: fad9 f13c cfcd a4bc 3978 4a3d fd17 4cbb
00000040: e0e5 003b 4e35 f43b d721 89bc 93ee d93c
00000050: 91e1 523d 7c27 0cbc 7ca6 ceba 5bf2 0e3d
00000060: b2be 76bd 0ff4 363d eae7 73bd 50f8 67bc
00000070: ec30 903d 70ac 613d 85f0 ac3a 9713 5b3b
00000080: 241d ab3c 3068 013d 042b a6bc b5d8 00bd
00000090: b7fb 84bd 8fd7 cfbb 786d b93d 938d 1abd
000000a0: d956 69bb 100b 823d 44dd 7b3c 7607 3cbd
000000b0: a81a 8abc a878 083d c658 223d 20dc 003d
000000c0: 6b34 a6bc 0069 ce3a d53a f93b 8c0a efbc
000000d0: 1132 1abc 7fd7 f4bc af9d 363c a6d5 76bc
000000e0: efa1 a83c f875 5fbc 9381 343c ddfd aabc
000000f0: 8adf a0bc 09d1 6cbb f23e 4f3d 7788 57bc
00000100: cb3f a73c b8ad 09bc 5564 7fbb a929 4d3d
00000110: aae2 0f3d ee8e b2bb 10e2 8d3c 62e3 cc3c
00000120: 7701 fb3c f9ec 543c 9a52 f93b 4a0b 3c3d
00000130: 9f1a fabb d026 4dba e9d5 c1bc 287f 09bd
00000140: 2ed1 573d 89a3 1a3b a1c7 4fbc 73ef df3c
00000150: adcf 16bd d1bc 3ebc 683f fa3c 19d7 fd3a
00000160: 5801 1cbd 4a2b 413d fb9a 0d3d 604d 9fbc
00000170: e156 2b3d bb71 b0bc 3fc0 2f3d 1d16 1b3d
00000180: 1051 c2bc be77 02bd e0aa 16bd 967d 50be
00000190: 3a26 48be 6d49 f33c fa79 213e 5116 34bb
000001a0: f1c0 efbd 2cce c2bd adad 193d daf2 edbc
000001b0: 1c8c eebc f134 883c bcef 543d f5c0 753c
000001c0: 0f49 763b 53da 70bc bd92 97bc 8a41 febc
000001d0: 9667 0b3d 0874 debb b7c4 16bd 3877 923b
000001e0: d028 463b 60af a8bb bc5e 743c de8f b73c
000001f0: 267f 20bd 0fbf 02bd 2d9c 62bc dbcf 2ebd
00000200: 4d63 dfbc 2627 173d cd6d 5abc eb51 e2bc
00000210: 32e3 bebc c803 49bd 10d5 8b3c 4857 16bd
00000220: e877 123d 08b5 4abd c4d5 8f3c c09d 873b
00000230: b531 8ebc cbdd f2bc 55e1 a03c adea 653c
00000240: aaef b53d d0ac 433a 20c7 c9ba 2b4d 3e3b
00000250: b0f4 db3c b492 ed3c 5632 f33c 2a40 943d
00000260: 0ae9 80bd 733c 12bb 8bc5 8fbc f814 293d
00000270: 33b9 eabc 5b38 9f3c 5c7e b13b d4cc 5a3c
00000280: 9616 923c ff73 bbbc 488e 253d c2e9 b8bc
00000290: efb1 46bb 5e22 303d d9d9 c03c 1c5f a93b
000002a0: 391a a9bb 54c7 96bc a7ab f63c dcc0 a53b
000002b0: ce02 633c 568d a93c 6f62 1d3d b2a0 05bc
000002c0: d91a a0bb dffe d93c d0d4 893c 369f ddbc
000002d0: addf 23bc 3473 303c e9f9 013d c24f 583c
000002e0: ba67 073d b84d 1ebd d006 933c 56f3 99bc
000002f0: bfb2 cb3c 72eb 383d c58d c13c 01f6 1c3d
00000300: a8d9 8bbc 37fc ebbc 3564 12bd 175f 033d
00000310: c954 2d3c 942a 15bd 3032 a6bb 4db5 e1bc
00000320: a73d d3bd ed3c 8b3c c4ac ba3c b453 013d
00000330: 99a1 673b b826 093d acb3 db3c ee24 013d
00000340: a7ba bbba 88b8 063c ec7b 72bd 095a 06bb
00000350: 1384 213b 8d8f 323d f893 f13a c202 0a3c
00000360: 1ea5 1cbd 06f0 debc 0b65 deba f4d4 0a3d
00000370: 3d5d dcbc 49b1 2cbc cff7 29bc 5bb1 cc3b
00000380: e1af e1bc b2d9 0bbc 03e9 213d 7eb2 543d
00000390: 8ce7 08bd 0c4e 3a3d 463f b2bc 4bf9 df3b
000003a0: d181 febc 331c 16bd 75ca 2b3d e949 39bc
000003b0: e064 e23c 4936 dbbc 7c2a 4ebc bc24 0a3c
000003c0: db01 1b3d 2030 a83c 38ee fabc 1885 453c
000003d0: 5404 aebc 2e99 cf3b 83bd dfbc 3d64 cdbb
000003e0: 064c 9c3c 241e cebc 51e8 28bd 2f99 0f3c
000003f0: 9fbc 5b3c 9783 0fbc 3b35 283d e4a9 07bd
-0.037334204 0.0075849686 -0.014412207 0.034211546 0.016395384 0.008501661 -0.0075826845 0.033496127
-0.010260543 0.033587225 0.03961807 0.044628564 0.029522885 -0.020117668 0.04943106 -0.0031142228
0.0019668266 0.0074526435 -0.016739769 0.026603019 0.05148465 -0.008554336 -0.0015766169 0.034899097
-0.060240455 0.044666346 -0.059547342 -0.014158323 0.07040581 0.05509609 0.0013194239 0.0033428425
0.020887919 0.0315935 -0.020284183 -0.031456668 -0.06493323 -0.0063428353 0.09054083 -0.037732672
-0.0035604744 0.06349766 0.015372578 -0.045905553 -0.016858414 0.03331819 0.039635442 0.031459928
-0.020288667 0.0015747845 0.0076058903 -0.029179834 -0.009411351 -0.029887913 0.011145993 -0.015065586
0.020585028 -0.013638966 0.011017221 -0.020873005 -0.019637842 -0.0036135337 0.05059714 -0.013155094
0.020416161 -0.008403234 -0.0038969715 0.05008856 0.035128273 -0.0054491675 0.017319709 0.025010768
0.030640347 0.012995952 0.007608724 0.045909204 -0.007632568 -0.0007825913 -0.02366157 -0.03356853
0.052689724 0.002359601 -0.012681873 0.027335858 -0.03681915 -0.011641697 0.030547813 0.0019366472
-0.03808722 0.047160424 0.03457163 -0.019446075 0.0418309 -0.021538606 0.04290795 0.037862886
-0.023720294 -0.031852476 -0.036784053 -0.20360407 -0.19545832 0.029698098 0.15769187 -0.0027479122
-0.117067225 -0.095119804 0.037519146 -0.029046465 -0.029119544 0.016626807 0.05198644 0.014999618
0.0037580167 -0.01470049 -0.018502587 -0.03103711 0.034034334 -0.0067887343 -0.036808696 0.0044697784
0.0030236728 -0.0051478595 0.014915165 0.022407468 -0.03918376 -0.03192049 -0.0138311805 -0.042678695
-0.02726903 0.03690257 -0.013331843 -0.027626952 -0.023301695 -0.04907587 0.01706937 -0.03670433
0.035758883 -0.04948905 0.017557986 0.0041386783 -0.017357687 -0.029646775 0.019638697 0.014033002
0.08883603 0.0007464411 -0.0015394427 0.0029037695 0.026850075 0.029000618 0.029687088 0.07238801
-0.06294449 -0.0022313863 -0.01755025 0.041279763 -0.028652763 0.019436052 0.0054166745 0.013354499
0.017833035 -0.02288246 0.040418893 -0.022572402 -0.003031846 0.043001525 0.023541378 0.0051688086
-0.0051605967 -0.018405594 0.030111147 0.005058391 0.013855649 0.020697277 0.03842395 -0.0081559885
-0.004886013 0.02661079 0.01682511 -0.027053457 -0.010002059 0.010769654 0.031732474 0.0132026095
0.033057906 -0.038648337 0.017947584 -0.01879279 0.024865506 0.045146413 0.023627171 0.038320545
-0.01707156 -0.028806789 -0.035740096 0.032073107 0.010579296 -0.03641756 -0.005071901 -0.027552271
-0.103144936 0.016996825 0.02278746 0.031573966 0.0035344122 0.03348419 0.026819073 0.03152936
-0.0014322595 0.008222707 -0.059200212 -0.0020500442 0.0024645373 0.043593932 0.0018430939 0.008423509
-0.038243406 -0.027214061 -0.0016967369 0.033894494 -0.026899928 -0.010540315 -0.010374024 0.0062467284
-0.027549686 -0.008535789 0.039528858 0.051928036 -0.033423945 0.045484588 -0.021758687 0.006835138
-0.03106776 -0.036647987 0.041941125 -0.011309125 0.027635992 -0.026759284 -0.012583371 0.00843161
0.037843566 0.02053076 -0.03063117 0.012055658 -0.021242298 0.006335399 -0.027312046 -0.006268053
0.01907922 -0.025160857 -0.04123718 0.008764549 0.01341167 -0.008759401 0.04106639 -0.033121005

bias f4 [32]
00000000: c1a1 243d a898 823c ac76 01bd 9509 8a3c
00000010: 8113 7a3c e6a5 933c 1ecb b43c f674 26bd
00000020: 1019 d6bb 08b8 47bc 7202 ca3c 34c1 bfbc
00000030: 8c90 70bc ce28 babc 3628 aebc 38e2 7dbc
00000040: adb6 b53c 4f40 27bd 4190 9dbb 843f 67bc
00000050: ae75 043d 7886 3cbc 52ca 27bd 919c 73bc
00000060: 7cf1 33bd d582 babc 297b be3c 2612 d5bc
00000070: 0aad 1bbc 304c df3c f51c 5639 cabd 0c3d
0.040193323 0.015941933 -0.031607315 0.016850272 0.015263439 0.018023442 0.02206951 -0.040638886
-0.0065337494 -0.012189873 0.02465937 -0.023407556 -0.0146829 -0.022724535 -0.021259408 -0.015495829
0.022181833 -0.040832814 -0.004808456 -0.014114264 0.03233879 -0.011506669 -0.040964432 -0.014868871
-0.04393147 -0.022767464 0.023252087 -0.02600963 -0.009501705 0.027258009 0.00020419418 0.034360684

weight f4 [9, 32, 3, 3]
00000000: 85de 503d 305d 693d d24f bfbb b41b b8bc
00000010: 43ca b43b 8d75 023d 5268 7d3c a161 cfbc
00000020: 67f4 823d 3f65 6dbd c23f a4bb 56a0 bdbc
00000030: 647b d23d f2fa a33c 3a34 9cbc d6a4 0ebd
00000040: 164b e33c 5ab4 f5bc ae47 173d 99c0 9fbc
00000050: 6d37 be3c 2075 47bd f181 f9bc 963a 6a3d
00000060: 8ba3 553d 241e 38bd e6fe ebbc 2d0b 7cbd
00000070: 924a 823c fc33 30bc 2a62 033c 66a5 263d
00000080: ec00 0f3d 71a7 aaba c463 853c 4069 1dbd
00000090: 09bf a63d 9207 c0bd a02f 523d 8072 b43d
000000a0: 98dd 8e3d 4fdd 843d e500 b9bc 1dd4 aebd
000000b0: 7ee1 63bc e128 0cbd a844 f13c 1821 d7bc
000000c0: f457 523d 7f43 e63c 9f3b 01bd 8edb 2e3c
000000d0: 0c22 103d 7e9f a03d 22a8 16bc c4d3 15bd
000000e0: 2560 383b cd61 a6bb e708 193d 92c3 f9bb
000000f0: c0c7 0b3d b626 38bd 2ab7 8dbd d894 f23b
00000100: d1c3 173d cbd0 613d f55a 053c c579 203a
00000110: 83af 0c3d 5797 283d 4d6b 48bd c4e6 c1bc
00000120: c4d4 153d f54f 25bc c3b2 23bd 6b05 25bd
00000130: 7934 56bc a964 f13b 579e 32bb c503 33bd
00000140: 8c88 7b3d ba42 5abb c893 6d3d cb9f 59bc
00000150: a763 4e3d 73b6 fb3c 952f 29bd d0dc 083d
00000160: 590f 1a3d 5242 1fbd 9933 793d 0730 b039
00000170: bedd 39bc 1238 93bb 66ef e3bc d262 813d
00000180: 2242 32bc ee75 d3bc ed75 863d 0a5a b6bd
00000190: d2a8 46bd 58c0 bd3c 112c b13c 572c e2bc
000001a0: d3c8 6fbc ddf9 61bd 4c48 653d 26f7 ec3c
000001b0: ce1e 20bd 68b3 a3bc 9c08 2ebd a993 e33c
000001c0: 5356 c5bc 1603 183c 9113 373d cce0 3d3d
000001d0: 83ef 59bd bf7b e93c 48b6 873d 2ccb 4c3d
000001e0: 4bab 9a3c 56da 5d3c be32 8fbc 5e5f ccbc
000001f0: 14aa b6bc 78e4 2dba 6e28 8d3d 9b65 1d3d
00000200: 33da dd3c 3c51 c9bc 1a2a 393c 54e7 24bd
00000210: c9c2 02bd 19ea e33b ed4a 943b 1236 a03b
00000220: 6e1f 053d 16b5 2c3c 999b c33c c6fb 373c
00000230: add3 29bd 674c 6fb9 c8be f93c 824e f5bc
00000240: 3938 1e3b 6b61 2a3d e96b e3bc f49c ff3c
00000250: 3bd5 d4bc 17c3 293d 7342 da3c 6a81 0d3d
00000260: 6aaf cebc 11a5 76ba e3af 60bd 7244 3abc
00000270: 4188 293b 83b6 4cbd e4c1 ca3c ec1b 3abb
00000280: b881 c53d 631f 35bd e50c 2dbc 9b6f a03c
00000290: d887 2f3d 1adc 63bc 8c3f ab3d cd03 033d
000002a0: a611 4cba b467 05bd 53a2 02bd 7e47 773d
000002b0: 9b2c 293c 1f2a 3cbc d965 93bb b685 78bc
000002c0: 47b4 283d 1389 923c 4d66 9c3c 3a5c 12bc
000002d0: cdef 353c a9b5 643d d59f 063d 0c03 2f3d
000002e0: b93c c13c d4a4 163d c9b8 8ebc ec5c ffbc
000002f0: 0269 1d3d ce0c fd3a fc5c 7abc e57c 683c
00000300: 7935 d43c 07d8 e8bb 2043 ad3c 1ead 3e3d
00000310: f000 07ba bef3 07bc 22d4 afbc 1ece 303d
00000320: 0122 27bc cbf1 9f3c d1e1 0cbd a2e7 c63c
00000330: 8294 1dbd efa1 7b3c f1b4 e8bc fdcc 31bd
00000340: 9bf8 5d3c 5cfb ef3c 537c ffbc b60b b8bc
00000350: e2c1 483d 32f0 09bb cb41 353d 4010 c6bc
00000360: 822e efbb bea0 203d 0226 31bd abd3 d33c
00000370: dbf2 e4bc 5657 a5bc 4ace a53c 7077 2e3d
00000380: 3a4b b4bc 08d4 403c 3738 26bb 667f 10bd
00000390: ff74 4cbb 6c12 4b3c 21cb afbc c835 bfbc
000003a0: 294a 5d3d 0743 f1bc bf4b f73b 1dcf 923d
000003b0: bf91 a1bd 54fa b43d e08f b73d 01e6 2fbd
000003c0: 9e00 46bd e3c0 b7bd 1426 fdbb 7ea5 e53c
000003d0: c738 5cbd e9e3 e33c 21c5 be3c ba13 b2bc
000003e0: 0a81 393d 7873 5fbc 2bcb 0e3d 1c3f 55bd
000003f0: 3d58 a9bc 29ec 043d 488b 03bd 2228 61bd
0.05099346 0.056973636 -0.0058383727 -0.022474147 0.0055172755 0.031850386 0.015466766 -0.025315108
0.06394272 -0.057957884 -0.0050124833 -0.023147743 0.10277441 0.020017121 -0.019067872 -0.03482517
0.027745765 -0.029993225 0.036933593 -0.019501017 0.023219788 -0.048695683 -0.030457469 0.05718478
0.05215792 -0.04495062 -0.028808068 -0.061534096 0.015904699 -0.010754582 0.00801901 0.04068508
0.03491299 -0.0013019872 0.016282924 -0.038430452 0.08141906 -0.09376444 0.05131495 0.08810902
0.069758594 0.06487524 -0.022583434 -0.08536551 -0.013908742 -0.034218673 0.029451683 -0.026260898
0.05135341 0.028108357 -0.031551 0.010672463 0.03518872 0.07842921 -0.009195359 -0.03657891
0.0028133478 -0.0050775767 0.037362006 -0.0076221908 0.034126043 -0.044958793 -0.069197014 0.0074029975
0.03705198 0.05513076 0.008139362 0.00061216607 0.03434707 0.041159954 -0.048930455 -0.023669608
0.036579862 -0.010089864 -0.039965402 -0.04028837 -0.013074034 0.007366736 -0.0027255022 -0.043704767
0.061409518 -0.0033303932 0.058002263 -0.0132827265 0.050388005 0.030726647 -0.041305143 0.03341371
0.037612293 -0.038881607 0.060840223 0.0003360512 -0.011344371 -0.004492768 -0.027824115 0.063176766
-0.010880025 -0.02581307 0.06565461 -0.08903892 -0.048500843 0.023163006 0.021627458 -0.027609034
-0.014635283 -0.05516993 0.05597715 0.028926443 -0.039091878 -0.019983009 -0.04248868 0.02778037
-0.024089014 0.0092780795 0.044696394 0.04635696 -0.05320693 0.02850139 0.06626564 0.049998447
0.018880507 0.013540825 -0.01748025 -0.024947818 -0.022297896 -0.0006633471 0.06892477 0.038426977
0.027081585 -0.024574868 0.011301542 -0.040259674 -0.031924043 0.006955397 0.0045255334 0.004889258
0.032500677 0.010541221 0.023877906 0.011229461 -0.041461635 -0.00022821278 0.03048648 -0.029944662
0.0024142398 0.04159681 -0.027761417 0.03120277 -0.025980582 0.041445818 0.026643014 0.034547247
-0.025230128 -0.0009408752 -0.05485524 -0.011368858 0.0025868567 -0.049978744 0.024750657 -0.002839799
0.096438825 -0.044219386 -0.010562156 0.019584468 0.04285416 -0.013907457 0.0836173 0.031986047
-0.0007784612 -0.032569602 -0.031893086 0.060370915 0.010325576 -0.011484652 -0.004498225 -0.015168598
0.04118755 0.017887628 0.01909175 -0.008933121 0.011104536 0.055837307 0.03286727 0.042727515
0.023588525 0.036778286 -0.017422097 -0.031172238 0.03843022 0.0019306184 -0.015280958 0.014189933
0.025904404 -0.0071058306 0.021150172 0.046551816 -0.0005149981 -0.008297859 -0.021463457 0.04316532
-0.010200978 0.019524476 -0.034395043 0.024280373 -0.038471706 0.015358432 -0.028406592 -0.043408383
0.013548042 0.029294662 -0.031187212 -0.022466522 0.049013026 -0.0021047709 0.0442522 -0.02417767
-0.0072992453 0.039215796 -0.043249138 0.025857767 -0.027947834 -0.020183247 0.020239968 0.042594373
-0.022008527 0.011769302 -0.0025363097 -0.035277747 -0.0031197665 0.012394529 -0.021459164 -0.023341075
0.054025803 -0.029450906 0.0075468714 0.0716841 -0.07889127 0.08836809 0.08962989 -0.04294396
-0.048340432 -0.08972337 -0.0077254865 0.028033014 -0.053765085 0.027818637 0.023287358 -0.021737922
0.045289077 -0.01363837 0.034861725 -0.05206214 -0.020671958 0.032451782 -0.03211525 -0.054969914

bias f4 [9]
00000000: 3e20 c13c 160f c73a 93ad c33c 98bf fd3b
00000010: e1a0 3cbc 54a9 dbbb a0c6 e7bb 116e 5d3b
00000020: 91e4 9cba
0.023574945 0.0015186991 0.023886478 0.007743787 -0.011512966 -0.006703535 -0.0070732385 0.0033787529
-0.0011969974
