.processed/8_logs_scale_3_crop_128/epoch_21_model.pth (torch_old, 93460 bytes, 6 tensors)

weight f4 [64, 1, 5, 5]
00000000: 14d8 0a3e 224d 1d3e 151b 80bd 99b5 313e
00000010: f0bb 52bd b847 f23c 24fe dcbd 1466 df3d
00000020: 8e2b 2f3e acb6 1abe 2e59 2a3e 4c5f e93c
00000030: cd23 183e 0216 fd3c d200 c33d 4d80 20bd
00000040: 4504 1b3e 768c f03c 3e7d bcbd c807 3f3d
00000050: b318 d8bd ba65 02bd d76a a4bd 39a0 053e
00000060: deaf 25be 9767 bdbd e4b7 58bd 1c11 f2bd
00000070: 4f60 a53c 25c7 45be 3bf0 383e 5d36 2fbe
00000080: 723c 223e 8f65 073d 1bf9 7dbd 4b1f fa3d
00000090: 4437 1a3d e425 343e 72ce c63c 02e1 77bd
000000a0: 65e8 4c3d 5c22 54bd 134e bc3d 30f0 393e
000000b0: 6250 ed3d deae c2bd f248 e23d ef5f 093d
000000c0: bb18 c73d f3e5 00be 4259 4ebd a418 b33c
000000d0: 911e 90be 775b 063e 6407 fdbc ac52 283c
000000e0: 16ae fabc 134e 463e 99f5 cb3e 08ba bdbe
000000f0: 9c9f e03c 1782 56be 3829 773e a075 44be
00000100: bc13 53be 3552 39bc d11d 153e 86ed d23c
00000110: 0e56 38bd 4755 bbbe fe9b 9e3d e010 10be
00000120: 1818 293e b9a3 343d 8cd2 c3be 2a36 24bd
00000130: ac53 9fbd d187 c23d 31fd 113d b2ae a23d
00000140: 3b42 bfbc 371d 25be 5189 423e 26ff b8bd
00000150: 2b60 c33d 22f9 48bc b954 3d3e 998d 11be
00000160: 67aa bdbd a410 873d 4bbd 843d 6d1a 57bd
00000170: 1109 433e 3597 293e 9293 cebd f647 c7bd
00000180: e159 473e df1e 96bd 3c2f 12bd 24f1 f4bd
00000190: 7449 b63c 1192 053e 052b fb3c 209f adbc
000001a0: 7623 2e3d fe5d 8ebd 3107 31be 22a1 4abd
000001b0: f010 48bd fed1 853c a2b8 243e f9d8 3a3e
000001c0: e5ef 093f b9c5 9ebe 98ac 3ebd a52d c0bd
000001d0: 0e5b 663d 8a75 dcbe f3c1 3dbe 1681 e2bd
000001e0: 7fdf 853d 2bae 24bd 8384 0e3d b5b3 7cbd
000001f0: 2eb1 b2bc e0e0 c4bd e81e 33bd a862 09be
00000200: 460f 303e 71f3 f0bc 1e4d 323e 22a7 ad3d
00000210: e533 2ebe db27 0d3e e69f 58bd 8129 64bd
00000220: 0b93 1cbe 0b3b 4fbe 46f3 993d bbec 06bd
00000230: b8fa b23d 7eee 1abe 80cb 2b3e cda5 13be
00000240: e1ac 84bc b670 073d bd5d d73d 4207 133e
00000250: e7a6 3c3e 2970 23be 07d2 8e3d 268f a0bd
00000260: 1c94 6b3b 0d11 17be 010f 413e 2ff1 03be
00000270: 6c1a f13d b39a db3d 1538 8b3d 8de9 c0bd
00000280: 5068 513e b5c7 843d e896 a93d c038 36be
00000290: 5f80 e43d 851c 35bc 6d3e a4bd 4168 5b3e
000002a0: 2848 503d 7da3 abbd 12ca 9bbd 3f5c 5d3b
000002b0: a8de fe3d 31c0 2bbd c088 a7bd 2dd3 94bd
000002c0: 73ff 1dbe 29e1 8b3d 2d44 1a3e 81b4 46be
000002d0: 52cb 1e3d e843 cf3d a1ef 1c3d 3978 9cbd
000002e0: 9354 cd3d 1756 cc3d 0a29 9d3d 7eb6 0fbd
000002f0: ccce 65bd 0b21 853c 9099 3cbd 9284 86bd
00000300: b6f0 033e eae2 2b3e 01b3 dcbc 974f 72bd
00000310: 5ef3 cfbb 3799 94bc 1f23 273d 8fa7 473d
00000320: 8d8f 11be c0b5 12bd d4b3 533e fd3e e23d
00000330: 2209 973c 8f42 a8bd 6bb0 abbd d3cb 25be
00000340: 4178 05bd 5092 cf3d 69be 193e 56fc f83d
00000350: fc7f 3abe dc1a c5bd 5b70 be3a bd02 563e
00000360: 2667 663d 3f2c 32bd e1e9 db3d 9873 42bd
00000370: 291e ecbd 182c 2c3e 9a39 97bd 57ca 75bc
00000380: 9b1f 30be 652b ec3d 0e8a 033e 9112 563d
00000390: 5101 efbd b7ea 09be 929c 3abe 0a46 183e
000003a0: 0f9b 203e 1a03 5a3e 2bb4 063e f0a7 1c3d
000003b0: ffae d43b de0a 4cbe 856b 30be 680b 1dbe
000003c0: 9dea b33d 69f8 84bd 19b5 bb3d d088 8abd
000003d0: b779 693c 388e 89bd 2214 b9bd 90ea 8d3d
000003e0: 135e 4cbd c4a6 003e 7f97 08bd 070a f4bd
000003f0: bb0e 5b3b c61e abbd 1125 58bd 9e21 3bbe
0.1355899 0.15361455 -0.062551655 0.1735443 -0.051448762 0.029575214 -0.10790661 0.10908142
0.17106459 -0.15108746 0.16635582 0.028487824 0.14857407 0.030894283 0.09521641 -0.039184857
0.15138347 0.029363852 -0.092035756 0.04663828 -0.10551586 -0.031835295 -0.080281906 0.13049401
-0.1618037 -0.09248274 -0.052909747 -0.118196696 0.020187525 -0.19314249 0.1806039 -0.17110582
0.1584337 0.03305584 -0.062005144 0.12213 0.03765036 0.17592579 0.024268363 -0.06051732
0.050026316 -0.05179058 0.09194579 0.1815803 0.115875974 -0.095060095 0.110490695 0.033538755
0.09721514 -0.12587719 -0.05037809 0.021862336 -0.2814832 0.13120829 -0.030887313 0.010273617
-0.030600589 0.1936572 0.39835814 -0.37055993 0.027419858 -0.20948063 0.24136817 -0.19185495
-0.20612997 -0.011311104 0.14562155 0.025748026 -0.045003943 -0.365885 0.07744597 -0.14068937
0.16513097 0.04410145 -0.38246572 -0.040090717 -0.07779631 0.09498561 0.035641853 0.07943477
-0.02334701 -0.16124426 0.18997695 -0.09033041 0.09539827 -0.012266429 0.1848935 -0.14214171
-0.09261017 0.06594971 0.06481417 -0.052515436 0.19046427 0.16561587 -0.100867406 -0.09730522
0.1946788 -0.07330107 -0.035689577 -0.119600564 0.022251822 0.13044001 0.030660162 -0.02119404
0.042514287 -0.06951521 -0.172879 -0.049470074 -0.048844278 0.016335484 0.16086057 0.18246831
0.53881675 -0.31010225 -0.046551317 -0.09383706 0.05623918 -0.43058425 -0.18531017 -0.110597774
0.06536769 -0.040205162 0.03479434 -0.06169482 -0.021813001 -0.09613204 -0.043730646 -0.1341654
0.17193326 -0.029412957 0.1741223 0.08479144 -0.17011984 0.13784735 -0.052886866 -0.055703644
-0.15290467 -0.20237367 0.07517104 -0.032940608 0.08739227 -0.1513004 0.16776848 -0.14418717
-0.016195716 0.033066474 0.10515926 0.14358237 0.18423043 -0.15960754 0.06973653 -0.078398034
0.0035946434 -0.14752598 0.1885338 -0.12884973 0.11772618 0.10722866 0.06797806 -0.09419546
0.20449948 0.064834036 0.08280736 -0.17795086 0.11157297 -0.011054163 -0.08019719 0.21426488
0.050850064 -0.08380792 -0.07606901 0.0033776907 0.12444812 -0.041931335 -0.0818038 -0.07266841
-0.15429477 0.06830055 0.1506507 -0.19404794 0.03876812 0.10120374 0.038314465 -0.07640118
0.10025897 0.09977358 0.07673843 -0.035086147 -0.05610542 0.016251108 -0.046044886 -0.065682545
0.12884793 0.1678578 -0.026940824 -0.059157934 -0.0063461503 -0.018139465 0.04080498 0.04874378
-0.14214917 -0.03581786 0.20674068 0.1104717 0.018436972 -0.0821582 -0.083832584 -0.16191034
-0.032585386 0.10135329 0.15014042 0.12157504 -0.18212885 -0.09624264 0.0014529334 0.20899482
0.056250714 -0.043499228 0.10737968 -0.04747352 -0.1152919 0.16813695 -0.073840335 -0.015001855
-0.17199557 0.11531714 0.12845632 0.0522638 -0.11670173 -0.13468443 -0.1822379 0.14870468
0.1568415 0.21290246 0.13154666 0.038246095 0.0064905877 -0.1992602 -0.17228515 -0.15336382
0.08784983 -0.06492693 0.09165401 -0.06764376 0.0142502105 -0.06716579 -0.09037043 0.06929505
-0.049894404 0.12563616 -0.033347603 -0.11915975 0.0033425528 -0.08355479 -0.052769724 -0.18274543

bias f4 [64]
00000000: c791 34be d9b1 bc3d 2e37 31bd c75f 483d
00000010: a5b4 3e3d a331 233e c470 71bc 5cd6 323d
00000020: 85d8 813d 8904 c53d f7ef 033d 3c34 383d
00000030: a696 00be 299b febd a1ea 203e cd0b 0dbe
00000040: 1288 c83c c047 57bc 044a 3d3e 7853 34bd
00000050: 8b39 c5bd a979 5bbd 8fd5 0c3e 53b3 c63d
00000060: ad31 1c3e 4a4f 1b3d 8fd9 943d 30fc 3fbe
00000070: 56ed 9b3d f621 b13d debe ec3d ca8a 71bc
00000080: 8121 43bd c340 8c3d fc31 0dbe b8ab 1ebe
00000090: b89a 2bbe 7e93 e63d 2e5e df3d a330 3f3d
000000a0: 0ab8 8c3c f29a 993d 6e16 f4bd 8389 623b
000000b0: 1b01 07bd c664 fabc 85ae 203e 9237 15be
000000c0: ba04 8f3c e2db 35be ab63 b03c 1436 afbd
000000d0: 56d5 863d 653c 8fbd 48ba 043e 032e 0ebe
000000e0: c36a 123e e132 aabd 4996 b53d c6be cebc
000000f0: 01c5 9abc 14b5 b5bc 0b0b e13d a6ba 863d
-0.17633735 0.09213609 -0.043265514 0.048919465 0.046558995 0.15936904 -0.014736358 0.04366146
0.06340126 0.09620006 0.03221127 0.04497169 -0.12557468 -0.12431938 0.15714504 -0.13774033
0.024478946 -0.013139665 0.18485266 -0.044024915 -0.09630116 -0.05358282 0.13753341 0.09702172
0.15253325 0.037917413 0.072680585 -0.18748546 0.076136276 0.08649056 0.115598425 -0.014742563
-0.047639374 0.0684829 -0.13788599 -0.15495193 -0.1675824 0.11258601 0.10906635 0.046677243
0.0171776 0.075002566 -0.119183406 0.0034566827 -0.03296004 -0.03056563 0.15691574 -0.1457198
0.017458308 -0.1775966 0.0215319 -0.085552365 0.06583659 -0.06993941 0.12961686 -0.1388474
0.14298539 -0.08310486 0.08866555 -0.025237452 -0.018892767 -0.022181071 0.109884344 0.06578569

weight f4 [32, 64, 3, 3]
00000000: d3bc ecbc 5724 643c ab86 4ebc e80b 2f3d
00000010: 2e51 ac3c b1f7 0d3c b13d 51bc 3d7d e93c
00000020: 04d9 32bc 6faf 033d 8b62 223d 3800 2b3d
00000030: cbba d83c 3dc3 abbc 57b6 453d 6756 d0bb
00000040: 1b01 9aba 29c8 733b e2e6 91bd 9475 8cbc
00000050: 7491 623d 6870 1bba 2b34 85bd c8f8 033d
00000060: 8812 8c3c beea 823d 2766 82bd dee9 cabc
00000070: 8941 8e3d c0a0 3c3d 8b43 1ebc 4fdb 0cbc
00000080: 65e4 30bb 2185 a73c 0283 fcbc 5fec 73bd
00000090: 666f 35be f64d b33b b526 d3bc 3f71 a73c
000000a0: c85a 34bd d9aa 403d caec 45bd d967 313d
000000b0: 7622 f8bc 68eb 303d 8847 0d3d e4e9 433d
000000c0: ebcc bebc 4f67 4f3c def5 f83c 1344 e9bc
000000d0: 7822 01bb 68f9 56bc 9f43 c7bb 0a0c 92bc
000000e0: d28e 323d 230e 1bb9 25a8 3a3c c0d2 b6ba
000000f0: 0e7a 80bd a06f d33a ca74 4f3d 8135 8abc
00000100: 2844 9f3c 6a82 2ebc 6941 22bc 491b 4d3d
00000110: f9de 033d e94b d9bb e84d 603c ba4f 983c
00000120: 74ba e53b f4ef 933c a54d d93b 960a 243c
00000130: cbb5 2cbc 5f1b 6f3c bb91 debc b13e 82bc
00000140: c767 bc3c 647c a7bc 3b34 74bc 4810 373d
00000150: 602b 02bd 2080 42bc c0b9 aa3c b611 6d3c
00000160: 3cbd 0bbd c810 183d 8497 d83c 2c16 60bc
00000170: 0683 363d 6a57 83bc 5e89 2b3d 7133 143d
00000180: 2806 dfbc 9e15 03bd 5fa4 5bbd e0dc 53bd
00000190: 0cb1 38be 054d 543c f6d2 9e3d 777a c93d
000001a0: 796d e0bb 6d45 f63b 0216 80bc cfd2 d03c
000001b0: dc23 e3bc 2e0a 873c 557f 503d 6a59 823b
000001c0: 9e52 4a3b 6010 81bc 5963 d1bc 780f 24bd
000001d0: 37f4 083d 5a2c b8bc 0df9 61bd 2e9e 4ebc
000001e0: ee86 3dbc 8002 b2bc 28e5 71ba 35f4 133c
000001f0: ca54 5abd 325a 38bd c490 61bc 1dc2 4fbd
00000200: b417 08bd 7a7a f33c 246d 97bb 8944 c1bc
00000210: 8491 97bc ed08 11bd 676d ec3c 5491 d6bc
00000220: dccb 0e3c 40ae 0ebd 5607 373d 4828 733c
00000230: 84ba 8abc 4d8b 813b e229 2fbc afb2 3abc
00000240: 8259 b43d 1307 0b3c af50 e83a af2b 843c
00000250: d5fa c63c 4599 a63c e282 323d c879 b03d
00000260: 53c6 13bd 131f 1d3b 685e 65bc 7195 0c3d
00000270: 7e34 debc 8c55 cd3c 80bf a23c b043 d83b
00000280: 657f 843c 9c82 c6bc 6a3b 0c3d 19c7 d3bc
00000290: feda 25bc bc70 2b3d 1210 af3c 7603 223b
000002a0: 1bc8 f2bb cf59 9ebc 6294 d93c 8df4 843a
000002b0: 5e63 453c 622b 753c b408 133d ab7f 5abc
000002c0: 8195 2ebc 70dd ad3c 05be 5a3c fbeb cbbc
000002d0: b135 67bc 5b4f c93c b7b6 c33c 3626 18bb
000002e0: a244 6e3c dc80 25bd ad48 c53c 121d bebc
000002f0: 811c 933c 565d 363d c312 c33c 89e8 173d
00000300: 09b2 88bc d693 eebc 1217 04bd 3b69 143d
00000310: 6da3 b63c c721 11bd 1833 ddbc 4400 bebc
00000320: 6c74 d3bd 303c 153d 253c 1d3d ed81 d93c
00000330: 8b82 7f3b 4154 003d 4778 493c 54d4 693c
00000340: 7893 2d3b 4295 143c 0d0e 30bd 719a f6ba
00000350: c9a2 7bba 0889 ba3c fee3 3cbc a6b3 89bb
00000360: c15b 82bd efcc 15bd ecea 8bbb e506 983c
00000370: 2c38 3f3c c3ed f6bc bdd9 babc 9f64 813c
00000380: 7793 883c 1637 2cbd b9bb 553a 5689 5f3c
00000390: 5b13 b8bc 378e 1a3d 1782 3cbd 7842 b63c
000003a0: 0cd3 c3ba ee5b 20bc cfae 273d d109 52bc
000003b0: 51e3 ce3c 2912 04bd f383 87bc 9fee c13b
000003c0: a546 133d 39a3 9d3c 5949 fbbc d145 393c
000003d0: b72b 9dbc 5405 533c 962e 07bd 1ec6 5bbc
000003e0: 327f f73c 96aa 1bbd 068e 13bd b4c7 463c
000003f0: 074d 99bb 0cfb 47bc 82c1 383d dfb9 eebc
-0.028898632 0.01392468 -0.0126053495 0.042735964 0.021034803 0.008665011 -0.012771056 0.028502101
-0.010915998 0.03214973 0.03964476 0.041748255 0.026456257 -0.02096712 0.048269596 -0.006357956
-0.0011749597 0.0037198162 -0.071241155 -0.01714591 0.055314496 -0.00059295306 -0.06504091 0.03221968
0.01709868 0.0639243 -0.0636714 -0.02476972 0.069460936 0.04605174 -0.009659658 -0.008597209
-0.0026991602 0.020449223 -0.030824188 -0.059551593 -0.17718276 0.00547194 -0.025775293 0.020439742
-0.04403189 0.047037933 -0.048321523 0.043311927 -0.03028987 0.04319325 0.034492046 0.047830477
-0.023291072 0.012658908 0.030390676 -0.028474843 -0.0019704383 -0.0131209865 -0.006081059 -0.017828006
0.043593235 -0.00014787218 0.011392628 -0.0013948306 -0.0627328 0.0016131289 0.050648488 -0.016871216
0.01944168 -0.01065121 -0.00990329 0.05007485 0.032195065 -0.0066313636 0.013690449 0.018592704
0.0070107523 0.018058755 0.0066315704 0.0100122895 -0.01054139 0.014593928 -0.0271691 -0.015899034
0.022998704 -0.020445056 -0.014905031 0.04469326 -0.031779647 -0.011871368 0.020840526 0.014469555
-0.034116015 0.03712538 0.026439436 -0.013677161 0.044558547 -0.016032893 0.04187905 0.03618187
-0.027224615 -0.032003038 -0.053623553 -0.051724315 -0.18036288 0.012957816 0.07755081 0.098378114
-0.0068489877 0.0075156004 -0.015635494 0.025491146 -0.02772706 0.016484346 0.050902683 0.003977944
0.0030871998 -0.015754879 -0.025560068 -0.040053815 0.033436026 -0.022482086 -0.055169154 -0.012610955
-0.011567814 -0.021729708 -0.00092275674 0.009030391 -0.053303517 -0.045007892 -0.013767425 -0.05072223
-0.03322573 0.029721487 -0.004621165 -0.02359225 -0.018502004 -0.035408903 0.02886076 -0.026192345
0.008715596 -0.034834146 0.04468473 0.014841147 -0.01693464 0.0039533735 -0.010691138 -0.011395141
0.08806135 0.008485573 0.0017724241 0.016134111 0.024289528 0.020336756 0.04358185 0.08616978
-0.03607781 0.002397482 -0.013999559 0.034322206 -0.02712464 0.025065206 0.019866705 0.006599866
0.016174028 -0.024232201 0.03423635 -0.025851773 -0.010123013 0.04185556 0.021369968 0.00247213
-0.0074091083 -0.019329933 0.026560012 0.0010143683 0.012047617 0.014963957 0.03589697 -0.0133361025
-0.010655762 0.021223754 0.013350968 -0.024892798 -0.014111922 0.024573972 0.023890836 -0.0023216135
0.0145427305 -0.040406093 0.024082506 -0.023207221 0.017957928 0.044522606 0.023812657 0.037086997
-0.016686456 -0.029123228 -0.032248564 0.036233168 0.022294724 -0.035432603 -0.027001902 -0.023193486
-0.1032494 0.036434352 0.038387436 0.026551211 0.0038987722 0.03133035 0.012296743 0.014271814
0.0026485603 0.009068789 -0.04298215 -0.0018814338 -0.0009599147 0.02277042 -0.011528967 -0.004202324
-0.06365157 -0.036572393 -0.004269948 0.018557975 0.011671107 -0.03014267 -0.022808904 0.01579505
0.01667188 -0.04204472 0.0008153278 0.013643583 -0.022470167 0.037733283 -0.0460225 0.022248492
-0.0014940216 -0.009787543 0.040938195 -0.012819723 0.025254877 -0.03224388 -0.01654241 0.0059183384
0.035956044 0.01924287 -0.030674623 0.011308149 -0.019185884 0.012879688 -0.033003412 -0.013413934
0.030212019 -0.03800448 -0.036024116 0.012132574 -0.004678372 -0.01220585 0.04510642 -0.029141365

bias f4 [32]
00000000: 884b 253d 88af 9fbc 7d06 2cbd b134 903c
00000010: 0f37 26bc 8714 aa3c 7a76 063d 73b9 0ebb
00000020: 3f3a 91bb 3d23 45bc 0d8f 5b3d b125 4abc
00000030: ec62 50b9 91e0 a0bc 9f73 e5bb 9d34 c1bc
00000040: 0441 c33c b335 fdbc 7cb3 27bb 7d3e 36bc
00000050: 821a 0e3d 92fd 84bc 6bdd 5abc 86b6 edbc
00000060: 97ec 2fbd c503 bdbc 2039 9f3c f571 16bd
00000070: f6b1 94bb 10ce e53c eb01 043d f4da 013d
0.040355235 -0.01949288 -0.041998375 0.01760325 -0.010144963 0.020761741 0.03282783 -0.0021778017
-0.0044319923 -0.012032327 0.05360322 -0.012338088 -0.00019873277 -0.019638332 -0.0070023085 -0.023584658
0.023834713 -0.030909395 -0.0025589159 -0.011123297 0.03469325 -0.016234193 -0.013358454 -0.029017698
-0.04295024 -0.023073087 0.019436419 -0.03672977 -0.004537816 0.02805236 0.03222839 0.03170295

weight f4 [9, 32, 3, 3]
00000000: 1e53 6c3d d273 663d 68f1 21bc d4b5 a5bc
00000010: 7e70 043b 8c95 d53c aac4 3b3c e836 d8bc
00000020: e02d 6f3d 825e 6ebd f037 2c3b 7931 0ebd
00000030: 4719 a1bc e881 66bd 4165 f7bc b0ee 2fbd
00000040: 1476 3c3c e03f ffbc a280 733d 6cc1 1bbd
00000050: 91a5 3a3d 3570 0ebd 977a 3bbd 1825 9c3d
00000060: b927 5c3d a753 e1bc ef9c 8cbc 3207 56bd
00000070: fa2b 503c a878 18bc 97c1 453c 9f02 183d
00000080: 5396 013d 2128 30b9 2159 ab3c 799d 29bd
00000090: 1ee8 3abc 5da8 2dbc 3f41 263d 2097 78bd
000000a0: ec5d 093e 4584 e83c 7383 7ebc 3479 cfbd
000000b0: f7a9 45bc 00b0 dcbc a575 f33c 568f f1bc
000000c0: 21eb 673d e499 e43c d37d 0fbd e6fb b53b
000000d0: fba3 013d 9055 8b3d a7c8 01bd e27f 31bd
000000e0: 003c 0fbd 82a7 83bb 42d9 553d 541c 3f3b
000000f0: d06a 123d a0c1 23bd 0286 8abd eea8 663c
00000100: 6daa 9e3d cce3 543c cec1 98bb b9ff 22be
00000110: c0a1 993d 4f09 85bc 8a9a 87bd 3e86 0e3d
00000120: a1d5 403d 0bc8 9fbb a209 24bd 0e41 0fbd
00000130: 2982 55bc 0459 133c 3d38 7739 8d5d 25bd
00000140: d8e3 863d c027 0d3b 97ea 723d 490c 9bbc
00000150: b460 4a3d 16a7 f53c 1b48 35bd a402 163d
00000160: 57ae 353d d8c7 22bd 16a5 a4bd 68bb f9bd
00000170: afbd df3c 7787 e73d 753c 9abd 4037 d73d
00000180: 7274 23bd 083d 10bd d3e1 f33c b8bd 41bd
00000190: 31b9 ebbc 3840 253c fb60 3c3d edef 93bc
000001a0: e184 acbc bab3 31bd 6b9d 323d 3dd6 ad39
000001b0: df1d 923c d38d 43bd 4c7f 8bbd 4297 643d
000001c0: f7a0 64bd b3df d83b bddc b23c 1207 783c
000001d0: 185e 25bd 858f 0f3d a76f 813d 2895 513d
000001e0: 2fae ba3c 7c7a 2e3c e474 c1bc 1aca dfbc
000001f0: febe c1bc f81e 8cbb b1b5 773d 90d7 323d
00000200: 104a 86bc 4eb0 333b 7668 643d a415 23bc
00000210: c189 88bd 7d17 46bc f0ae 4ebc 20f6 bb3c
00000220: 1573 073d 32cc 85bb 8546 373d c031 b03c
00000230: 0475 24bd a6d1 9bbc 3315 213d 7a69 40bd
00000240: 9e4c 4c3c 8e2d 353d 5182 01bd a55f 123d
00000250: 058e cabc 8083 123d 8d79 f03c 3e0c 0f3d
00000260: 5d34 e5bc dc0b 53bd 273c abbc abfb 053d
00000270: 3b4d bc3d 55ad 2f3d 0bdf 2abd 476b 0a3d
00000280: f071 423d ef8e dd3c 6d2e 9cbb 3646 f03c
00000290: 3042 8ebb 856c bf3b d4bd b13d 0ef9 fb3c
000002a0: f35d 45bb be02 ddbc bb27 3cbd 9740 843d
000002b0: b675 623c 6569 2dbc cb91 4b3a a85e 9bbc
000002c0: a74c 153d 5eed a93c d20c e03c d4ef 793a
000002d0: 7232 973c 00dc 453d 30f2 0a3d 7e35 5c3d
000002e0: 0e52 b23c 41d9 123d 0c1a 80bc 522d 1dbd
000002f0: afae 1d3d 0600 693b e7f2 20bb 32a1 463c
00000300: c7df d33c ad2a 3aba f006 f23c 4e5f 5d3d
00000310: d069 8938 de90 32bc 4ac1 d239 da12 223e
00000320: eb00 973b cf33 37bc c761 353e f5c2 433d
00000330: 582f 4cbc cd84 dabc 2c58 b1bc b4d6 d4bd
00000340: b9a6 2a3a 2cec 8f3c 10b8 cc3d 6ecc 703d
00000350: ba8d da3c deaa edbc 97c5 13bb bade e3bc
00000360: f1fd 0ebc 081b 1d3d a136 35bd fb04 cd3c
00000370: 5798 eabc db11 aebc c2dc 9d3c 5155 2b3d
00000380: 62b3 bdbc aa9b 0f3d 5edc df3c c592 3abc
00000390: 627c 04bd e64f b1bb 392f 06bd 5825 d5bc
000003a0: 5c11 683d 6eb8 e4bc 4800 82bc bf06 133d
000003b0: f689 a6bc e749 fdbc fe86 32bc 97b6 a0bc
000003c0: ba8c 533d 8d10 2bbc a332 c93c 39ef 253d
000003d0: 6365 62bd 10d1 083d 1c83 6a3d a876 31bd
000003e0: e746 2d3d 658d c2bc f688 5d3c d99d 03bd
000003f0: 7773 49bd ede9 59bc dddf a3bc 3d5e 82bd
0.057696454 0.0562628 -0.009884216 -0.020228304 0.0020208652 0.026072286 0.011460463 -0.026393369
0.05839336 -0.0581956 0.0026278459 -0.03471515 -0.019665373 -0.056276232 -0.030199649 -0.04295224
0.011502761 -0.031158388 0.059448846 -0.03802626 0.045568053 -0.034774978 -0.045771208 0.076242626
0.05374882 -0.027505709 -0.017164676 -0.052252956 0.012705797 -0.00930611 0.012070081 0.037111875
0.0316375 -0.00016799617 0.020916523 -0.041409943 -0.01140788 -0.010599223 0.040589567 -0.060691
0.13414735 0.028383384 -0.01553427 -0.101305395 -0.012064449 -0.026939392 0.029719183 -0.029487293
0.05662072 0.027905412 -0.035032105 0.0055537103 0.031650525 0.06803429 -0.031685498 -0.04333485
-0.03496933 -0.004017771 0.052209146 0.0029161172 0.035746396 -0.039979577 -0.06763841 0.014078362
0.0774735 0.012993764 -0.004661775 -0.15917863 0.075015545 -0.01623979 -0.06621273 0.034795992
0.047078732 -0.004876142 -0.04004825 -0.03497415 -0.013031521 0.008993391 0.00023576706 -0.04037242
0.065864265 0.0021538585 0.059305754 -0.018926756 0.04940863 0.0299869 -0.04425822 0.036623612
0.044355717 -0.039741367 -0.080393 -0.12193948 0.027312128 0.11305135 -0.075310625 0.10508585
-0.039905973 -0.035214454 0.029770767 -0.04730007 -0.02877483 0.010086112 0.045990925 -0.018058741
-0.021059455 -0.04338429 0.043607157 0.0003315675 0.01783651 -0.047742676 -0.06811389 0.055808313
-0.05581757 0.006618464 0.021833772 0.015138404 -0.040372938 0.03504898 0.06320124 0.051167637
0.022788135 0.01064932 -0.023615308 -0.02731805 -0.023650642 -0.0042761527 0.06047601 0.043662608
-0.016392738 0.0027418318 0.055763684 -0.00995389 -0.066668995 -0.012090561 -0.012614951 0.02294451
0.033068735 -0.00408318 0.044744987 0.021508098 -0.040150657 -0.019020867 0.039326858 -0.04697559
0.012469439 0.044232897 -0.03161842 0.035735745 -0.024725923 0.03576994 0.029354835 0.034923784
-0.02797907 -0.05152498 -0.020902706 0.032710712 0.09194418 0.04288991 -0.041716617 0.033793714
0.04747194 0.027045695 -0.0047662766 0.029330354 -0.0043413863 0.005841794 0.08678785 0.030758407
-0.0030115813 -0.026978847 -0.045936327 0.06457632 0.01382201 -0.01058421 0.00077655603 -0.018966034
0.036450054 0.020743068 0.027349863 0.00095343334 0.018456671 0.04830551 0.033922374 0.05376195
0.021767642 0.03585172 -0.01563742 -0.0383733 0.03849667 0.0035552992 -0.0024558844 0.012123393
0.025863541 -0.0007101696 0.029544324 0.054045968 6.552378e-05 -0.010898797 0.00040198333 0.15827504
0.0046082637 -0.011181786 0.1771308 0.047793347 -0.0124624595 -0.026674652 -0.021648489 -0.10392514
0.0006509829 0.01756867 0.09996045 0.05878871 0.026678909 -0.02901214 -0.0022548193 -0.027816165
-0.008727537 0.038355857 -0.04424155 0.025026789 -0.028637094 -0.021248749 0.019270305 0.04182941
-0.023156825 0.035060562 0.027326759 -0.011387532 -0.032345183 -0.005411136 -0.03275988 -0.026018783
0.05665718 -0.027919974 -0.015869275 0.035895105 -0.020329457 -0.030919028 -0.010896442 -0.019618316
0.05164788 -0.010440958 0.024560278 0.040511344 -0.05527247 0.033402503 0.057253942 -0.04332605
0.042303946 -0.023749063 0.013521424 -0.032132957 -0.04918238 -0.013300401 -0.020004207 -0.06365631

bias f4 [9]
00000000: 01dd 673d 3449 c93c 6116 593d 0bcb d33c
00000010: e025 323c ebfe 533c fda6 e33b edc0 f53c
00000020: 3218 8b3c
0.05660725 0.024571039 0.052999858 0.025853654 0.010873288 0.012939195 0.006947397 0.02999922
0.01697931
