.processed/8_logs_scale_3_crop_128/epoch_17_model.pth (torch_old, 93460 bytes, 6 tensors)

weight f4 [64, 1, 5, 5]
00000000: d937 0e3e 80b8 1f3e 0dcf 73bd 1d24 343e
00000010: 91ae 4abd 30fe 023d cd11 d8bd e077 e23d
00000020: 5f86 303e c27e 19be 773a 2c3e 54d7 f63c
00000030: ea96 183e 8003 fc3c d21c c43d 31c2 15bd
00000040: 5943 1c3e 60b1 f63c 9216 bbbd 5b0e 433d
00000050: b7d8 d1bd c81a f1bc 5a11 a3bd d312 073e
00000060: 9723 24be 43c5 babd 4602 56bd 94d3 f0bd
00000070: 384a a93c eda4 45be 4f40 3a3e 409f 2dbe
00000080: 4057 223e a34d 0a3d 1f2d 7ebd 611f fd3d
00000090: 3227 1c3d 7c9a 333e 9126 cd3c 140c 76bd
000000a0: b0f4 543d 7636 50bd a24a bc3d 0981 3a3e
000000b0: e9f1 ee3d 4069 bdbd 359c e53d ab44 0e3d
000000c0: 9ab9 ca3d c7b2 febd 0b0f 43bd dced fcb9
000000d0: e776 8ebe 7603 173e 774e e3bc f667 f03c
000000e0: bb76 0bbd da60 453e e68b c13e 9809 b9be
000000f0: f219 f33c f9c9 55be c9cd 773e 465c 40be
00000100: 0718 39be fdb5 12b9 23b4 173e 0f32 8d3c
00000110: 2644 7ebd eb41 b7be 9498 b83d aa07 0cbe
00000120: ecc4 363e 5f84 bd3c 9475 c3be b2dc 8dbd
00000130: 5bdc b5bd 9c63 c43d 856a 363d d4bc c63d
00000140: 9fa3 23bd 5b80 19be 381d 333e 98e8 a6bd
00000150: f43f d53d 06ff 8ebc 86f7 343e 03c8 04be
00000160: d51d bbbd 5fc3 9a3d c874 8b3d 2311 22bd
00000170: 4827 3c3e 653d 2e3e 6581 d1bd 02b1 cabd
00000180: 54f6 463e 01c2 82bd c4af 0fbd 5000 05be
00000190: a5d8 023d 7e6f 113e dd51 1c3d b98e b6bc
000001a0: 11bb 3a3d 42a3 80bd a36c 30be 3d82 71bd
000001b0: fe5d 71bd 6247 4539 c931 363e 2af8 3f3e
000001c0: 413c 023f 3c8e 94be 6ffd 8bbd 63c2 bebd
000001d0: 02a8 423d 6823 cebe e730 41be 0f88 1abe
000001e0: c7fc a63d 8246 13bd fd03 013d 6fd7 99bd
000001f0: ab84 85bd a4cf c7bd 9acb 41bd 7d9c 0bbe
00000200: 6318 323e ab87 fabc 9144 343e b4bb a93d
00000210: 4c0c 2bbe cba8 103e 31b4 59bd 071d 69bd
00000220: 63a2 1dbe b853 4bbe d162 973d 4363 0cbd
00000230: f029 b83d 7452 1abe c603 2b3e 5c12 11be
00000240: 54d1 9fbc c3a0 213d 89f1 e13d 3ac9 1d3e
00000250: c51f 3f3e 6b44 21be d4a4 8e3d 9e52 9cbd
00000260: 92be 443b 595d 15be 4ebc 423e 0cd1 03be
00000270: 4a15 f43d c2a1 da3d a4d9 8e3d c131 bebd
00000280: 466d 513e 930e 883d 1989 a63d 7764 32be
00000290: deb6 e43d 1146 31bc 50d2 a1bd 3fe0 593e
000002a0: 33ca 573d 0413 adbd 82d7 9bbd 7dcf 6e3b
000002b0: bc83 003e d5f3 25bd 1654 abbd 7a8b 90bd
000002c0: 107a 1bbe c579 8f3d 2229 1c3e 3bbf 44be
000002d0: c012 2c3d 0e51 d33d fcc1 213d 887d 97bd
000002e0: ead9 d03d 0c62 d23d 8fa8 a13d 2040 04bd
000002f0: 4f1e 5bbd 59ed 9b3c dd41 2cbd 8ad7 7ebd
00000300: dfa3 053e 7694 2e3e 209d c6bc 0a02 62bd
00000310: e5d1 52bb 8d4a 73bc 0ce2 343d 75bd 533d
00000320: 435e 0fbe ce70 06bd 5130 573e 828f eb3d
00000330: e59b ba3c d43c a0bd 2335 a7bd dcc8 20be
00000340: ea8b ecbc 61f2 d93d 6db7 203e 8786 003e
00000350: 0669 35be ccfe bfbd 886b a23b 34c1 5d3e
00000360: 9142 7c3d 5836 1abd e870 e23d 5642 38bd
00000370: 6165 e2bd 52e8 303e 4916 8cbd 1eb7 4abc
00000380: df9f 2dbe a0fa 023e 3232 0e3e e2c5 6f3d
00000390: 8ac4 fabd d1af 12be 170c 32be 7afa 183e
000003a0: bac4 1f3e 272c 503e 1242 f83d e28f 333d
000003b0: 2b97 2a3c 6b18 33be c2da 2cbe 4888 22be
000003c0: 8272 c13d ee67 7dbd 2386 9b3d d357 9cbd
000003d0: ce87 833b eb79 99bd 9ce2 bfbd 0ca7 a43d
000003e0: 9813 3dbd c278 083e 427b 26bd e99d 01be
000003f0: 913f d9bb 9334 aebd d5d0 5fbd db53 3abe
0.13888492 0.15597725 -0.05952363 0.17591901 -0.049482886 0.031980693 -0.1055027 0.110580206
0.17238759 -0.1498976 0.16819178 0.030131973 0.14901319 0.030763388 0.095758095 -0.03656215
0.15260066 0.030113876 -0.09135164 0.047621112 -0.10246413 -0.029431716 -0.07962294 0.13190775
-0.16029201 -0.09119656 -0.052248262 -0.11759105 0.020665273 -0.19301195 0.18188594 -0.1695528
0.15853596 0.033765446 -0.06205475 0.12359501 0.038123317 0.175394 0.025042804 -0.060070112
0.051991165 -0.050833188 0.091939226 0.18213286 0.116672345 -0.092485905 0.11211435 0.034733456
0.09898682 -0.12436443 -0.047621768 -0.00048242405 -0.2782509 0.14747414 -0.027747376 0.029346447
-0.034048777 0.19275227 0.37802047 -0.36140132 0.029675458 -0.20877828 0.24199595 -0.187852
-0.18075572 -0.00013991441 0.1481481 0.017235784 -0.06207671 -0.3579248 0.09013477 -0.13674799
0.17848557 0.023134409 -0.38175642 -0.0692686 -0.0887992 0.095893115 0.04453518 0.09703985
-0.039950963 -0.1499037 0.17491615 -0.081498325 0.10412589 -0.017455589 0.17672548 -0.12966923
-0.091365494 0.07556795 0.06809384 -0.039567124 0.1837436 0.17015608 -0.10229758 -0.09897043
0.19429904 -0.063846596 -0.035079733 -0.129884 0.03194489 0.14202687 0.03816401 -0.022284852
0.045588557 -0.06281139 -0.17228942 -0.058962096 -0.05892753 0.00018813976 0.17792429 0.18747011
0.5087319 -0.29014766 -0.06835448 -0.0931442 0.047523506 -0.40261388 -0.18866311 -0.15090965
0.08153682 -0.035955913 0.031497944 -0.07511794 -0.06519445 -0.09756401 -0.04731331 -0.13633914
0.17392115 -0.03058227 0.17604281 0.08287755 -0.1670391 0.1412689 -0.05315036 -0.05691245
-0.15393977 -0.19856155 0.073918946 -0.03427435 0.08992374 -0.15070516 0.16700658 -0.1416716
-0.019508995 0.039459955 0.11032397 0.15408793 0.18664463 -0.15748756 0.06965032 -0.076329455
0.0030020815 -0.1458639 0.19017145 -0.12872714 0.11918123 0.10675384 0.069751054 -0.092868336
0.20451841 0.06643405 0.08131618 -0.17421137 0.11167692 -0.010819928 -0.07901442 0.2127695
0.052683067 -0.084508926 -0.07609464 0.003643959 0.12550253 -0.04051574 -0.083656475 -0.07057853
-0.15183282 0.070056476 0.15250066 -0.19213574 0.04201007 0.10318194 0.03949164 -0.0739699
0.10197814 0.10272607 0.07893478 -0.032287717 -0.0534957 0.019034075 -0.042055 -0.062217273
0.13050793 0.17048821 -0.024244845 -0.055177726 -0.0032168564 -0.014849317 0.044160888 0.051694352
-0.14000802 -0.032822423 0.21014525 0.11501981 0.022779414 -0.07824102 -0.08164432 -0.15701622
-0.02887531 0.10641933 0.15694971 0.12551318 -0.17715845 -0.093747705 0.0049566664 0.21655732
0.06158692 -0.037649482 0.110566914 -0.044985138 -0.11054493 0.17276123 -0.06840188 -0.01237276
-0.16955517 0.12790918 0.13886335 0.058538325 -0.12244518 -0.14324881 -0.17387424 0.14939299
0.15602389 0.20329343 0.12121977 0.04383839 0.010412018 -0.17489783 -0.16880324 -0.158723
0.09445669 -0.061866693 0.07593944 -0.07633939 0.004013992 -0.07493957 -0.09369394 0.08039674
-0.046161264 0.13327315 -0.04064489 -0.12657894 -0.006629892 -0.085061215 -0.054642517 -0.18196051

bias f4 [64]
00000000: 37da 33be 7211 c63d 4945 18bd e792 493d
00000010: 76ed 473d 075a 233e ca4d 5fbc 3aec 493d
00000020: 13d1 8b3d 9246 dd3d 1930 033d 1568 593d
00000030: 2266 f6bd ab56 04be 6d37 283e 6333 0dbe
00000040: 14dd db3c adec 4cbc a269 443e 77ca 08bd
00000050: 7797 c0bd ee37 23bd 2ece 143e 75d5 cb3d
00000060: a67c 1a3e d04b d13c dfea a03d fff4 37be
00000070: a9ac a03d 538a be3d ed5c e23d d012 8abc
00000080: 1560 32bd e571 893d 476c 0abe 7f61 1dbe
00000090: 96d4 2dbe 8c2c de3d cb0e f63d 5745 5a3d
000000a0: 57f9 973c 1de9 aa3d 0e71 f0bd 28c6 2a3c
000000b0: 542a 07bd 45cb 11bd 80a6 263e 84d6 02be
000000c0: e40e b63c 8dc6 38be fea1 ee3c 23ad aabd
000000d0: f330 8f3d 05ba 8cbd c3cd 083e bde7 07be
000000e0: aadd 0f3e 45a0 a0bd b5b2 c23d 7490 abbc
000000f0: 9da2 5fbc 2d1d acbc 46ba f53d 68f8 903d
-0.17563711 0.09671296 -0.03717545 0.049212363 0.048810445 0.15952311 -0.013629386 0.04929755
0.06826987 0.10804476 0.03202829 0.053077776 -0.12031199 -0.12923686 0.16427393 -0.13789134
0.026838817 -0.0125076 0.1918092 -0.03339621 -0.094038896 -0.03984826 0.14531776 0.09952823
0.15086612 0.025548846 0.07857298 -0.17964552 0.07845432 0.09303727 0.110528804 -0.016854674
-0.043548662 0.06711177 -0.13517867 -0.15369223 -0.16975626 0.108483404 0.1201454 0.053288784
0.018551512 0.08345244 -0.117403135 0.010423221 -0.03299935 -0.035594244 0.16274452 -0.12777144
0.022223897 -0.18044491 0.029129978 -0.083338045 0.06991758 -0.06871418 0.13359742 -0.13271995
0.14049402 -0.07843069 0.09506742 -0.020942904 -0.01364961 -0.021010006 0.119984195 0.0707863

weight f4 [32, 64, 3, 3]
00000000: 85e3 f5bc 846d 493c fa76 79bc 55ec 263d
00000010: f33d 973c dd71 b13b df39 6bbc f865 d43c
00000020: f76c 61bc fa1c f63c b601 183d 4dfe 1f3d
00000030: d081 c93c 896f bdbc a492 3c3d e351 e6bb
00000040: 87fa fcba cd3b 553b 0059 6abd fe42 babc
00000050: 47b8 7c3d a0bb fb39 bcbe 6abd 7361 033d
00000060: bc2f 173c 3970 883d 141b 95bd a89d bbbc
00000070: 18a3 8f3d 8bd4 3f3d fca6 00bc 782d 09bc
00000080: ca2d 3cbb 03ba a23c a268 f5bc 90c0 6dbd
00000090: 29a6 28be d7c7 46bc 7ba7 03bd a5d3 55bb
000000a0: fff2 03bd e7d1 133d 62f7 0abd 0218 e73c
000000b0: 9a6e 20bd f530 1f3d ef55 003d 5f1b 363d
000000c0: e403 d4bc 9570 313c 7a2e e43c e2b0 05bd
000000d0: 4f0b 69bb 51cb 82bc 9645 d9bb 0d81 99bc
000000e0: 1682 2c3d de3f 05ba 0ec1 0b3c 925a 5cbb
000000f0: db47 82bd 46d3 8c39 193e 4b3d 3c6f 93bc
00000100: bc67 9a3c 9cad 36bc 108b 20bc 989e 4b3d
00000110: 3767 023d 3791 cbbb 7926 653c 075b 983c
00000120: 9681 af3b c24c 653c 6b87 5638 8e3f 073c
00000130: abaa 6abc cd0e 093c ed17 08bd 507b bbbc
00000140: 0877 913c b03d 80bc b39d 29bc bfdb 443d
00000150: 95c5 e6bc 02ef ebbb f3c3 d33c 7727 8a3c
00000160: 5659 06bd 8634 1b3d f4b0 e73c 874e 42bc
00000170: e6df 393d f8e4 69bc 0ae2 333d f750 233d
00000180: 1346 bcbc 5f02 e5bc 2bd0 4abd 4e23 79bd
00000190: e639 28be 371c b7bc 4c71 833d fac8 a83d
000001a0: aac9 e73b 99e1 023c 529d a6bb 734a 8e3c
000001b0: d210 dabc a585 8b3c 0576 553d 45cf d03b
000001c0: 9cfe 833b 4d94 6cbc e406 afbc 6ee1 11bd
000001d0: ef95 173d 9ab6 92bc 2494 4ebd 8a68 01bc
000001e0: 0400 ebbb 738e 8dbc 0f2f 6e3b 9e26 5b3c
000001f0: 3a80 48bd 1505 27bd 37c1 52bc 663f 4abd
00000200: 6721 08bd f532 fc3c be92 b3bb 4c5e c2bc
00000210: 5e06 a1bc bb14 1cbd 6ab3 d33c 207d 83bc
00000220: f1b8 593c 2042 0abd 0c3b 393d 2a33 9e3c
00000230: 98fd 2fbc 7eab 173b ca87 14bc 0849 45bc
00000240: cd8e ae3d a235 bc3b b9f8 33ba 4f15 543c
00000250: 41f8 b13c 08c8 9a3c 312f 2a3d 79fc ac3d
00000260: a8a6 17bd 2bac 9139 4811 5dbc ed18 183d
00000270: 1b9f ddbc c8c7 d73c 75a3 b23c 1e2d 283c
00000280: c90d b13c 41a7 98bc f66d 093d 53d0 d4bc
00000290: df34 27bc ccf9 293d bd75 aa3c d191 083b
000002a0: a1cd eebb b604 9abc be00 e83c 05e4 8a3b
000002b0: 0ecc 653c 7584 903c 62f3 1e3d c98f 2fbc
000002c0: 0030 f4bb 206c dc3c f086 a13c 15ab 98bc
000002d0: 6443 c2bc 8065 7c3c b300 7a3c 5e8d 25bc
000002e0: 4ee5 d33b fc51 48bd 9da0 8c3c a845 fbbc
000002f0: ed8e 2b3c f210 343d 844f c63c f4fe 1e3d
00000300: 3494 94bc 866c f6bc e9ad ffbc 483d 143d
00000310: 6aa5 bd3c a335 04bd 86bb d0bc d964 a9bc
00000320: d401 d0bd 11e8 1b3d 5422 1c3d 767f d33c
00000330: 0acf 863b 446e fe3c 8471 283c 489a 8a3c
00000340: cf72 aa3b 0917 193c b326 29bd afff bd3a
00000350: dd21 543a 9a78 c53c 05d7 27bc f058 adbb
00000360: fa79 60bd 2f24 16bd 8200 983b df23 cb3c
00000370: 6b95 7c3c 1eb0 c1bc c3ab 8abc 0f00 dd3b
00000380: bada 8e3c 7c92 27bd 31c1 9b3b 6ecd 7b3c
00000390: f8f9 40bd dc39 52bb b827 edbc 1efb 32bc
000003a0: 6c11 4abb 9d8b 8cbc 8367 2b3d 5fea 4ebc
000003b0: 466e d63c 97ad febc 0f6a 7abc 415c f83b
000003c0: ad5b 183d 780a af3c 8748 edbc 07f1 123c
000003d0: 5a44 acbc f997 3d3c 7f7a 05bd 69cc 5dbc
000003e0: a607 fd3c 79d9 1ebd 14e7 18bd fc67 473c
000003f0: 6eb3 fbba e65b 3fbc c20c 363d a361 ebbc
-0.030015716 0.012294177 -0.01522612 0.040752728 0.018462157 0.005415185 -0.014357059 0.025927529
-0.013758889 0.030043114 0.037111007 0.03906088 0.024598032 -0.023124473 0.046038285 -0.0070288046
-0.0019300737 0.0032536865 -0.057213783 -0.022737022 0.061699178 0.00048014242 -0.057310805 0.032075357
0.009227689 0.0666203 -0.07280555 -0.022902325 0.070135295 0.046833556 -0.007852312 -0.008372657
-0.0028713816 0.019864088 -0.02995712 -0.05804497 -0.16469635 -0.0121326065 -0.032142144 -0.003262737
-0.03221416 0.03608885 -0.03392733 0.02820969 -0.039167978 0.03886505 0.031331953 0.044459697
-0.025880761 0.010830064 0.027854193 -0.03263939 -0.003555972 -0.01596609 -0.0066306097 -0.018738294
0.042116247 -0.00050830643 0.008529915 -0.003362332 -0.063613616 0.00026860292 0.049619768 -0.017997377
0.018848293 -0.01114979 -0.00979878 0.049711794 0.031836715 -0.0062123793 0.013986223 0.018598093
0.005356024 0.013995351 5.1147694e-05 0.008254899 -0.014322917 0.008365345 -0.033225942 -0.022885948
0.017756954 -0.015654415 -0.01035254 0.04806113 -0.028170386 -0.007200123 0.025850272 0.016864521
-0.03280004 0.037891887 0.02828262 -0.011859543 0.04537954 -0.014275782 0.04391674 0.039872136
-0.022982633 -0.027955232 -0.04951493 -0.060824685 -0.16428337 -0.022352321 0.06418094 0.08241458
0.007073601 0.007988357 -0.005084672 0.017369485 -0.026619349 0.0170315 0.052114505 0.0063723647
0.0040281545 -0.014439655 -0.02136559 -0.035615377 0.037008222 -0.017909337 -0.050434247 -0.007898459
-0.0071716327 -0.01727984 0.0036343967 0.013375906 -0.04895041 -0.04077633 -0.012863449 -0.049376868
-0.03323498 0.030786017 -0.0054801395 -0.023726605 -0.019656356 -0.038105708 0.025842387 -0.016050875
0.013288722 -0.033754468 0.045222327 0.019311506 -0.010741614 0.0023142989 -0.009065578 -0.012041338
0.08523331 0.005743698 -0.00068653707 0.0129445335 0.021724822 0.01889421 0.04154891 0.08446593
-0.03702417 0.0002778483 -0.01349289 0.037133146 -0.027053406 0.02634038 0.021806458 0.010264663
0.021613019 -0.01863444 0.033552133 -0.025978243 -0.010205477 0.04149799 0.020808095 0.0020838866
-0.0072876965 -0.018801074 0.028320666 0.004238608 0.014025701 0.017641285 0.038806327 -0.010715433
-0.007452011 0.026907027 0.019717664 -0.018636266 -0.023713775 0.015405059 0.015258956 -0.010104505
0.0064665442 -0.04890631 0.01716643 -0.030672863 0.010471088 0.043961473 0.024207838 0.03881736
-0.018137075 -0.030081045 -0.031210857 0.036191255 0.023150165 -0.032277714 -0.025480043 -0.02067797
-0.10156599 0.038063113 0.038118675 0.025817614 0.0041140364 0.031058438 0.0102809705 0.01691927
0.0052016745 0.009343871 -0.041296672 0.0014495755 0.0008092204 0.024105359 -0.010244136 -0.005290143
-0.054803826 -0.0366556 0.0046387324 0.024797378 0.015416483 -0.02364355 -0.016927605 0.0067443918
0.017438281 -0.040911183 0.004753255 0.0153688025 -0.04711339 -0.0032077944 -0.028949603 -0.010924129
-0.0030833138 -0.017156417 0.041846763 -0.012629121 0.02617563 -0.031088633 -0.015284075 0.007579357
0.037196804 0.021367297 -0.028965248 0.008968598 -0.021028686 0.011571878 -0.032587525 -0.013537505
0.030887436 -0.038781617 -0.03732975 0.012170788 -0.0019203254 -0.011679625 0.04444576 -0.02873308

bias f4 [32]
00000000: e79f 163d 2825 81bc 0228 dfbc 41b5 643c
00000010: f2a1 46bc 60ff 863c bbf5 063d 6368 3cbc
00000020: a7b1 dabb 947a 57bc 0e06 673d 8c89 5bbc
00000030: bfa4 dcba e5f8 c2bc 7bfa dcbb cf05 93bc
00000040: 2ce4 9f3c 1606 00bd d69d 38bb 3c06 58bc
00000050: f427 0b3d 7398 91bc 55ed 6fbc d13a 98bc
00000060: e24f 31bd bb3b bfbc 12f8 b63c 2947 22bd
00000070: 28b3 20bc d09c df3c 639a 093d e282 003d
0.03677359 -0.015764788 -0.027240757 0.01395923 -0.012123572 0.016479194 0.03294919 -0.011499497
-0.00667401 -0.0131517835 0.05640226 -0.013399493 -0.0016833766 -0.023800323 -0.006743727 -0.017947106
0.01951798 -0.031255804 -0.002817025 -0.01318508 0.03397365 -0.017772889 -0.014643987 -0.018582733
-0.043289073 -0.023343911 0.022335086 -0.039618645 -0.009808339 0.027296454 0.0335945 0.03137482

weight f4 [9, 32, 3, 3]
00000000: 6992 5e3d 8f33 5f3d 270e 2abc e10c c0bc
00000010: 018c c5ba c801 c73c 27bb 033c 5b3e efbc
00000020: 4035 6a3d 64e0 25bd aa2e 823c f69c c8bc
00000030: 99c4 e73b f575 d5bc 765a 97bb b19d 3fbd
00000040: 5a6f ee3b 3bc2 29bd 91d6 3f3d 9434 2abd
00000050: 1bce dd3c befc 36bd af45 55bd de24 713d
00000060: 3abd 483d 9fc5 35bd b0ab 05bd 0e44 58bd
00000070: a4ea 3e3c e08b 1abc b7b3 143c e5f3 0b3d
00000080: 9db9 fb3c a749 30bb e6fd 9d3c edb2 29bd
00000090: 7e07 cabb 3886 54bc faaa 303d 339d 89bd
000000a0: a5d9 013e 7f35 f73c 92a1 0cbc 6415 cfbd
000000b0: 9a34 92bc d972 e1bc f4e6 ec3c 5ce4 fbbc
000000c0: fdd4 5d3d 653c d23c b51b 12bd 100d 313b
000000d0: 7d88 ee3c a5c4 893d e4a1 e4bc 3361 31bd
000000e0: efab 0bbd db42 b83a d539 543d 3c0e b03b
000000f0: 41c3 213d 31c7 1cbd 06e2 80bd 0189 103c
00000100: 7931 943d aa32 6a3c 0d53 47b6 b0de 1bbe
00000110: 9a82 9d3d 3bfe 8ebc 237b 95bd a571 0a3d
00000120: 86bd 3f3d b338 a7bb 05c6 21bd d9b6 14bd
00000130: 63bc 7fbc de8f 0a3c aef0 83b9 5f4a 29bd
00000140: 6e6f 863d f55b a43b a8f4 7a3d 5880 85bc
00000150: c1b7 413d 75f5 f53c 4f3f 30bd 32f6 1f3d
00000160: e0a4 3b3d 23c8 16bd 6936 a2bd 5cc8 eebd
00000170: bb9a 013d 6361 cc3d bcb3 74bd 8911 c83d
00000180: 5846 4ebd 4004 d2bc 39a4 a93c dfa3 43bd
00000190: cc39 f8bc 28e6 513c 33df 4c3d cacf 8ebc
000001a0: b474 a2bc 71eb 2abd 513e 283d 09e6 7f3a
000001b0: fc78 173c d56d 44bd f2e1 8fbd b99c 443d
000001c0: c63b 5fbd 1315 6a3b ee50 a13c 4feb 843c
000001d0: fa08 32bd 0c32 043d 185e 7a3d a4b6 4f3d
000001e0: fd16 ab3c 261b 003c 54c8 c7bc 4891 f5bc
000001f0: 435a dabc d99d ccbb 4b03 6c3d c35a 323d
00000200: f9d0 55bc 39ce 6c3b edb6 5a3d a607 c1bb
00000210: 5487 7dbd 3033 41bc d419 20bc d0a6 9f3c
00000220: 1850 f73c d6f8 7dba 4d09 4e3d 8c33 b13c
00000230: 8f52 20bd e8ab 51bc 9b92 133d 1d53 38bd
00000240: 15f9 183c 7f32 2e3d bd20 05bd 3625 063d
00000250: 11c3 e0bc 7ddb 0c3d 248a d53c 9a69 043d
00000260: c1b1 f0bc c166 5ebd 9183 a3bc 25ad f03c
00000270: 4cca 333d 671c 843c f47b 24bd b206 2d3d
00000280: 1de4 853d 8702 e23c 5760 b33b 806b 153d
00000290: 05ab deb9 3e3f a13a cb87 a63d 7a19 083d
000002a0: 4e9d ef3b 4a31 95bc 612b 21bd 068b 7c3d
000002b0: b490 383c c690 1dbc 2408 f037 a52f a7bc
000002c0: d658 163d 7286 8f3c 2818 c63c 20bc cf37
000002d0: f052 a23c 00dd 503d e24f 123d f0f2 633d
000002e0: 452a bd3c 8a00 1e3d 6763 79bc 35c3 18bd
000002f0: f74e 1f3d 4146 f03b a78e 573a 7ed7 703c
00000300: fa83 e63c b962 e73a 80fd 0a3d 91b0 683d
00000310: 1425 b33a d565 eabb 300b 48bb 25f4 223e
00000320: 5e17 2a3c 492c 9fbc c0ce 353e 650a 533d
00000330: 063f 06bc a0a3 d1bc 8092 44bc da90 d4bd
00000340: e1d6 39bb a2bf 6d3c 8fdf bf3d ac49 353d
00000350: de96 b83c e1c3 fdbc 7a2e a5bb 50e7 06bd
00000360: 038e 01bc a3ed 1f3d 22b8 32bd 44f0 d03c
00000370: f788 e6bc a02c a9bc f4e2 a23c c599 2d3d
00000380: 3e60 b8bc 653c 083c 6e42 7cbb f1db 19bd
00000390: d65b e7bb dfaa 363c ca12 b0bc 1925 ddbc
000003a0: 445f 593d 0f88 03bd 9c7f 7bbc 85e8 fe3c
000003b0: 4383 e9bc 5745 c1bc c7eb 0bbc 254b b1bc
000003c0: 5497 513d afc7 44bc fe2e d63c 8bf8 113d
000003d0: c958 2dbd a935 083d 2554 603d ff8e 04bd
000003e0: 3acf 113d 6d0d d3bc fc80 ca3c efd1 1fbd
000003f0: 6079 3abd 1af2 0dbc 94bd 9dbc caa7 83bd
0.054338846 0.05449253 -0.010379351 -0.023443641 -0.0015071632 0.024292842 0.008040226 -0.029204538
0.05717969 -0.0404972 0.015891392 -0.024488907 0.007072997 -0.026057223 -0.004618938 -0.046781246
0.0072764577 -0.041445 0.046835486 -0.04155405 0.027075818 -0.044674627 -0.05206841 0.05887305
0.049008586 -0.04437792 -0.032634437 -0.052799277 0.011652622 -0.009432763 0.0090760505 0.034168143
0.030728156 -0.002689937 0.019286107 -0.041430403 -0.006165444 -0.012971453 0.043131806 -0.067194365
0.12680681 0.030176876 -0.008583443 -0.10111502 -0.017847348 -0.027520584 0.02891872 -0.030748539
0.0541582 0.025663564 -0.035670955 0.0027015842 0.029117817 0.0672696 -0.027909227 -0.043305587
-0.034099516 0.001405801 0.051812965 0.0053727906 0.03949285 -0.0382759 -0.062931105 0.008821727
0.07235999 0.014294306 -2.9701653e-06 -0.15221667 0.07690926 -0.01745521 -0.07298877 0.033799786
0.046811603 -0.0051031946 -0.039495487 -0.03630719 -0.01560888 0.008457152 -0.00025165587 -0.04133069
0.06564222 0.005015845 0.06126848 -0.01629655 0.047294382 0.03002427 -0.043029126 0.03905315
0.045811534 -0.03681196 -0.07920534 -0.11659309 0.031641703 0.099795125 -0.05974172 0.097689696
-0.050360054 -0.025636792 0.02070819 -0.0477637 -0.030300997 0.012811221 0.050017547 -0.017433066
-0.019831039 -0.04172844 0.041075055 0.0009761756 0.0092451535 -0.047956306 -0.070255175 0.048001025
-0.054500364 0.0035718128 0.01969191 0.016225485 -0.043465592 0.03227429 0.06112489 0.05071129
0.020884985 0.007818973 -0.024387516 -0.029976502 -0.026654368 -0.006244403 0.057620328 0.04354359
-0.013050311 0.003613366 0.053397108 -0.0058908043 -0.061896637 -0.011791989 -0.009771783 0.019488722
0.030189559 -0.00096882635 0.05030184 0.021631025 -0.039141234 -0.012797333 0.036028486 -0.045001138
0.0093367295 0.042528626 -0.032501925 0.03275033 -0.027436765 0.034389008 0.026066847 0.032327272
-0.029381635 -0.054297213 -0.019960197 0.029379437 0.043894097 0.016126825 -0.040157273 0.042242713
0.0653765 0.027589096 0.005474131 0.036479473 -0.0004247056 0.0012302173 0.08131369 0.03322742
0.0073124534 -0.01821198 -0.03934801 0.06165602 0.011264969 -0.009617036 2.861402e-05 -0.02040846
0.036705814 0.017520163 0.02418144 2.4763925e-05 0.019814938 0.050992012 0.035720713 0.055651605
0.023091445 0.038574733 -0.015221453 -0.03729554 0.038893666 0.0073325937 0.0008222856 0.014699815
0.028139103 0.0017653323 0.033933163 0.05680901 0.0013667666 -0.0071532526 -0.0030524246 0.15913446
0.010381548 -0.019430296 0.1775465 0.051523585 -0.008193737 -0.025590718 -0.011997819 -0.10379191
-0.0028356838 0.014511021 0.09368812 0.044259712 0.022532877 -0.030977191 -0.005040941 -0.03293544
-0.007907393 0.039044987 -0.043632634 0.025505193 -0.028141482 -0.020651162 0.01988361 0.042382974
-0.02250683 0.00831518 -0.0038491744 -0.037563268 -0.0070605082 0.011149137 -0.021493334 -0.026995229
0.053069368 -0.032112177 -0.015350249 0.031116733 -0.028504973 -0.023592634 -0.0085401 -0.021642277
0.05116971 -0.012010499 0.026145454 0.03563742 -0.042321 0.0332543 0.054767746 -0.032362934
0.035598017 -0.025763238 0.024719708 -0.039018568 -0.04552591 -0.008663679 -0.019255437 -0.064284876

bias f4 [9]
00000000: d877 513d 7f8b 6c3c 822c 403d 6f2a 803c
00000010: c10c b0ba 227c e63a 7f3e efbb 546d cd3c
00000020: b9e9 fa3b
0.051139683 0.014437555 0.046917446 0.015645234 -0.0013431535 0.0017584602 -0.0073011513 0.025076546
0.0076572564
