.processed/8_logs_scale_3_crop_128/epoch_30_model.pth (torch_old, 93460 bytes, 6 tensors)

weight f4 [64, 1, 5, 5]
000000 07 44 05 3e 5f 08 19 3e ae 42 89 bd 28 99 2d 3e
       0.13014232 0.149446 -0.06702171 0.16952956
000010 62 3d 5d bd fa b1 d3 3c 6e f8 e2 bd 13 b3 db 3d
       -0.054013617 0.025841702 -0.110825405 0.10727515
000020 0c 04 2e 3e 93 88 1b be 9b eb 27 3e 2f 2e dd 3c
       0.16993731 -0.15188818 0.1639847 0.026999561
000030 ac 49 18 3e 14 83 04 3d 30 3e c4 3d 0c 90 2f bd
       0.14871854 0.03235157 0.09582174 -0.042861983
000040 18 fe 19 3e 9e a4 ef 3c 2e e3 bb bd 0c 93 3f 3d
       0.15038335 0.0292533 -0.091741905 0.046771094
000050 c6 0b df bd cc e0 0b bd 90 9b a2 bd da 67 05 3e
       -0.108909175 -0.03414993 -0.079398274 0.13027897
000060 e0 65 25 be c6 a9 c5 bd bc 10 61 bd 8e 99 f5 bd
       -0.16152143 -0.09651522 -0.0549476 -0.11992179
000070 ef fc 9a 3c 9f 2f 46 be a1 57 35 3e 5c 78 32 be
       0.018919436 -0.19354104 0.17709209 -0.17428726
000080 61 7d 21 3e ae 3f 01 3d d0 ba 7d bd ba 7d f3 3d
       0.15770485 0.03155487 -0.061945736 0.11889215
000090 0e a9 15 3d fc 50 35 3e 43 d0 bc 3c c7 f4 79 bd
       0.036538176 0.17706674 0.023048526 -0.061024453
0000a0 6c 55 3c 3d 69 17 5c bd 2b 74 bb 3d 63 e3 38 3e
       0.045979902 -0.053733263 0.09153017 0.18055491
0000b0 83 83 ea 3d e7 34 cc bd 99 99 db 3d 41 e3 ff 3c
       0.11450865 -0.09971028 0.10722656 0.031236293
0000c0 3b 0f c1 3d af a0 03 be c6 6c 52 bd 48 cb 6a 3d
       0.09426733 -0.12854265 -0.051373266 0.05732277
0000d0 ff 83 8f be c7 3c cc 3d a1 20 09 bd 0c e4 cd bc
       -0.28030393 0.0997253 -0.033478383 -0.025133155
0000e0 bb 4c b1 bc 57 3a 35 3e b8 36 dc 3e 5a e7 c7 be
       -0.021643033 0.17698036 0.43010497 -0.39043695
0000f0 f6 05 b6 3c c4 cb 43 be 13 cb 6e 3e 13 91 43 be
       0.02221964 -0.19120699 0.23319654 -0.1909831
000100 80 6d 81 be 0d b8 f4 bc 88 17 17 3e 1f 18 34 3d
       -0.25278854 -0.029872919 0.1475507 0.043968316
000110 12 03 d4 bc 7a 82 c0 be 06 5d 7d 3d 64 27 09 be
       -0.02588037 -0.37599546 0.061856292 -0.13393933
000120 8f da 0a 3e d1 eb 42 3d a3 52 c9 be 36 b9 63 bc
       0.13559936 0.047588173 -0.3932086 -0.013899138
000130 a9 03 5c bd 98 e5 a8 3d e4 ff 08 3c 09 e3 4a 3d
       -0.053714428 0.082469165 0.00836179 0.049532924
000140 be eb 19 bb bd e2 49 be 28 65 52 3e 70 2c dc bd
       -0.002348646 -0.197154 0.205464 -0.10750663
000150 df 10 97 3d 0e d9 3b bc 34 57 4b 3e d3 54 2b be
       0.07376265 -0.011465324 0.19857484 -0.16731577
000160 54 23 b7 bd 3a fe 37 3d a4 9b 4d 3d 98 b8 a7 bd
       -0.08942285 0.044920184 0.05019726 -0.08189505
000170 02 86 4a 3e 9d 63 1f 3e 90 4b cd bd 46 fe d7 bd
       0.19777682 0.15565343 -0.10024178 -0.10546546
000180 44 a5 3f 3e 8d 9a c1 bd d8 87 e6 bc 5b 0e b5 bd
       0.18715388 -0.09453306 -0.028140947 -0.08840629
000190 c0 fe 57 3b 30 78 c1 3d 33 60 1c 3d ff 74 d1 bb
       0.003295824 0.09446752 0.03817768 -0.006392121
0001a0 2c 56 9c 3b fe 29 69 bd 5b a4 32 be 47 69 e7 bc
       0.0047710147 -0.056924812 -0.17445509 -0.028248442
0001b0 61 de d8 bc 05 6f 17 3d dd 73 04 3e 3d 7f 2a 3e
       -0.026473226 0.03697111 0.12934823 0.166501
0001c0 98 33 19 3f 97 8f b5 be c4 64 ac bc 20 e5 b2 bd
       0.5984435 -0.35461113 -0.021044143 -0.087351084
0001d0 8f 2b a9 3d cc 81 02 bf 00 76 14 be 40 00 84 bc
       0.08260261 -0.50979304 -0.14498138 -0.0161134
0001e0 15 00 f6 3c 30 fa 2e bd 64 90 61 3d fe 22 9f bc
       0.030029336 -0.042719066 0.055069342 -0.019425865
0001f0 7d e8 b3 3c d2 31 bc bd bc bf 0a bd 62 9f fe bd
       0.021961445 -0.0918919 -0.03387426 -0.124327436
000200 53 86 28 3e a7 fa e1 bc 30 0e 2e 3e fb 01 bf 3d
       0.1645749 -0.02758534 0.169976 0.093265496
000210 4e 34 2f be 21 ac 06 3e 49 c3 58 bd 7f 05 4c bd
       -0.17109796 0.131516 -0.052920613 -0.04980993
000220 74 6a 14 be 37 13 54 be da 06 a0 3d be 6f d9 bc
       -0.14493734 -0.20710455 0.07813807 -0.02654254
000230 52 b7 aa 3d 43 6e 1c be 91 31 30 3e 37 d3 1b be
       0.08335747 -0.15276437 0.17206408 -0.15217291
000240 b1 3a d3 bb 9d 39 87 3c 50 5c bf 3d 89 2a f7 3d
       -0.0064462055 0.016506964 0.09343779 0.1206866
000250 e9 44 32 3e 40 c8 28 be 0a 36 8e 3d 10 89 a2 bd
       0.174091 -0.1648264 0.06943901 -0.07936299
000260 bf 7d 9d 3b 79 43 17 be 16 65 40 3e d1 a6 03 be
       0.00480625 -0.14771833 0.18788561 -0.12856604
000270 6a 7d f0 3d ae fc dd 3d 95 5e 89 3d ef ed be bd
       0.11742671 0.108392105 0.06707493 -0.09322726
000280 28 bb 51 3e de 81 84 3d 7f 4b b2 3d ab 5e 39 be
       0.2048155 0.06470083 0.08705806 -0.18102519
000290 90 ef e8 3d 58 66 30 bc aa 31 a3 bd 76 b3 5f 3e
       0.11373818 -0.010766588 -0.07968457 0.21845803
0002a0 a1 7f 51 3d 39 d2 a2 bd 5c b5 9a bd 5a 25 ba 3b
       0.051147107 -0.07950253 -0.07554123 0.005680722
0002b0 77 0e fe 3d e8 3f 24 bd c4 37 99 bd 32 97 9c bd
       0.12405103 -0.04010001 -0.074813396 -0.07646026
0002c0 3b 1d 22 be 54 c1 83 3d a7 15 16 3e 37 47 4a be
       -0.15831463 0.06433359 0.14656697 -0.19753729
0002d0 af c6 0a 3d 32 60 c8 3d 85 0a 11 3d 5a fd a3 bd
       0.033880886 0.09783973 0.035410423 -0.08007307
0002e0 fb 30 c7 3d fc 77 c3 3d 77 1e 98 3d 8d 71 20 bd
       0.09726139 0.095443696 0.07427686 -0.03917079
0002f0 f5 d1 74 bd 1e 8c 49 3c cc 81 50 bd 76 7a 8f bd
       -0.059770543 0.012301473 -0.050905034 -0.070057794
000300 28 76 01 3e 63 29 28 3e 0e 60 f9 bc 49 f7 84 bd
       0.1264273 0.16422038 -0.03044131 -0.064924784
000310 e1 7d 2b bc e3 59 bb bc 77 b6 14 3d 40 1c 36 3d
       -0.010467024 -0.02287001 0.036306825 0.044460535
000320 a6 f5 0d be 97 7e 0a bd 5d 66 53 3e b5 bd e1 3d
       -0.13863239 -0.03381213 0.20644517 0.11022512
000330 1a cf 80 3c 34 b7 aa bd bf c5 a1 bd 46 dc 27 be
       0.015723754 -0.083357245 -0.07899045 -0.16392621
000340 80 35 01 bd 81 60 c6 3d 44 31 10 3e 49 91 fc 3d
       -0.031545162 0.096863754 0.14081293 0.123323984
000350 41 bf 3e be f3 2e c4 bd 8c 51 04 b6 bf 94 49 3e
       -0.18627645 -0.09579267 -1.9717e-06 0.19685648
000360 bb e3 6a 3d 43 40 4d bd c0 97 db 3d 00 45 3f bd
       0.057346087 -0.050110113 0.107223034 -0.046696663
000370 35 10 f6 bd f5 c6 2d 3e 6e 12 9f bd ef e0 83 bc
       -0.1201481 0.16970427 -0.07767187 -0.016098468
000380 6a 7d 2b be a2 94 ba 3d 1c 2c c4 3d bd 0c d5 3c
       -0.1674706 0.09110381 0.09578726 0.02600705
000390 69 62 fa bd 39 a9 fd bd 37 3e 43 be 48 8e 06 3e
       -0.122258015 -0.12385792 -0.19066702 0.13140213
0003a0 2d a3 16 3e 1b 3d 5e 3e f1 26 0d 3e b7 81 29 3d
       0.14710684 0.21702997 0.13784386 0.04138347
0003b0 d0 c7 a8 3b 72 22 67 be c8 7e 33 be d6 13 13 be
       0.0051507726 -0.22571734 -0.17528832 -0.14363036
0003c0 02 37 ae 3d 70 21 a0 bd 9e d1 e9 3d 55 18 97 bd
       0.08506586 -0.07818878 0.114169344 -0.07377688
0003d0 30 c4 ab 3c 1c 92 4d bd 9e 0a a9 bd 8a 83 67 3d
       0.020967573 -0.05018817 -0.08253978 0.05652193
0003e0 22 3e 8f bd 50 42 c4 3d 3c 4c a6 bc 5b 9f d3 bd
       -0.06994273 0.095829606 -0.020300023 -0.10333129
0003f0 fe a8 b1 3c 75 37 a5 bd 3b 3c 50 bd 04 47 3d be
       0.021687027 -0.08067218 -0.05083869 -0.18484122

bias f4 [64]
000000 01 19 36 be 96 d2 ad 3d eb 52 09 bd fa 04 64 3d
       -0.17782976 0.08487432 -0.033526342 0.05566881
000010 6f 34 7a 3c 5c a5 24 3e 57 66 52 bc d3 cb 10 3d
       0.01527129 0.16078705 -0.0128417825 0.035350632
000020 75 33 6f 3d ad 57 9e 3d d8 70 10 3d 36 40 94 3c
       0.058398683 0.077315666 0.035263866 0.018097024
000030 a0 ff 04 be 98 cb f1 bd c3 a7 11 3e 0c 78 15 be
       -0.12988138 -0.118064106 0.14224152 -0.14596575
000040 cd 5d bb 3c dd 75 23 bc 9e ac 33 3e a0 18 40 bd
       0.022871876 -0.009976831 0.17546317 -0.046898484
000050 cf b1 b9 bd b9 c3 5d bd df 3c e7 3d c8 4b c9 3d
       -0.090671174 -0.054141734 0.11290907 0.09828907
000060 7e 60 1f 3e 01 39 09 3d ea ae 8a 3d b5 d7 42 be
       0.15564153 0.03350163 0.067716435 -0.19027598
000070 32 57 85 3d 9f 16 8c 3d d6 1a fe 3d 21 b9 45 bc
       0.06510772 0.06840252 0.12407462 -0.012068064
000080 e8 1b 54 bd 27 fe 90 3d 6b 82 10 be 90 41 21 be
       -0.051784426 0.07079726 -0.1411225 -0.15747666
000090 7a bd 39 be 48 b4 bf 3d ce 38 df 3d 31 5d 20 3d
       -0.18138686 0.09360558 0.108995065 0.039151374
0000a0 a8 cd ca bc ae 9d 87 3d 90 5e fa bd d7 24 17 3c
       -0.024756268 0.06621872 -0.122250676 0.009225092
0000b0 ac 03 05 bd dd 9f 1e bd 14 18 18 3e de fc 37 be
       -0.032474205 -0.038726676 0.14852935 -0.17967555
0000c0 5e 20 55 3c 45 13 2d be fb 3c aa 3c 83 c2 ab bd
       0.013008205 -0.16901882 0.02078103 -0.083867095
0000d0 fe 40 7c 3d a0 da 92 bd 36 5c f7 3d 72 2e 12 be
       0.06158542 -0.07170606 0.12078135 -0.1427553
0000e0 3c 5f 13 3e 81 03 cb bd bb 77 a9 3d d7 28 48 bd
       0.14391798 -0.09912778 0.0827479 -0.048867073
0000f0 f7 db cd bc bf 9b b9 bc 18 ff bd 3d ff 0e 78 3d
       -0.025129301 -0.022657273 0.09277171 0.060561176

weight f4 [32, 64, 3, 3]
000000 9a d2 ec bc 0c 76 6d 3c 74 f8 2a bc 9f 4e 33 3d
       -0.028909016 0.014493477 -0.010435212 0.04377615
000010 a3 db c3 3c 21 38 4b 3c e0 e2 37 bc e9 e4 01 3d
       0.023908442 0.012403519 -0.011223525 0.031712446
000020 63 4e 02 bc 13 67 0b 3d ff ec 2a 3d ec f1 33 3d
       -0.007953259 0.034033846 0.041729923 0.043931887
000030 06 29 e3 3c 09 5d 98 bc 4b df 4b 3d 29 60 cd bb
       0.027729522 -0.01859905 0.049773496 -0.0062675667
000040 88 bd 3a ba 7f 03 5a 3b 90 af b8 bd f0 3f ac 3b
       -0.0007123579 0.0033266244 -0.09017861 0.0052566454
000050 c1 6e 01 3d ed 2d b3 bc 60 91 90 bd 14 35 d7 3c
       0.031599764 -0.021872485 -0.07058978 0.026270427
000060 87 a9 e9 3c 28 52 3a 3d 99 42 50 bd 6a f1 ce bc
       0.02852322 0.045488507 -0.050844762 -0.0252616
000070 3a c2 8e 3d 6b 2e 3e 3d 63 c8 47 bc d7 4e 00 bc
       0.069706395 0.046430986 -0.012193772 -0.007831297
000080 77 b0 1a bb 00 53 a6 3c 3b 53 01 bd 21 81 6e bd
       -0.0023603716 0.02030325 -0.031573515 -0.058228616
000090 b7 73 42 be ba 37 ad 3c aa 44 dd bc d1 77 90 3d
       -0.18989454 0.021144737 -0.02701028 0.07054103
0000a0 f4 4b a1 bd 13 86 8b 3d 34 98 a4 bd 8d 59 ac 3d
       -0.07875815 0.06812682 -0.08036843 0.08415518
0000b0 0d be 9d bc bd 00 3b 3d 73 d1 14 3d c2 3f 4c 3d
       -0.019255662 0.045655 0.03633256 0.04986549
0000c0 72 36 cb bc a5 a0 55 3c f3 fc e8 3c f1 41 dc bc
       -0.024806235 0.013038789 0.028440928 -0.026886912
0000d0 7a e7 9c bb ce 2c 6d bc ec 77 be bb bb 53 89 bc
       -0.0047883363 -0.014476014 -0.0058126356 -0.016763559
0000e0 d5 27 38 3d c8 b3 d7 b8 2b 72 66 3c 80 03 9d 3a
       0.04495986 -0.00010285486 0.014065306 0.0011979192
0000f0 7f 0b 7f bd 40 79 55 3b d8 01 57 3d af d4 8f bc
       -0.062266823 0.0032573491 0.052491993 -0.01755747
000100 c5 12 91 3c 12 41 52 bc f0 bf 3a bc 35 5c 46 3d
       0.017709145 -0.012832897 -0.0113983005 0.04842778
000110 22 82 f1 3c bf f5 20 bc ba f8 33 3c 82 1e 88 3c
       0.029480997 -0.009824215 0.010984594 0.01661611
000120 ab 7d 39 3b 48 9c 92 3c 27 24 20 3c ed cb fb 3b
       0.0028303664 0.017896786 0.009774244 0.007684222
000130 ad bb 06 bc 43 98 85 3c fa fd e0 bc eb 6c 19 bc
       -0.008223456 0.016307956 -0.027464855 -0.009364347
000140 2f 36 ce 3c e0 97 b1 bc f2 6e 82 bc 64 0d 32 3d
       0.025172321 -0.021678865 -0.015922043 0.0434698
000150 ca 23 07 bd b3 34 5e bc 6f 07 b4 3c 86 52 86 3c
       -0.032993115 -0.013562369 0.0219762 0.016396772
000160 52 68 05 bd af b9 30 3d e3 18 d8 3c ec 01 5b bc
       -0.03257019 0.04314583 0.026379054 -0.013367157
000170 26 1b 39 3d 96 39 60 bc 8f 39 2b 3d 7b d0 0d 3d
       0.045191906 -0.013685605 0.04180294 0.03462265
000180 73 d7 03 bd d7 71 14 bd 6c ee 6a bd 49 5b 0d bc
       -0.03218789 -0.03624138 -0.057356283 -0.008627721
000190 49 63 6a be 00 a0 84 3d cb 30 9f 3d 93 03 06 3e
       -0.22889437 0.0647583 0.077729784 0.13087301
0001a0 39 e0 11 bd 03 4c e6 3c a1 9a 2f bd ab dc eb 3c
       -0.035614226 0.028112417 -0.042872075 0.028791746
0001b0 34 ba c9 bc 03 ae 89 3c d0 c6 4e 3d 70 64 7a 3b
       -0.024624921 0.016806608 0.05048257 0.0038206838
0001c0 dd a5 b1 3b a4 1b 85 bc dc f3 d9 bc f2 01 37 bd
       0.005421384 -0.016248532 -0.026605539 -0.04467959
0001d0 44 f4 f3 3c 25 37 da bc 24 03 74 bd 1f f2 88 bc
       0.02977956 -0.026637623 -0.059573308 -0.016717015
0001e0 71 85 7f bc c7 0d d3 bc 3a d4 aa bb 98 ea ab 3b
       -0.01559578 -0.025763405 -0.0052132877 0.0052464716
0001f0 ca 12 6b bd 64 d3 47 bd 79 65 81 bc c3 4b 51 bd
       -0.057390966 -0.048785582 -0.015795456 -0.051097643
000200 a4 07 fb bc 83 b9 bb 3c 6f ad 2c bb a8 32 c6 bc
       -0.030643292 0.022915607 -0.0026348492 -0.024194077
000210 93 1e 94 bc 6b 26 0a bd 36 4b fd 3c b1 e1 c5 bc
       -0.018080985 -0.033728044 0.030919652 -0.02415547
000220 f8 83 b8 3b 01 1b a7 bc c6 73 68 3d e6 e2 81 3c
       0.0056309663 -0.020398619 0.056751035 0.015855264
000230 94 85 8b bc 07 d4 b6 3c d2 59 36 bc eb 47 c0 38
       -0.017031468 0.0223179 -0.011129813 9.168669e-05
000240 56 8f b9 3d 80 62 38 3c 1e 99 89 3b 32 7f 9f 3c
       0.09060542 0.011253953 0.004199161 0.019469831
000250 d9 01 e2 3c d8 3f af 3c 2b d1 3a 3d f5 44 b2 3d
       0.027588772 0.021392748 0.045609634 0.08704559
000260 e8 6d 14 bd c2 e1 2f 3c 69 5f 52 bc af cc e9 3c
       -0.036237627 0.010734977 -0.01284013 0.028539984
000270 89 4e c6 bc d8 f5 d2 3c a8 2d a1 3c 2d 58 2f 3b
       -0.02420737 0.025751993 0.01967509 0.0026755438
000280 90 ea 39 3c d8 90 07 bd 28 13 0a 3d 2d 0a e3 bc
       0.011347428 -0.03309712 0.033709675 -0.027714813
000290 1d 16 50 bc e3 fa 20 3d 05 af 94 3c 4f c0 34 b9
       -0.012700585 0.039301764 0.018149862 -0.00017237778
0002a0 c6 ca 2a bc 28 e0 b2 bc c0 7f ad 3c b1 79 98 3a
       -0.0104243215 -0.021835402 0.02117908 0.0011632947
0002b0 3c 21 50 3c 40 72 78 3c 31 5c 0f 3d ab df 5f bc
       0.012703236 0.015163958 0.03500003 -0.013664166
0002c0 2e e6 29 bc e1 c9 87 3c a7 ac 14 3c d6 8e e8 bc
       -0.0103698205 0.016575756 0.009074367 -0.028388422
0002d0 51 7d 0b bc 96 15 ef 3c 61 bd db 3c 67 8e a8 39
       -0.0085137645 0.029185098 0.026823701 0.00032149555
0002e0 45 53 86 3c a4 ec 1b bd e2 24 c7 3c 85 e1 ac bc
       0.016397128 -0.038067475 0.02430958 -0.02110363
0002f0 6b db 96 3c 87 bd 39 3d de 80 b4 3c 2e 67 fd 3c
       0.018415174 0.045346763 0.022034105 0.030932989
000300 a5 b5 82 bc 18 74 d9 bc ea fa 05 bd 1a 04 12 3d
       -0.015955755 -0.026544616 -0.032709993 0.035648443
000310 4f 97 b5 3c 44 ab 20 bd a0 49 e6 bc e7 58 d7 bc
       0.022166876 -0.03922583 -0.028111279 -0.02628751
000320 60 fb d5 bd de cf 09 3d 31 b4 25 3d 29 df f7 3c
       -0.104483366 0.033645503 0.040455047 0.030257778
000330 d1 ff 85 3b dc 2d 03 3d ca e0 87 3c 03 d5 60 3c
       0.0040893336 0.032026157 0.01658668 0.013722661
000340 a1 bf af 39 c1 4a 1b 3c 4f 4b 2d bd e9 a8 70 b9
       0.00033521376 0.009478272 -0.042308148 -0.00022951108
000350 00 7f 58 ba 01 c6 a9 3c 1c c6 33 bc d9 af 92 bb
       -0.00082586706 0.020724298 -0.010972526 -0.004476529
000360 c7 63 8e bd 05 e2 eb bc c3 59 eb bc b8 66 3d 3c
       -0.06952625 -0.028794298 -0.028729325 0.011560135
000370 db f0 39 3a 18 05 33 bd 0a 24 ba bc 00 34 0e 3d
       0.000709308 -0.04370603 -0.022722263 0.03471756
000380 65 a9 40 3c dc f7 0a bc c5 8b 56 3c 5f e6 36 bd
       0.011759137 -0.008481946 0.013094847 -0.044653293
000390 e7 f9 36 bc 42 a9 c7 3d 80 fa 91 bd 06 b5 db 3c
       -0.01116798 0.0974908 -0.07127857 0.026819717
0003a0 d8 a1 f9 bc 4a e5 42 bd 51 00 21 3d 4e e2 64 bc
       -0.03047268 -0.04758195 0.039306942 -0.013969971
0003b0 a2 19 c0 3c 74 1b 0e bd 3f 85 9b bc b2 df 0d 3b
       0.023449723 -0.03469415 -0.018984435 0.0021648225
0003c0 2f 74 07 3d 7f 63 7e 3c 1c b2 0e bd b0 3b 80 3c
       0.033069786 0.015526651 -0.034837827 0.015653461
0003d0 40 ad 8f bc e8 d3 69 3c 47 95 05 bd be a8 4c bc
       -0.017538667 0.014271714 -0.032613065 -0.012491403
0003e0 7e 75 e8 3c 2a d1 1c bd 3e 51 11 bd 18 da 21 3c
       0.028376337 -0.038285412 -0.03547787 0.009878658
0003f0 2a 62 76 bb 16 79 26 bc 19 aa 48 3d 47 92 e1 bc
       -0.0037595131 -0.010160705 0.048990343 -0.02753557

bias f4 [32]
000000 5d e1 2d 3d 87 32 43 bc 7f f8 f1 bc 9f 66 a4 3c
       0.04245125 -0.011913902 -0.029537437 0.020068465
000010 24 65 0c bc c2 14 be 3c 16 22 ec 3c 7a 77 0b 3c
       -0.008569036 0.023203257 0.028824847 0.008512372
000020 2b 7f 83 bb 9a 10 6e bc 93 db 6a 3d 2c 4e 67 bc
       -0.0040129623 -0.014530325 0.05733831 -0.014117759
000030 33 22 b6 3a 71 5e 8a bc 59 dc 44 bc ca 83 0f bd
       0.001389569 -0.016890736 -0.012015426 -0.035037793
000040 47 32 de 3c d4 7a e8 bc 59 c2 94 bb c7 a1 29 bc
       0.027123583 -0.028378882 -0.0045397696 -0.010353512
000050 6f f1 05 3d e5 17 99 bc 57 ab 40 bc 92 ff be bc
       0.032700952 -0.018688152 -0.011759601 -0.023315225
000060 32 61 2f bd dc 32 96 bc 01 ba 38 3c 3b 16 1d bd
       -0.042817302 -0.018334799 0.011274816 -0.03835128
000070 c9 98 9d 3b 06 fe fd 3c e0 fe df 3c 14 ea f8 3c
       0.004809473 0.031004917 0.027343214 0.030385055

weight f4 [9, 32, 3, 3]
000000 75 40 81 3d d4 92 73 3d ca d3 02 bc 73 c2 8a bc
       0.06311122 0.059466198 -0.007985065 -0.016938424
000010 85 71 d7 3b be 3d e5 3c 9f 55 65 3c cb d2 ca bc
       0.006574812 0.027983543 0.013997464 -0.024758717
000020 17 c3 6d 3d d2 42 a0 bd cf cd cc bb b7 56 0b bd
       0.05804738 -0.07825245 -0.0062501202 -0.034018245
000030 31 97 6c bd 98 d7 c0 bd b3 87 40 bd cf b5 27 bb
       -0.057761375 -0.09416121 -0.047004413 -0.0025590544
000040 a9 7f 1a 3d 4d 6b bc b9 36 11 41 3d 7e e4 45 bd
       0.037719402 -0.000359381 0.047135554 -0.04831361
000050 af 6a 1a 3d 29 e5 3a bd 19 45 64 bd 3e eb 8d 3d
       0.037699398 -0.0456287 -0.05572996 0.069296345
000060 39 16 36 3d 64 e7 12 bd 47 47 c9 bc 26 65 4d bd
       0.044454787 -0.035865203 -0.02457012 -0.05014529
000070 88 2b 73 3c cc 70 0a bc 45 59 83 3c 6b 50 27 3d
       0.014841922 -0.008449744 0.016033778 0.040848177
000080 9a b9 04 3d e9 34 e6 3a 31 e8 b7 3c 50 cb 30 bd
       0.032403566 0.0017563376 0.022449585 -0.043162644
000090 80 d1 64 bc ec 84 db bb 57 63 19 3d d8 55 67 bd
       -0.013965964 -0.006699195 0.037448253 -0.05647835
0000a0 93 65 14 3e 55 a9 ab 3c e1 c7 a8 bc e4 cc c2 bd
       0.14491872 0.020954767 -0.020603122 -0.09511736
0000b0 40 9a b5 bb 00 76 c5 bc 74 34 06 3d df 11 d0 bc
       -0.0055420697 -0.024104118 0.032764867 -0.025399147
0000c0 31 e5 78 3d e7 78 03 3d 92 4f 05 bd 0a ba 07 3c
       0.06076545 0.032097723 -0.032546587 0.008284101
0000d0 ec 66 09 3d 48 bd 8a 3d 91 a5 de bc 2a 5a 14 bd
       0.03354542 0.06774384 -0.027178558 -0.0362188
0000e0 c3 75 d2 bc d2 6a 64 bc c8 ac 64 3d 7a 67 96 ba
       -0.025690919 -0.013941484 0.05582884 -0.001147493
0000f0 4b 68 1d 3d c3 3b 21 bd b1 ba 8d bd d6 21 af 3c
       0.03842954 -0.039363634 -0.06920374 0.021378439
000100 bc b9 97 3d 35 c2 19 3c e5 a7 c0 bb fe 7d 30 be
       0.07408473 0.0093846815 -0.0058793896 -0.17235562
000110 1f b8 8d 3d ec 71 9c bc fe 62 67 bd fa 35 0c 3d
       0.06919884 -0.019097291 -0.05649089 0.034231164
000120 cf 17 40 3d 7a d0 a1 bb 75 2a 22 bd 7b ce 0f bd
       0.046897706 -0.0049381824 -0.03959127 -0.035109024
000130 32 c0 23 bc ca d0 10 3c d0 ae 39 bb 90 60 2e bd
       -0.009994553 0.008838842 -0.0028332956 -0.042572558
000140 1e 8a 82 3d 22 d3 83 bb fc 73 6c 3d a7 6a b6 bc
       0.06374 -0.0040229717 0.0577278 -0.022267653
000150 b7 dd 51 3d 92 65 e7 3c 64 c2 3c bd 03 b5 ef 3c
       0.051236834 0.028246675 -0.046083823 0.029261118
000160 ea 6b 22 3d e2 99 3b bd 1b e4 88 bd 0d aa e9 bd
       0.039653696 -0.04580105 -0.06684133 -0.11409388
000170 21 8b 3c 3d b9 31 0f 3e 72 5d ce bd 7c a3 fa 3d
       0.04603112 0.13983811 -0.10076417 0.122382134
000180 f7 87 1e bd 2c 97 14 bd 2b ae 26 3d 38 41 29 bd
       -0.038703885 -0.03627698 0.040693443 -0.041321963
000190 88 fa ad bc 8e eb 18 3c ab 28 41 3d 09 bb 4a bc
       -0.021237627 0.009333504 0.047157925 -0.012373694
0001a0 a0 d9 8b bc 60 4c 32 bd 69 40 48 3d 52 c9 30 ba
       -0.017071545 -0.043529868 0.04888955 -0.0006743866
0001b0 5b b1 fd 3c bc db 38 bd bb 48 7b bd 24 b8 8a 3d
       0.030968359 -0.04513143 -0.061348658 0.06773403
0001c0 ee fe 79 bd da 2f 89 3c 28 68 e2 3c c3 0c 92 3c
       -0.061034136 0.01674645 0.027637556 0.01782835
0001d0 70 e5 ec bc ff 1b 22 3d 40 a4 89 3d 91 1b 5a 3d
       -0.028917998 0.03957748 0.06720781 0.053248946
0001e0 aa ae cd 3c 5c 8b 6d 3c a0 1d bc bc 96 f7 c8 bc
       0.0251077 0.014498558 -0.022963345 -0.02453212
0001f0 c8 71 a5 bc be 05 89 bb e8 05 86 3d 90 85 2d 3d
       -0.020195857 -0.0041815927 0.06544095 0.042363703
000200 ff a6 9c bc 82 b1 98 ba 5a 6d 78 3d d0 39 8e bc
       -0.019122599 -0.0011649581 0.06065116 -0.017361552
000210 b6 3e 8a bd cf 14 33 bc ff 58 79 bc 1e bd e5 3c
       -0.067502424 -0.010930254 -0.015218972 0.02804428
000220 c0 a0 f1 3c 40 0e 86 bc 4c 2f dc 3c bb 10 af 3c
       0.029495597 -0.016364217 0.026878022 0.021370282
000230 18 02 35 bd 03 8f e7 bc 5a cf 28 3d a7 8d 4a bd
       -0.04419145 -0.028266435 0.04121337 -0.049451496
000240 8a 13 92 3c 29 e5 43 3d 8f a5 e9 bc 4d a3 23 3d
       0.017831583 0.047825966 -0.028521327 0.039950658
000250 d4 26 ae bc 75 10 1b 3d 93 25 02 3d e2 c9 16 3d
       -0.021258749 0.03785749 0.031774115 0.036813624
000260 48 c2 e2 bc d0 02 19 bd c3 fa 1d bd 5b ce 21 3d
       -0.027680531 -0.037356198 -0.038569223 0.039503437
000270 f2 c6 dd 3d 2b 66 a7 3d 37 d2 1a bd 5b 25 f6 3c
       0.108289614 0.08173784 -0.037798133 0.03004711
000280 24 bf e8 3c ed 2c c4 3c 48 61 26 bc c7 2b e2 3c
       0.028411455 0.023947204 -0.01015503 0.027608765
000290 4c cd f3 bb 26 fb c6 3b 3d 8c c4 3d 2a db 8e 3c
       -0.007440245 0.0060724197 0.09597061 0.01743849
0002a0 0b 00 84 bc 37 69 1b bd 41 6d 2f bd c7 d9 8b 3d
       -0.016113302 -0.037942138 -0.042828802 0.06828647
0002b0 70 d5 a5 3c fd da 3e bc 0d 1d ba 3a c9 1f 95 bc
       0.020243376 -0.011648891 0.0014199332 -0.018203633
0002c0 45 b7 0e 3d 51 8f b4 3c ae b6 e4 3c d2 61 cf ba
       0.03484275 0.022040995 0.02791914 -0.0015821999
0002d0 b2 5d 45 3c 1b 1f 29 3d 10 29 fe 3c c0 b8 3d 3d
       0.0120462645 0.04128943 0.03102544 0.04631877
0002e0 cc 29 8c 3c 27 cf ed 3c 05 9b af bc 20 d8 30 bd
       0.017109774 0.029029442 -0.021436224 -0.043174863
0002f0 af 1d 0c 3d 7f 7d 33 bb 6e 2f b0 bb 43 7f 10 3c
       0.034207996 -0.0027388034 -0.005376748 0.008819404
000300 6e 92 b5 3c 02 a3 0e bb b4 cf ba 3c 71 01 47 3d
       0.02216455 -0.002176464 0.022804119 0.04858536
000310 c5 5a e3 ba 0f ff 80 bc 81 f5 40 3c f3 3d 24 3e
       -0.0017345777 -0.015746621 0.011777283 0.16039257
000320 8a 62 7d b9 2c 24 52 bc 73 02 32 3e d4 d0 1e 3d
       -0.00024164669 -0.012826007 0.17383747 0.038773373
000330 0d 4a 73 bc ef 43 d3 bc 01 20 f2 bc 30 ab c1 bd
       -0.014849198 -0.02578923 -0.029556276 -0.094564795
000340 e6 7f 26 bc 75 ef 3a 3c a8 62 da 3d 3a 1d a0 3d
       -0.010162329 0.01140963 0.106633484 0.078180745
000350 ed bf 81 3c a3 34 2f bd fc 4e 97 bc 5d ae b3 bc
       0.015838588 -0.042774808 -0.01847028 -0.021933729
000360 b9 55 19 bc 60 e4 1d 3d 9c d4 35 bd c7 94 cc 3c
       -0.009358817 0.038547873 -0.044392213 0.024973286
000370 09 dc ec bc b3 bb b2 bc 0f 40 9d 3c c9 a9 2b 3d
       -0.028913515 -0.021818018 0.019195585 0.041909967
000380 a5 9e c0 bc 3f 4a 29 3d 8a bb 1b 3d 3c 68 84 3b
       -0.023513148 0.041330572 0.038020648 0.004040746
000390 a3 b4 33 bd ed 76 b3 bc a4 4b 04 bd 94 1c 1f bd
       -0.04387344 -0.021907294 -0.0322987 -0.038845614
0003a0 81 c3 4a 3d 36 94 b2 bc d8 19 cb bc 1f e3 20 3d
       0.049502853 -0.021799188 -0.024792597 0.0392791
0003b0 ae 53 3e bc 99 08 3e bd 98 44 b8 bc 54 89 2b bc
       -0.0116166305 -0.046394918 -0.022493646 -0.010469753
0003c0 f2 98 79 3d 50 dd f9 39 b9 b0 88 3c e7 60 97 3d
       0.060936876 0.00047657872 0.01668583 0.073915295
0003d0 9a 3a 97 bd 7e 33 a9 3c f0 67 3e 3d d1 99 4e bd
       -0.07384224 0.020654436 0.04648584 -0.05043966
0003e0 6c 7e 49 3d bb 95 e6 3a 77 d8 5a bb e8 1e c3 bc
       0.04919283 0.001759223 -0.0033393183 -0.023818448
0003f0 f1 49 45 bd a2 b3 63 bc d2 0f 83 bc ff 88 75 bd
       -0.04816622 -0.013897808 -0.015998755 -0.059945103

bias f4 [9]
000000 ae 5a 65 3d b7 e5 14 3d 9c 62 5e 3d 5f 6f 13 3d
       0.055994682 0.036351886 0.05429326 0.035994884
000010 3f 95 be 3c c7 f9 b8 3c ef b9 b6 3c 42 65 0a 3d
       0.023264525 0.02258004 0.022305457 0.033787973
000020 0c 17 d1 3c
       0.025523685
