.processed/2_logs_scale_3_crop_128/epoch_16_model.pth (torch_old, 93448 bytes, 6 tensors)

weight f4 [64, 1, 5, 5]
000000 cb 6c eb 3d cc 5f 09 3e fd 74 9d bd ca 15 23 3e
       0.1149536 0.1341545 -0.07688329 0.1592628
000010 87 db 82 bd 3e f7 49 3c 2e cd ef bd fa f0 e0 3d
       -0.06389528 0.012327014 -0.11709057 0.10983463
000020 c6 cf 2a 3e ac f2 25 be 25 62 1f 3e 60 a7 11 3d
       0.16680822 -0.16205853 0.15564783 0.035560012
000030 71 67 27 3e dd c8 b4 3c ab 95 ac 3d af 58 53 bd
       0.16348054 0.022068435 0.084269844 -0.051598247
000040 20 df 14 3e 6a 0a b4 3c 4e ad e7 bd 70 90 ec 3c
       0.1453824 0.021977622 -0.11312352 0.028877467
000050 dc f6 e0 bd 1d 3a 24 bd 3a e8 c7 bd 2b b1 e1 3d
       -0.10984585 -0.040094484 -0.097610906 0.1102012
000060 4b 96 3a be b3 1a cf bd b5 86 75 bd 0d 4a fd bd
       -0.18221395 -0.10112514 -0.05994292 -0.1236764
000070 ec ba 40 3c 85 b3 4a be 06 48 2e 3e df 8d 38 be
       0.011763316 -0.19795044 0.17019662 -0.1802287
000080 a8 24 20 3e e8 3a d7 3c 0a 33 92 bd a9 65 f1 3d
       0.15638983 0.026273206 -0.07138641 0.11786968
000090 dc 23 18 3d 63 9a 39 3e 99 32 90 3c b3 d1 8a bd
       0.037143573 0.181253 0.017602252 -0.06778278
0000a0 fb 9d 3a 3d f2 4c 62 bd f7 dc bb 3d 43 5b 30 3e
       0.04556082 -0.055249162 0.09173005 0.17222314
0000b0 ed 85 d9 3d 54 20 cd bd ff bc db 3d 9d d0 fc 3c
       0.106212474 -0.10015932 0.107294075 0.030861193
0000c0 1e c2 b4 3d 93 00 0b be dc a7 41 be 80 f2 78 bd
       0.088260874 -0.13574438 -0.1891169 -0.06077814
0000d0 2f df 1c be bc f2 34 3e 9d 87 9a 3d 00 58 d1 3d
       -0.15319513 0.17670721 0.075453974 0.10221863
0000e0 0b 3b 86 3d d6 2b 06 bb 5a 30 36 3e 51 cd ff bd
       0.0655423 -0.0020472906 0.17791882 -0.12490333
0000f0 53 f9 9e 3c 04 39 17 be 81 e8 44 3d b2 87 93 bd
       0.019405996 -0.14767843 0.048073296 -0.07203616
000100 5a 5b 87 3d 9d 18 e1 bc 1c eb 3d 3e 50 0b 0b be
       0.06609221 -0.027477557 0.18546718 -0.13578534
000110 05 b9 f4 bd 8c 70 df bd 86 cd 4a 3e 92 ee 98 3d
       -0.11949352 -0.109101385 0.19804963 0.07467379
000120 6a 34 48 3e 85 c6 1f be 99 91 33 be 75 c4 fd bd
       0.19551244 -0.15603073 -0.1753601 -0.12390987
000130 e1 25 04 be 4e 30 bd 3d 9b fa d6 3d 36 8b 34 3e
       -0.12905075 0.09237729 0.10497018 0.1763123
000140 86 b3 ea bd 6b 84 27 be 0a 8b 23 3e 48 b9 a7 bd
       -0.11460023 -0.16359107 0.15971008 -0.081896365
000150 7d f7 25 3e b2 57 d2 bc ef 9d 31 3e e3 f5 80 be
       0.1620769 -0.025676582 0.17345403 -0.25187597
000160 ca a1 fc bd 35 46 ce 3d c7 79 9d 3d c9 04 2d bd
       -0.12335546 0.10071985 0.07689243 -0.04224089
000170 89 16 1f 3e 43 e2 3c 3e da 3a 11 be 79 6a 9b bd
       0.1553594 0.18445687 -0.14182606 -0.075886674
000180 71 0b 65 3e 8a 37 85 bd 98 cd 47 bd 76 0d 15 be
       0.22367646 -0.06504734 -0.048780054 -0.14555916
000190 bb 19 10 be c7 98 b0 3c da 34 8b bd c5 9f 2e be
       -0.14072315 0.021557225 -0.0679719 -0.17053135
0001a0 81 42 94 ba 0b d9 27 be 58 df 53 be 18 29 14 be
       -0.0011311324 -0.16391389 -0.20690668 -0.14468801
0001b0 7f 8b 56 be 12 e8 1a be 5e 72 1e 3e dc ec 22 3c
       -0.20951651 -0.1512759 0.15473315 0.009944167
0001c0 a4 12 99 3c 55 68 6a be 5d e1 2c be 87 06 c6 bd
       0.018685646 -0.22891362 -0.16882844 -0.09669214
0001d0 38 a8 21 ba 26 fa 60 be c3 a0 f2 bd 32 2f 13 be
       -0.0006166729 -0.21970424 -0.11847069 -0.14373472
0001e0 14 ea 6e bc cd fb ce bd c9 dc 20 bd f5 81 20 be
       -0.014582176 -0.10106621 -0.039273057 -0.15674575
0001f0 69 ef 10 be 47 5e c9 bd 07 b2 6d bd 57 df 25 be
       -0.14153828 -0.09832435 -0.05803111 -0.16198479
000200 69 30 2b 3e a4 aa 1b bd 9b aa 35 3e e4 ed 7c 3d
       0.16717686 -0.038004532 0.17740862 0.061750308
000210 45 c3 4b be 85 bb 07 3e ef 10 79 bd f9 1d 9c bd
       -0.19898708 0.13255127 -0.060807165 -0.07622904
000220 bc 40 45 be 54 c5 7d be 0a 5b 47 3d a7 5c 52 bd
       -0.19262975 -0.24782306 0.048670806 -0.05135789
000230 2a 44 b6 3d 86 86 26 be a3 74 12 3e b0 b4 16 be
       0.0889972 -0.16262254 0.14302306 -0.14717364
000240 23 ac e0 bc 28 41 35 3d e0 56 e1 3d 2a 10 26 3e
       -0.027425831 0.04425159 0.11002898 0.16217104
000250 bd 7a 44 3e af 3b 22 be f1 17 68 3d c5 24 a9 bd
       0.19187446 -0.1584308 0.056663457 -0.08258966
000260 00 78 37 bc ac 75 12 be 04 18 4c 3e 19 9c 14 be
       -0.011198044 -0.14302701 0.19931036 -0.14512672
000270 8b cd ee 3d 56 2e c7 3d 69 cc 94 3d f9 a3 bc bd
       0.11660298 0.09725635 0.07265551 -0.09210963
000280 2a a7 48 3e f7 9b 88 3d 0f 0d 83 3d 82 d3 2e be
       0.19595018 0.06670373 0.06398975 -0.17072871
000290 45 6b d2 3d f4 a3 ca bc bb 34 b1 bd e1 a3 4c 3e
       0.10274366 -0.024736382 -0.08652636 0.1998439
0002a0 6b e0 4f 3d ef 35 c8 bd 5f c4 bd bd 97 9c 97 bb
       0.05075113 -0.09775912 -0.092659704 -0.0046268213
0002b0 a7 6b fb 3d 00 8c 28 bd a0 5a cb bd ea 2e b2 bd
       0.122763924 -0.04114914 -0.09929395 -0.087003544
0002c0 74 66 25 be a1 a3 89 3d 1c d4 15 3e 17 74 4f be
       -0.16152364 0.06720663 0.14631695 -0.20259129
0002d0 5a 70 03 3d 40 e7 d8 3d 2c ee 23 3d 56 7b a2 bd
       0.03208957 0.105909824 0.04002206 -0.07933681
0002e0 c0 4f c3 3d 80 bb c6 3d 4a 43 9f 3d c4 cf bf bc
       0.095366955 0.097037315 0.07776506 -0.0234145
0002f0 b5 08 6c bd 72 26 3e 3c e9 2d 57 bd 00 d0 94 bd
       -0.05762549 0.011605846 -0.052534018 -0.07266235
000300 6a 68 01 3e 13 e4 24 3e 80 8f 1a bd 60 13 7f bd
       0.12637487 0.16102628 -0.03773451 -0.062274337
000310 17 60 10 bc 95 c4 80 bc c1 98 13 3d 16 73 37 3d
       -0.008811972 -0.015718738 0.03603435 0.04478749
000320 c3 32 25 be ba ad 5b bd 19 fa 3f 3e 94 f7 c7 3d
       -0.16132645 -0.053632475 0.18747748 0.09764019
000330 15 73 06 3c a1 99 d0 bd e7 b3 dd bd 62 20 34 be
       0.008206149 -0.101855524 -0.10825329 -0.17590478
000340 d9 e3 59 bd e3 c6 b3 3d c5 9a 0e 3e 9b 92 d1 3d
       -0.053195808 0.08778169 0.13926227 0.10233041
000350 6b 09 42 be 5b f2 dc bd 9c 44 3e bc 7c d1 52 3e
       -0.18948905 -0.10788413 -0.011613037 0.20587724
000360 18 f4 3c 3d 7c 83 37 bd 52 9b cc 3d 03 0c 65 bd
       0.046131223 -0.044803128 0.099905625 -0.05591966
000370 4c bc f1 bd c0 e9 25 3e 70 9d 99 bd cd 2e 9e bc
       -0.11803493 0.1620245 -0.07500732 -0.019309426
000380 e4 25 35 be 74 97 1d 3e 8c 28 2a 3e e7 0f a6 3d
       -0.17690235 0.15389806 0.1661703 0.08108502
000390 7d 3a 07 be 86 16 43 be 2f fb 1a be 82 11 2a 3e
       -0.13205905 -0.19051561 -0.15134881 0.16608241
0003a0 20 21 d8 3d 07 b8 35 3e ff bf db 3d 34 4a 7a 3d
       0.10553193 0.17745982 0.1072998 0.061105922
0003b0 54 cf 0e bb 0f 5f 47 be 46 cd 3e be 5a cd 3b be
       -0.0021791058 -0.19469856 -0.18632993 -0.18340054
0003c0 3d 2b c1 3d 60 05 c0 bd 5d 6c 23 bd 6f 36 e5 bd
       0.09432075 -0.09376025 -0.039898265 -0.11192023
0003d0 e1 e4 a4 bc f1 aa 07 be e0 a5 f3 bd 15 31 aa 3d
       -0.02012867 -0.13248803 -0.118968725 0.08310143
0003e0 f8 b8 1d bd d3 49 19 3e a2 1a 44 bd 43 b9 3c be
       -0.038506478 0.14969568 -0.04787696 -0.18430047
0003f0 3d df ea bc 8a 58 fb bd f1 ba 64 bd b2 03 6d be
       -0.028670901 -0.12272747 -0.055842344 -0.23145941

bias f4 [64]
000000 fd a4 54 be 2f a0 dc 3d b1 ea 55 be 5a 48 7e bd
       -0.20766063 0.1077274 -0.20890309 -0.06208072
000010 eb 31 d5 3c fd 08 0e 3e 56 ea 88 bd 3a 8f 7b 3d
       0.02602478 0.13870616 -0.06685321 0.06141589
000020 3c 64 4a 3d b9 e3 10 3e e3 b0 fb 3b 2d 9b ae 3d
       0.049411997 0.1414937 0.0076809986 0.08525691
000030 9a 30 14 be a4 30 1a be ac ac 52 3e 36 29 30 be
       -0.14471665 -0.15057617 0.20573682 -0.1720322
000040 7a 7a 8e bc 75 2d ae bc 21 ab 58 3e 43 c6 60 bd
       -0.017392386 -0.02126191 0.2115903 -0.054876577
000050 d0 07 24 be 54 4a bd bd 5e 31 ea 3d 32 5b e6 3d
       -0.16018605 -0.092426926 0.11435197 0.11247863
000060 34 7f 43 3e bc 5e 2b bd bf c2 c0 3d 9e 44 6e be
       0.19091493 -0.041838393 0.09412145 -0.23268363
000070 3f 27 dc 3d e7 1e 23 3e 05 dc 05 3e d0 ba 01 be
       0.10749673 0.15929757 0.13072212 -0.1266892
000080 a0 cd 8e bd 52 19 61 3d ad 1d 25 be 39 9a 52 be
       -0.069728136 0.054955788 -0.16124602 -0.20566644
000090 92 39 5a be 33 a9 c7 3c 88 7d 28 3e b9 d7 a1 3d
       -0.21311024 0.024372673 0.16454136 0.07902474
0000a0 bc 33 bb ba 9c b2 07 3e e7 b4 0d be 68 d1 1f 3c
       -0.0014282386 0.13251728 -0.1383854 0.009754516
0000b0 c0 e9 de bd e8 a2 0f be 06 15 3e 3e f6 7c 1e be
       -0.10884428 -0.14026988 0.18562707 -0.15477356
0000c0 54 b4 93 3c 85 ff 4c be 65 6e 4d bc 3b 82 cd bd
       0.018030323 -0.20019348 -0.012538527 -0.10034605
0000d0 3b 58 af 3d 35 d0 09 be e0 46 50 3e af 0e 43 be
       0.085617505 -0.13458331 0.20339537 -0.1904857
0000e0 d4 75 08 3e cd 8f 67 be 2e e2 eb 3d 8c d7 ca bd
       0.13326198 -0.2261345 0.1151775 -0.099043936
0000f0 55 77 1b 3b db 24 96 bd 32 0c 27 3e bd 1b 9d 3d
       0.002372225 -0.073312484 0.16313246 0.07671306

weight f4 [32, 64, 3, 3]
000000 72 bc ee bc 79 52 55 bb 07 37 7d bc 36 b8 f1 3c
       -0.029142592 -0.0032550378 -0.015455014 0.029506784
000010 88 c7 b3 3b ba 86 d1 bb ba 97 49 bc ed 14 cc 3c
       0.0054864325 -0.0063942345 -0.012304241 0.024912322
000020 21 e3 d1 bc 6b 65 0b 3d fa 31 2c 3d f7 ab 2e 3d
       -0.025620999 0.034032267 0.04203985 0.042644467
000030 43 60 1d 3d bc 61 8c bb 43 5b 5c 3d 45 e0 2e 3b
       0.03842188 -0.004284112 0.05379797 0.0026683968
000040 af 76 96 3c 8a f5 24 3c d1 71 7d 3c 27 eb 9b 3b
       0.01836714 0.010068307 0.0154690305 0.004758257
000050 d4 08 33 bc 92 18 fc ba 49 1a 84 bd 0f 74 ab bc
       -0.010927398 -0.0019233397 -0.06450326 -0.020929364
000060 18 35 55 bd 30 57 b8 ba da bb 58 bd bf c5 6f bc
       -0.052052587 -0.001406407 -0.052913524 -0.014634549
000070 f0 cc 0c 3d 3c 11 0f 3d 70 4b a1 bc 3b 47 25 bd
       0.03437513 0.034928545 -0.019689292 -0.040351134
000080 7c 09 93 3b 6f 69 72 3c cf c4 b1 bc fb 3a 62 bc
       0.0044872146 0.014795645 -0.021700291 -0.013808007
000090 46 15 15 bd 69 d7 a3 3b 49 e3 ea 3c 79 2f f9 bc
       -0.03639724 0.005000044 0.028672831 -0.030418145
0000a0 56 a8 d1 3b 76 6b 0c 3c 37 30 dc 3c c8 b2 5f bc
       0.006398241 0.008570543 0.02687846 -0.013653465
0000b0 1b 91 00 bc a3 49 b0 3c 11 72 17 3d c5 b8 f9 3c
       -0.007847096 0.021519488 0.036974017 0.030483613
0000c0 cc db d6 bc f8 2a 94 3c 05 74 39 3c c7 64 1b bd
       -0.026227854 0.018086895 0.011319165 -0.037937906
0000d0 32 12 03 bc 62 26 b1 bc 18 07 d5 3c 3e 4c 5c bc
       -0.007999944 -0.021624748 0.02600436 -0.013445912
0000e0 47 56 ff 3b 2a 77 ad 3c 78 f8 0c bc 0e ff 26 bd
       0.0077922675 0.021174986 -0.008604161 -0.040770583
0000f0 11 65 d8 b5 90 24 e6 3c da 7b 0a 3d 56 3e 4e bc
       -1.6122668e-06 0.028093606 0.03380952 -0.012588104
000100 6e 38 d2 3c 75 c8 c3 bb b8 26 89 3a db 46 7b 3d
       0.025661673 -0.005974824 0.001046381 0.06134687
000110 9c 48 20 3d 88 9c 03 3a 79 72 dc 3c 07 19 cd 3c
       0.039131746 0.00050205784 0.026910054 0.025036348
000120 4c 94 b1 39 30 19 d4 bc 2f b4 08 bd 01 e5 75 3c
       0.0003387056 -0.025890917 -0.03337496 0.015008212
000130 36 9e 35 bc a6 0b 04 3c c1 54 ea bc d5 60 93 3a
       -0.011085084 0.008059418 -0.028604867 0.0011244068
000140 6e 06 cb 3c c4 2a 68 3c 73 f6 a8 3c a9 f4 4e 3d
       0.02478334 0.014170352 0.020625329 0.050526295
000150 aa 3a 89 bc af ae 51 3c b4 90 12 3d 11 98 24 3d
       -0.016751606 0.0127979955 0.03578253 0.040184084
000160 01 1d cb bb 2b 89 5a 3d 40 3c fe 3c 2d cc 61 bd
       -0.006198526 0.05335347 0.031034589 -0.055126358
000170 98 7b 0f 3d 57 40 20 bd 69 6f f5 3d 10 e1 a9 bc
       0.035029978 -0.03912386 0.119841404 -0.020737201
000180 31 f4 08 bc e2 fc 1b bd fa 03 19 bd fe f7 4b bc
       -0.008359001 -0.038082965 -0.037357308 -0.012449263
000190 52 80 37 bd 27 8e a6 bc e0 4b 26 3c ec b3 dd 3c
       -0.04480011 -0.020331455 0.010149926 0.027063332
0001a0 d7 01 83 3c dc 70 7a 3c 5f ca 6b 3c 24 ca 0c bd
       0.015992088 0.015285697 0.014391511 -0.034372464
0001b0 a0 50 52 bd 62 5a 38 bb 16 e9 dc 3c b7 18 78 3b
       -0.05134642 -0.0028130044 0.026966613 0.0037856528
0001c0 8d 44 ff bc 7b df 00 bd e3 46 fd bb 92 c1 17 bd
       -0.031160617 -0.031463128 -0.0077293976 -0.037049837
0001d0 c0 71 ef 3c 59 2b 9d bc 0a 81 60 bd f1 45 31 bc
       0.029229045 -0.019185709 -0.05481056 -0.010819898
0001e0 35 48 38 bc f3 dc c2 bc 45 17 ac ba 32 5d 25 3c
       -0.011247684 -0.023786997 -0.0013129493 0.01009302
0001f0 5f 76 59 bd 27 4d 36 bd ff 4c 34 3c 22 ee df bc
       -0.053091403 -0.044507172 0.011004685 -0.02733523
000200 d9 89 7c bc 77 37 2f 3d a5 d4 2f 3b 55 07 9b ba
       -0.015413725 0.042777505 0.0026829627 -0.0011827747
000210 d0 9d b9 bc ac 4a a9 bc aa b5 25 3d c4 2a af bc
       -0.022658259 -0.02066549 0.04045645 -0.021382697
000220 ac 22 21 bd 97 39 37 bd 4d 6a 43 3c 4f a1 3e bd
       -0.039339706 -0.044732656 0.0119272 -0.046540555
000230 97 66 0f bd 87 db c1 bb 3d c4 0b bd d9 7a ac bc
       -0.035009947 -0.0059160623 -0.034122694 -0.021054672
000240 82 bf 07 3d 63 57 fa bc 1c 57 22 bb 6a e8 0e bd
       0.03314162 -0.030559247 -0.002477116 -0.034889616
000250 b0 7c af bc 75 ad dd 3c 39 80 29 bc dc 75 f4 3c
       -0.02142176 0.02706025 -0.010345512 0.029841356
000260 cd e4 b7 bc f5 a0 96 bc fd 0a 12 bd 93 09 34 3d
       -0.022447968 -0.018387297 -0.03565501 0.043954443
000270 b5 13 06 bd 1b df 2e 3c ed 49 ce 39 f0 08 0f 3d
       -0.032733638 0.01067331 0.0003934646 0.034920633
000280 07 56 dc 3c ef bb 20 bc c1 2b 41 3d a4 e9 27 bc
       0.02689649 -0.009810432 0.047160868 -0.010248575
000290 b0 4d c6 3b 5d ae 70 3d a4 aa 41 3d 64 45 b9 3c
       0.0060517415 0.058760036 0.047281876 0.022616096
0002a0 e9 66 cd 3b 10 03 3c 3b d8 fe 39 3d 1a 55 81 bb
       0.0062683714 0.0028688349 0.045409054 -0.0039469125
0002b0 4e ff 1c 3c 50 5c 9f 3a d3 0a 5a 3d 08 aa 5e bc
       0.009582354 0.0012158249 0.05323298 -0.013590343
0002c0 1d de 63 bc b8 81 26 3d e8 66 66 3c 9d 41 76 bc
       -0.013907936 0.040651053 0.014062621 -0.015030292
0002d0 3e 66 49 bd c6 25 e4 bc 2d 36 d9 3b a1 22 95 bc
       -0.04916977 -0.027850043 0.0066287727 -0.018204989
0002e0 c2 c7 72 bc 01 5f 6b bd 66 8b 86 ba e0 65 51 bd
       -0.014818134 -0.05746365 -0.0010264933 -0.051122546
0002f0 75 ae e6 3b 4b 86 4f 3d 1f d6 f5 3b 7e ac 36 3d
       0.00703984 0.05066518 0.007502332 0.044598095
000300 2b 9b fc bc 76 12 63 bd 03 be 58 bd d9 39 d8 3c
       -0.030835709 -0.055437528 -0.052915584 0.026394771
000310 0d 2d 5b 3c fb 7f 20 bd e3 05 84 3c 31 ac 17 3d
       0.01337744 -0.03918455 0.016116088 0.03702945
000320 fd 56 0d bd f1 0e 9c 3c e2 cc 71 3c fc 64 7d 3c
       -0.034506787 0.019050093 0.0147583205 0.015465971
000330 2b 6d f4 3c dc 27 33 3d a5 b7 82 3c 0f 9d 3f 3d
       0.029837212 0.043739185 0.01595671 0.046780642
000340 c4 87 51 ba 0a 0d d8 3c 7d 74 df bc 4c 64 d5 3b
       -0.0007992948 0.026373405 -0.027277226 0.0065122005
000350 61 44 69 3a 8f 54 0d 3d 95 1e 8b 3c 34 43 71 3c
       0.0008898434 0.03450447 0.016982356 0.014725495
000360 73 a5 0d bd af bc 94 bc 1a 95 3d 3d 23 b2 14 3d
       -0.034581613 -0.018156378 0.046284772 0.036302697
000370 61 06 06 3d 4f 88 22 bb b7 a6 e1 bb 99 4d ac bb
       0.032720927 -0.0024800485 -0.006886329 -0.005258274
000380 e5 7f ae 3c 0e 8f e6 bc bb 57 66 3c 7d 78 81 3c
       0.02130122 -0.028144386 0.0140590025 0.015804524
000390 97 35 58 bd 8b ca 82 bc 06 a4 d8 bc 99 2a 01 bd
       -0.052785482 -0.01596572 -0.0264454 -0.031534765
0003a0 15 d3 b7 3a c2 e8 82 bc 67 1e 4e 3d d8 35 97 bb
       0.0014024699 -0.015980128 0.050321963 -0.004614573
0003b0 ec be 05 3d 27 69 86 bc ca 96 14 bc 19 08 a2 3c
       0.03265278 -0.016407562 -0.009069154 0.019779252
0003c0 64 95 39 3d c2 ec e7 3c 7b d0 8c bc 82 8c 45 bc
       0.045308486 0.028311137 -0.017189255 -0.012057425
0003d0 28 77 5d bd 1b 18 fe bb fd 58 71 bd 7e 43 37 bd
       -0.054068714 -0.0077543384 -0.058922756 -0.0447421
0003e0 33 21 b8 3b 5b a9 38 bd d1 0a 7d bd cf 07 f6 3b
       0.005619192 -0.045083385 -0.061777893 0.007508255
0003f0 e5 40 72 3c a4 b1 6b bc 2b a2 52 3d 07 ba 70 bc
       0.01478598 -0.014385615 0.051424187 -0.01469279

bias f4 [32]
000000 11 0a 8b 3d 3e 9f 1f bd f6 c1 1f bd b7 e1 23 3d
       0.067890294 -0.038970225 -0.039003335 0.04001018
000010 e3 c5 dc bc 23 5c 19 3d ff 1a 42 3d 95 1a 73 bd
       -0.026949828 0.037441384 0.047389027 -0.059351522
000020 72 e4 62 bb 69 94 36 3c cb 46 af bb a2 64 7e bc
       -0.0034621027 0.011143782 -0.0053490154 -0.015526922
000030 7a 0a 35 3c 1b 3a 16 bc 8b 05 c2 3c 3a fb f4 bc
       0.011049861 -0.009169127 0.023684284 -0.02990495
000040 f4 24 4a 3d 35 35 3d bd fc 42 31 bc b7 ad 21 3c
       0.049351647 -0.04619332 -0.010819193 0.009868077
000050 7d 53 16 3d 9c 8d 4b bd 8e 09 6d bc 2d f1 d8 bc
       0.036700714 -0.049695596 -0.01446761 -0.02648219
000060 a1 f3 5b bd 1f f0 59 bd 15 90 3a 3d 2e c9 a5 bc
       -0.05369914 -0.053207513 0.045547564 -0.020237532
000070 f8 90 2d bd 3c 85 58 ba e4 13 13 bc fb e7 0b 3d
       -0.04237458 -0.00082595996 -0.00897691 0.03415678

weight f4 [9, 32, 3, 3]
000000 a6 1a 84 3d 80 a0 8b 3d d6 79 84 bb a8 b7 07 bc
       0.06450395 0.06817722 -0.0040428443 -0.008283533
000010 c5 f9 8d 3c 6d a0 0c 3d 35 5a 5f 3c ab a0 aa bc
       0.017331013 0.03433268 0.013632347 -0.020828566
000020 67 5e 79 3d c8 96 09 bd b6 4d e3 3c 8f 37 74 bc
       0.060881045 -0.03359106 0.027747016 -0.014905824
000030 4f 7a 03 3c a7 e9 9e bc c0 0e bd 39 7a 00 2c bd
       0.008024766 -0.019398523 0.0003605988 -0.041992642
000040 dd bf 22 3c 2e 65 23 bd 07 7c 24 3d dc 4c 5c bd
       0.009933439 -0.039891414 0.040157344 -0.053784236
000050 a3 43 90 3d de 8d 80 bd 70 80 8a bd 32 c1 98 3d
       0.07044151 -0.06277059 -0.06762779 0.07458724
000060 cb e3 53 3d 97 5a 6f bd a1 96 2a bd 9b 8b 50 bd
       0.051730912 -0.058436003 -0.041647557 -0.05091439
000070 70 92 b1 3c 61 42 09 bc 97 fc 50 3c c0 97 33 3d
       0.021676272 -0.008377642 0.012755535 0.043845892
000080 6c 3e 1e 3d 5c 0b 1c ba 24 9a 91 3c c9 1f 35 bd
       0.03863375 -0.00059526204 0.017773695 -0.044219766
000090 67 9e 41 3d bd ab 94 bd e7 3a d1 bc c9 1a 55 bd
       0.047270205 -0.07259319 -0.025540782 -0.052027497
0000a0 15 8b fe 3b 8e 7e c3 3c 66 0c 2f 3c df 97 79 bd
       0.0077680447 0.023864057 0.010684108 -0.06093585
0000b0 56 ca 8f bc 98 34 df bc 15 df 1b 3d 87 9d 12 bd
       -0.017552536 -0.027246758 0.038054544 -0.03579476
0000c0 08 85 7e 3d bc 9e 0c 3d ed 91 19 bd 26 a9 bb 3b
       0.062138587 0.03433107 -0.03749268 0.005726951
0000d0 0e ad 01 3d 62 8d 83 3d d2 48 e4 38 32 a4 bc bc
       0.03165918 0.06423451 0.00010885451 -0.023027513
0000e0 29 b7 f2 bc c4 9c d3 3c 46 0a 65 3d fa 8b 50 bc
       -0.029628353 0.025831588 0.055918 -0.0127286855
0000f0 fc fb 1a 3d 20 f5 32 bd 5d e1 8b bd b0 54 f3 3b
       0.037837967 -0.0436908 -0.06830094 0.007425867
000100 08 4b 68 3d 5f a3 2a 3d ae ae b4 3b 16 e7 76 bd
       0.05671218 0.04165971 0.0055139875 -0.060278974
000110 40 6d e1 3c 1b 34 4a 3d 7a dd 98 bd ed de 74 bc
       0.027517915 0.049366098 -0.07464118 -0.014945728
000120 ee 1b 44 3d 39 32 53 3c 8e 79 64 bd 02 ad 08 bd
       0.0478782 0.012890392 -0.055779986 -0.033368118
000130 8d d4 3a bc 3b 60 31 3b 42 0b 92 3c 45 a4 e1 bc
       -0.011403215 0.0027065414 0.017827634 -0.02754415
000140 e1 1d a7 3d c2 9c d3 3b 99 15 86 3d 16 6f 86 bc
       0.08159996 0.006457896 0.06547088 -0.016410392
000150 bf 39 72 3d 4d 65 55 3d 4a 6a 40 bd 84 4e 22 3d
       0.059137102 0.05209856 -0.046976365 0.03962566
000160 85 2e 27 3d 5d 82 4b bd 2d 88 18 3d 97 67 01 bd
       0.04081585 -0.04968487 0.037239242 -0.03159293
000170 8e 7f 09 bd d4 bd f3 bc 83 16 8b bd 08 de 0c 3d
       -0.03356891 -0.029753603 -0.06791403 0.034391433
000180 1d 80 f2 bc 15 fb 4c bd 69 fc 51 3d c4 03 57 bd
       -0.029602105 -0.050044138 0.051266108 -0.052493826
000190 2e 0f 19 bc e7 60 6a bc c1 ed ce 3c fd 83 ea bc
       -0.009341998 -0.01430533 0.025259854 -0.02862739
0001a0 94 17 73 bd 3e 60 fa bc ce 37 92 3d 73 4e 00 3d
       -0.059348658 -0.03056347 0.0713955 0.031324815
0001b0 0f 59 0b 3d d6 be 67 bd 67 38 b0 bd 32 0d a5 3c
       0.03402048 -0.05657848 -0.08604508 0.020147894
0001c0 aa 84 61 3a 67 4a eb 3c 67 99 cb bb 2f 17 1b 3d
       0.00086028373 0.028722001 -0.0062133553 0.037863906
0001d0 6c 65 eb bc 4c 68 16 3d 58 3e 8b 3d 8f 43 3f 3d
       -0.028734885 0.03672056 0.067990005 0.04669529
0001e0 b1 ce ea 3c da de 0b 3c 09 20 a3 bc 4d ba ff bc
       0.028663011 0.008537019 -0.019912736 -0.031216765
0001f0 3f c9 2e bd 41 6f 91 bc 44 4d 34 3a e2 1b 83 3b
       -0.042672392 -0.017753245 0.00068779686 0.0040011266
000200 6b b8 f1 bc 25 81 9c bd 77 d7 2e bd 01 01 89 bd
       -0.029506883 -0.0764182 -0.042685952 -0.066896446
000210 6f 80 97 bd 96 78 fe bc 87 85 a9 bc 39 63 ab 3c
       -0.07397544 -0.03106336 -0.020693554 0.020921336
000220 eb 93 80 3d 44 88 74 bb e3 31 cb 3c f2 cd 12 bb
       0.06278213 -0.0037312666 0.024804061 -0.0022400585
000230 18 0e 38 bd f5 79 99 bc 85 aa bd bb ef 84 be bc
       -0.044935316 -0.018734911 -0.00578815 -0.023256747
000240 f0 cb 8f 3c 4c ea 60 3d 0f a7 a3 bc b3 5f 38 3d
       0.0175533 0.054910943 -0.01997712 0.04501314
000250 60 9e 25 bc b6 8d 5b 3d a3 d1 f9 3c 4b 97 31 3d
       -0.01010856 0.053601943 0.03049547 0.043357175
000260 c1 40 ca bc 16 21 16 3d 57 43 2a bd e4 f7 b3 bc
       -0.02468908 0.036652647 -0.041568127 -0.02196879
000270 34 f7 8e 3c 14 5b 74 bd bd c5 01 3d 30 d9 4b 3c
       0.01745186 -0.05965717 0.03168272 0.012441918
000280 e7 9e 55 3d 0f 38 24 bd 7c af 97 bb 05 8a 6f 3d
       0.052153494 -0.040092524 -0.0046290737 0.058481235
000290 43 49 14 bc e8 5d 88 3d bf 21 37 3e 67 66 a4 bc
       -0.00905067 0.06658536 0.17883967 -0.02006836
0002a0 45 e5 21 bc 27 6d bf bc 62 9c ad bc 70 b6 98 3d
       -0.009881322 -0.023367478 -0.021192733 0.07456672
0002b0 f5 10 5f 3c 76 ef 39 3b e5 6e 2f 3c 46 e2 58 bc
       0.013614883 0.002837149 0.010707592 -0.013237542
0002c0 08 8a 3f 3d 9c d3 87 3c c2 23 be 3c b1 2b 69 bb
       0.046762496 0.016580395 0.02321041 -0.003557902
0002d0 eb 56 b7 3c 53 af 98 3d 18 39 1d 3d ba ae 76 3d
       0.022380313 0.074553154 0.038384527 0.060225226
0002e0 c8 dd 96 3d 1f 86 4f 3d 5c 12 cc 3a b3 1c 04 bc
       0.0736652 0.050665017 0.0015569436 -0.008063483
0002f0 19 b0 5a 3d 2e 0c aa 3b 11 82 a9 3a a6 99 35 bc
       0.053390596 0.00518944 0.001293244 -0.011083996
000300 42 ca b4 3c fc f8 dc bc 0d 8a 36 ba f8 11 20 3d
       0.0220691 -0.026974194 -0.000696332 0.039079636
000310 0b 26 80 bc 83 5f ef 3a 0b bb 0c bd 83 16 40 3d
       -0.01564314 0.0018262718 -0.034358066 0.04689647
000320 c6 1b 15 bd 11 02 07 3c ca 18 8e bc 51 05 af 3c
       -0.03640344 0.008240239 -0.017345805 0.02136484
000330 3a 38 59 bd eb 4d dc bb 8b ab 01 bd a3 37 70 bd
       -0.053032137 -0.0067231557 -0.031657737 -0.05864681
000340 43 93 0e 3a fe 8a 8e 3c b9 ec 37 bd 32 80 3d bd
       0.0005438814 0.017400261 -0.04490349 -0.046264835
000350 17 36 08 3d 7f 3a 93 bc ad 7d b2 3c b6 ed e0 bc
       0.03325471 -0.017972229 0.021788443 -0.0274571
000360 90 c0 11 bc 1b 91 c9 3c bb 51 5c bd 7c 3b f4 3b
       -0.008896008 0.024605324 -0.05378888 0.00745338
000370 0a 5a 1f bd d9 c3 c1 bc 2f ae ff 39 20 10 02 3d
       -0.038904227 -0.023652958 0.00048767167 0.03175366
000380 20 69 b8 bc bf fe 58 bc 0d ce aa bc 7a bf 31 bd
       -0.022511065 -0.01324433 -0.020850206 -0.043395497
000390 09 89 82 bc 82 a4 a3 bc 9b b9 3a bd 83 98 1f bd
       -0.015934484 -0.019975904 -0.045587163 -0.038963806
0003a0 a3 3c ea 3c 7d 7e 43 bd 3f 2a 10 bd aa a1 55 3d
       0.028593367 -0.04772805 -0.03519654 0.052156128
0003b0 87 bd 39 bd 06 9b d8 bc a5 28 c6 bc 68 0f 02 bd
       -0.045346763 -0.026441108 -0.024189303 -0.031752974
0003c0 52 56 58 3d 6f 07 01 bd f7 d5 f5 3c b2 45 24 bb
       0.052816696 -0.03150123 0.030009253 -0.0025065956
0003d0 53 39 19 bc fe 7a 6c 3c 99 7c 5d 3d 9f 06 25 bc
       -0.009352046 0.0144336205 0.054073904 -0.010072379
0003e0 1f 63 af 3c 7c 8e 0f bc 12 4f 45 3d 41 e5 84 bd
       0.02140957 -0.008761998 0.04817111 -0.06489039
0003f0 e3 50 0c bd b0 6b 75 bb 32 52 7a bd 63 1c 85 bd
       -0.034256827 -0.003744822 -0.061113544 -0.06499555

bias f4 [9]
000000 12 57 bb 3d 20 28 f0 3c 7f 62 96 3d c9 12 45 3d
       0.09147467 0.029316008 0.073430054 0.048113618
000010 24 5a be 3b 7a c2 3c 3c 28 d9 50 3c 8e 1a 70 3d
       0.0058090854 0.011520976 0.012747087 0.058619075
000020 a8 43 48 3d
       0.048892647
