processed/8_logs-models_scale_3/epoch_21_model.pth (torch_old, 93448 bytes, 6 tensors)

weight f4 [64, 1, 5, 5]
0	0x3de335f4	0.11094275
1	0x3e061cdc	0.13096946
2	0xbd9c1b13	-0.076223515
3	0x3e20659c	0.15663761
4	0xbd8410a4	-0.064484864
5	0x3c0d0770	0.00860773
6	0xbdf53d7f	-0.1197462
7	0x3de3c113	0.1112081
8	0x3e26a5f5	0.16274245
9	0xbe266ead	-0.16253157
10	0x3e1c22bb	0.15247624
11	0x3d07b6b8	0.03313324
12	0x3e2a517a	0.16632643
13	0x3cb1f46f	0.021723
14	0x3daaab1b	0.08333417
15	0xbd501a7b	-0.050806504
16	0x3e12134a	0.1426517
17	0x3ccde369	0.025132852
18	0xbde22ddd	-0.11043904
19	0x3d02336c	0.03178732
20	0xbddb7f29	-0.10717613
21	0xbd212fe1	-0.0393523
22	0xbdc3e740	-0.09565592
23	0x3de7cc73	0.113182925
24	0xbe333205	-0.1749955
25	0xbdc3598b	-0.09538563
26	0xbd62146d	-0.05519526
27	0xbdf5aa37	-0.119953565
28	0x3c794e8a	0.015216479
29	0xbe45108a	-0.1924459
30	0x3e31a950	0.17349744
31	0xbe343afc	-0.17600626
32	0x3e220ff4	0.15826398
33	0x3ce2563e	0.027629014
34	0xbd88e557	-0.06684368
35	0x3df62326	0.12018423
36	0x3d1dee43	0.038557302
37	0x3e3fe776	0.18740639
38	0x3c9aa66e	0.018878188
39	0xbd84892c	-0.06471476
40	0x3d448397	0.047977056
41	0xbd5c68eb	-0.053810995
42	0x3dbef497	0.093239956
43	0x3e30e782	0.17275813
44	0x3ddfd75c	0.109297484
45	0xbdcdddfe	-0.10052107
46	0x3ddbd408	0.10733801
47	0x3ce3f8c9	0.027828591
48	0x3db14166	0.08655052
49	0xbe091924	-0.13388497
50	0xbe3de821	-0.18545581
51	0xbd64fbdd	-0.055904258
52	0xbe182650	-0.14858365
53	0x3e3b33a6	0.18281421
54	0x3da785da	0.08179827
55	0x3dd06b0e	0.10176669
56	0x3d9d431f	0.07678818
57	0x3c20b3f4	0.009808529
58	0x3e3dec85	0.18547256
59	0xbdf828f1	-0.12117184
60	0x3c942dc2	0.018088225
61	0xbe15dcae	-0.14634964
62	0x3d54044e	0.051761918
63	0xbd8ede5c	-0.069760054
64	0x3d8f2aca	0.06990583
65	0xbcbd3f54	-0.023101486
66	0x3e40ba18	0.18820989
67	0xbe071ce1	-0.1319461
68	0xbde5c739	-0.11219639
69	0xbdcd2cff	-0.10018348
70	0x3e55afc2	0.20867828
71	0x3da1146c	0.07865223
72	0x3e4b453d	0.19850631
73	0xbe1b74f9	-0.1518134
74	0xbe264c5f	-0.16240071
75	0xbddd9696	-0.108197376
76	0xbe059e5b	-0.13048689
77	0x3db9fa8a	0.0908099
78	0x3dd2fb2a	0.10301812
79	0x3e2a7c4d	0.1664898
80	0xbde0089d	-0.10939143
81	0xbe2b1c6e	-0.16710064
82	0x3e387499	0.18013228
83	0xbd88a9a6	-0.06672983
84	0x3e159962	0.14609292
85	0xbbe8400c	-0.007087713
86	0x3e60ee47	0.21965896
87	0xbeb64e3c	-0.35606563
88	0xbe0b750f	-0.13618873
89	0x3dd4b53f	0.103861324
90	0x3da690c7	0.08133083
91	0xbd15bca4	-0.036556855
92	0x3e396a22	0.18106893
93	0x3e32fb70	0.17478728
94	0xbe1a2e99	-0.15056838
95	0xbd9bbc2f	-0.076042525
96	0x3e604ecf	0.21905063
97	0xbd8ac325	-0.06775502
98	0xbd14a47a	-0.03628967
99	0xbdf1a80f	-0.11799633
100	0xbd7297da	-0.05922685
101	0x3df00aa7	0.11720782
102	0x3c995360	0.018716514
103	0xbd6bf3a8	-0.057605416
104	0x3dcd0619	0.10010929
105	0xbd9bef89	-0.07614047
106	0xbe05f5cd	-0.13082047
107	0xbd41bfec	-0.04730217
108	0xbdce8205	-0.10083393
109	0xbd30a195	-0.043122847
110	0x3e72bc8d	0.23704739
111	0x3e007658	0.12545145
112	0x3e070b94	0.1318801
113	0xbdeaba4a	-0.11461313
114	0xbd84c0dd	-0.06482098
115	0xb96d8c00	-0.00022654235
116	0x3dd88060	0.105713606
117	0xbdeab2f2	-0.11459912
118	0x3c7d7145	0.0154689
119	0xbd38bdef	-0.04510301
120	0x3d8350c2	0.06411888
121	0xbc7cbbd8	-0.015425645
122	0x3d78386a	0.060600676
123	0xbd78f692	-0.060782023
124	0xbd46e7eb	-0.048561018
125	0xbdcb2181	-0.099185
126	0xbd5a475f	-0.05329072
127	0xbe23d57c	-0.15999407
128	0x3e2a568d	0.16634579
129	0xbd0ef570	-0.034902036
130	0x3e36962f	0.17830728
131	0x3d85bb0a	0.065298155
132	0xbe490e9a	-0.19634476
133	0x3e071b70	0.1319406
134	0xbd6a5ed1	-0.05721933
135	0xbd96e345	-0.07367567
136	0xbe3d692f	-0.18497156
137	0xbe7dda1e	-0.24790236
138	0x3d461817	0.048362818
139	0xbd3bfdd5	-0.04589637
140	0x3da9908a	0.08279522
141	0xbe2637e7	-0.16232263
142	0x3e0f051a	0.1396679
143	0xbe186cf4	-0.14885312
144	0xbce602a5	-0.028077433
145	0x3d161e38	0.036649913
146	0x3dd7ad0d	0.10531054
147	0x3e21ff36	0.15820011
148	0x3e3d6c5e	0.1849837
149	0xbe268591	-0.16261889
150	0x3d51c2b8	0.05121109
151	0xbdb4051c	-0.08790037
152	0xbc895a99	-0.016766833
153	0xbe14e496	-0.14540324
154	0x3e48b127	0.19598828
155	0xbe191cdb	-0.14952414
156	0x3de2f04c	0.11080989
157	0x3dc26667	0.09492188
158	0x3d91e766	0.07124214
159	0xbdc615fc	-0.09672162
160	0x3e428e9e	0.18999717
161	0x3d7da7c8	0.061927587
162	0x3d8a2120	0.06744599
163	0xbe3088fa	-0.17239752
164	0x3dca02ab	0.0986379
165	0xbcfe7caa	-0.031065304
166	0xbdb849b3	-0.08998432
167	0x3e4ad6d4	0.19808513
168	0x3d4871f3	0.048936795
169	0xbdd1194e	-0.102099046
170	0xbdca1280	-0.0986681
171	0xbbfc2912	-0.0076953257
172	0x3dece2e8	0.115667164
173	0xbd386a60	-0.045023322
174	0xbdd29ed1	-0.10284198
175	0xbdbf18c3	-0.09330895
176	0xbe316ccf	-0.17326663
177	0x3d7ade42	0.061247118
178	0x3e06187d	0.13095279
179	0xbe647795	-0.22311242
180	0x3ca9f27c	0.020745508
181	0x3dc1bef2	0.09460248
182	0x3cf075cd	0.029353047
183	0xbdc3599b	-0.09538575
184	0x3da2b202	0.079441085
185	0x3dadf414	0.0849382
186	0x3d8d3c49	0.06896264
187	0xbcf06340	-0.029344201
188	0xbd940009	-0.07226569
189	0xba65ea29	-0.00087705493
190	0xbd8bc6d1	-0.068250306
191	0xbdb86fc3	-0.09005692
192	0x3df4534e	0.119299516
193	0x3e184add	0.14872308
194	0xbd518d00	-0.05115986
195	0xbda471e6	-0.08029537
196	0xbcb3b8c6	-0.021938693
197	0xbcd94e49	-0.026526587
198	0x3cba348f	0.02273014
199	0x3cd56def	0.026053397
200	0xbe24f0a6	-0.16107425
201	0xbd5808f4	-0.052742913
202	0x3e40a9cd	0.18814774
203	0x3dc73728	0.09727317
204	0x3bfe9770	0.0077695176
205	0xbdce6ceb	-0.10079368
206	0xbddae337	-0.10687869
207	0xbe33482d	-0.17508002
208	0xbd48f557	-0.0490621
209	0x3dba5d36	0.0909981
210	0x3e0d897c	0.13821977
211	0x3dced8fa	0.10099979
212	0xbe46903d	-0.1939096
213	0xbddb0bc0	-0.106956005
214	0xbc02bb0c	-0.007979166
215	0x3e500bd5	0.20317014
216	0x3d2cc193	0.042176794
217	0xbd3dfff3	-0.04638667
218	0x3dceef3e	0.101042256
219	0xbd567bb5	-0.05236407
220	0xbdef589e	-0.11686824
221	0x3e25ece3	0.16203646
222	0xbd94250d	-0.072336294
223	0xbc7210a3	-0.014774474
224	0xbe317fee	-0.17333958
225	0x3e2196a7	0.15780126
226	0x3e2b0800	0.1670227
227	0x3da9d701	0.08292962
228	0xbe034f2d	-0.12823172
229	0xbe388b24	-0.18021828
230	0xbe147a8d	-0.14499874
231	0x3e26d7a2	0.16293195
232	0x3dd0c83f	0.10194444
233	0x3e34fe76	0.17675194
234	0x3de3e233	0.111271285
235	0x3d8c6a51	0.06856216
236	0xba149cce	-0.00056691177
237	0xbe4c2158	-0.19934595
238	0xbe3adbe1	-0.1824794
239	0xbe33a9bf	-0.17545222
240	0x3dca3858	0.09874028
241	0xbdba5aa2	-0.09099318
242	0xbd27b457	-0.04094347
243	0xbdd91a45	-0.10600714
244	0xbc690276	-0.014221778
245	0xbe03bb9d	-0.12864538
246	0xbdf19e8f	-0.11797821
247	0x3dada25c	0.08478233
248	0xbd06a252	-0.032869644
249	0x3e1e3fa9	0.15453972
250	0xbd27294e	-0.040810876
251	0xbe2206d4	-0.15822917
252	0xbcac7a22	-0.021054331
253	0xbde9966b	-0.11405643
254	0xbd4222fb	-0.04739664
255	0xbe6867eb	-0.22695892

bias f4 [64]
0	0xbe5a0b9f	-0.21293496
1	0x3dd6829c	0.104741305
2	0xbe58f6b2	-0.21187857
3	0xbd5ea43c	-0.054355845
4	0x3d0ed4e3	0.034870993
5	0x3e19fe09	0.15038313
6	0xbd8ff72d	-0.07029567
7	0x3d8e5492	0.06949724
8	0x3d6b4271	0.05743641
9	0x3e250506	0.16115198
10	0x3c10cbe0	0.00883767
11	0x3dc7ae7c	0.09750077
12	0xbe1e2dde	-0.15447184
13	0xbe13d327	-0.14436017
14	0x3e586e02	0.21135715
15	0xbe3296eb	-0.17440383
16	0xbcc13bdf	-0.02358812
17	0xbccfa8bf	-0.02534902
18	0x3e57255b	0.21010344
19	0xbd660c86	-0.056164287
20	0xbe24c687	-0.16091357
21	0xbdb6ec6e	-0.08931814
22	0x3ddfb605	0.10923389
23	0x3de1edc5	0.11031679
24	0x3e471553	0.19441728
25	0xbd03bcd9	-0.03216252
26	0x3dda110f	0.10647785
27	0xbe88876f	-0.26665828
28	0x3db77dce	0.08959542
29	0x3e09fdeb	0.13475768
30	0x3e104602	0.14089206
31	0xbe0cbe27	-0.13744412
32	0xbd912920	-0.07087922
33	0x3d7351c9	0.05940417
34	0xbe2e3d95	-0.17015679
35	0xbe6e96bf	-0.23299693
36	0xbe5fcea5	-0.21856172
37	0x3d026688	0.031836063
38	0x3e153d7e	0.14574239
39	0x3d9c8e27	0.07644301
40	0x3bf9dba4	0.00762506
41	0x3e0f5912	0.13998821
42	0xbe13c50c	-0.14430636
43	0xbabcec7b	-0.0014413738
44	0xbd8e0b38	-0.069357336
45	0xbdfa6958	-0.12227124
46	0x3e38ff63	0.18066172
47	0xbe1f9492	-0.15584019
48	0x3c5cc249	0.013474056
49	0xbe5f4322	-0.21802953
50	0xbbc04b60	-0.0058683604
51	0xbddf9626	-0.109173104
52	0x3dba5557	0.090983085
53	0xbe080f4d	-0.13287087
54	0x3e294056	0.16528448
55	0xbe54f9e5	-0.20798452
56	0x3e0aa321	0.13538791
57	0xbe5782eb	-0.21046035
58	0x3e011e8c	0.12609309
59	0xbdf091cf	-0.11746561
60	0xbc0c404e	-0.008560253
61	0xbd2e39f1	-0.042535726
62	0x3e2bec6f	0.16789411
63	0x3dcbb155	0.09945933

weight f4 [32, 64, 3, 3]
0	0xbd1ade75	-0.037809808
1	0xbba93013	-0.0051632016
2	0xbc9703fc	-0.018434517
3	0x3cf1ed3e	0.029532071
4	0x3c3e7a01	0.011625768
5	0xbae6cf81	-0.0017609448
6	0xbc53bf58	-0.012924038
7	0x3cc7efec	0.024406396
8	0xbcb79331	-0.022409054
9	0x3d248308	0.040164024
10	0x3d554467	0.052067187
11	0x3d4a306a	0.049362577
12	0x3d40df14	0.047087744
13	0x3c4d0812	0.012514131
14	0x3d8414cf	0.064492814
15	0x3c5e3845	0.01356322
16	0x3cf7bfb1	0.030242773
17	0x3c9c6db8	0.019095287
18	0x3c107e9a	0.008819247
19	0xbb5a627d	-0.0033322864
20	0xbc952f4f	-0.018211035
21	0xbc0a39a9	-0.008436599
22	0xbd933834	-0.07188454
23	0xbcee1fef	-0.029067961
24	0xbd658b7a	-0.05604122
25	0xbc1d145f	-0.009587376
26	0xbd6fb083	-0.058517944
27	0x3bbaaf70	0.0056971833
28	0x3d240bf1	0.04005045
29	0x3cd18228	0.025574759
30	0xbcd37b93	-0.02581576
31	0xbd7ff57a	-0.062489964
32	0x3b337df1	0.00273883
33	0x3c397ace	0.011320783
34	0xbc9a83f3	-0.018861746
35	0xbc91203f	-0.017715571
36	0xbcff20a2	-0.03114349
37	0x3c2b973a	0.010473067
38	0x3d14b465	0.03630485
39	0xbce4428e	-0.027863767
40	0x3c92f325	0.017938206
41	0x3c8aa057	0.01692216
42	0x3cebf757	0.028804464
43	0xbbf5cb54	-0.0075010452
44	0xbbb21b83	-0.0054354086
45	0x3cb746ed	0.022372687
46	0x3d2d7ef6	0.042357408
47	0x3d3c6b1f	0.046000596
48	0xbcb7b8e1	-0.022427024
49	0x3b872b85	0.004125061
50	0x3c929e68	0.0178978
51	0xbd0ebf6f	-0.034850534
52	0xbc4e3777	-0.012586466
53	0xbbf28bd4	-0.0074019227
54	0x3ce4ca98	0.027928635
55	0xbc1dce23	-0.009631666
56	0xbb8011c3	-0.0039083674
57	0x3c80ed2d	0.015738094
58	0x38720a59	5.7706933e-05
59	0xbd306d60	-0.043073058
60	0x3c1c35de	0.009534327
61	0x3d252576	0.04031893
62	0x3c982c10	0.018575698
63	0xbc5c1125	-0.013431822
64	0x3d004740	0.03131795
65	0xbbeca6b3	-0.0072220205
66	0x3b1b70b7	0.0023718306
67	0x3d85e047	0.06536918
68	0x3d2c3981	0.042047027
69	0xba811f9d	-0.000985134
70	0x3d036b87	0.032084968
71	0x3cca5921	0.024700703
72	0xbb1a11a5	-0.0023509052
73	0xbd030917	-0.03199109
74	0xbd291bab	-0.04128615
75	0x3b900897	0.0043955552
76	0xbcd16bcd	-0.025564099
77	0x3ad3c2df	0.0016156099
78	0xbd21b8a1	-0.039482716
79	0xbc34f8a8	-0.011045612
80	0x3c9f5a08	0.01945211
81	0x3cc012ca	0.02344646
82	0x3ca7f67e	0.020503279
83	0x3d76e0a4	0.060272828
84	0xbc7370ec	-0.014858466
85	0x3c4a1e22	0.012336286
86	0x3d4ee9f9	0.050516102
87	0x3d4e0670	0.050299108
88	0xba6251ba	-0.0008633394
89	0x3d77e8ea	0.06052486
90	0xbb6bc763	-0.0035976998
91	0xbc9658c0	-0.018352866
92	0x3cf38fbb	0.029731622
93	0xbcf1a1b4	-0.029496051
94	0x3e10fd37	0.14159094
95	0xbd0bcad1	-0.034128968
96	0x395ad6aa	0.00020870069
97	0xbd3f81af	-0.046754535
98	0xbd5adf7e	-0.053435795
99	0xbc67ab96	-0.01414003
100	0xbd321c7a	-0.04348419
101	0xbc96689f	-0.018360434
102	0x3c789f58	0.015174709
103	0x3d103ef3	0.035216283
104	0x3c88aa0b	0.016682645
105	0x3c727d34	0.014800359
106	0x3c881027	0.016609265
107	0xbcf86df9	-0.030325877
108	0xbd7ded22	-0.061993726
109	0xbb382848	-0.0028100181
110	0x3c862846	0.016376626
111	0xbb14df8a	-0.0022716247
112	0xbcfb80b6	-0.030701023
113	0xbd0c9e49	-0.03433064
114	0xbc9d2917	-0.019184632
115	0xbd22d72c	-0.039755985
116	0x3cb8984e	0.022533562
117	0xbcd62c1e	-0.026144084
118	0xbd82b721	-0.06382585
119	0xbcad62a1	-0.021165194
120	0xbca0c00a	-0.019622821
121	0xbd04e426	-0.03244414
122	0xbc2f3ff7	-0.010696403
123	0x3b0e86fa	0.0021747933
124	0xbd75ec44	-0.060039774
125	0xbd57bdb8	-0.052671164
126	0x3c66b879	0.014082068
127	0xbccd5bbc	-0.025068156
128	0xbc2de60d	-0.01061393
129	0x3d31b2d4	0.043383434
130	0xbb692950	-0.0035577603
131	0xba739b58	-0.00092928624
132	0xbcb5ff57	-0.022216482
133	0xbca58a6b	-0.020207604
134	0x3d3f7ecc	0.046751782
135	0xbd23e129	-0.04000965
136	0xbd41ccac	-0.04731433
137	0xbd6b8ee6	-0.057509325
138	0x3c1233b3	0.008923459
139	0xbd648c07	-0.055797603
140	0xbd1d2594	-0.038365915
141	0xbc851d05	-0.01624919
142	0xbd582553	-0.05276997
143	0xbcc4a560	-0.024004638
144	0x3cfcff3f	0.03088343
145	0xbccd4bd4	-0.025060572
146	0xbb1efe36	-0.0024260408
147	0xbceb5984	-0.028729208
148	0xbc5db732	-0.013532447
149	0x3caf9ca8	0.021437004
150	0xbc1e4876	-0.009660831
151	0x3cf3278f	0.029681949
152	0xbc9e53cb	-0.019327065
153	0xbd04e51c	-0.03244506
154	0xbd21e788	-0.039527446
155	0x3d1c098d	0.038095046
156	0xbd19b20b	-0.03752331
157	0x3c3a48ab	0.011369864
158	0xbb2df14e	-0.0026541534
159	0x3d392fba	0.04521153
160	0x3c4761bd	0.012169299
161	0x372ac588	1.0178781e-05
162	0x3d6ec4a7	0.05829301
163	0x3864418c	5.442048e-05
164	0x3c84457b	0.016146412
165	0x3d86241e	0.065498576
166	0x3d761014	0.060073927
167	0x3d042247	0.032259252
168	0x3c96f5a0	0.01842767
169	0x3c7e5963	0.015524241
170	0x3d5e6b17	0.054301348
171	0xbc03d870	-0.008047208
172	0x3b9e5300	0.0048316717
173	0xbb5b17be	-0.00334309
174	0x3d59ca28	0.053171307
175	0xbc776dc2	-0.015101852
176	0xbcb9c87c	-0.022678606
177	0x3d140f6d	0.036147524
178	0x3be5ebb1	0.007016622
179	0xbc89e1b6	-0.01683126
180	0xbd513290	-0.05107361
181	0xbd05d7c2	-0.032676466
182	0x3bad193f	0.0052825506
183	0xbcc00133	-0.023438072
184	0xbcb1de86	-0.021712553
185	0xbd7c29f4	-0.061563447
186	0xbbfa203f	-0.0076332386
187	0xbd6f1de9	-0.058378134
188	0x3c1caab0	0.009562179
189	0x3d53d512	0.05171687
190	0x3b1403f8	0.0022585373
191	0x3d1c94fd	0.038228024
192	0xbd1e65ba	-0.038671233
193	0xbd84c9cd	-0.06483803
194	0xbd7159a7	-0.05892339
195	0x3cd5f612	0.026118312
196	0x3a68e066	0.00088835356
197	0xbd0f7a47	-0.035028722
198	0x3caba743	0.02095378
199	0x3d2025af	0.039098438
200	0xbce04ecc	-0.027381323
201	0x3c8e1357	0.017343206
202	0x3c9ac6a0	0.01889354
203	0x3cc0c354	0.02353064
204	0x3d110b52	0.035411187
205	0x3d532ec2	0.051558264
206	0x3cc823b4	0.024431087
207	0x3d4d1696	0.050070368
208	0x3b0d33dc	0.0021545803
209	0x3d1f0e93	0.03883226
210	0xbcc1ddf0	-0.023665398
211	0x3ba2fede	0.00497423
212	0x3a0d4afc	0.00053898967
213	0x3d40063d	0.04688095
214	0x3c858f2e	0.016303625
215	0x3d161200	0.03663826
216	0xbccd8fe5	-0.025093028
217	0xbc1c8291	-0.009552614
218	0x3d58f2c1	0.052965883
219	0x3d24abe9	0.04020301
220	0x3d046f3b	0.03233264
221	0x3b9be1cb	0.004757141
222	0x3b649bb8	0.0034882855
223	0x39fd3aba	0.00048299675
224	0x3d251254	0.040300682
225	0xbd0d9162	-0.034562476
226	0x3bda4d0c	0.0066620167
227	0x3be1d222	0.006891505
228	0xbd7e8a4d	-0.062143613
229	0xbce29441	-0.027658584
230	0xbd0c25d2	-0.034215756
231	0xbd193fb9	-0.037414286
232	0xbc0c0ef2	-0.008548485
233	0xbcd28ea5	-0.025702784
234	0x3d5fbc6a	0.054623045
235	0xbb0b492f	-0.0021253338
236	0x3d2189ef	0.039438184
237	0xbc4d4079	-0.0125275785
238	0xbc3e7e03	-0.011626723
239	0x3cacb68b	0.021083137
240	0x3d2f2335	0.042758185
241	0x3ce62d85	0.028097877
242	0xbc33392e	-0.010938926
243	0xbc69b44b	-0.014264177
244	0xbd68660f	-0.056737956
245	0xbc64c8af	-0.013963862
246	0xbd84c627	-0.06483107
247	0xbd4cd24d	-0.050005246
248	0x3b197118	0.0023413356
249	0xbd4957f3	-0.04915614
250	0xbd8713bd	-0.06595562
251	0x3b751b39	0.003740026
252	0x3cfc43f1	0.030794116
253	0xbc872306	-0.016496193
254	0x3d5cae33	0.053877067
255	0xbc664aea	-0.014055947

bias f4 [32]
0	0x3da171cb	0.078830324
1	0xbd4916d5	-0.04909404
2	0xbd5a4099	-0.05328426
3	0x3d3fb032	0.046798892
4	0xbcea97cc	-0.028636836
5	0x3d1f631e	0.038912885
6	0x3d5ba2f3	0.053622197
7	0xbd7a0e12	-0.061048575
8	0xba4abb9c	-0.00077336445
9	0x3bdfd475	0.006830747
10	0xbc527499	-0.012845182
11	0xbc363434	-0.011120845
12	0x3c04ff86	0.008117562
13	0xbbff4078	-0.0077896677
14	0x3d5f282a	0.054481663
15	0xbcebd5a9	-0.028788405
16	0x3d82334d	0.06357441
17	0xbd4ee328	-0.0505096
18	0xbcc42475	-0.023943165
19	0x3ba1cf58	0.0049380474
20	0x3ce48552	0.027895603
21	0xbd428768	-0.047492415
22	0xbc6f18a2	-0.014593275
23	0xbcbfa231	-0.023392769
24	0xbd84c362	-0.06482579
25	0xbd518ae3	-0.051157843
26	0x3d4af474	0.049549535
27	0xbbf79858	-0.0075560026
28	0xbd1fbdb7	-0.038999286
29	0xbca18c53	-0.019720232
30	0xbc3b24e6	-0.0114223715
31	0x3cf921d0	0.03041163

weight f4 [9, 32, 3, 3]
0	0x3d89030c	0.06690034
1	0x3d9ab3f0	0.075538516
2	0x3b501a62	0.0031754007
3	0xbabe0d9c	-0.0014499906
4	0x3cf768cf	0.030201344
5	0x3d297a7f	0.041376587
6	0x3c85e758	0.016345665
7	0xbca304c6	-0.019899737
8	0x3d857b2b	0.06517633
9	0xbd21f733	-0.03954239
10	0x3ca38be7	0.019964172
11	0xbc8aee97	-0.016959472
12	0xb9e54b0e	-0.00043734204
13	0xbcea5919	-0.028606938
14	0xbbc83412	-0.006109723
15	0xbd34ae00	-0.04411125
16	0x3c090618	0.008363269
17	0xbd33f275	-0.043932397
18	0x3cbd7aca	0.02312984
19	0xbd3f7065	-0.046738047
20	0x3dac2e0e	0.08407222
21	0xbd6ff834	-0.058586314
22	0xbdb1c68a	-0.086804464
23	0x3db6c76e	0.08924757
24	0x3d60873e	0.054816477
25	0xbd715bc1	-0.058925394
26	0xbd11dfc0	-0.035613775
27	0xbd3fe131	-0.04684562
28	0x3ce25edc	0.027633123
29	0xbbf5b49c	-0.007498337
30	0x3c99ce6e	0.018775191
31	0x3d5c5427	0.05379119
32	0x3d2b0c58	0.04175982
33	0x370880ba	8.136203e-06
34	0x3c911304	0.017709263
35	0xbd3759aa	-0.044763245
36	0x3d403258	0.04692301
37	0xbd801ca8	-0.06255466
38	0x3c08a5f2	0.008340346
39	0xbd695fe0	-0.0569762
40	0x3b7a0e2b	0.0038155417
41	0x3cf060f5	0.029343108
42	0x3d00542a	0.031330265
43	0xbd745da5	-0.05965962
44	0xbc315fa3	-0.010826024
45	0xbcc220cf	-0.023697285
46	0x3d0d4a7d	0.034494866
47	0xbd1d6374	-0.038424924
48	0x3d8098bb	0.06279131
49	0x3d0ccff4	0.034378007
50	0xbd1eecd7	-0.038800087
51	0x3b08714d	0.0020819486
52	0x3ccf6d5c	0.025320701
53	0x3d6d74b1	0.057972614
54	0xbc476d77	-0.012172095
55	0xbd3beda8	-0.045880944
56	0xbd04d38d	-0.032428313
57	0x3cb5a31d	0.022172505
58	0x3d8a8140	0.06762934
59	0x3beb0522	0.0071722427
60	0x3d1d990c	0.038476035
61	0xbd314b63	-0.043284785
62	0xbd734437	-0.059391227
63	0xbb64e1ce	-0.003492463
64	0x3d424471	0.047428552
65	0x3d4f2ffb	0.050582867
66	0xbbacaab6	-0.0052693738
67	0xbd8d0102	-0.06884958
68	0x3cd9753f	0.026545165
69	0x3d358d91	0.04432446
70	0xbd905916	-0.07048242
71	0xbab7fbfb	-0.0014036888
72	0x3d1fab36	0.03898164
73	0x3c27e201	0.010246755
74	0xbd457d15	-0.04821499
75	0xbd39544e	-0.045246415
76	0xbb336139	-0.0027371182
77	0xbc4bcc74	-0.012438882
78	0x3b7ea1b1	0.00388537
79	0xbcf86884	-0.030323274
80	0x3d98c26f	0.0745896
81	0xbb355bc0	-0.0027673095
82	0x3d5f945b	0.054584842
83	0xbcc4a6b3	-0.02400527
84	0x3d4a0e1f	0.049329873
85	0x3d3c7469	0.046009455
86	0xbd5d17de	-0.05397784
87	0x3d0b4567	0.034001734
88	0x3cdc95f8	0.02692698
89	0xbd604d66	-0.054761313
90	0x3d13c671	0.03607792
91	0xbd0fd4a4	-0.0351149
92	0xbd01b209	-0.03166393
93	0xbd0a37e9	-0.033744726
94	0xbd9cc658	-0.076550186
95	0x3ceec527	0.029146744
96	0xbcd5dc54	-0.026106037
97	0xbd42e164	-0.04757823
98	0x3d4bcd2d	0.049756218
99	0xbcecedee	-0.028922047
100	0xbc79d64f	-0.015248849
101	0xbc1f5f04	-0.009727243
102	0x3cef624f	0.029221682
103	0x3c0bda91	0.008535997
104	0xbd657af8	-0.056025475
105	0xbc82258f	-0.01588705
106	0x3da4cddf	0.08047079
107	0x3d26ae81	0.040693764
108	0x3b823090	0.0039730743
109	0xbbcb50d5	-0.0062047043
110	0xbd911463	-0.070839666
111	0x3cbaf6ba	0.022822727
112	0x3cf7c023	0.030242985
113	0xbc81cb67	-0.01584406
114	0xbc9048f4	-0.017612912
115	0x3ce2fee9	0.027709441
116	0x3bcb62c9	0.0062068445
117	0x3cf2e7ad	0.029651487
118	0x3d85c182	0.06531049
119	0x3d37dad5	0.04488643
120	0x3ce1c393	0.027559077
121	0x3c353eee	0.011062367
122	0xbcc2d460	-0.023782909
123	0xbd192376	-0.037387334
124	0xbd3f972e	-0.046775036
125	0xbcbe30d6	-0.023216646
126	0xbbdd02b6	-0.006744708
127	0xbcdf716d	-0.027275765
128	0xbd4fcf8c	-0.05073504
129	0xbdbf6dc9	-0.09347112
130	0xbda3e620	-0.08002877
131	0xbdb2b159	-0.08725233
132	0xbd533648	-0.05156544
133	0xbcaec04c	-0.021331929
134	0xbbf38ebf	-0.007432788
135	0x3ceea67c	0.02913212
136	0x3d464066	0.04840126
137	0xbd0644be	-0.0327804
138	0x3cd9c3ca	0.026582617
139	0x3c6eaba7	0.014567292
140	0xbd34cbe5	-0.04413976
141	0xbcbf24db	-0.023333004
142	0xbd0f4096	-0.034973703
143	0xbcac52fa	-0.02103566
144	0x3cb97ca7	0.022642447
145	0x3d857248	0.06515938
146	0xbc5fc7f4	-0.013658512
147	0x3d5c4582	0.053777225
148	0x3b00b7e6	0.0019640862
149	0x3d7e5cf2	0.06210036
150	0x3d0f2266	0.034944914
151	0x3d3f3f38	0.04669115
152	0xbc94719c	-0.01812058
153	0x3d336ea9	0.043806706
154	0xbd32a5ba	-0.04361508
155	0xbcd32bc4	-0.025777705
156	0x3c82521a	0.01590829
157	0xbd938325	-0.07202748
158	0x3cf6ec08	0.030141845
159	0x3c01cd69	0.007922509
160	0x3d4603af	0.048343357
161	0xbd0d6042	-0.034515627
162	0xbc2a897c	-0.010408755
163	0x3d05d08a	0.03266958
164	0xbc3cda40	-0.011526644
165	0x3cdb6130	0.026779741
166	0x3e3a6dfa	0.18206015
167	0xbcdebbdc	-0.027189188
168	0xbb08840a	-0.0020830655
169	0xbc87d23f	-0.016579745
170	0xbcc01e79	-0.02345203
171	0x3d95dff1	0.07318104
172	0x3c87d6b2	0.016581867
173	0xbb356160	-0.0027676448
174	0x3bec09e6	0.0072033284
175	0xbcd3eb4f	-0.02586904
176	0x3d17d2f8	0.03706643
177	0x3bf70c8d	0.007539338
178	0x3c82d05e	0.015968498
179	0xbc6f5a8b	-0.0146089895
180	0x3c3d1d10	0.011542574
181	0x3da3b960	0.07994342
182	0x3d004977	0.03132006
183	0x3d869d2a	0.065729454
184	0x3de2017f	0.110354416
185	0x3d582ed0	0.05277902
186	0xbcbdb981	-0.023159744
187	0xbc87b374	-0.016565062
188	0x3d1da851	0.038490597
189	0x3cf24bf2	0.02957723
190	0x3b831ec3	0.00400147
191	0xbc06eb43	-0.008234802
192	0x3bac60d8	0.005260568
193	0xbcf28197	-0.029602809
194	0xbb23d1ac	-0.00249968
195	0x3d346f50	0.04405147
196	0xbcdd0a71	-0.026982518
197	0x3ce6941f	0.028146802
198	0xbc9f0ae8	-0.01941438
199	0x3d7028ed	0.05863278
200	0xbcb2b692	-0.021815572
201	0x3c3fba81	0.011702181
202	0xbb56a9db	-0.003275505
203	0x3c93e133	0.01805172
204	0xbd3bdddc	-0.04586588
205	0xbb60ea46	-0.0034319325
206	0xbc97d57c	-0.018534414
207	0xbd3e48a1	-0.046455983
208	0x3bb7e7de	0.0056123575
209	0x3c8ef619	0.017451333
210	0xbd1badbf	-0.038007494
211	0xbd2aa877	-0.041664567
212	0x3d05fd78	0.03271243
213	0xbc3f2284	-0.011665944
214	0x3cbcada0	0.02303201
215	0xbc7fbe94	-0.015609402
216	0xbbf4d86c	-0.0074720886
217	0x3cb9bb3c	0.022672288
218	0xbd4a5eb0	-0.049406707
219	0x3c9bc951	0.019016894
220	0xbd56923d	-0.052385557
221	0xbcec411c	-0.02883964
222	0x3b46541a	0.003026253
223	0x3cdb7b70	0.026792258
224	0xbcb0b830	-0.021572202
225	0xbbb320ef	-0.0054665725
226	0xbc8ee2ba	-0.017442096
227	0xbd1b3d07	-0.037899997
228	0xbc748a91	-0.014925615
229	0xbca5e670	-0.020251483
230	0xbd109a12	-0.035303183
231	0xbd03bc09	-0.032161746
232	0x3d03cc06	0.032176994
233	0xbd17edc3	-0.03709198
234	0xbd2b28f2	-0.041787095
235	0x3d6d842c	0.057987377
236	0xbd391170	-0.045182645
237	0xbcd166a3	-0.025561636
238	0x3b658d24	0.0035026753
239	0xbca5b895	-0.020229617
240	0x3d4e96ed	0.050436903
241	0xbd0c4d80	-0.034253597
242	0x3c8a7908	0.016903415
243	0x3bb42eb3	0.005498731
244	0xbb0c223b	-0.0021382708
245	0x3c4b1c93	0.012396949
246	0x3d350642	0.04419542
247	0xba9cf2da	-0.0011974231
248	0x3ccca968	0.024983123
249	0x3b0ff852	0.0021968079
250	0x3d7a310e	0.06108194
251	0xbd77d6d8	-0.060507625
252	0xbc2d5ec0	-0.010581672
253	0x3c0f636d	0.008751732
254	0xbd24ca81	-0.040232185
255	0xbd6d683c	-0.057960734

bias f4 [9]
0	0x3de06ed4	0.10958639
1	0x3d5596f0	0.0521459
2	0x3dc09d89	0.094050474
3	0x3d89d379	0.06729788
4	0x3cc3b140	0.02388823
5	0x3d10eab1	0.03538007
6	0x3d0a7508	0.033803016
7	0x3d92d658	0.07169789
8	0x3d7da72d	0.06192701
