processed/4_logs-models_scale_3/epoch_14_model.pth (torch_old, 93448 bytes, 6 tensors)

weight f4 [64, 1, 5, 5]
0	0x3e0e6524	0.1390577
1	0x3e1e15b4	0.15437967
2	0xbd71f721	-0.05907357
3	0x3e2f55f6	0.17122635
4	0xbd6ae4be	-0.05734705
5	0x3d006be8	0.031352907
6	0xbdd60747	-0.10450607
7	0x3ddc6dae	0.10763107
8	0x3e2ad366	0.16682205
9	0xbe209191	-0.15680529
10	0x3e2cabb5	0.16862376
11	0x3cef4d86	0.02921177
12	0x3e157e57	0.14598976
13	0x3cafe039	0.021469222
14	0x3db3d91a	0.08781643
15	0xbd160ce8	-0.036633402
16	0x3e1b7978	0.15183055
17	0x3ce5bfe8	0.02804561
18	0xbdc5f415	-0.096656956
19	0x3d365f72	0.044524617
20	0xbdccc088	-0.0999766
21	0xbce94a22	-0.028477732
22	0xbdabbbd5	-0.083854355
23	0x3e041574	0.12898809
24	0xbe2b8510	-0.16749978
25	0xbdb512b5	-0.08841459
26	0xbd4c81e4	-0.04992856
27	0xbdec59f4	-0.11540595
28	0x3cbe3127	0.023216797
29	0xbe44ac78	-0.19206417
30	0x3e3cc7a5	0.18435533
31	0xbe27d366	-0.16389236
32	0x3e23b7c6	0.15988073
33	0x3d150655	0.03638299
34	0xbd7807e5	-0.060554404
35	0x3e01f6da	0.12691823
36	0x3d23d72d	0.04000013
37	0x3e3166cf	0.17324375
38	0x3ce31433	0.027719593
39	0xbd6b6eb0	-0.057478607
40	0x3d63b90b	0.055596393
41	0xbd458ffe	-0.048233025
42	0x3dbc3a51	0.091908105
43	0x3e3dae5e	0.18523547
44	0x3df38095	0.118897595
45	0xbdb3cf21	-0.08779741
46	0x3dee39ec	0.116321415
47	0x3d1ae848	0.037819177
48	0x3dd1f9fa	0.10252757
49	0xbdf72819	-0.12068195
50	0xbe21f950	-0.15817761
51	0xbcead02b	-0.028663715
52	0xbdf15e83	-0.11785605
53	0x3e45d350	0.1931889
54	0x3d83de2c	0.0643886
55	0x3dc5343b	0.09629103
56	0x3dcf323a	0.10117002
57	0x3d2a3674	0.041555837
58	0x3e614721	0.2199979
59	0xbe04e1a9	-0.12976708
60	0x3d0e0cae	0.03468006
61	0xbe0f1ac9	-0.13975061
62	0x3e1a08c9	0.15042414
63	0xbd01d48c	-0.03169684
64	0x3da55505	0.08072857
65	0xbd2fc394	-0.042911127
66	0x3e5fae5f	0.21843861
67	0xbdb6d530	-0.08927381
68	0xbda5ad12	-0.08089651
69	0xbdc7912b	-0.097444855
70	0x3e27a6e0	0.16372252
71	0x3d648000	0.055786133
72	0x3e6ecc04	0.23320013
73	0xbe1ae52b	-0.15126483
74	0xbe2b6bcf	-0.16740344
75	0xbdee1eaf	-0.11626946
76	0xbdc1e997	-0.09468382
77	0x3daf0e95	0.08547703
78	0x3d7d561c	0.0618497
79	0x3e004094	0.12524635
80	0xbd376305	-0.044772167
81	0xbe067728	-0.13131392
82	0x3e1d687e	0.15371892
83	0xbd9cd705	-0.07658199
84	0x3e028094	0.12744361
85	0xbd3d7a79	-0.046259377
86	0x3e3d1328	0.18464339
87	0xbe047b1d	-0.12937589
88	0xbd913ddd	-0.070918776
89	0x3d97a070	0.07403648
90	0x3d915e24	0.07098034
91	0xbcd8c974	-0.026463248
92	0x3e3a9d9b	0.18224184
93	0x3e34d3d2	0.17658928
94	0xbdff0694	-0.124524266
95	0xbdc61cd3	-0.096734665
96	0x3e4ecb40	0.20194721
97	0xbd636084	-0.055511966
98	0xbd5c4c21	-0.05378354
99	0xbe1052a8	-0.14094031
100	0xbd085e80	-0.033293247
101	0x3d92a851	0.0716101
102	0x3d92068f	0.07130157
103	0xbe492029	-0.19641174
104	0x3dc7e930	0.09761274
105	0xbdd17df0	-0.10229099
106	0xbe5308ad	-0.20608778
107	0x3cdcb4ce	0.026941683
108	0xbee23dad	-0.4418768
109	0xbe2463e0	-0.16053724
110	0x3e5adb3b	0.21372692
111	0x3e0d6c45	0.13810833
112	0x3ec7ab53	0.38997898
113	0xbe163b3c	-0.14671034
114	0x3cc54573	0.024080968
115	0xbdc395f1	-0.095500834
116	0x3d0d89c3	0.034555208
117	0xbcc2b9cc	-0.023770235
118	0xbd92e537	-0.071726255
119	0xbcb10b86	-0.02161194
120	0x3c4312dd	0.011906353
121	0xbd87dade	-0.066335425
122	0x3dbac2cd	0.091191866
123	0xbd604f3b	-0.05476306
124	0x3b011e36	0.0019701845
125	0xbdc758e2	-0.0973375
126	0xbd638619	-0.055547807
127	0xbe115dae	-0.14195892
128	0x3e2b853d	0.16750045
129	0xbd13cee0	-0.036085963
130	0x3e36a2b4	0.17835504
131	0x3da7ebe6	0.08199291
132	0xbe317a1b	-0.17331736
133	0x3e128358	0.14307916
134	0xbd6a98cb	-0.05727462
135	0xbd850da8	-0.06496745
136	0xbe1fd400	-0.15608215
137	0xbe4a4de0	-0.1975627
138	0x3d8e508e	0.06948958
139	0xbd19d467	-0.03755608
140	0x3dc121a5	0.09430245
141	0xbe20a2df	-0.1568713
142	0x3e2bf280	0.16791725
143	0xbe157632	-0.14595869
144	0xbc612b8c	-0.013743293
145	0x3d283dd8	0.041074604
146	0x3ddf32ff	0.108983986
147	0x3e164cbb	0.14677708
148	0x3e411311	0.1885493
149	0xbe25b288	-0.16181386
150	0x3d86bd52	0.06579079
151	0xbd9f78d3	-0.07786717
152	0xbb6afc93	-0.0035856112
153	0xbe1578ec	-0.1459691
154	0x3e2af10e	0.16693518
155	0xbe0a844a	-0.13527027
156	0x3ddc0a1e	0.10744117
157	0x3dbd9116	0.092561886
158	0x3d48d96f	0.049035486
159	0xbe05b0b5	-0.1305569
160	0x3e433e65	0.1906677
161	0x3d3c2610	0.045934737
162	0x3d932c08	0.07186133
163	0xbe3f6dab	-0.18694179
164	0x3da33615	0.079693
165	0xbcb1d246	-0.021706712
166	0xbdccd1f2	-0.100009814
167	0x3e4b596e	0.19858333
168	0x3d136d08	0.035992652
169	0xbdfa09b7	-0.12208884
170	0xbdaf241f	-0.085518114
171	0xbc8c86d5	-0.017154137
172	0x3deb3eb9	0.11486573
173	0xbd5eb156	-0.05436834
174	0xbdee7c61	-0.11644817
175	0xbd8e8451	-0.06958831
176	0xbe18ce32	-0.14922407
177	0x3d952778	0.07282919
178	0x3e1eec7d	0.155199
179	0xbe42d248	-0.19025528
180	0x3d3c791c	0.046013936
181	0x3dd8cc73	0.105858706
182	0x3d1afe92	0.037840433
183	0xbd8a1001	-0.06741334
184	0x3dd4cd3a	0.10390706
185	0x3dd5649e	0.10419582
186	0x3da33b7b	0.079703294
187	0xbcd6af77	-0.026206715
188	0xbd50850d	-0.050908137
189	0x3cb2f1c4	0.021843798
190	0xbd15d803	-0.036582958
191	0xbd7115c2	-0.05885864
192	0x3e05a2bf	0.13050364
193	0x3e33036e	0.17481777
194	0xbca816cd	-0.020518685
195	0xbd4f222d	-0.050569702
196	0x3a8d9575	0.0010801988
197	0xbc45930e	-0.012058986
198	0x3d413973	0.04717393
199	0x3d5ac8f7	0.05341431
200	0xbe047525	-0.12935312
201	0xbcd5a303	-0.026078707
202	0x3e570694	0.20998603
203	0x3dc56744	0.09638837
204	0x3c066cea	0.008204678
205	0xbd866997	-0.065631084
206	0xbd9de941	-0.07710505
207	0xbe1c5696	-0.15267405
208	0xbcce84b5	-0.025209764
209	0x3dd43c17	0.10363024
210	0x3e1ce16e	0.1532037
211	0x3e19ff95	0.15038903
212	0xbe2d4db4	-0.16924173
213	0xbdce1a5b	-0.10063621
214	0x3b3799a2	0.0028015156
215	0x3e60dcb3	0.2195919
216	0x3d8510ff	0.064973824
217	0xbcb4c011	-0.02206424
218	0x3dec9400	0.11551666
219	0xbd359943	-0.044335615
220	0xbdd321e4	-0.103091985
221	0x3e348c16	0.17631564
222	0xbd7f142c	-0.062275097
223	0xbc9e0437	-0.01928912
224	0xbe262e1a	-0.16228524
225	0x3df868bc	0.121293515
226	0x3e04507e	0.1292133
227	0x3da27de3	0.07934167
228	0xbe221d8f	-0.15831588
229	0xbe3806e3	-0.17971377
230	0xbe2a7509	-0.16646208
231	0x3e2284a5	0.15870912
232	0x3deeae21	0.11654306
233	0x3e592577	0.21205698
234	0x3dd20680	0.10255146
235	0x3cd5880a	0.026065845
236	0x3cf68529	0.030092793
237	0xbe391de2	-0.18077806
238	0xbe1f5e57	-0.15563332
239	0xbe370480	-0.1787281
240	0x3dcba564	0.09943655
241	0xbdec8f3a	-0.11550756
242	0x3d0a6b2e	0.03379362
243	0xbdfe5cce	-0.12420045
244	0xbbcea00d	-0.0063057006
245	0xbdd361b5	-0.103213705
246	0xbdc5cc91	-0.096581586
247	0x3d9b93d3	0.075965546
248	0xbc8115c7	-0.015757455
249	0x3e20f804	0.1571961
250	0xbd3dd91b	-0.046349626
251	0xbe08e74c	-0.13369483
252	0xbca2eec5	-0.019889245
253	0xbdb37e84	-0.08764365
254	0xbd5ebc09	-0.054378543
255	0xbe3ec840	-0.18631077

bias f4 [64]
0	0xbe381296	-0.1797584
1	0x3dcf1f61	0.10113407
2	0xbd08f8c9	-0.033440385
3	0x3c56c05a	0.013107384
4	0x3c9ef09c	0.01940184
5	0x3e1c720f	0.15277885
6	0xbd73c403	-0.059513103
7	0x3d5dcfe6	0.054153346
8	0x3d8815e8	0.06644803
9	0x3e047b89	0.1293775
10	0x3ccc6827	0.024952007
11	0x3db327a4	0.08747795
12	0xbded0160	-0.11572528
13	0xbe0e515a	-0.1389822
14	0x3e2e6430	0.17030406
15	0xbe11a649	-0.14223589
16	0x3ccaa1d5	0.02473537
17	0xbc9cf5c5	-0.01916016
18	0x3e46c54a	0.19411197
19	0xbd0dda5a	-0.034632064
20	0xbde3cd18	-0.11123103
21	0xbd68f6c9	-0.056875978
22	0x3e156b62	0.14591745
23	0x3dcd9210	0.10037625
24	0x3e1ed686	0.15511522
25	0x3dcf14a5	0.101113595
26	0x3da2ffb5	0.079589285
27	0xbe5739f3	-0.210182
28	0x3da03546	0.07822661
29	0x3dbe9f61	0.09307743
30	0x3de7bad7	0.11314934
31	0xbd93846d	-0.072029926
32	0xbd44d090	-0.048050463
33	0x3d46375f	0.04839265
34	0xbe06f8a6	-0.1318079
35	0xbe170de2	-0.1475139
36	0xbe4bcfa4	-0.19903427
37	0x3d454b5c	0.04816757
38	0x3df7fa3e	0.12108277
39	0x3d5264ab	0.051365536
40	0x3d82b90f	0.063829534
41	0x3d9f899d	0.077899195
42	0xbde98f18	-0.11404246
43	0x3c3cdce2	0.011527272
44	0xbd1c71a2	-0.038194306
45	0xbd6ada7f	-0.05733728
46	0x3e28d53b	0.16487591
47	0x3cb14440	0.02163899
48	0x3cc76cfc	0.02434396
49	0xbe3382c4	-0.17530352
50	0x3c59004d	0.013244701
51	0xbda9f483	-0.0829859
52	0x3d9358bf	0.07194661
53	0xbd935a49	-0.07194955
54	0x3e023050	0.12713742
55	0xbe076e1e	-0.132256
56	0x3e06a044	0.13147074
57	0xbde3669c	-0.111035556
58	0x3dc9beab	0.0985082
59	0x3abf2b66	0.0014585077
60	0xbc24ad57	-0.010051093
61	0xbcebc214	-0.028779067
62	0x3df8a6e6	0.12141208
63	0x3d5d74e6	0.05406656

weight f4 [32, 64, 3, 3]
0	0xbd061886	-0.03273823
1	0x3c1fedc3	0.009761277
2	0xbc764c9a	-0.015032912
3	0x3d0eec0f	0.03489309
4	0x3c9149df	0.01773542
5	0x3b28df74	0.0025767954
6	0xbc75069a	-0.014955187
7	0x3cf6ba0b	0.03011801
8	0xbc78b5b3	-0.015180039
9	0x3cffac63	0.03121013
10	0x3d17ee90	0.037092745
11	0x3d28daa5	0.04122414
12	0x3cd93157	0.026512785
13	0xbca71f33	-0.02040062
14	0x3d4502dc	0.04809843
15	0xbbc04e81	-0.0058687334
16	0x39e1af82	0.00043046108
17	0x3b773799	0.0037722348
18	0xbccac913	-0.024754083
19	0x3d00a404	0.031406417
20	0x3d13e47b	0.036106568
21	0xbcc7e976	-0.024403315
22	0x3b90dc48	0.004420791
23	0x3ce29d26	0.027662825
24	0xbd6f8c72	-0.05848355
25	0x3d7578a7	0.059929516
26	0xbd89ee0e	-0.067348585
27	0xbca6035b	-0.020265272
28	0x3d67e25c	0.056612357
29	0x3d588001	0.05285645
30	0x3bac9e35	0.005267883
31	0xbc5b2df3	-0.013377654
32	0x3c2e104a	0.010624001
33	0x3cf4ad0a	0.029867668
34	0xbcf9168a	-0.030406255
35	0xbd20b714	-0.039237097
36	0xbc1f13c9	-0.009709307
37	0xbcebf0e0	-0.028801382
38	0x3dd56dce	0.10421334
39	0x3ba227a5	0.0049485737
40	0x3b0ad7cf	0.002118576
41	0x3db327a3	0.087477945
42	0x3d34e172	0.044160314
43	0xbdfa3db7	-0.122188024
44	0xbdbd1a7f	-0.09233569
45	0x3d23b520	0.039967656
46	0x3d0a47bb	0.033759814
47	0x3cc47e46	0.023985993
48	0xbca02ba2	-0.019552056
49	0x3ccda5df	0.025103508
50	0xba132c28	-0.0005614185
51	0xbcb45d62	-0.022017185
52	0xbb8425b9	-0.004032817
53	0xbcee53b2	-0.029092643
54	0xbcd9cbb9	-0.0265864
55	0xbd00c603	-0.03143884
56	0x3ce50824	0.027957983
57	0x3b92fd48	0.00448576
58	0xbd039df1	-0.032133047
59	0xbca0dbe0	-0.019636095
60	0xbd5ac817	-0.053413477
61	0xbb2d1f3e	-0.0026416327
62	0x3d255798	0.04036674
63	0xbc7cc88b	-0.015428673
64	0x3c8b4617	0.017001195
65	0xbc34c098	-0.011032246
66	0xbbbdaf5e	-0.0057887277
67	0x3d4c9233	0.049944114
68	0x3d043c9a	0.032284357
69	0xbbb7fda3	-0.0056149526
70	0x3c83d186	0.01609112
71	0x3cac76a1	0.02105266
72	0x3c77ee2f	0.015132471
73	0xbbee2ef7	-0.0072687822
74	0xbc123cc8	-0.008925624
75	0x3d153eb3	0.036436748
76	0xbcb4707e	-0.022026297
77	0xbc25b336	-0.010113528
78	0xbc971018	-0.018440291
79	0xbd17ae0f	-0.03703123
80	0x3d3e4b94	0.046458796
81	0xbc8f1c80	-0.017469645
82	0xbc960671	-0.018313618
83	0x3cf74656	0.030184906
84	0xbd19a2ff	-0.03750896
85	0xbb11f192	-0.0022269231
86	0x3d0c31a0	0.034227014
87	0x3ae70210	0.0017624516
88	0xbd1f2041	-0.03884912
89	0x3d728039	0.059204314
90	0x3d197bd7	0.03747162
91	0xbcc3d218	-0.023903891
92	0x3d2a93ba	0.04164479
93	0xbc23493e	-0.009966193
94	0x3d417b5b	0.04723678
95	0x3d19f2ea	0.037585177
96	0xbc9d8e7c	-0.01923298
97	0xbcf00f70	-0.029304236
98	0xbd175e20	-0.036955
99	0xbe1fbf92	-0.15600422
100	0xbe50deb1	-0.2039745
101	0xbd046e7a	-0.03233192
102	0x3daeb23f	0.085300915
103	0xbd5493c5	-0.051898737
104	0xbcbe52af	-0.023232786
105	0xbd7e1e81	-0.06204081
106	0xbbdb3728	-0.0066899247
107	0xbc94643c	-0.018114202
108	0xbcd6771e	-0.026179846
109	0x3c91eb29	0.017812328
110	0x3d480561	0.048833255
111	0x3c4faa7c	0.012674924
112	0x3b93664d	0.004498279
113	0xbc552dbd	-0.013011393
114	0xbc8be86c	-0.0170786
115	0xbd07dc07	-0.03316882
116	0x3d194ad1	0.037424866
117	0xbbde7408	-0.0067887343
118	0xbd16c4b7	-0.036808696
119	0x3b927738	0.0044697784
120	0x3b4628d0	0.0030236728
121	0xbba8af60	-0.0051478595
122	0x3c745ebc	0.014915165
123	0x3cb78fde	0.022407468
124	0xbd207f26	-0.03918376
125	0xbd02bf0f	-0.03192049
126	0xbba4ea3a	-0.005032805
127	0xbd5cc634	-0.05389996
128	0xbd07b647	-0.033132818
129	0x3d1dae8e	0.038496546
130	0xbc161d25	-0.009162222
131	0xbcc21b53	-0.02369467
132	0xbcb29a08	-0.021801963
133	0xbd1ecc9b	-0.038769346
134	0x3ce89b2d	0.028394306
135	0xbc82bbe3	-0.015958732
136	0x3c823604	0.015894897
137	0xbd33e298	-0.04391727
138	0x3cdae17f	0.026718853
139	0x3c2f08f0	0.010683283
140	0xbc4b0d74	-0.012393344
141	0xbabf8966	-0.0014613091
142	0xbbac0b16	-0.005250345
143	0xba926b68	-0.0011170926
144	0x3da98172	0.08276643
145	0xbc6b8ef8	-0.014377348
146	0xbbb4a165	-0.005512404
147	0x3b828dd5	0.003984193
148	0x3c76d597	0.015065572
149	0x3c93fc3b	0.018064609
150	0x3cd6d837	0.026226146
151	0x3d88d160	0.0668056
152	0xbd885a1e	-0.066578135
153	0x39dcd8cd	0.000421232
154	0xbc30fb81	-0.010802151
155	0x3d122adf	0.035685416
156	0xbcc72fce	-0.024314787
157	0x3cc737a9	0.024318533
158	0x3c2d6f6f	0.01058565
159	0x3c88e94d	0.016712809
160	0x3c92a9f5	0.017903307
161	0xbcc13b2b	-0.023587784
162	0x3d1d24d9	0.03836522
163	0xbccdda37	-0.025128467
164	0xbbf869d7	-0.0075809765
165	0x3d366146	0.04452636
166	0x3cb39172	0.02191994
167	0x3b97b612	0.004629859
168	0xbb90ef88	-0.0044230856
169	0xbc9e760f	-0.019343404
170	0x3ceab7c6	0.028652083
171	0x3bd0343e	0.006353884
172	0x3c9418f4	0.018078305
173	0x3c8312f4	0.016000248
174	0x3d2f6ac9	0.042826448
175	0xbbd27214	-0.0064222906
176	0xbbe970d0	-0.007124044
177	0x3d09795e	0.03356301
178	0x3c96bf98	0.018401906
179	0xbcbf1e85	-0.023329983
180	0xbc4e48f8	-0.012590639
181	0x3beae07d	0.0071678744
182	0x3cecbbfb	0.02889823
183	0x3c66406e	0.014053447
184	0x3cb538cf	0.022121815
185	0xbd304543	-0.043034803
186	0x3cb0d281	0.021584751
187	0xbc78cac2	-0.01518506
188	0x3c09c1ff	0.008408069
189	0x3d4f5ff0	0.050628603
190	0x3cae6dc0	0.021292567
191	0x3d143b35	0.036189277
192	0xbc429783	-0.0118769435
193	0xbcde81a8	-0.027161434
194	0xbd15eb97	-0.03660163
195	0x3d18bad6	0.037287556
196	0x3ca7d756	0.020488422
197	0xbd0d85e8	-0.03455153
198	0xbc7374b7	-0.01485937
199	0xbd2eec25	-0.042705674
200	0xbdd83ebf	-0.10558843
201	0x3d0f8a9f	0.03504431
202	0x3d07756e	0.033070974
203	0x3cf2f5fa	0.029658306
204	0x3c507ad4	0.012724597
205	0x3d31d491	0.04341561
206	0x3ce009ad	0.027348364
207	0x3cb6bebb	0.022307744
208	0xbac3290d	-0.0014889553
209	0xbc3b2eae	-0.0114247035
210	0xbd57beb6	-0.05267211
211	0x3b014514	0.0019725012
212	0x3c0a79dc	0.008451905
213	0x3d0a8b5c	0.03382431
214	0xbaf5490a	-0.0018713784
215	0xbb3e459b	-0.0029033187
216	0xbd1afaee	-0.03783696
217	0xbd4bba91	-0.04973847
218	0x3a4e2ca5	0.0007864929
219	0x3d1e609f	0.038666364
220	0x3bc43841	0.0059881513
221	0xbcaf52a3	-0.021401709
222	0xba5f23bb	-0.0008512099
223	0xba8c6226	-0.0010710403
224	0x3b829784	0.003985347
225	0xbd375e88	-0.044767886
226	0x3cffbd03	0.031218057
227	0x3d0091dc	0.031389102
228	0xbd4190e5	-0.047257323
229	0x3d0dc118	0.034607977
230	0xbd1c123c	-0.038103327
231	0xbcb7b3a8	-0.022424534
232	0xbc8b32ef	-0.01699206
233	0xbd5a099c	-0.05323182
234	0x3d324d5f	0.043530818
235	0xbc4d6d7b	-0.012538309
236	0x3cba468e	0.022738721
237	0xbcca1876	-0.024669867
238	0xbc68da4e	-0.014212204
239	0x3bc1c83a	0.0059137614
240	0x3d27afa9	0.040939007
241	0x3ca51252	0.020150337
242	0xbcec8e8c	-0.028876565
243	0x3c182159	0.009285294
244	0xbca51fa3	-0.020156687
245	0x3c223741	0.009900869
246	0xbcef9893	-0.029247558
247	0xbb9fe014	-0.004879007
248	0x3cf6b41b	0.030115178
249	0xbd0a6b87	-0.033793952
250	0xbd1e5971	-0.038659517
251	0x3c20472a	0.009782592
252	0x3c0a0540	0.008424103
253	0xbcb8a8c3	-0.02254141
254	0x3d4f3003	0.050582897
255	0xbcc52d0f	-0.024069337

bias f4 [32]
0	0x3d1af125	0.03782763
1	0x3c3119dd	0.010809389
2	0xbd023306	-0.03178694
3	0x3c6ec502	0.0145733375
4	0xbc9a7f0d	-0.01885941
5	0x3c845aba	0.016156543
6	0x3d12e9a3	0.035867345
7	0xbd2664f2	-0.040623613
8	0xbbd06c71	-0.0063605835
9	0xbc4d4bdd	-0.012530294
10	0x3cc0047a	0.023439635
11	0xbcafb778	-0.02144979
12	0xbc80d70f	-0.015727548
13	0xbcc7d01f	-0.024391232
14	0xbc5c9336	-0.013462832
15	0xbc32239b	-0.010872747
16	0x3cae3b82	0.02126861
17	0xbcf8da5d	-0.030377561
18	0xbb859fbd	-0.00407788
19	0xbc56f278	-0.0131193325
20	0x3d0844c6	0.033268712
21	0xbc8f0625	-0.017458985
22	0xbd274680	-0.04083872
23	0xbc7fdcc5	-0.0156166
24	0xbd321d1a	-0.043484785
25	0xbcbf41cf	-0.02334681
26	0x3b4befb8	0.0031118225
27	0xbceed23f	-0.029152988
28	0xbc07bffc	-0.008285519
29	0x3d077849	0.033073697
30	0x3d506102	0.050873764
31	0x3cedd8c7	0.029034032

weight f4 [9, 32, 3, 3]
0	0x3d54b379	0.05192897
1	0x3d554593	0.052068304
2	0xbc6f30b1	-0.014599011
3	0xbcb5e8b9	-0.022205697
4	0x3a7dc7a7	0.00096809346
5	0x3ccad333	0.02475891
6	0x3c5caa5d	0.013468352
7	0xbceca83c	-0.028888814
8	0x3d821c4d	0.06353054
9	0xbd030bbd	-0.031993616
10	0xbba652c7	-0.005075786
11	0xbc8e930c	-0.017404102
12	0x3db59afd	0.08867452
13	0x3b3b778d	0.0028605193
14	0xbcd9bde4	-0.026579805
15	0xbcc8b874	-0.024502017
16	0x3d1a570e	0.037680678
17	0xbc312813	-0.010812777
18	0x3d17d7c7	0.037071016
19	0xbc9e200f	-0.019302396
20	0x3cbff708	0.023433223
21	0xbd46928a	-0.048479594
22	0xbcf755ff	-0.030192373
23	0x3d6b53a4	0.057452813
24	0x3d567fe5	0.052368063
25	0xbd371299	-0.04469547
26	0xbce9e09d	-0.028549487
27	0xbd792c6f	-0.06083339
28	0x3c6d1b25	0.014471804
29	0xbc401bf7	-0.011725417
30	0x3bbfa93e	0.0058490327
31	0x3d129b43	0.0357926
32	0x3d0c1889	0.034203086
33	0xba73d5cf	-0.00093015743
34	0x3c89d391	0.016824516
35	0xbd22fc9f	-0.0397917
36	0x3d20d560	0.03926599
37	0xbdfa3498	-0.12217063
38	0x3c36f9e6	0.011167979
39	0x3d2c8c5d	0.04212605
40	0x3d4010f5	0.04689117
41	0x3d5f3415	0.05449303
42	0xbc427b6c	-0.011870246
43	0xbddf64f8	-0.1090793
44	0x3c824405	0.015901575
45	0xbd0db6f8	-0.03459832
46	0x3cf1ea01	0.029530527
47	0xbd041822	-0.032249577
48	0x3d474cf7	0.048657384
49	0x3cbe5b4a	0.02323689
50	0xbd0ab140	-0.033860445
51	0x3bae7995	0.0053245523
52	0x3d014d1d	0.03156768
53	0x3d98e882	0.07466222
54	0xbcf678dc	-0.030086927
55	0xbd4d197c	-0.050073132
56	0xbce340ec	-0.027740918
57	0xbc419123	-0.011814388
58	0x3cd222b4	0.025651313
59	0xbc136646	-0.008996552
60	0x3d1ccbed	0.038280416
61	0xbd555bd2	-0.05208952
62	0xbd82ac01	-0.063804634
63	0x3bf294d8	0.0074029975
64	0x3d17c3d1	0.03705198
65	0x3d61d0cb	0.05513076
66	0x3c0d19d8	0.008612119
67	0x3a808a8a	0.0009806913
68	0x3d0e696e	0.034768514
69	0x3d2ab7c0	0.041679144
70	0xbd463958	-0.04839453
71	0xbcbefc46	-0.023313653
72	0x3d1d6b89	0.03843263
73	0xbc3e87a4	-0.011629019
74	0xbd34fa32	-0.044183917
75	0xbd1df1de	-0.03856074
76	0xbc81f767	-0.015865041
77	0x3b9bca57	0.0047543454
78	0x3b0ba05c	0.0021305298
79	0xbd291a17	-0.041284647
80	0x3d82fed5	0.063962616
81	0x3b11649d	0.0022185214
82	0x3d7330dd	0.05937277
83	0xbc6a3b0c	-0.014296304
84	0x3d3a444f	0.0454753
85	0x3cff9eb0	0.031203598
86	0xbd405832	-0.04695911
87	0x3d15b910	0.036553442
88	0x3d251027	0.040298607
89	0xbd1f1718	-0.038840383
90	0x3d7ae12d	0.0612499
91	0x3a31337d	0.00067596865
92	0xbc33d91c	-0.010977056
93	0xbb8bb60b	-0.0042636446
94	0xbce1f9e4	-0.027584977
95	0x3d81f637	0.0634579
96	0xbc2b0d45	-0.010440175
97	0xbcd0287d	-0.025409931
98	0x3d8746da	0.06605311
99	0xbd9714ad	-0.073769905
100	0xbd28b610	-0.041189253
101	0x3c9dad65	0.01924772
102	0x3d1875bd	0.03722166
103	0xbc8536c3	-0.016261464
104	0xbc850067	-0.016235543
105	0xbcee7aca	-0.029111285
106	0x3d65fc43	0.05614878
107	0x3c96e3c7	0.01841916
108	0xbd21083c	-0.039314494
109	0xbca791b0	-0.020455211
110	0xbd312511	-0.04324824
111	0x3ce7fbb6	0.028318267
112	0xbcc4f0cc	-0.024040602
113	0x3c109c31	0.008826301
114	0x3d366749	0.044532094
115	0x3d3ce842	0.046119936
116	0xbd5e0fc6	-0.05421426
117	0x3cf96d9c	0.030447774
118	0x3d7fd85d	0.0624622
119	0x3d39363a	0.04521773
120	0x3c5d7932	0.013517665
121	0x3c009202	0.007847311
122	0xbcbd7672	-0.023127768
123	0xbced3aa4	-0.028958626
124	0xbced37dd	-0.028957302
125	0xbb968881	-0.0045939093
126	0x3d6bdc64	0.057583228
127	0x3d2e6c30	0.042583644
128	0x3cd86332	0.026414488
129	0xbce5499d	-0.027989203
130	0x3c4bec15	0.012446423
131	0xbcff968a	-0.031199712
132	0xbce4db6a	-0.027936656
133	0x39c7572e	0.00038021192
134	0x3c036930	0.008020684
135	0x3c8aac9f	0.016928015
136	0x3d1330c4	0.03593518
137	0x3c114ba6	0.008868134
138	0x3d21b942	0.039483316
139	0x3c7655db	0.015035118
140	0xbd4f6e45	-0.05064227
141	0x3bba06b5	0.005677069
142	0x3c905bff	0.017621992
143	0xbceb0f7c	-0.028693907
144	0x3bb1f846	0.005431208
145	0x3d28442a	0.04108063
146	0xbd05ddd9	-0.032682274
147	0x3d012d8c	0.031537578
148	0xbcf4325f	-0.029809175
149	0x3d1eb2c4	0.038744703
150	0x3cc8bb3d	0.024503345
151	0x3d03e9f1	0.032205526
152	0xbcf3f69d	-0.02978068
153	0x3c7ffc2b	0.015624086
154	0xbd3b8f16	-0.045790754
155	0xbce65be3	-0.028119987
156	0x3c8eda80	0.017438173
157	0xbd346c72	-0.044048734
158	0x3cd48320	0.025941432
159	0x3cd2240b	0.025651952
160	0x3d989db7	0.07451957
161	0xbd1e90b1	-0.038712207
162	0x3bf3be9b	0.0074384934
163	0x3d1e2ec7	0.03861883
164	0x3d10ad6f	0.03532165
165	0x3b456f6c	0.0030126227
166	0x3d9f9f33	0.07794037
167	0x3cdde515	0.027086774
168	0x3c2ccd40	0.010546982
169	0xbcac655f	-0.021044431
170	0xbd2409be	-0.040048353
171	0x3d5a9378	0.053363293
172	0x3bbf5a61	0.0058396314
173	0xbc41b2cf	-0.011822416
174	0xbba27707	-0.004958037
175	0xbc8a705b	-0.016899278
176	0x3d14f23f	0.036363836
177	0x3c8431e0	0.016137064
178	0x3c939434	0.018015005
179	0xbba95719	-0.0051678536
180	0x3cb04f85	0.021522293
181	0x3d6c90c8	0.05775526
182	0x3d137415	0.035999376
183	0x3d50110b	0.050797503
184	0x3ced43ad	0.028962934
185	0x3d1ed235	0.038774688
186	0xbc656368	-0.014000751
187	0xbceff551	-0.02929178
188	0x3d21852a	0.039433636
189	0x3b7dd50a	0.0038731718
190	0x3af38cfd	0.0018581446
191	0x3c5823d9	0.0131921405
192	0x3cd71bf7	0.026258452
193	0xbac2de95	-0.001486736
194	0x3cb355d7	0.021891518
195	0x3d4e3b59	0.050349567
196	0xbaa9c9b6	-0.0012953791
197	0xbbfa9af1	-0.007647865
198	0xbcaf4778	-0.021396384
199	0x3d3106a0	0.04321921
200	0xbc25fc30	-0.010130927
201	0x3ca05f00	0.01957655
202	0xbd0cabf2	-0.034343667
203	0x3cc776b4	0.024348594
204	0xbd1d72de	-0.038439624
205	0x3c7c39ad	0.01539461
206	0xbce83546	-0.028345715
207	0xbd373c32	-0.04473514
208	0x3c4bceef	0.0124394735
209	0x3ce70943	0.028202659
210	0xbd014c83	-0.031567108
211	0xbcb86172	-0.022507403
212	0x3d48734e	0.048938088
213	0xbaebc9e9	-0.0017989251
214	0x3d3ca96c	0.04606001
215	0xbcb86027	-0.022506787
216	0xbbf07a4c	-0.0073387977
217	0x3d2075b8	0.039174765
218	0xbd315536	-0.043294154
219	0x3cd360db	0.02580302
220	0xbce5760a	-0.028010387
221	0xbca5ee91	-0.020255359
222	0x3ca52f94	0.020164289
223	0x3d2e1ef2	0.04250998
224	0xbcb52197	-0.022110743
225	0x3c4614c1	0.012089909
226	0xbb1152c2	-0.0022174572
227	0xbd0f4b25	-0.034983773
228	0xbb2aca4d	-0.0026060522
229	0x3c538207	0.012909419
230	0xbcabdf7b	-0.020980587
231	0xbcbbb37d	-0.022912735
232	0x3d5f1826	0.05446639
233	0xbcedb572	-0.029017184
234	0xbca16cd9	-0.019705223
235	0x3e0658f2	0.13119867
236	0xbda64491	-0.08118547
237	0x3d9293af	0.07157075
238	0x3e13f08c	0.1444723
239	0xbd1a72b9	-0.037707064
240	0xbdcc9d1f	-0.09990906
241	0xbda23fec	-0.079223484
242	0xbaa2a138	-0.0012407666
243	0x3c9c034f	0.019044546
244	0xbcb0ff13	-0.021606004
245	0x3ca2694a	0.019825596
246	0x3d1e583a	0.03865836
247	0xbcb5066b	-0.022097787
248	0x3d17db0c	0.037074134
249	0xbc6ecc2b	-0.014575045
250	0x3d173d1b	0.03692351
251	0xbd60477e	-0.05475568
252	0xbce69d40	-0.028151155
253	0x3c85c6d5	0.016330162
254	0xbd251895	-0.040306646
255	0xbd2eeae2	-0.04270447

bias f4 [9]
0	0x3d05b86a	0.032646574
1	0x3ba9e219	0.0051844236
2	0x3cc90e95	0.024543086
3	0x3c758412	0.014985101
4	0xbc2bccc7	-0.010485834
5	0x3b502a84	0.0031763623
6	0xbc2eb69c	-0.010663655
7	0x3bb947d6	0.0056543155
8	0x3b4850ca	0.0030565732
