.processed/3_logs_scale_3_crop_64/epoch_22_model.pth (torch_old, 93448 bytes, 6 tensors)

weight f4 [64, 1, 5, 5]
000000 72 3b e2 3d d8 b2 05 3e 3f e5 a2 bd ea 1f 20 3e
       0.110464945 0.13056505 -0.079538815 0.15637174
000010 60 d0 82 bd 66 0b 0b 3c bd d0 f5 bd f1 ad de 3d
       -0.063874006 0.008486604 -0.12002704 0.108730204
000020 07 e8 27 3e 4f e8 25 be 6c 0f 1d 3e 69 4b 11 3d
       0.16397105 -0.162019 0.15337914 0.035472307
000030 5a 61 2b 3e 2b 3f b2 3c d8 95 ab 3d 91 69 50 bd
       0.16736355 0.021758636 0.0837819 -0.050881926
000040 cc 24 15 3e ec 32 c8 3c a5 17 e4 bd 2a 96 fe 3c
       0.14564818 0.024438344 -0.11137322 0.031077463
000050 8a 28 d9 bd 4d c9 18 bd c4 e5 c4 bd 1e 41 e6 3d
       -0.10603435 -0.03730135 -0.09614137 0.11242889
000060 a5 7d 34 be f3 de ca bd d7 2f 6d bd c7 31 fd bd
       -0.17626055 -0.099058054 -0.05790695 -0.1236301
000070 1e 11 34 3c 95 b6 48 be 7a 60 30 3e bc 99 36 be
       0.010990409 -0.196009 0.17224303 -0.17832083
000080 bf c4 23 3e 90 03 d0 3c 73 98 8d bd 53 dd f4 3d
       0.15993021 0.025392324 -0.06913843 0.11956277
000090 f5 13 20 3d e9 76 44 3e fb 25 98 3c c6 b8 86 bd
       0.039081533 0.19185986 0.018572798 -0.065782115
0000a0 01 ef 42 3d 87 d7 5b bd a9 8c c4 3d 71 64 30 3e
       0.047591213 -0.05367234 0.09597141 0.17225815
0000b0 fc f7 dc 3d e7 a0 ca bd cc 5f de 3d 32 fd f5 3c
       0.10789487 -0.09893971 0.108581156 0.03002796
0000c0 39 d2 b0 3d e5 99 09 be e3 23 41 be be bf 6a bd
       0.08633847 -0.13437612 -0.18861346 -0.057311766
0000d0 e2 19 1b be 26 39 3b 3e 8f c1 a7 3d 3a ed cf 3d
       -0.15146592 0.18283519 0.08191215 0.10152669
0000e0 a8 a7 91 3d 2a a0 e7 b9 8a 32 3f 3e 1d ba f2 bd
       0.07112056 -0.00044179085 0.18671623 -0.118519045
0000f0 a1 81 a5 3c 87 bf 19 be ae e3 25 3d 16 1f 8f bd
       0.020203413 -0.15014468 0.040500335 -0.06988351
000100 e2 f1 93 3d 6d 51 9f bc 42 01 48 3e 0c e0 0c be
       0.0722387 -0.019448007 0.1953173 -0.13757342
000110 dc 75 e8 bd 7c 7c ca bd 2b ff 55 3e 1e bf a6 3d
       -0.11350605 -0.09887025 0.2089812 0.081419215
000120 78 b6 4c 3e 9d 37 19 be fd 9e 25 be 13 98 dc bd
       0.19991481 -0.14962621 -0.1617393 -0.10771193
000130 5a ae 06 be 98 09 cc 3d 32 da e1 3d 57 92 2b 3e
       -0.13152447 0.09962767 0.110279456 0.16755043
000140 f0 8e e9 bd a2 35 3a be 6b 75 32 3e 8d 42 a4 bd
       -0.11404216 -0.18184522 0.17427604 -0.08020506
000150 88 1d 1d 3e 02 77 99 bc c1 96 52 3e 5f a1 bb be
       0.15343297 -0.018733505 0.2056532 -0.36646554
000160 9f 65 0a be 16 d6 d7 3d 9e 82 a2 3d e8 c5 d5 bc
       -0.13515328 0.105388805 0.079350695 -0.026095346
000170 13 39 33 3e 63 c2 49 3e e5 44 14 be 04 b5 8f bd
       0.17502241 0.19703059 -0.14479406 -0.07016948
000180 0e 7c 60 3e fd 6d 67 bd 1c 09 ff bc 7b cf f8 bd
       0.21922323 -0.056501377 -0.031132273 -0.12148949
000190 58 ba 6c bd 8d 60 e1 3d b8 39 26 3c 62 2f 9d bd
       -0.0577949 0.11004744 0.010145597 -0.07675053
0001a0 d8 22 b4 3d d2 90 97 bd 13 5b 07 be 5f 9d 3a bd
       0.087957084 -0.07400669 -0.13218336 -0.045560237
0001b0 5b e5 e1 bd 0c a6 64 bd b1 f9 73 3e a5 34 f3 3d
       -0.11030074 -0.055822417 0.23825718 0.118752755
0001c0 d6 5e ff 3d 6a 3c f2 bd 58 8e 87 bd ae 98 5d ba
       0.124692604 -0.11827929 -0.06618947 -0.0008453232
0001d0 5d 25 ce 3d f9 44 f2 bd 85 c3 18 3c 3d 63 32 bd
       0.1006572 -0.11829562 0.009323959 -0.043551672
0001e0 69 b7 8e 3d a2 b9 9c bc 42 b2 82 3d f1 b3 93 bd
       0.069685765 -0.019131485 0.06381656 -0.072120555
0001f0 ee 6b 5c bd d9 33 cc bd 64 a0 64 bd e6 56 24 be
       -0.053813867 -0.09970827 -0.055817023 -0.16048774
000200 13 95 2a 3e 18 6c 17 bd f4 75 34 3e a8 46 82 3d
       0.1665843 -0.03696832 0.1762312 0.06361133
000210 ad 15 4b be 67 41 08 3e 51 3e 75 bd 6c f4 9b bd
       -0.19832487 0.13306199 -0.059873883 -0.07614979
000220 7b a0 42 be db 89 80 be 87 2e 45 3d c9 93 44 bd
       -0.19006531 -0.25105175 0.048140075 -0.0479925
000230 e2 2b ac 3d 2c ab 25 be 02 5c 10 3e f1 83 17 be
       0.084068075 -0.16178578 0.14097598 -0.14796425
000240 55 41 e8 bc a1 99 13 3d 56 61 d8 3d ab 26 24 3e
       -0.028351465 0.036035184 0.1056544 0.16030376
000250 2a c1 3f 3e 8d 5c 26 be e5 6b 5e 3d fe 72 af bd
       0.1872603 -0.16246243 0.054302115 -0.08566855
000260 fe 25 7b bc 76 77 14 be 4a 50 4b 3e 8c 8a 16 be
       -0.015328882 -0.14498696 0.19854847 -0.14701289
000270 a3 25 e7 3d 85 08 c7 3d d3 f8 8f 3d 5c d0 c0 bd
       0.112864755 0.09718422 0.07029881 -0.094147414
000280 d9 5f 45 3e bf 58 81 3d 31 54 8c 3d 05 b5 32 be
       0.19274844 0.06315755 0.06851996 -0.17451866
000290 45 6f cd 3d 21 2a e3 bc 4f ee b6 bd 71 a7 4e 3e
       0.100309886 -0.02773005 -0.089321725 0.20181061
0002a0 04 1c 48 3d 13 90 cb bd 09 af c0 bd b3 cb c0 bb
       0.048854843 -0.09939589 -0.09408385 -0.005883658
0002b0 17 2f f4 3d ba c5 33 bd a7 ca cc bd bd f8 b5 bd
       0.11923044 -0.04388974 -0.0999959 -0.08885334
0002c0 7d c8 2a be ba dc 81 3d 82 7e 0d 3e 2c 2d 5b be
       -0.16678043 0.063409284 0.1381779 -0.2140395
0002d0 2d 43 d0 3c 34 b9 cf 3d c0 88 12 3d c3 3a b6 bd
       0.025422657 0.101427466 0.035774946 -0.08897927
0002e0 2c 92 b1 3d 3f d3 ba 3d 5c 93 9a 3d 54 f4 af bc
       0.08670458 0.09122323 0.07547638 -0.02147881
0002f0 ef 00 84 bd b4 57 d5 3b e5 80 7e bd 05 a9 a9 bd
       -0.064454906 0.006510699 -0.062134642 -0.08284191
000300 b0 c8 00 3e 13 41 1e 3e 5f d5 37 bd e4 6a 97 bd
       0.12576556 0.15454511 -0.04488122 -0.07393435
000310 7d 47 88 bc 7f f5 a9 bc d6 43 ef 3c 53 a4 06 3d
       -0.01663565 -0.020746944 0.029207151 0.032871556
000320 f2 ab 23 be 81 7a 54 bd ca a9 43 3e d7 57 cc 3d
       -0.1598356 -0.05187464 0.19107738 0.099776916
000330 f5 f4 f2 3b b8 78 ce bd 18 2f dc bd 66 ac 34 be
       0.007414455 -0.10081619 -0.1075117 -0.1764389
000340 ac 93 48 bd c7 bf b6 3d 11 b4 0d 3e 01 23 d2 3d
       -0.048968956 0.089232974 0.13838221 0.10260583
000350 ae 9f 48 be f9 a3 d8 bd a3 37 1e bc 06 d1 50 3e
       -0.19592163 -0.1057815 -0.0096568195 0.20392236
000360 b6 1f 3b 3d 94 b9 3b bd 5c d2 d0 3d 4c bf 60 bd
       0.04568454 -0.045831278 0.10196373 -0.054869935
000370 b2 1a f4 bd e6 35 25 3e ce 7b 94 bd 7d 93 84 bc
       -0.11919154 0.16133842 -0.07250176 -0.01618361
000380 b2 f1 34 be a1 3e 1e 3e 30 cd 27 3e b2 9a a2 3d
       -0.17670324 0.15453579 0.16386867 0.07939662
000390 76 06 08 be b0 7a 40 be a3 b3 19 be 30 21 28 3e
       -0.13283715 -0.18796802 -0.15009932 0.1641891
0003a0 92 93 d8 3d 03 d7 35 3e 7d d1 da 3d 68 84 80 3d
       0.10575022 0.17757802 0.10684488 0.062752545
0003b0 83 31 e5 ba 74 b2 4d be d2 b0 3e be 96 d3 38 be
       -0.0017486069 -0.20087606 -0.18622139 -0.18049464
0003c0 29 60 bd 3d e0 9c c2 bd 0b c2 22 bd 15 09 e1 bd
       0.09246857 -0.09502578 -0.039735835 -0.109880604
0003d0 68 c8 92 bc 11 7c 0c be d9 86 fb bd 53 13 ad 3d
       -0.017917827 -0.13719203 -0.122815795 0.084509514
0003e0 68 be 10 bd 8f 21 1a 3e 42 a1 95 bc 9b 80 1f be
       -0.035337836 0.15051864 -0.01826537 -0.15576403
0003f0 4e 39 bc bc 45 ef f5 bd 1f c9 53 bd 75 ee 59 be
       -0.022976544 -0.12008528 -0.051705476 -0.2128237

bias f4 [64]
000000 52 8a 60 be 2e 6c d7 3d 08 71 65 be cf a3 83 bd
       -0.21927765 0.105186805 -0.22406399 -0.064277284
000010 c5 03 df 3c c6 12 17 3e 33 c0 95 bd cc ba 90 3d
       0.027223477 0.14753255 -0.0731205 0.07066879
000020 00 2b 6c 3d 18 77 22 3e e0 e5 39 3c 5c 6f c2 3d
       0.057658195 0.15865743 0.01134631 0.09493896
000030 2c 3e 23 be fa 1e 1c be d4 d6 61 3e a2 96 40 be
       -0.15941685 -0.15246192 0.22054607 -0.18807462
000040 90 c6 2a bc 7e af a4 bc 67 42 5a 3e 0a aa 6c bd
       -0.010423318 -0.020103212 0.21314393 -0.05777935
000050 0a 09 27 be 38 9b c3 bd ed f2 f2 3d d8 05 0b 3e
       -0.16312042 -0.0955109 0.11862741 0.13576448
000060 bf 77 50 3e f9 f7 12 bd 1d cd cb 3d 00 1d 80 be
       0.2035818 -0.035881016 0.09951232 -0.25022125
000070 16 e4 d7 3d a1 1b 1a 3e 54 08 0f 3e 19 73 18 be
       0.10541551 0.15049602 0.1396802 -0.14887656
000080 9c 22 9d bd 00 aa 72 3d 5b 87 2f be fe de 76 be
       -0.07672617 0.059244156 -0.17141478 -0.24108502
000090 68 11 66 be 9b fb 03 3d 48 40 3a 3e f2 ac c0 3d
       -0.22467577 0.03222237 0.18188584 0.09407987
0000a0 fb b4 fc ba 67 b0 1c 3e b1 4b 18 be b1 c4 6c bb
       -0.0019280011 0.15301667 -0.14872624 -0.003612798
0000b0 92 a4 c2 bd 6b 83 11 be a7 b2 3d 3e 86 25 1e be
       -0.095040455 -0.14210288 0.18525182 -0.15444002
0000c0 f0 86 6c 3c 1b a0 66 be 0f 33 48 3b 61 a9 dc bd
       0.0144364685 -0.22522013 0.0030548011 -0.10774494
0000d0 be e0 c0 3d a9 6e 12 be fc 9e 50 3e 78 db 4e be
       0.09417866 -0.14300026 0.20373148 -0.20200908
0000e0 4b 0f 12 3e 5c 29 66 be e0 cc 0c 3e ec 0a f5 bd
       0.14263646 -0.22476715 0.13750029 -0.11964974
0000f0 55 8a ec ba 6c 61 8e bd 96 68 29 3e 4e 84 d4 3d
       -0.0018046597 -0.069521755 0.16543803 0.103767976

weight f4 [32, 64, 3, 3]
000000 59 6b 0c bd 0f c9 cb bb 4a 70 94 bc 42 11 e8 3c
       -0.034282062 -0.0062190364 -0.01811995 0.028328542
000010 e9 04 d8 3b d3 a6 59 bb 5c d0 76 bc 15 20 bc 3c
       0.006592382 -0.0033211007 -0.015064325 0.022964517
000020 4b b3 cd bc 13 58 11 3d 50 a0 42 3d ff e4 39 3d
       -0.025109908 0.035484385 0.047516167 0.045384403
000030 ec 6c 2f 3d 05 30 d8 3b 81 ce 69 3d dc 79 00 3c
       0.042828485 0.0065975212 0.057081703 0.007841554
000040 73 3c cb 3c 28 26 61 3c c6 2d 5b 3c a7 8a c9 39
       0.024809098 0.013742007 0.013377612 0.00038441012
000050 0f 02 68 bc 3b 9b 7b bb f3 62 90 bd 43 63 c1 bc
       -0.014160647 -0.0038392085 -0.07050123 -0.023606902
000060 68 c7 5e bd b6 91 a2 bb 5b 56 62 bd 5d 9a 21 bb
       -0.054389387 -0.0049612178 -0.055258136 -0.0024658658
000070 7e d0 12 3d 00 5f 0a 3d c1 91 c8 bc f5 fb 55 bd
       0.035843365 0.033782005 -0.024483563 -0.052242238
000080 9b f7 d6 3b eb 86 88 3c 32 16 95 bc b4 6d f4 bb
       0.0065602786 0.016665896 -0.01819906 -0.0074593667
000090 5d b6 0a bd a2 61 eb 3b 25 09 fb 3c a7 f1 ee bc
       -0.03386532 0.0071832696 0.030644009 -0.029167963
0000a0 94 ac 57 3c 9e 02 66 3c af e1 d6 3c 6f f3 35 bc
       0.013163704 0.01403871 0.026230661 -0.011105402
0000b0 75 28 03 bc 28 dc 9e 3c a4 70 1a 3d ae 6e 20 3d
       -0.008005251 0.019392088 0.03770508 0.039168052
0000c0 c4 41 c3 bc 2f c9 b3 3a 2f 61 17 3c 6e 38 03 bd
       -0.02383507 0.0013716574 0.009239479 -0.032036237
0000d0 8f 99 8e bc db f3 76 bc 1b f4 c8 3c 9a e7 99 bb
       -0.017407207 -0.015072788 0.024530461 -0.0046967985
0000e0 60 c6 ed 3a 92 05 9b 3c 0e bc d1 ba 97 65 1c bd
       0.0018140785 0.018923555 -0.0016001479 -0.03818282
0000f0 35 7a 79 3b cd 8d 20 3d 47 da cc 3c ed f4 75 bc
       0.0038067226 0.03919773 0.025006426 -0.015012008
000100 07 db e5 3c 1e a7 cd bb 4f a8 a2 b9 4f 71 83 3d
       0.028058542 -0.0062760254 -0.00031024448 0.06418096
000110 7b b9 19 3d c5 9c 8c ba cc 7f ea 3c 07 bd c4 3c
       0.037530404 -0.0010727873 0.028625391 0.024015917
000120 8d 96 bf 3a cd 8c 02 bd 18 bf 1d bd d6 80 17 3c
       0.0014617011 -0.03187256 -0.03851232 0.0092470255
000130 8c da a0 bc 2c a0 d3 3b 93 65 04 bd 8d 43 b4 bb
       -0.019635461 0.006458303 -0.03232343 -0.0055012167
000140 e7 82 d5 3c c1 39 98 3c f2 94 af 3c 47 e1 5c 3d
       0.026063396 0.018582227 0.021433327 0.05392578
000150 2d d1 b0 bc 9e c1 2b 3c da 6b 28 3d dc c0 3d 3d
       -0.021584118 0.010483174 0.04111848 0.046326503
000160 34 00 74 bb dd da 6a 3d 0a 6f 7b 3c f4 ef e7 bb
       -0.0037231566 0.05733763 0.015346298 -0.007078165
000170 fa aa f3 3c 29 71 e1 bc e0 ab 0f 3e 8d 23 60 bc
       0.029744614 -0.02751978 0.14030409 -0.013680351
000180 fb 90 82 3b e8 fe ea bc 73 39 60 bd fa 52 47 bc
       0.003984568 -0.028686002 -0.054742288 -0.012165779
000190 c9 93 33 bd 85 35 9e bc 6a 7b 75 3c 80 e4 08 3d
       -0.04384211 -0.01931263 0.0149830375 0.03342104
0001a0 6f dd 7c 3c 4a 15 81 3c 65 01 86 3c c2 93 07 bd
       0.015433653 0.015757222 0.016358087 -0.033099897
0001b0 af 76 75 bd 3e 6c 88 bb 65 b4 ba 3c fa 0e 44 bb
       -0.05992764 -0.004163294 0.022791097 -0.0029916153
0001c0 a1 ae 1c bd ca e8 1b bd 39 cc 57 bc 0d e2 2a bd
       -0.038252477 -0.0380638 -0.013171249 -0.041719485
0001d0 91 3a c5 3c 5d 2c c0 bc 55 ef 79 bd 27 87 88 bc
       0.024075778 -0.023458654 -0.06101926 -0.016666008
0001e0 b5 20 8b bc 56 24 f5 bc 45 13 ef bb 2b a6 a5 3b
       -0.01698337 -0.029924553 -0.0072959983 0.005055209
0001f0 e1 dc 6d bd ad e2 4b bd 49 dd 5d 3c 4a 19 f0 bc
       -0.058071975 -0.04977672 0.013541528 -0.029308934
000200 f1 16 46 bc fd f2 2e 3d 38 e7 f3 ba 82 c5 7b ba
       -0.012090431 0.0427122 -0.0018608337 -0.0009604321
000210 31 f9 b3 bc ac fd b8 bc fb db 32 3d 43 08 f1 bc
       -0.02196941 -0.022581898 0.04366682 -0.029422885
000220 68 92 32 bd be a0 52 bd 49 41 1a 3c 3a c4 5f bd
       -0.043596655 -0.051422827 0.009414979 -0.054630496
000230 67 b4 2a bd ba 6f 4a bc 07 43 3e bd 81 b0 d8 bc
       -0.04167595 -0.012355739 -0.04645064 -0.026451351
000240 f7 d6 06 3d 72 c5 b3 bc f5 d5 52 ba a1 f6 ff bc
       0.03291985 -0.021944735 -0.00080427463 -0.031245532
000250 b8 a3 19 bc 68 af d6 3c 6a 7c 25 bc 54 5c f2 3c
       -0.0093774125 0.026206687 -0.010100463 0.029585041
000260 58 42 b1 bc d7 06 fd bc 7f c3 07 bd ea b2 24 3d
       -0.02163808 -0.03088705 -0.033145424 0.04020969
000270 53 b5 01 bd f2 c3 c7 bb 9c 95 c0 ba 31 f0 2c 3d
       -0.031667065 -0.0060963565 -0.0014693025 0.042221252
000280 67 b6 b3 3c 48 30 e9 39 1f 28 54 3d 63 23 90 bb
       0.021937562 0.00044477195 0.051796075 -0.0043987497
000290 ca 30 38 3c c8 68 81 3d 6c 48 63 3d 91 14 df 3c
       0.011242101 0.063188136 0.05548899 0.027231487
0002a0 8b 51 4a 3c 7f 3e 2c 3c e0 8d 4b 3d 64 dd 38 bc
       0.012348543 0.010512947 0.04969585 -0.011283252
0002b0 ca 41 9c 3b 55 95 a9 3a 91 a4 6d 3d 37 ad ab bc
       0.004768585 0.0012938181 0.05801827 -0.020956619
0002c0 bb 11 b4 bc 09 2f 24 3d 82 d1 b9 3b bd 4d 9e bc
       -0.02198111 0.04008392 0.005670727 -0.019324178
0002d0 b9 a7 4d bd 63 08 08 bd 76 72 66 3b 5b 00 b2 bc
       -0.05020878 -0.033211123 0.003516344 -0.021728685
0002e0 e5 cf b2 bc 3d ef 72 bd 8d 42 d8 bb 2c a7 62 bd
       -0.021827647 -0.059310187 -0.0065997303 -0.05533521
0002f0 78 d6 0a 3c e1 d7 60 3d 47 fd 38 3c df 6a 40 3d
       0.008473985 0.05489338 0.011290855 0.04697692
000300 87 7e 07 bd ad 53 78 bd f1 62 56 bd e2 42 d0 3c
       -0.03307965 -0.060626674 -0.05234045 0.025422517
000310 d4 5b 1e 3c 44 30 11 bd 7d 1e a4 3c 50 b7 21 3d
       0.009665448 -0.03544642 0.02003407 0.03948146
000320 7e 74 01 bd 9a 3e 79 3c 6b eb b5 3c c3 26 bd 3c
       -0.031605236 0.015212679 0.022206983 0.023089772
000330 bc 53 04 3d 01 1e 41 3d 19 cb a8 3c f6 54 59 3d
       0.032306418 0.047147755 0.020604657 0.05305954
000340 8a 0f a4 ba dd 3c 04 3d 52 09 b4 bc 7f ea c5 3b
       -0.0012516838 0.032284606 -0.0219771 0.006039917
000350 20 b2 81 3b c1 1c 3c 3d 15 e9 96 3c 35 65 e1 3c
       0.0039580017 0.04592586 0.018421689 0.02751408
000360 0b 84 e8 bc ad f6 5d bc b0 06 52 3d 56 23 20 3d
       -0.028383275 -0.013547582 0.05127591 0.0390962
000370 e9 5d 06 3d 4e da 88 39 8a 70 84 3a 56 3d 74 bb
       0.032804403 0.0002610259 0.001010434 -0.0037268004
000380 89 89 f6 3c f0 47 03 bd 2a 10 2b 3c d6 12 29 3c
       0.030094879 -0.032051027 0.0104408655 0.010319432
000390 09 c2 72 bd fa 39 be bc 2b f8 fe bc 16 75 0f bd
       -0.059267078 -0.023221005 -0.031124195 -0.03502377
0003a0 a1 13 7d bb eb c3 ac bc 8a d5 4d 3d e7 11 d2 bb
       -0.0038616436 -0.021089515 0.050252475 -0.0064108255
0003b0 e1 dd 11 3d 16 f3 72 bc b3 c7 55 bc d1 7f 9c 3c
       0.03561199 -0.014828464 -0.0130481 0.019103916
0003c0 bd 8b 35 3d f5 bd d1 3c 64 76 72 bc 06 f5 46 bc
       0.044322718 0.025603274 -0.014798734 -0.012143379
0003d0 26 7c 66 bd 10 53 25 bc 4c c8 86 bd 73 af 63 bd
       -0.05627074 -0.010090604 -0.06581172 -0.055587243
0003e0 03 38 83 3b a5 8c 4a bd 06 7e 8a bd 02 5e f6 3b
       0.00400448 -0.049450535 -0.06762318 0.007518531
0003f0 a8 83 7b 3c e8 c9 71 bc 1a 98 44 3d ac 1a 8e bc
       0.0153512135 -0.014757611 0.047996618 -0.017346703

bias f4 [32]
000000 92 d2 98 3d d5 9a 3b bd 68 1e 4d bd aa f7 38 3d
       0.07462038 -0.045801956 -0.050077826 0.045158066
000010 7e 99 cd bc d4 7b 1f 3d 2c 91 48 3d 17 97 81 bd
       -0.025097605 0.03893645 0.04896657 -0.06327646
000020 b7 87 f7 bb fa d8 30 3c e8 9c 4f bc fb 2b 5d bc
       -0.0075540203 0.010793919 -0.012671687 -0.013499255
000030 b4 33 94 3c e0 c6 08 bc e3 5e 1c 3d 5d c8 f7 bc
       0.01809106 -0.008348197 0.03817643 -0.030246908
000040 25 40 6d 3d 1d 93 40 bd a2 18 ee bc bf d6 d1 3b
       0.0579225 -0.0470153 -0.02906448 0.0064037736
000050 25 a6 11 3d c1 c2 48 bd e1 68 69 bc 34 31 c3 bc
       0.03555884 -0.049013857 -0.0142461965 -0.023827173
000060 2c ce 66 bd ca 30 75 bd 8d 7f 4f 3d fb ad 8a bc
       -0.056348965 -0.059860982 0.05065875 -0.016928663
000070 fc 49 30 bd 22 11 73 bc ff 78 7b bc 52 0d 8c 3d
       -0.043039307 -0.014835628 -0.015348672 0.06838478

weight f4 [9, 32, 3, 3]
000000 ab 9a 83 3d a2 fa 91 3d 03 a1 eb ba de c5 9c bb
       0.06425985 0.071278825 -0.0017977062 -0.00478433
000010 35 17 d8 3c 01 7e 14 3d 1e b4 4e 3c 3a b2 be bc
       0.026378253 0.03625298 0.0126161855 -0.023278344
000020 ad d2 71 3d c2 75 16 bd ad 14 c3 3c 63 e6 81 bc
       0.059038807 -0.036733396 0.02381357 -0.015856927
000030 28 5c 7f 3b fe 25 de bc 5a 3d 88 ba 69 89 28 bd
       0.0038964842 -0.027117725 -0.0010394261 -0.04114667
000040 08 66 2c 3c be 85 20 bd 0c 2b e4 3c 25 49 76 bd
       0.010522373 -0.039190046 0.027852558 -0.06012835
000050 99 f2 b5 3d 48 e6 90 bd 1f 9c b8 bd 41 4d c4 3d
       0.088841625 -0.07075173 -0.09014153 0.095850475
000060 5d 44 51 3d 5d 23 6d bd eb c7 30 bd 64 1b 45 bd
       0.051090587 -0.057895053 -0.043159407 -0.048121825
000070 15 eb c3 3c 3f 37 0b bc 0c 40 88 3c 29 10 56 3d
       0.023915807 -0.008497058 0.016632102 0.052261505
000080 52 87 21 3d f0 23 6c bb 2f dd 84 3c 1a 82 40 bd
       0.039435692 -0.0036032163 0.01621875 -0.046999075
000090 2f 12 37 3d 34 f0 97 bd 0b 10 ef bb ec d7 22 bd
       0.044695076 -0.07418862 -0.0072956136 -0.0397567
0000a0 94 ba 3f 3c 1d e8 c4 3c 18 df 8e 3c 60 bd 88 bd
       0.011702199 0.024036461 0.017440364 -0.066767454
0000b0 88 41 4c bc a3 00 ec bc dc a2 15 3d 2f 1e 22 bd
       -0.012466796 -0.028808897 0.036532268 -0.039579567
0000c0 30 9e 81 3d 73 12 1a 3d 4a 5a 2a bd fc 28 b5 3a
       0.06329 0.03761525 -0.041590013 0.0013821418
0000d0 e7 db e7 3c c8 29 67 3d b0 ad f7 bb 3b 4c 01 bd
       0.0283031 0.05643633 -0.007558547 -0.03156684
0000e0 0b e7 05 bd a8 66 83 3c 56 a6 92 3d 92 12 39 bc
       -0.032691043 0.016040161 0.07160632 -0.011295931
0000f0 b3 d5 05 3d 8c 43 54 bd 7a f8 80 bd 4b 1a 09 3c
       0.032674503 -0.05182223 -0.06297393 0.008368085
000100 c8 07 40 3d a8 d5 3d 3d 29 60 35 bb 04 f6 84 bd
       0.04688242 0.046346337 -0.0027675724 -0.06492236
000110 67 65 da 3c d6 f8 2e 3d 16 a3 98 bd 4f 0c 0f bc
       0.02665968 0.042717777 -0.07452981 -0.008730962
000120 60 23 2d 3d 4e 53 d2 3c 6c 04 36 bd 6b 59 2b bd
       0.042270064 0.025674488 -0.04443781 -0.041833322
000130 f7 09 71 bb 45 db 88 bb 56 36 0f 3c 2a 36 b8 bc
       -0.003677962 -0.0041765296 0.008740982 -0.022486765
000140 cb 6d 9d 3d 42 62 b9 ba 2f a3 7e 3d 49 5c c7 bc
       0.07686957 -0.0014143663 0.062167343 -0.024335997
000150 09 3d 60 3d d7 01 63 3d ef e5 5a bd 1c e7 f6 3c
       0.054745708 0.055421676 -0.053441938 0.030139498
000160 17 6c ef 3c 84 da 6a bd 4f 4f 11 3d 71 6c 12 bd
       0.029226346 -0.0573373 0.035476025 -0.03574795
000170 a3 29 0e bd cf 9e 02 bd 80 ad 9a bd a8 a6 08 3d
       -0.034707677 -0.031889733 -0.07552624 0.03336206
000180 a5 56 de bc 22 12 48 bd 97 70 54 3d be 6c 5e bd
       -0.027140925 -0.048845418 0.051865187 -0.054302923
000190 a9 d4 eb bc a6 ab 9b bc fd bb 21 3d 2b 56 49 bb
       -0.028787928 -0.019002747 0.03948592 -0.0030721526
0001a0 5c b0 4f bd 52 fe a5 bc 44 ef a4 3d 05 19 35 3d
       -0.0507053 -0.020262871 0.08053449 0.044213314
0001b0 0c 5a b7 3c c9 b3 df bc db 56 91 bd f0 48 f0 3c
       0.022381805 -0.027307408 -0.070966445 0.029331654
0001c0 7e 53 07 3d a4 f2 62 3b 55 51 27 bc f5 30 a3 3c
       0.03303861 0.0034629488 -0.010212262 0.019920805
0001d0 39 65 1d 3c 56 ce 01 3d e8 db 82 3d 7c 07 3a 3d
       0.009606653 0.031690918 0.063896 0.045417294
0001e0 09 b0 dd 3c b1 ce 18 3c 95 30 c6 bc dd ba 2f bd
       0.02706148 0.009326623 -0.024193088 -0.042902816
0001f0 13 07 5b bd 18 62 d3 bc b6 2b 8b 3c 93 a2 40 3c
       -0.053473543 -0.02580361 0.016988616 0.011757511
000200 0c 8e 1e bd 2a 55 83 bd 59 81 0e bd c2 ad a2 bd
       -0.038709685 -0.06412728 -0.034791324 -0.07943298
000210 19 9e 69 bd 54 49 93 bc 43 7c 8e bc 44 41 5b 3d
       -0.05703554 -0.017979302 -0.017393237 0.05352904
000220 25 52 a2 3d c9 2d c3 bc 38 50 00 3d f7 33 53 3c
       0.07925824 -0.023825543 0.031326503 0.012890807
000230 79 18 41 bd ba ed dc bc e7 b2 92 bc 31 b8 25 bb
       -0.04714248 -0.026968826 -0.017907573 -0.0025286789
000240 20 b9 ad 3c 21 fa 7b 3d 95 c2 87 bc 20 65 4f 3d
       0.021206439 0.06151784 -0.016572276 0.05063355
000250 4f f9 b4 38 48 dd 69 3d af c7 04 3d 11 07 3a 3d
       8.629506e-05 0.057095796 0.032416996 0.045416895
000260 78 b5 be bc 78 ea 4b 3d da 81 2e bd 63 30 c5 bc
       -0.02327989 0.049784154 -0.042604305 -0.024070924
000270 fe 7e 6f 3c 75 3c 8a bd aa 53 03 3d 4c 6c 6a 3c
       0.01461768 -0.067498125 0.03206221 0.014308047
000280 58 a6 4d 3d 6a a4 18 bd 44 80 cf bb b4 71 50 3d
       0.050207466 -0.037266172 -0.006332429 0.050889686
000290 08 05 4f bc e2 73 6f 3d 49 d5 44 3e cd c8 d3 bc
       -0.012635477 0.058460124 0.19221987 -0.025852585
0002a0 b4 16 96 bb f2 c2 8b bc 15 36 8d bc b5 80 9b 3d
       -0.004580343 -0.01706073 -0.017237702 0.07592908
0002b0 28 89 5a 3c 17 68 8d bb 90 e7 08 3c 26 ee 8b bc
       0.013338365 -0.004315387 0.00835599 -0.017081331
0002c0 9c 45 1e 3d ba 90 9d 3b cb 1d 8e 3c f4 fa 84 bc
       0.038640603 0.0048085125 0.01734819 -0.016232945
0002d0 a3 64 6a 3c cf 50 8f 3d 1d 8a 11 3d a4 7f 80 3d
       0.01430622 0.06997835 0.035532106 0.062743455
0002e0 36 ee bb 3d b4 cd 49 3d 13 98 e0 bb e0 d6 02 bc
       0.091762945 0.04926844 -0.006854066 -0.0079858005
0002f0 8b 11 38 3d ca fc b4 3c 47 5f e1 3b e1 a1 34 bc
       0.044938605 0.022093195 0.006877813 -0.011024923
000300 eb c1 8e 3c 20 fe 0f bd 7c 3a 29 bb f9 58 2f 3d
       0.017426452 -0.03515446 -0.0025822213 0.04280946
000310 c3 33 b4 bc 7a 23 9c 3c 06 b2 b9 bc 70 d8 60 3d
       -0.021997338 0.019059885 -0.022667896 0.05489391
000320 ca 8b 0a bd b2 9a 10 3c e3 d6 03 bc 84 e4 51 3c
       -0.03382472 0.008825945 -0.008046838 0.01281083
000330 f0 ec 65 bd 57 bc 50 bc df 29 fc bc 0c df 34 bd
       -0.056134164 -0.012740216 -0.030781684 -0.044158027
000340 49 80 08 3c d9 24 ba 3c 0f 93 24 bd 32 93 43 bd
       0.008331367 0.022722648 -0.04017931 -0.0477478
000350 03 1b 10 3d 41 e0 69 bc f0 05 a4 3c c1 75 86 bc
       0.03518201 -0.014274658 0.020022362 -0.016413571
000360 60 5f 65 3c da 97 bc 3c 7c ac 34 bd 6e 39 ab 3c
       0.01399979 0.023021627 -0.044109806 0.020901408
000370 9d b5 3a bd d5 2d 78 bc 07 52 7a ba 96 34 ff 3c
       -0.045583356 -0.015147646 -0.0009548966 0.031153005
000380 95 df 0c bc 38 90 5d bc 9d b4 bd bc bd 37 32 bd
       -0.008598228 -0.013523154 -0.023157412 -0.043510187
000390 d0 f7 a6 bc 1e f2 de bc 6e 30 29 bd fb 05 26 bd
       -0.020381838 -0.02721506 -0.04130595 -0.040533047
0003a0 c3 3f dc 3c ae d7 36 bd d5 f1 55 bd 4f 49 67 3d
       0.026885873 -0.044639282 -0.052232582 0.056466397
0003b0 76 b5 25 bd 76 16 0f bc 9c 96 12 3c 42 5b 4d bc
       -0.040456258 -0.008733382 0.008947041 -0.012533965
0003c0 7d 28 3f 3d 5f 0b 32 bd b3 a3 fa 3c f7 17 39 3c
       0.046669472 -0.043467876 0.030595636 0.011297218
0003d0 45 4e 53 bc 44 be e2 3b b4 6e 7a 3d 8b 8a ce bb
       -0.012897079 0.006919654 0.06114073 -0.0063031367
0003e0 f0 95 c7 3c 7f ee d9 bb 83 b3 35 3d cb 99 88 bd
       0.024363488 -0.0066507454 0.04436065 -0.06669959
0003f0 84 29 f6 bc 5a bd 46 bb 3a 16 63 bd cc bb 74 bd
       -0.030049093 -0.0030325265 -0.05544112 -0.05974941

bias f4 [9]
000000 53 e0 d4 3d 48 5d 30 3d f6 b0 af 3d 7a e4 68 3d
       0.10394349 0.04305771 0.085786745 0.056858517
000010 da 74 8a 3c 75 f0 d6 3c 7b 9e ca 3c 8e f2 89 3d
       0.016901422 0.026237706 0.024733773 0.06735717
000020 b8 d7 63 3d
       0.055625647
