.processed/5_logs_scale_3_crop_128/epoch_19_model.pth (torch_old, 93458 bytes, 6 tensors)

weight f4 [64, 1, 5, 5]
0	0x3e0bdfb1	0.1365955
1	0x3e1bccb2	0.15214804
2	0xbd7ae59f	-0.06125414
3	0x3e2d38fc	0.16916269
4	0xbd717a73	-0.058954667
5	0x3cf6f7e4	0.0301475
6	0xbdd6cb4c	-0.104879946
7	0x3ddaa3f7	0.10675805
8	0x3e29e81d	0.1659245
9	0xbe214cd9	-0.15751971
10	0x3e2bffa8	0.16796744
11	0x3ce933c8	0.028467074
12	0x3e14f825	0.14547785
13	0x3cad42b3	0.021149969
14	0x3db181b2	0.086673155
15	0xbd188d4e	-0.037244134
16	0x3e1b951d	0.15193601
17	0x3ce3e034	0.02781687
18	0xbdc62985	-0.09675888
19	0x3d2f498a	0.04279474
20	0xbdcdeccd	-0.10054932
21	0xbced2044	-0.02894605
22	0xbdab23a7	-0.083564095
23	0x3e031b7e	0.12803456
24	0xbe2c36f1	-0.16817833
25	0xbdb3af4e	-0.08773671
26	0xbd49105e	-0.049087875
27	0xbdeb087b	-0.11476227
28	0x3cc92a07	0.024556173
29	0xbe426f1b	-0.18987696
30	0x3e3ccc92	0.18437412
31	0xbe2761d9	-0.1634592
32	0x3e23dcb3	0.16002159
33	0x3d17136e	0.036883764
34	0xbd726c8c	-0.05918555
35	0x3e01819a	0.12647095
36	0x3d242fd6	0.040084682
37	0x3e3207fd	0.1738586
38	0x3ce3f817	0.02782826
39	0xbd679d3b	-0.05654643
40	0x3d60be85	0.054869194
41	0xbd45c231	-0.0482809
42	0x3dbc8dcc	0.09206733
43	0x3e3de7a6	0.18545398
44	0x3df3f2f5	0.11911575
45	0xbdb5d1a2	-0.08877875
46	0x3ded2b85	0.11580566
47	0x3d17ea0b	0.037088435
48	0x3dd1260b	0.10212334
49	0xbdf68185	-0.12036423
50	0xbe0e60c1	-0.13904096
51	0xbc9a44fe	-0.018831726
52	0xbde38a6f	-0.111103885
53	0x3e44e62e	0.19228432
54	0x3d813b40	0.06310129
55	0x3dc46839	0.095901914
56	0x3de0eaba	0.109822705
57	0x3d2254f5	0.039631803
58	0x3e63fdd8	0.22264802
59	0xbdfbdc4f	-0.1229788
60	0x3d20269a	0.039099313
61	0xbe163226	-0.14667568
62	0x3e2176bc	0.1576795
63	0xbd0504ae	-0.032475166
64	0x3dc31cb6	0.095269606
65	0xbd36239b	-0.04446755
66	0x3e629f5a	0.221311
67	0xbdc0fa4e	-0.09422742
68	0xbd8743e0	-0.06604743
69	0xbdad881b	-0.08473226
70	0x3e21a7f3	0.15786724
71	0x3d4a791f	0.049431916
72	0x3e718fce	0.23590013
73	0xbe144edf	-0.14483212
74	0xbe15f1ac	-0.14642972
75	0xbdd6fe98	-0.10497779
76	0xbdabedbe	-0.08394955
77	0x3dabbe3d	0.083858944
78	0x3d7477a2	0.059684403
79	0x3df042b2	0.11731471
80	0xbcdc82dc	-0.026917867
81	0xbe066140	-0.13123035
82	0x3e241d34	0.16026765
83	0xbd9cc67c	-0.076550454
84	0x3e01f13d	0.12689681
85	0xbd34d39e	-0.044147126
86	0x3e449c0a	0.19200149
87	0xbe04b64a	-0.12960163
88	0xbd841912	-0.06450094
89	0x3d95007d	0.07275484
90	0x3d9ab57a	0.07554145
91	0xbce949d9	-0.028477596
92	0x3e3d9834	0.18515092
93	0x3e3549b2	0.17703894
94	0xbdf3b954	-0.11900583
95	0xbdbee818	-0.09321612
96	0x3e4ef331	0.20209958
97	0xbd60929c	-0.054827318
98	0xbd3b66c6	-0.04575231
99	0xbe0418a9	-0.12900032
100	0xbc8f6a09	-0.017506616
101	0x3db18f06	0.08669858
102	0x3dba3312	0.09091772
103	0xbe4094de	-0.18806788
104	0x3e058cac	0.13041943
105	0xbdb67750	-0.08909476
106	0xbe50c511	-0.20387675
107	0x3cd0536c	0.025430404
108	0xbf0e4bc6	-0.5558437
109	0xbe1f08b5	-0.15530665
110	0x3e39c451	0.18141295
111	0x3dfeab31	0.12434996
112	0x3ed65798	0.41863704
113	0xbe3017db	-0.171966
114	0x3ced6f72	0.028983805
115	0xbdc0ac37	-0.094078474
116	0x3c9503f9	0.01819037
117	0xbcfd513a	-0.03092252
118	0xbd45a1f1	-0.048250142
119	0x3c3db61c	0.011579063
120	0x3cb73697	0.022364898
121	0xbd84d5fa	-0.06486125
122	0x3dab826c	0.083744854
123	0xbd232f82	-0.03984023
124	0x3c775c09	0.0150976265
125	0xbdc25309	-0.09488494
126	0xbd4f8c72	-0.05067105
127	0xbe0e1011	-0.13873316
128	0x3e28590c	0.16440219
129	0xbd176a2a	-0.03696648
130	0x3e3644b2	0.17799643
131	0x3dadfc78	0.0849542
132	0xbe32a031	-0.1744392
133	0x3e0f6aed	0.14005633
134	0xbd7832d7	-0.06059536
135	0xbd875168	-0.06607324
136	0xbe1d5cdc	-0.15367454
137	0xbe4dde93	-0.20104437
138	0x3d8c8d58	0.06862897
139	0xbd0f1bb8	-0.034938544
140	0x3dc7a63f	0.09748506
141	0xbe1ad95d	-0.1512198
142	0x3e3134a8	0.17305243
143	0xbe12e738	-0.14346015
144	0xbc166c51	-0.009181098
145	0x3d1ced5b	0.038312297
146	0x3ddfa29c	0.10919687
147	0x3e11b3d3	0.14228754
148	0x3e40cdf5	0.18828566
149	0xbe24e6e3	-0.16103701
150	0x3d88d72d	0.066816665
151	0xbd9bdc2b	-0.07610353
152	0x3be82f5f	0.007085725
153	0xbe0d36cd	-0.13790436
154	0x3e286d54	0.16447955
155	0xbe09479e	-0.13406226
156	0x3dd27394	0.10275951
157	0x3dd182a2	0.10229994
158	0x3d0becda	0.034161426
159	0xbe0caef1	-0.1373861
160	0x3e3bd007	0.18341075
161	0x3d0d7f3f	0.03454518
162	0x3db7a7f7	0.089675836
163	0xbe588178	-0.21143138
164	0x3dabef5c	0.083952636
165	0xbc8ee40a	-0.017442722
166	0xbddca6a5	-0.107739724
167	0x3e5813c9	0.21101297
168	0x3c9beae9	0.019032912
169	0xbdf03141	-0.117281444
170	0xbd875deb	-0.0660971
171	0xbca65297	-0.020303054
172	0x3dec31db	0.11532947
173	0xbd7c3eda	-0.061583377
174	0xbdc2e4ab	-0.09516271
175	0xbd901a2f	-0.07036244
176	0xbe198a06	-0.14994058
177	0x3d940b6f	0.07228743
178	0x3e1e4f71	0.15459992
179	0xbe4309cb	-0.19046704
180	0x3d36ad59	0.04459891
181	0x3dd6eb40	0.10494089
182	0x3d164a1c	0.03669177
183	0xbd8bd51d	-0.068277575
184	0x3dd33a06	0.103138015
185	0x3dd1d95d	0.10246537
186	0x3da17603	0.07883837
187	0xbcdd29a0	-0.026997387
188	0xbd570789	-0.05249742
189	0x3cab2532	0.02089176
190	0xbd1db794	-0.038505152
191	0xbd77d78e	-0.060508303
192	0x3e042105	0.12903221
193	0x3e31d0cc	0.17364806
194	0xbcb153da	-0.021646429
195	0xbd591825	-0.05300154
196	0xba155aa7	-0.0005697407
197	0xbc5ed87b	-0.013601418
198	0x3d3a744b	0.045521062
199	0x3d55c21d	0.052187074
200	0xbdff1430	-0.12455022
201	0xbcbbb0c0	-0.02291143
202	0x3e568696	0.20949778
203	0x3dbd09fa	0.092304185
204	0x3becd542	0.0072275707
205	0xbd808c9c	-0.06276819
206	0xbd95ac72	-0.07308282
207	0xbe1ac72b	-0.15115039
208	0xbcbbb7a5	-0.022914717
209	0x3dd7ca51	0.10536636
210	0x3e1afb43	0.15134911
211	0x3e1d198b	0.15341775
212	0xbe2accb6	-0.16679654
213	0xbdc5a29d	-0.09650157
214	0x3bd4d3c4	0.006494971
215	0x3e5e020a	0.21680465
216	0x3d83b626	0.064312264
217	0xbca5a5cc	-0.02022066
218	0x3df34117	0.11877649
219	0xbd202c3d	-0.03910469
220	0xbdd405fd	-0.10352705
221	0x3e351220	0.17682695
222	0xbd78aea7	-0.060713436
223	0xbc82a730	-0.015948862
224	0xbe1f957b	-0.15584366
225	0x3def01fc	0.116703
226	0x3e0064f0	0.12538505
227	0x3da3a8ce	0.07991181
228	0xbe1d4ebf	-0.1536207
229	0xbe27cbba	-0.1638631
230	0xbe255573	-0.16145878
231	0x3e258103	0.16162495
232	0x3df7b4dc	0.12095043
233	0x3e66f8c3	0.22555833
234	0x3de56845	0.112015285
235	0x3cb1724e	0.02166095
236	0x3d1d5e96	0.038420282
237	0xbe3ecac2	-0.18632033
238	0xbe17a644	-0.14809519
239	0xbe283c71	-0.16429307
240	0x3dd38586	0.10328202
241	0xbdedf1f4	-0.116184145
242	0x3d3bba65	0.045832057
243	0xbdf6babc	-0.120473355
244	0x3bcbc3e5	0.006218421
245	0xbdacd2e9	-0.084386654
246	0xbda8620b	-0.08221825
247	0x3d99d4ba	0.075112775
248	0xbb9b3d8f	-0.004737563
249	0x3e1fc488	0.15602314
250	0xbd2f1fda	-0.042754985
251	0xbe059958	-0.13046777
252	0xbc88e607	-0.016711248
253	0xbdb24acb	-0.08705672
254	0xbd649328	-0.0558044
255	0xbe40d774	-0.18832189

bias f4 [64]
0	0xbe362c35	-0.17790301
1	0x3dccdee2	0.10003449
2	0xbc1ebb99	-0.009688281
3	0x3c9aa153	0.018875754
4	0x3c3d7076	0.011562457
5	0x3e1d6252	0.15369537
6	0xbd90d47e	-0.0707178
7	0x3d53e7ab	0.051734608
8	0x3d9000ff	0.0703144
9	0x3e0b2c34	0.13591081
10	0x3cd21f29	0.025649624
11	0x3d9a5348	0.07535416
12	0xbde98a7a	-0.114033654
13	0xbe0e515a	-0.1389822
14	0x3e2cde22	0.16881612
15	0xbe157c68	-0.14598238
16	0x3ccce242	0.025010232
17	0xbc989ad5	-0.018628517
18	0x3e436cf4	0.19084531
19	0xbd1004fc	-0.035161003
20	0xbde1c92a	-0.11024697
21	0xbd6cafdd	-0.057784904
22	0x3e23d08d	0.15997525
23	0x3de66977	0.112505846
24	0x3e213daa	0.15746179
25	0x3df28833	0.11842384
26	0x3d9e6de4	0.07735804
27	0xbe6296c9	-0.22127832
28	0x3da03994	0.07823482
29	0x3db43036	0.08798258
30	0x3dde0761	0.10841251
31	0xbd743b99	-0.05962715
32	0xbd4b1974	-0.04958482
33	0x3d553fb7	0.052062716
34	0xbe068b14	-0.13138992
35	0xbe15228b	-0.14563958
36	0xbe47fc2f	-0.19529794
37	0x3d5f03d0	0.054446995
38	0x3df1e8d9	0.1181199
39	0x3d44593c	0.047936663
40	0x3d8aa958	0.06770581
41	0x3d9dec2c	0.07711062
42	0xbde6ea4e	-0.11275159
43	0xb9b8f92e	-0.00035280868
44	0xbd1bfeb8	-0.038084716
45	0xbd5978a8	-0.053093582
46	0x3e25e846	0.16201887
47	0x3d1476ed	0.03624623
48	0x3cba97df	0.022777496
49	0xbe3484c0	-0.17628765
50	0x3c8e765f	0.017390428
51	0xbda8400d	-0.08215342
52	0x3d914032	0.070923224
53	0xbd924ebc	-0.07143924
54	0x3e00d75e	0.12582156
55	0xbe008631	-0.1255119
56	0x3e0c8c0b	0.13725297
57	0xbde3053f	-0.11084985
58	0x3dc72270	0.09723365
59	0x3c0266df	0.007959097
60	0xbc4c7bb5	-0.012480666
61	0xbce0b434	-0.027429678
62	0x3df26462	0.11835553
63	0x3d43a686	0.04776623

weight f4 [32, 64, 3, 3]
0	0xbd0d75df	-0.03453624
1	0x3c0bf70d	0.008542788
2	0xbc5fddb6	-0.0136637
3	0x3d0ae1f7	0.033906903
4	0x3c8c9f2f	0.017165748
5	0x3b7815f4	0.0037854882
6	0xbc7eb7df	-0.015546768
7	0x3cf84f6c	0.030311309
8	0xbc6c3291	-0.014416353
9	0x3d0683b6	0.032840453
10	0x3d1d82ce	0.038454823
11	0x3d2f332f	0.04277342
12	0x3ce8b80b	0.028408071
13	0xbc9d0861	-0.019169034
14	0x3d4cf3e8	0.050037295
15	0xbb9dde5c	-0.004817767
16	0x3aa06fda	0.0012240366
17	0x3b9bba70	0.0047524497
18	0xbcd2aea6	-0.025718044
19	0x3cfd4cd9	0.030920433
20	0x3d1acbd6	0.03779205
21	0xbcc0744f	-0.02349296
22	0x3b8c5f40	0.0042838156
23	0x3cf14212	0.02945045
24	0xbd6b21d7	-0.05740532
25	0x3d79a46f	0.06094783
26	0xbd897b67	-0.0671299
27	0xbcb450ea	-0.02201124
28	0x3d6c1baa	0.05764357
29	0x3d56c567	0.05243435
30	0x3b8a2d80	0.00421685
31	0xbc5c6c44	-0.013453547
32	0x3c305bb6	0.010764053
33	0x3cf3fdff	0.0297842
34	0xbcf82ed9	-0.030295776
35	0xbd210011	-0.039306704
36	0x3c9afa10	0.018918067
37	0xbcdfebb5	-0.027334074
38	0x3dc86e82	0.09786703
39	0x3d4948b3	0.049141597
40	0x3c734a63	0.014849278
41	0x3dbcf3af	0.092261665
42	0x3d618d4b	0.055066388
43	0xbe195420	-0.14973497
44	0xbdea1008	-0.11428839
45	0x3d2af807	0.041740444
46	0x3d051ddf	0.03249919
47	0x3cdbf1eb	0.026848754
48	0xbc8ec01b	-0.017425587
49	0x3cb27542	0.021784429
50	0xba3fc73a	-0.0007315759
51	0xbc9dc1e1	-0.019257488
52	0xbbd8e7da	-0.0066194357
53	0xbcf1d617	-0.029521031
54	0xbd333e31	-0.043760482
55	0xbd21b60a	-0.039480247
56	0x3cb86cf0	0.022512883
57	0x3b4a38b3	0.003085655
58	0xbd1fbf5b	-0.03900085
59	0xbcc6d9be	-0.02427375
60	0xbd86b3e3	-0.065772794
61	0xbc3df2ad	-0.011593503
62	0x3d16cbd2	0.036815472
63	0xbc69026e	-0.014221771
64	0x3c90d976	0.017681818
65	0xbc1a0b5b	-0.009402121
66	0xbb99ecbe	-0.0046974113
67	0x3d4ea3ec	0.050449297
68	0x3d08b36c	0.033374235
69	0xbbb28b6d	-0.0054487498
70	0x3c85d6ab	0.016337713
71	0x3cb7e8a8	0.022449806
72	0x3c8c5090	0.017128259
73	0xbb9bfa32	-0.00476005
74	0xbb49680d	-0.0030732185
75	0x3d1fce08	0.039014846
76	0xbc9b14a1	-0.018930735
77	0xbbcc906d	-0.006242803
78	0xbc5fb437	-0.013653806
79	0xbd02e500	-0.031956673
80	0x3d511862	0.051048644
81	0xbc41398b	-0.0117935045
82	0xbc9b7720	-0.018977702
83	0x3cebb25b	0.02877157
84	0xbd19b43c	-0.0375254
85	0xbb476a9f	-0.0030428541
86	0x3d08d7f5	0.033409078
87	0x3b45f08b	0.003020319
88	0xbd1c9854	-0.03823121
89	0x3d720519	0.059086893
90	0x3d11b35c	0.03557144
91	0xbce264d1	-0.027635964
92	0x3d27887b	0.040901642
93	0xbc46f295	-0.012142797
94	0x3d40090d	0.04688363
95	0x3d16e98a	0.036843814
96	0xbc9846be	-0.01858842
97	0xbcfbb6da	-0.030726839
98	0xbd129cbf	-0.035794016
99	0xbe334dc9	-0.17510141
100	0xbe4f166c	-0.20223397
101	0xbced483e	-0.028965112
102	0x3dc07ba8	0.093985856
103	0xbd8257be	-0.06364392
104	0xbd446a3f	-0.047952887
105	0xbd8bf11f	-0.068330996
106	0xbcb0064c	-0.021487378
107	0xbc794dc3	-0.015216294
108	0xbcdd7544	-0.027033456
109	0x3c877768	0.01653643
110	0x3d415138	0.047196597
111	0x3c4566b5	0.012048413
112	0x3b45ecc1	0.003020093
113	0xbc7e5454	-0.015523035
114	0xbca3c714	-0.019992389
115	0xbd1841d4	-0.037172154
116	0x3d07b80a	0.033134498
117	0xbbde7408	-0.0067887343
118	0xbd16c4b7	-0.036808696
119	0x3b927738	0.0044697784
120	0x3b4628d0	0.0030236728
121	0xbba8af60	-0.0051478595
122	0x3c745ebc	0.014915165
123	0x3cb78fde	0.022407468
124	0xbd207f26	-0.03918376
125	0xbd02bf0f	-0.03192049
126	0xbbc993a4	-0.0061516333
127	0xbd5e82e7	-0.054324057
128	0xbcf371b3	-0.029717302
129	0x3d2413fb	0.040058117
130	0xbc1e9e4f	-0.009681298
131	0xbcdda93b	-0.027058234
132	0xbca64132	-0.02029476
133	0xbd25c2c4	-0.040468946
134	0x3cce45be	0.02517974
135	0xbc93fe91	-0.018065723
136	0x3cb1fa9b	0.021725943
137	0xbd2ace29	-0.041700516
138	0x3ce4e73e	0.027942296
139	0x3bc26e1e	0.005933537
140	0xbc653c2c	-0.013991397
141	0xbc02158d	-0.007939708
142	0xbbfe5f0f	-0.0077627967
143	0x3b183c82	0.0023229425
144	0x3daa874e	0.083265886
145	0xbc474f56	-0.012164911
146	0xbb27f304	-0.0025627026
147	0x3bd16345	0.0063900077
148	0x3c934532	0.01797733
149	0x3cab7c53	0.020933306
150	0x3ce72b0c	0.028218769
151	0x3d8aec9f	0.06783413
152	0xbd8579d3	-0.06517377
153	0x3b593ca6	0.0033147722
154	0xbc491de9	-0.012275198
155	0x3d061c82	0.03274203
156	0xbcd6fc26	-0.02624328
157	0x3caf0e5b	0.02136915
158	0x3c02e115	0.007988234
159	0x3c6320c8	0.013862796
160	0x3c4d2f42	0.012523474
161	0xbcf811a5	-0.030281851
162	0x3d22aca4	0.039715424
163	0xbcc61746	-0.02418102
164	0xbbe440fb	-0.006965754
165	0x3d3a197e	0.045434467
166	0x3cb5bcb9	0.022184717
167	0x3bb7c691	0.0056083878
168	0xbb80ba72	-0.003928476
169	0xbc9b049b	-0.018923094
170	0x3cecff57	0.02893035
171	0x3bbbc100	0.0057297945
172	0x3c8d021a	0.017212916
173	0x3c82bc82	0.015959028
174	0x3d2f6a25	0.042825837
175	0xbbceec52	-0.0063147927
176	0xbbf7d6a8	-0.007563431
177	0x3d022c0d	0.03178029
178	0x3c7c8f34	0.015415002
179	0xbcdd22b2	-0.026994083
180	0xbc009433	-0.007847833
181	0x3c44ca4b	0.012011121
182	0x3d071b3d	0.03298496
183	0x3c7026c4	0.01465768
184	0x3cc80c6b	0.024419984
185	0xbd347b67	-0.044063
186	0x3c9ee04f	0.019394068
187	0xbc6bb49a	-0.0143863205
188	0x3bed2de4	0.0072381366
189	0x3d48821e	0.048952214
190	0x3ca9529b	0.020669272
191	0x3d0f3699	0.034964178
192	0xbc48b5c2	-0.012250366
193	0xbcdef7c9	-0.027217763
194	0xbd154ee5	-0.036452193
195	0x3d0fda2e	0.03512018
196	0x3c918eab	0.017768225
197	0xbd1a7237	-0.03770658
198	0xbc698b24	-0.014254365
199	0xbd39b9a3	-0.045343053
200	0xbdd96740	-0.106153965
201	0x3d0263ef	0.031833585
202	0x3d099cc2	0.03359676
203	0x3d057442	0.032581575
204	0x3c5e60a9	0.01357285
205	0x3d3128d2	0.04325182
206	0x3cf00137	0.029297454
207	0x3cb83cb1	0.022489877
208	0xbb7d0cc4	-0.0038612345
209	0xbc47999f	-0.012182622
210	0xbd5797f2	-0.05263514
211	0x3b0afac8	0.0021206606
212	0x3c0f9ba2	0.008765133
213	0x3d11c802	0.035591133
214	0xbb0365cc	-0.002004969
215	0xbb6953cf	-0.0035602932
216	0xbd1d2ab0	-0.038370788
217	0xbd6ef01c	-0.058334455
218	0x3ba335c3	0.004980774
219	0x3d193844	0.037407175
220	0xbb1aaaea	-0.0023600408
221	0xbc397375	-0.011319031
222	0xbb08b1d2	-0.0020857942
223	0x3c2b15f5	0.010442247
224	0x3c0b92f2	0.008518921
225	0xbd292188	-0.041291744
226	0x3d0787e3	0.033088576
227	0x3d0127c8	0.03153208
228	0xbd397e57	-0.045286503
229	0x3d17d1e1	0.03706539
230	0xbd199727	-0.037497666
231	0xbc9df07c	-0.019279711
232	0xbc85756d	-0.016291345
233	0xbd55133a	-0.05202029
234	0x3d30a06e	0.043121748
235	0xbc4bf044	-0.0124474205
236	0x3cc07b38	0.023496255
237	0xbcc9a049	-0.024612563
238	0xbc7132e0	-0.014721602
239	0x3ba06fde	0.004896148
240	0x3d274b37	0.040843215
241	0x3c969222	0.018380228
242	0xbcf55ebd	-0.029952401
243	0x3c4af09c	0.012386467
244	0xbc9c4877	-0.019077523
245	0x3c1b170b	0.009465943
246	0xbce59f78	-0.028030142
247	0xbb53790a	-0.003226819
248	0x3cd3bca3	0.025846785
249	0xbd1649e2	-0.036691554
250	0xbd3522f1	-0.044222776
251	0x3b5159a3	0.0031944297
252	0x3ba4b88c	0.0050268825
253	0xbcc27143	-0.023735648
254	0x3d3dc78d	0.046332885
255	0xbcea3a03	-0.028592115

bias f4 [32]
0	0x3d251ed3	0.0403126
1	0x3c0259f7	0.00795602
2	0xbd023306	-0.03178694
3	0x3c8e9d5d	0.017409021
4	0xbcd42f42	-0.02590144
5	0x3c9ae209	0.01890661
6	0x3d13147d	0.03590821
7	0xbd2664f2	-0.040623613
8	0xbb99ff97	-0.004699658
9	0xbc38d96b	-0.011282305
10	0x3cc0047a	0.023439635
11	0xbca467d9	-0.02006905
12	0xbc80d70f	-0.015727548
13	0xbcb01c1e	-0.021497782
14	0xbc7485aa	-0.014924446
15	0xbc1536aa	-0.009107271
16	0x3cc66d13	0.024221933
17	0xbcf92566	-0.03041334
18	0xbba9d24e	-0.005182541
19	0xbc3aa2b1	-0.011391328
20	0x3d0e97ba	0.034812666
21	0xbc7ccbc3	-0.01542944
22	0xbd274680	-0.04083872
23	0xbc7fdcc5	-0.0156166
24	0xbd321d1a	-0.043484785
25	0xbcbf41cf	-0.02334681
26	0xba8bcada	-0.0010665313
27	0xbcccc401	-0.024995806
28	0xbbe1343e	-0.006872683
29	0x3d097455	0.03355821
30	0x3d47dc6a	0.048794188
31	0x3ceb53c2	0.028726462

weight f4 [9, 32, 3, 3]
0	0x3d59c72b	0.053168457
1	0x3d5a35fc	0.05327414
2	0xbc6abdd0	-0.014327481
3	0xbcae1c75	-0.021253804
4	0x3b5133ba	0.00319217
5	0x3cd57ea9	0.026061373
6	0x3c72f776	0.014829507
7	0xbce74724	-0.028232165
8	0x3d84b87e	0.064805016
9	0xbd0896e2	-0.033347018
10	0xbc0b2771	-0.00849329
11	0xbc95020f	-0.018189458
12	0x3dc2b549	0.09507234
13	0xbbc80ca8	-0.0061050244
14	0xbce784cf	-0.02826157
15	0xbcab0186	-0.02087475
16	0x3d19e0e4	0.037567988
17	0xbc25546e	-0.01009093
18	0x3d17d7c7	0.037071016
19	0xbc9e200e	-0.019302394
20	0x3cbff709	0.023433225
21	0xbd46928a	-0.048479594
22	0xbcf755fd	-0.03019237
23	0x3d6b53a4	0.057452813
24	0x3d567fe4	0.05236806
25	0xbd371299	-0.04469547
26	0xbce9e09d	-0.028549487
27	0xbd7b08be	-0.061287634
28	0x3c7c4d8c	0.015399348
29	0xbc38e1ea	-0.011284331
30	0x3bf50bff	0.0074782367
31	0x3d1de1e0	0.03854549
32	0x3d147787	0.036246803
33	0x3ac28947	0.0014841937
34	0x3c9b2a69	0.018941121
35	0xbd1e4fd1	-0.038650338
36	0x3ce31313	0.027719056
37	0xbe072921	-0.13199283
38	0x3c88daa1	0.016705813
39	0x3d5e0d09	0.05421165
40	0x3d44b6b0	0.048025787
41	0x3d6d2786	0.05789902
42	0xbc7a082e	-0.015260739
43	0xbdd62947	-0.10457092
44	0x3c9197a0	0.017772496
45	0xbd0d0ba9	-0.034434948
46	0x3cfce801	0.030872347
47	0xbcf7eb16	-0.030263465
48	0x3d496e9a	0.049177743
49	0x3cc9b3cc	0.024621867
50	0xbd059264	-0.032610312
51	0x3be8fe7e	0.007110416
52	0x3d0c2c6a	0.034222044
53	0x3d9cfb6c	0.076651424
54	0xbcf00401	-0.029298784
55	0xbd56ac34	-0.05241032
56	0xbcc5741f	-0.024103222
57	0xbc8c72b0	-0.017144531
58	0x3ca9e6d0	0.020739943
59	0xbc1c0dea	-0.009524802
60	0x3d27bde7	0.04095259
61	0xbd592742	-0.053015955
62	0xbd868582	-0.06568433
63	0x3bf294d8	0.0074029975
64	0x3d17c3d1	0.03705198
65	0x3d61d0cb	0.05513076
66	0x3c0d19d8	0.008612119
67	0x3a808a8a	0.0009806913
68	0x3d0e696e	0.034768514
69	0x3d2ab7c0	0.041679144
70	0xbd463958	-0.04839453
71	0xbcbefc46	-0.023313653
72	0x3d15f1fd	0.03660773
73	0xbc476a73	-0.012171376
74	0xbd3501bb	-0.044191103
75	0xbd1cb51f	-0.038258668
76	0xbc64b283	-0.013958576
77	0x3b913db4	0.0044324044
78	0x3b0ba9ee	0.0021311003
79	0xbd2b699f	-0.041848775
80	0x3d8044b0	0.06263101
81	0x3aad24da	0.0013209835
82	0x3d71ef77	0.059066262
83	0xbc65f982	-0.014036538
84	0x3d3e0aaa	0.04639689
85	0x3d04978f	0.0323711
86	0xbd4241a9	-0.0474259
87	0x3d11639f	0.035495397
88	0x3d21ffaa	0.03955046
89	0xbd244b68	-0.040110976
90	0x3d7ae12d	0.0612499
91	0x3a31336d	0.0006759677
92	0xbc33d91c	-0.010977056
93	0xbb8bb609	-0.0042636436
94	0xbce1f9e5	-0.02758498
95	0x3d81f637	0.0634579
96	0xbc2b0d45	-0.010440175
97	0xbcd0287d	-0.025409931
98	0x3d8746da	0.06605311
99	0xbd9cc22e	-0.07654224
100	0xbd2eb21f	-0.04265034
101	0x3c9a7f42	0.01885951
102	0x3d0efb7c	0.034907803
103	0xbc745f19	-0.014915251
104	0xbc6aea52	-0.014338093
105	0xbcf63c07	-0.03005792
106	0x3d6ab058	0.05729708
107	0x3c931ebd	0.017958993
108	0xbd21083c	-0.039314494
109	0xbca791b0	-0.020455211
110	0xbd312511	-0.04324824
111	0x3ce7fbb6	0.028318267
112	0xbcc4f0cc	-0.024040602
113	0x3c109c31	0.008826301
114	0x3d366749	0.044532094
115	0x3d3ce842	0.046119936
116	0xbd5e0fc6	-0.05421426
117	0x3d034be0	0.032054782
118	0x3d848f94	0.06472698
119	0x3d3a1342	0.045428522
120	0x3c53b714	0.012922067
121	0x3c2de292	0.010613101
122	0xbcaccfa3	-0.021095103
123	0xbce69a0e	-0.02814963
124	0xbce19879	-0.027538525
125	0xbb38c39e	-0.0028192769
126	0x3d7e5c93	0.062100004
127	0x3d232c3a	0.0398371
128	0x3cf278bb	0.029598584
129	0xbd09ab8c	-0.033610865
130	0x3c113521	0.008862765
131	0xbd0325b7	-0.03201839
132	0xbce6afe4	-0.028160043
133	0xb9c9a21f	-0.00038458497
134	0x3bed1190	0.0072347596
135	0x3ca66cbb	0.020315519
136	0x3d11ac4f	0.035564717
137	0x3c203ee5	0.00978062
138	0x3d1c19ea	0.03811065
139	0x3c7059e8	0.014669873
140	0xbd50eacf	-0.05100518
141	0x3c0a40bf	0.008438288
142	0x3c8fe378	0.01756452
143	0xbccd8879	-0.02508949
144	0x3be83b72	0.0070871646
145	0x3d2e9d82	0.04263068
146	0xbcfe2b24	-0.03102643
147	0x3d07e086	0.033173107
148	0xbce62f5e	-0.028098758
149	0x3d29bc39	0.04143927
150	0x3cd0d204	0.025490768
151	0x3d098bbd	0.03358053
152	0xbce3b840	-0.027797818
153	0x3c3fb60b	0.011701117
154	0xbd42387a	-0.04741714
155	0xbcdbde76	-0.026839476
156	0x3c550389	0.013001331
157	0xbd38a957	-0.04508337
158	0x3ccf3ddc	0.025298052
159	0x3cc6050a	0.024172325
160	0x3d9b347d	0.07578371
161	0xbd2a8745	-0.04163291
162	0x3bbcd1f0	0.005762331
163	0x3d19a6eb	0.0375127
164	0x3d1d0d98	0.038343042
165	0x3bc1e7c3	0.0059175207
166	0x3da6d4be	0.08146046
167	0x3ccc31d8	0.024926111
168	0x3c1e66f4	0.009668101
169	0xbcac4296	-0.021027844
170	0xbd2574b9	-0.04039452
171	0x3d6156aa	0.05501429
172	0x3bf9e4a3	0.0076261326
173	0xbc476692	-0.012170451
174	0xbb8cb1b9	-0.004293647
175	0xbc6f2b58	-0.014597736
176	0x3d19ef2f	0.03758162
177	0x3c910a98	0.017705247
178	0x3c99f66f	0.018794267
179	0xbba7fb34	-0.0051263813
180	0x3cacdc31	0.02110109
181	0x3d6c4a7f	0.057688233
182	0x3d0d8e81	0.03455973
183	0x3d463673	0.04839177
184	0x3cf6eafc	0.030141346
185	0x3d1c7724	0.03819956
186	0xbc6ef9df	-0.014585941
187	0xbce46491	-0.027879985
188	0x3d21415c	0.039368972
189	0x3b11080f	0.0022130047
190	0x3a0c6abd	0.00053564814
191	0x3c41f934	0.0118392
192	0x3cd5bcdc	0.026091032
193	0xbb39989e	-0.0028319727
194	0x3c98b657	0.018641634
195	0x3d4c327b	0.04985283
196	0xbb18635f	-0.002325259
197	0xbc0694c7	-0.008214182
198	0xbcaf4778	-0.021396384
199	0x3d3106a0	0.04321921
200	0xbc25fc30	-0.010130927
201	0x3ca05f01	0.019576551
202	0xbd0cabf2	-0.034343667
203	0x3cc776b4	0.024348594
204	0xbd1d72de	-0.038439624
205	0x3c7c39ae	0.015394611
206	0xbce83546	-0.028345715
207	0xbd373c32	-0.04473514
208	0x3c4bceef	0.0124394735
209	0x3ce70943	0.028202659
210	0xbd014c83	-0.031567108
211	0xbcb86172	-0.022507403
212	0x3d48734e	0.048938088
213	0xbaebc9e9	-0.0017989251
214	0x3d3ca96c	0.04606001
215	0xbcb86027	-0.022506787
216	0xbbf07a4c	-0.0073387977
217	0x3d2075b8	0.039174765
218	0xbd315536	-0.043294154
219	0x3cd360db	0.02580302
220	0xbce5760a	-0.028010387
221	0xbca5ee90	-0.020255357
222	0x3ca52f94	0.020164289
223	0x3d2e1ef2	0.04250998
224	0xbcb52197	-0.022110743
225	0x3c4614c1	0.012089909
226	0xbb1152c4	-0.0022174576
227	0xbd0f4b25	-0.034983773
228	0xbb2aca4d	-0.0026060522
229	0x3c538205	0.012909417
230	0xbcabdf7b	-0.020980587
231	0xbcbbb37d	-0.022912735
232	0x3d5f1826	0.05446639
233	0xbcedb572	-0.029017184
234	0xbc953b5a	-0.018216778
235	0x3e0338e8	0.12814677
236	0xbda4de19	-0.08050174
237	0x3d90c228	0.07068282
238	0x3e18b87b	0.14914124
239	0xbd290e36	-0.04127332
240	0xbdc99ad9	-0.09843988
241	0xbda5b678	-0.08091444
242	0xbb43e0cb	-0.0029888626
243	0x3bfd94f3	0.0077387034
244	0xbce16fd7	-0.02751915
245	0x3c9a2766	0.018817615
246	0x3d06982b	0.032859962
247	0xbce0cd4d	-0.027441645
248	0x3d330066	0.04370155
249	0xbc6ce832	-0.014459657
250	0x3d0d83e4	0.03454961
251	0xbd5bf951	-0.053704564
252	0xbcf02c04	-0.029317863
253	0x3c8b6c10	0.017019302
254	0xbd10ef8e	-0.035384707
255	0xbd3f0946	-0.046639703

bias f4 [9]
0	0x3d022e2d	0.031782318
1	0x3c067eb1	0.0082089165
2	0x3cd1b9c9	0.025601285
3	0x3c9ac717	0.018893762
4	0xbbd85dea	-0.0066029923
5	0x3c1049c7	0.008806652
6	0xbb897638	-0.004195001
7	0x3bd9fcc9	0.006652449
8	0x3bc7b302	0.0060943374
