.processed/5_logs_scale_3_crop_128/epoch_13_model.pth (torch_old, 93448 bytes, 6 tensors)

weight f4 [64, 1, 5, 5]
000000 f2 ce 0d 3e 93 97 1d 3e 1b f9 72 bd 46 5a 2f 3e
       0.13848475 0.15389852 -0.059319597 0.1712428
000010 5b c8 69 bd 6d d3 fa 3c dd 71 d7 bd 9c 7d db 3d
       -0.05707584 0.030618394 -0.105197646 0.107173175
000020 29 bb 2a 3e 22 64 20 be 08 28 2c 3e 5c b9 e9 3c
       0.16672958 -0.15663198 0.16812146 0.028530769
000030 b0 f4 14 3e 51 2c ae 3c 22 bc b3 3d 30 f2 17 bd
       0.14546466 0.021261366 0.08776118 -0.037096202
000040 6c ca 1a 3e ab 45 e0 3c c1 d3 c6 bd c0 eb 35 3d
       0.1511628 0.02737697 -0.097083576 0.04441428
000050 fb b5 cd bd 5c 93 ed bc 02 16 ad bd 87 a6 03 3e
       -0.10044476 -0.02900093 -0.08451463 0.12856494
000060 26 b8 2b be 6d 0c b5 bd f8 51 4c bd 84 30 ec bd
       -0.16769466 -0.08840261 -0.04988286 -0.11532691
000070 77 30 c0 3c 6a 64 44 be 2b d0 3c 3e 78 cc 27 be
       0.02346061 -0.1917893 0.18438785 -0.16386592
000080 b3 c1 23 3e ab ca 15 3d a8 2a 77 bd b5 ed 01 3e
       0.15991859 0.036570232 -0.060343415 0.12688334
000090 23 eb 23 3d 69 6c 31 3e 73 64 e3 3c 3b 03 6b bd
       0.040019166 0.17326511 0.027757859 -0.057376128
0000a0 80 86 63 3d c2 c8 45 bd e0 0e bc 3d 7c a7 3d 3e
       0.05554819 -0.04828716 0.09182525 0.18520921
0000b0 a5 94 f3 3d 89 fe b3 bd 5b 1b ee 3d 57 85 1a 3d
       0.11893586 -0.08788783 0.116263114 0.03772482
0000c0 42 e1 d1 3d 33 24 f7 bd b5 96 26 be 9b e1 0a bd
       0.10248043 -0.12067451 -0.16268428 -0.03390656
0000d0 4e 70 fd bd 3a 43 42 3e 74 a8 78 3d 82 9e bd 3d
       -0.12374936 0.18970957 0.060707524 0.092587486
0000e0 c6 b8 c3 3d cb f7 17 3d 33 8e 5d 3e 33 ba 0b be
       0.09556727 0.03710155 0.21636276 -0.13645248
0000f0 d9 ad f8 3c d8 6f 14 be 7e b6 15 3e c7 5f 1a bd
       0.030356335 -0.1449579 0.14620396 -0.037688997
000100 df e1 96 3d 24 ff 40 bd fc bb 5c 3e f9 05 c1 bd
       0.073673 -0.04711832 0.21556085 -0.09424967
000110 8f 60 b1 bd c8 ba d4 bd 1f db 26 3e e7 de 5d 3d
       -0.08660995 -0.10387188 0.16294526 0.054167654
000120 ab 88 6c 3e 23 3b 20 be e1 67 31 be 32 e7 ee bd
       0.2309901 -0.15647559 -0.17324783 -0.11665191
000130 47 cb c4 bd cc 9e ad 3d 45 97 7c 3d 8d 1f 01 3e
       -0.096090846 0.08477554 0.0616677 0.12609692
000140 0d 25 3a bd b6 8f 08 be 2a 09 1c 3e ac 6e 9f bd
       -0.04544549 -0.13336071 0.15237871 -0.07784781
000150 0b 6c 02 3e f1 bb 43 bd b6 05 3d 3e 2b 41 06 be
       0.12736528 -0.047786657 0.1845921 -0.13110797
000160 f8 e5 93 bd c7 95 96 3d b1 07 91 3d 95 3c e2 bc
       -0.072215974 0.073527865 0.07081545 -0.027616778
000170 89 5a 39 3e ae 80 33 3e a9 fb 00 be ab 4f c6 bd
       0.18100943 0.17529556 -0.12596 -0.09683164
000180 57 95 4e 3e a3 bb 68 bd 97 2e 61 bd f4 3b 10 be
       0.20174156 -0.05681957 -0.054976072 -0.1408537
000190 0e c2 23 bd 14 cb 82 3d 6a 17 7a 3d 4a af 4e be
       -0.039979987 0.0638639 0.061057486 -0.20184055
0001a0 b0 80 c7 3d 7c bc d4 bd 0e 00 52 be 3e 0a be 3c
       0.09741342 -0.10387513 -0.20507833 0.023198243
0001b0 ca 59 d5 be fc 25 19 be 13 aa 5b 3e de 5a 12 3e
       -0.41670066 -0.14955896 0.21451597 0.14292476
0001c0 b8 78 c6 3e a6 d0 16 be 25 f0 73 3c 99 30 c3 bd
       0.38763976 -0.1472803 0.014888798 -0.09530754
0001d0 a1 03 20 3d 65 82 b8 bc a2 fb 8e bd 0b e4 ad bc
       0.03906596 -0.022523114 -0.06981589 -0.021226903
0001e0 f8 20 34 3c 3a 19 84 bd f4 bd bd 3d f2 b5 5f bd
       0.0109941885 -0.06450124 0.09264746 -0.054616876
0001f0 78 fe 04 3c 7e a9 cd bd 55 e9 6e bd 50 3f 13 be
       0.008117311 -0.10042094 -0.05832799 -0.1437962
000200 dd 06 29 3e ae b0 1e bd db 66 33 3e 78 e0 a1 3d
       0.16506524 -0.038742714 0.17519705 0.07904142
000210 97 f5 33 be 44 5c 10 3e 39 3b 74 bd 78 4b 8b bd
       -0.17574154 0.14097697 -0.05962679 -0.06801504
000220 ab f7 22 be e6 67 4c be 29 ba 89 3d 1b 55 26 bd
       -0.1591479 -0.19961509 0.0672496 -0.040608507
000230 6c 0e bb 3d 21 22 24 be 75 06 2a 3e ac 16 18 be
       0.0913361 -0.16028644 0.16604026 -0.14852399
000240 b4 45 89 bc 96 e1 1e 3d da 67 db 3d 88 8e 15 3e
       -0.01675687 0.038789354 0.107131675 0.14605153
000250 f3 25 3f 3e 1c be 28 be 12 67 81 3d 36 32 a3 bd
       0.1866682 -0.16478771 0.06318487 -0.07968561
000260 ab 8e 08 bc 04 33 1a be 30 21 2a 3e c3 21 0c be
       -0.008334796 -0.15058523 0.16614223 -0.13684754
000270 79 cf dd 3d ce 9c b5 3d dc fd 44 3d 7c 58 05 be
       0.10830588 0.08867799 0.04809366 -0.13022035
000280 22 38 43 3e 17 70 47 3d 79 ac 88 3d 9e c7 3f be
       0.19064382 0.04869088 0.066735215 -0.18728492
000290 b3 14 a1 3d 11 ee c9 bc 1f fd ca bd 6c f5 45 3e
       0.07865276 -0.024649652 -0.0991156 0.19331902
0002a0 90 2a 08 3d 60 28 00 be 12 83 b6 bd cb a6 80 bc
       0.033243716 -0.12515402 -0.089117184 -0.015704533
0002b0 00 ab e6 3d f9 f9 68 bd 5c 34 f2 bd 93 5f 8e bd
       0.112630844 -0.056879018 -0.11826393 -0.06951823
0002c0 08 c1 18 be df 77 95 3d 4a 34 1f 3e 92 77 42 be
       -0.14917386 0.07298254 0.1554729 -0.18990925
0002d0 df 9b 3c 3d cf e5 d8 3d c0 46 1b 3d 42 b4 89 bd
       0.046047088 0.105907075 0.03790927 -0.067238346
0002e0 d5 51 d5 3d ea 49 d5 3d 6b 31 a3 3d ee 2c d6 bc
       0.10415999 0.104144886 0.0796841 -0.026144471
0002f0 99 43 50 bd 5a 27 b4 3c ae d9 15 bd 1a 2a 71 bd
       -0.050845716 0.02199142 -0.03658455 -0.05887804
000300 07 9b 05 3e 1a 0b 33 3e bc b4 a7 bc d1 16 4f bd
       0.1304742 0.17484704 -0.020471923 -0.05055887
000310 32 6d 8c 3a 61 72 46 bc 3d 28 41 3d f6 0e 5b 3d
       0.0010713695 -0.012112231 0.047157515 0.053481065
000320 63 1f 09 be ca ad f6 bc dc 88 54 3e 0e 29 c0 3d
       -0.1339088 -0.030112166 0.20755333 0.093828306
000330 fe 02 b2 3b 27 25 8e bd d3 e8 a4 bd 01 73 1f be
       0.0054324856 -0.0694068 -0.0805222 -0.15571214
000340 a0 e9 e5 bc ed 44 cf 3d 94 a6 19 3e 84 38 17 3e
       -0.028065503 0.101205684 0.15004951 0.14767653
000350 21 4e 30 be 85 69 d4 bd 35 5d 93 39 65 48 5e 3e
       -0.17217304 -0.10371689 0.0002810747 0.21707304
000360 d3 51 7d 3d 4c ea cc bc 44 91 e6 3d af 61 42 bd
       0.06184561 -0.025014065 0.11258176 -0.04745644
000370 e1 84 d9 bd f1 a3 31 3e 07 28 85 bd d7 75 b8 bc
       -0.10621048 0.17347695 -0.06501775 -0.022517128
000380 9b 81 29 be 6d 10 fe 3d 7c 13 07 3e f7 3e a9 3d
       -0.16553347 0.12405477 0.13191026 0.08263963
000390 1f ea 1f be 40 10 36 be fa e2 28 be ef aa 25 3e
       -0.15616654 -0.17779636 -0.16492835 0.16178487
0003a0 2e 19 f4 3d 25 3f 5b 3e be db d8 3d c7 80 f6 3c
       0.11918865 0.21410806 0.105887875 0.030090703
0003b0 2d da 0b 3d a5 e8 33 be 63 2b 1a be 15 1b 31 be
       0.034143616 -0.17569216 -0.15055613 -0.17295487
0003c0 f8 e4 d3 3d 2e 4f df bd 85 9a 1e 3d c7 56 f3 bd
       0.10346407 -0.10903774 0.03872158 -0.11881786
0003d0 a4 bc 05 bb cf eb ca bd 6d 2c b9 bd 14 9c a8 3d
       -0.0020406628 -0.09908258 -0.09041677 0.082328945
0003e0 33 a0 36 bc ba 1f 28 3e 1a 89 4c bd 68 d0 0c be
       -0.011146593 0.16418353 -0.049935438 -0.13751376
0003f0 22 51 c0 bc 6d b9 b9 bd 3a 6a 68 bd 8f 86 41 be
       -0.023476187 -0.0906857 -0.05674193 -0.18898986

bias f4 [64]
000000 d2 da 39 be ca e7 ce 3d d9 5f 23 bd 23 05 4e 3c
       -0.1814988 0.10102804 -0.03988633 0.012574467
000010 a6 ca 76 3c 0e 6e 18 3e 75 57 72 bd f8 34 5e 3d
       0.015062964 0.14885733 -0.059165437 0.054249734
000020 5c ae 81 3d 23 85 08 3e 09 0f a3 3c 50 36 ac 3d
       0.063320845 0.13332038 0.01990463 0.08408797
000030 32 19 f0 bd 5a 51 0e be 59 f2 2b 3e d3 a4 10 be
       -0.117235556 -0.1389822 0.16791667 -0.14125375
000040 92 0b bf 3c 81 62 a4 bc 2b 84 46 3e cc f2 0f bd
       0.023320947 -0.020066502 0.19386356 -0.03514366
000050 2c 23 e0 bd bf ab 73 bd 66 cd 14 3e c7 91 d8 3d
       -0.109442085 -0.05948996 0.14531478 0.1057468
000060 b0 d0 19 3e 16 ac e4 3d 82 c1 9f 3d 0a 47 57 be
       0.15021014 0.11165635 0.078005806 -0.21023193
000070 27 c0 9b 3d 86 c7 b6 3d 48 74 e5 3d d1 3e 97 bd
       0.076050095 0.08924775 0.112038195 -0.07385028
000080 96 fe 42 bd 26 97 45 3d 14 bd 07 be a4 f7 17 be
       -0.047606073 0.04823985 -0.13255721 -0.14840561
000090 d9 f0 4a be 60 a1 4a 3d 3f 63 f5 3d d9 95 50 3d
       -0.19818439 0.049470305 0.1198182 0.050924156
0000a0 34 b6 7c 3d 08 0f a0 3d 6a 85 ea bd 85 b7 71 3c
       0.0616972 0.07815367 -0.11451228 0.014753227
0000b0 3b 97 1e bd 48 c8 63 bd 77 8a 28 3e 8d 9d 8f 3c
       -0.038718443 -0.055610925 0.1645907 0.01753118
0000c0 a5 1e c7 3c 06 91 34 be f5 d6 49 3c 4c b5 aa bd
       0.024306605 -0.17633447 0.012319316 -0.08335361
0000d0 7b f3 93 3d 76 6e 93 bd ea d8 00 3e 9a ad 0d be
       0.072241746 -0.07198803 0.12582746 -0.13835755
0000e0 0f d9 02 3e dd d4 e3 bd fe 95 c7 3d e4 a1 8d bb
       0.12778114 -0.11124585 0.097454056 -0.0043222774
0000f0 79 a2 25 bc 30 64 f4 bc 49 3f f6 3d bb e1 64 3d
       -0.010109537 -0.02983293 0.120237894 0.055879336

weight f4 [32, 64, 3, 3]
000000 3d ae 05 bd c0 f4 28 3c d0 51 6a bc e6 a3 0f 3d
       -0.03263687 0.010312259 -0.014301732 0.035068415
000010 c1 56 94 3c 6e 0c 59 3b 82 28 73 bc 0b 69 f9 3c
       0.018107774 0.003311898 -0.014841201 0.030445596
000020 37 7e 70 bc 46 6d 00 3d ca e7 18 3d 05 a8 2a 3d
       -0.014678529 0.03135421 0.037330426 0.041664142
000030 61 ec d9 3c a4 2b a6 bc 45 d2 46 3d e3 81 c3 bb
       0.026601972 -0.020284481 0.048540372 -0.0059664114
000040 58 0a d8 39 ae 08 83 3b db e6 ca bc e4 f3 fe 3c
       0.00041206437 0.0039988374 -0.024768284 0.031122155
000050 d4 99 14 3d f2 4e c8 bc d0 06 97 3b 7d f8 e1 3c
       0.036279514 -0.024451707 0.0046089664 0.027584309
000060 15 6f 72 bd fb 48 75 3d 49 a9 8a bd b0 fc a0 bc
       -0.059187967 0.059884053 -0.0677057 -0.01965174
000070 32 2c 6b 3d e7 40 59 3d ed e3 b6 3b 30 22 59 bc
       0.057415195 0.05304041 0.00558137 -0.01325278
000080 04 a2 38 3c 05 99 f3 3c 1c a4 fb bc d4 85 1f bd
       0.011269096 0.029736051 -0.030717902 -0.038945988
000090 06 a2 79 bb 2e d1 ea bc cb aa d8 3d b4 e1 18 bb
       -0.0038090958 -0.028664198 0.10579451 -0.002332789
0000a0 be b4 7a bb c7 a1 b1 3d a1 a9 b5 3c e1 db 07 be
       -0.0038254703 0.08673435 0.022175612 -0.13267471
0000b0 18 0d c5 bd dc 36 28 3d 46 0b 13 3d 6f 06 ca 3c
       -0.09621638 0.041067943 0.035899423 0.02466127
0000c0 c5 78 98 bc ef 96 dd 3c 93 18 d6 3a ba 2d b0 bc
       -0.018612275 0.02704951 0.0016334228 -0.02150618
0000d0 ed 05 14 bb 52 85 de bc c4 c6 e5 bc 6d 39 0a bd
       -0.002258654 -0.027163181 -0.02804888 -0.03374617
0000e0 30 57 d1 3c ab 96 0a ba cb 1c 10 bd 11 7a b3 bc
       0.02555427 -0.00052867335 -0.03518371 -0.021908792
0000f0 8f 60 69 bd f9 01 c1 bb d4 94 19 3d 0d 79 79 bc
       -0.05697685 -0.0058901277 0.03749545 -0.015226615
000100 ca d1 8d 3c ab 58 2d bc af 83 b9 bb 45 c0 4d 3d
       0.01731195 -0.010580222 -0.00566145 0.05023219
000110 f3 6e 06 3d 89 de b7 bb f2 51 85 3c c0 cb af 3c
       0.032820653 -0.005611245 0.016274426 0.02145946
000120 a5 ef 83 3c 37 d5 e2 bb 5c a0 0e bc 5a cf 15 3d
       0.016105482 -0.00692239 -0.008705225 0.0365747
000130 63 ff b2 bc a6 ab 19 bc fd a6 97 bc 5d 78 19 bd
       -0.021850294 -0.009379303 -0.018512243 -0.037468303
000140 1d 6f 40 3d 83 42 9a bc bc 59 96 bc 60 d8 fe 3c
       0.046980966 -0.018830543 -0.018353336 0.031109035
000150 11 12 19 bd fd 6d 24 bb f8 ac 0b 3d 79 74 23 3b
       -0.037370745 -0.0025089972 0.034100503 0.002494125
000160 00 53 1b bd 2b 18 75 3d b9 19 1e 3d 45 77 bf bc
       -0.03792095 0.0598375 0.03859875 -0.023372302
000170 cc 52 31 3d 80 00 19 bc b7 9a 45 3d ae 63 1d 3d
       0.043291852 -0.009338498 0.04824325 0.03842514
000180 fb d6 9a bc 33 ed ed bc 96 36 15 bd 21 0f 0e be
       -0.018901339 -0.02904377 -0.03642901 -0.13872959
000190 5c da 46 be 69 14 79 bc a2 00 c9 3d 24 81 30 bd
       -0.19419235 -0.01520262 0.09814574 -0.043091908
0001a0 5c 7c 77 bc 99 a8 52 bd 40 90 78 3b ed 05 99 bb
       -0.015105333 -0.05143032 0.0037927777 -0.004669896
0001b0 ff c3 d9 bc ee f3 91 3c c5 2e 48 3d 5d 57 45 3c
       -0.026582716 0.01781651 0.048872728 0.012044755
0001c0 e1 10 81 3b b4 d8 55 bc 28 4d 93 bc 0c c1 0a bd
       0.0039387797 -0.013052154 -0.017981127 -0.03387551
0001d0 ad 2d 18 3d 08 74 de bb b7 c4 16 bd 38 77 92 3b
       0.037152935 -0.0067887343 -0.036808696 0.0044697784
0001e0 d0 28 46 3b 60 af a8 bb bc 5e 74 3c de 8f b7 3c
       0.0030236728 -0.0051478595 0.014915165 0.022407468
0001f0 26 7f 20 bd 0f bf 02 bd f4 0d bb bb 79 56 61 bd
       -0.03918376 -0.03192049 -0.0057084505 -0.055014107
000200 2c 9c 0e bd 8b f0 1a 3d ff ce 2e bc 22 79 c8 bc
       -0.034816906 0.037827056 -0.010669469 -0.024471823
000210 ee 0c b6 bc 71 cb 20 bd 72 fe e7 3c bc 83 5b bc
       -0.022222962 -0.039256517 0.028319571 -0.013398107
000220 24 ef 66 3c 5e a5 2f bd be 75 ea 3c 18 83 37 3c
       0.0140951015 -0.042882316 0.028620597 0.011200689
000230 3d f8 2b bc df c2 9a 39 e9 2e a8 bb db 20 09 bb
       -0.010496196 0.0002951836 -0.0051325453 -0.0020924124
000240 45 b5 aa 3d d2 6e 5f bc a0 fe 7f bb cc 72 9b 3b
       0.08335356 -0.013637261 -0.003906168 0.0047439095
000250 c4 73 82 3c 60 39 9d 3c cb 97 d9 3c 4c b6 89 3d
       0.015924342 0.019192398 0.026561638 0.067242235
000260 3c 14 87 bd 8a b2 66 ba 7f 1a 3a bc d6 7d 12 3d
       -0.06595656 -0.0008800408 -0.011358856 0.035764538
000270 66 34 cf bc 0c 59 c2 3c 1e 3c 27 3c 53 1a 76 3c
       -0.02529354 0.023724101 0.010207204 0.015020925
000280 fd f5 8c 3c 3d cb c3 bc 54 95 1e 3d 21 34 cb bc
       0.01720714 -0.023900623 0.03871663 -0.02480513
000290 d6 3b eb bb 31 42 37 3d 08 c4 b5 3c c3 b3 a3 3b
       -0.007178764 0.04474086 0.022188202 0.0049957945
0002a0 b5 36 8d bb 42 c1 9c bc 84 57 ee 3c 0d 3d d5 3b
       -0.0043095 -0.019135121 0.029094465 0.006507522
0002b0 e6 a7 96 3c c0 c7 83 3c d0 68 2e 3d eb 70 d3 bb
       0.018390607 0.01608646 0.042580426 -0.00645267
0002c0 90 df ed bb 5e 3f 07 3d b4 93 92 3c 7c c7 c0 bc
       -0.0072593167 0.033019416 0.017892696 -0.023532622
0002d0 ef 71 55 bc 66 a9 bd 3b 4b 89 e7 3c 4d db 45 3c
       -0.013027652 0.005788016 0.028263709 0.012076211
0002e0 06 53 ac 3c 02 b9 39 bd 9a 13 ab 3c 0a 82 7f bc
       0.021035682 -0.045342453 0.02088337 -0.015594969
0002f0 d1 d6 01 3c cc 1f 51 3d c1 bc b1 3c 8f 6e 16 3d
       0.007924751 0.051055714 0.02169645 0.03672653
000300 06 a4 41 bc 9a 3d e0 bc 11 4b 15 bd a7 ae 18 3d
       -0.011818891 -0.027373124 -0.036448542 0.037275936
000310 18 42 a8 3c ea a7 0c bd 3d 57 73 bc 8e fb 2d bd
       0.020539328 -0.034339823 -0.014852342 -0.04247623
000320 2b 1f d7 bd 02 23 12 3d a9 26 09 3d 05 4a f7 3c
       -0.10503992 0.035677917 0.033484135 0.030186662
000330 6c 9c 5b 3c 53 66 35 3d eb 94 e3 3c d7 07 bd 3c
       0.013403993 0.044287037 0.02778097 0.023075027
000340 52 09 95 36 1d 8a 11 bc fb d4 53 bd 03 12 54 3b
       4.441631e-06 -0.008883026 -0.051716786 0.0032359369
000350 0b e7 25 3c 9d 46 0f 3d 7c fc 55 ba 28 66 84 ba
       0.010125886 0.03497945 -0.0008162928 -0.0010101246
000360 6a 23 20 bd 58 d5 48 bd 05 65 7e 3a 75 b9 1d 3d
       -0.039096273 -0.049031585 0.0009704384 0.038506944
000370 c5 10 c4 3b 96 c8 b5 bc 97 25 f7 b9 b1 6a 7c bb
       0.0059834444 -0.022190373 -0.00047139518 -0.0038515741
000380 4a 23 4c 3b e6 1a 36 bd 23 07 01 3d e4 7e 04 3d
       0.0031148964 -0.044459246 0.031500947 0.032347575
000390 f9 b6 3f bd e7 f0 0e 3d 6f 39 19 bd c0 64 b3 bc
       -0.046805356 0.03489771 -0.03740829 -0.021898627
0003a0 a3 51 86 bc 3b fe 55 bd da e8 32 3d 2b 80 49 bc
       -0.01639635 -0.052244406 0.043679096 -0.012298624
0003b0 42 43 bb 3c 96 ca ca bc 11 bf 66 bc 69 e7 c9 3b
       0.02285922 -0.024754804 -0.01408364 0.0061616194
0003c0 0a 69 27 3d 7f 80 a6 3c 8b 0c e9 bc ed 2e 0b 3c
       0.040871657 0.020324944 -0.028448364 0.008495075
0003d0 c5 3d ac bc e8 74 18 3c 66 c4 f8 bc c3 7e d1 bb
       -0.021025548 0.009305216 -0.030367088 -0.006393285
0003e0 04 87 f2 3c fe 7f 0e bd 64 a1 22 bd de bd 1b 3c
       0.029605396 -0.03479003 -0.039704695 0.009505717
0003f0 f2 36 0f 3c 35 aa bd bc 4f e9 4d 3d 48 ed c4 bc
       0.008741127 -0.02315245 0.05027133 -0.024038926

bias f4 [32]
000000 5b be 1c 3d 6e 5f 5f 3c 06 33 02 bd 64 f1 77 3c
       0.038267475 0.013633592 -0.03178694 0.015133236
000010 79 78 9a bc 3e 19 8c 3c 29 bc 16 3d f2 64 26 bd
       -0.018856274 0.01710188 0.036800537 -0.040623613
000020 09 dc c2 bb 70 bd 53 bc 7a 04 c0 3c 5d ca a7 bc
       -0.0059466404 -0.012923583 0.023439635 -0.020482237
000030 0f d7 80 bc 07 85 c4 bc 10 60 39 bc a6 26 1b bc
       -0.015727548 -0.023989214 -0.011314407 -0.009469664
000040 4f a2 b2 3c dc 0a f4 bc 59 d6 3d bb 57 4f 5b bc
       0.02180591 -0.029790334 -0.0028966872 -0.013385615
000050 cd d9 06 3d a1 22 8f bc 80 46 27 bd c5 dc 7f bc
       0.032922555 -0.017472567 -0.04083872 -0.0156166
000060 1a 1d 32 bd cf 41 bf bc c1 6d 08 3c 07 ce e2 bc
       -0.043484785 -0.02334681 0.008326949 -0.027686132
000070 34 28 e9 bb d9 93 08 3d 05 f7 4e 3d 15 bd ea 3c
       -0.0071153883 0.033344124 0.050528545 0.028654614

weight f4 [9, 32, 3, 3]
000000 ea ba 56 3d e2 9d 58 3d 23 53 60 bc ab 42 b4 bc
       0.05242435 0.052884944 -0.013691696 -0.022004446
000010 a3 45 ce 3a 65 d2 cf 3c 43 a4 62 3c c5 21 e7 bc
       0.0015737306 0.025368879 0.013833108 -0.028214345
000020 bd 8a 83 3d dd 64 0c bd 92 35 02 bc 7d 69 a1 bc
       0.064229466 -0.03427588 -0.0079473425 -0.019703621
000030 2a 1a b2 3d 72 8f f6 3a 0c 5c ea bc 91 25 db bc
       0.08696397 0.001881106 -0.028608344 -0.026751311
000040 0a 23 10 3d b7 f6 60 bc c7 d7 17 3d 0e 20 9e bc
       0.035189666 -0.013730696 0.037071016 -0.019302394
000050 08 f7 bf 3c 8a 92 46 bd fd 55 f7 bc a4 53 6b 3d
       0.023433223 -0.048479594 -0.03019237 0.057452813
000060 e5 7f 56 3d 99 12 37 bd 9d e0 e9 bc 35 75 75 bd
       0.052368063 -0.04469547 -0.028549487 -0.05992623
000070 63 78 7d 3c 70 ca 2e bc 1d 0d c9 3b e2 50 15 3d
       0.015470597 -0.010668382 0.0061355964 0.03645409
000080 72 37 0f 3d df 3d 09 ba 76 af 90 3c a5 4a 1f bd
       0.034964986 -0.0005235355 0.017661791 -0.038889546
000090 0a 80 2a 3d 46 45 f3 bd 01 e4 5d 3c f2 7b 28 3d
       0.041626014 -0.11878447 0.01354313 0.04113383
0000a0 2a ea 46 3d ab ba 67 3d f7 b3 2d bc db 1e e7 bd
       0.04856316 0.056574505 -0.010601989 -0.11285182
0000b0 3b cd 6c 3c 3c f9 0b bd b2 1a f4 3c 5e 6c 02 bd
       0.014453228 -0.034173235 0.029797886 -0.03184163
0000c0 0c 17 49 3d e3 be c1 3c 4c e3 08 bd c3 99 b3 3b
       0.049094245 0.023650592 -0.033419892 0.0054809763
0000d0 f2 92 02 3d 27 b6 99 3d ad ac d9 bc 6e 44 3c bd
       0.03187842 0.07505446 -0.026571596 -0.045963697
0000e0 e7 bc ca bc a1 b8 f5 bb 8f 9c fc 3c 7e 83 ad bb
       -0.024748279 -0.007498816 0.030836372 -0.005295216
0000f0 14 40 2a 3d d7 62 43 bd a7 01 77 bd d8 94 f2 3b
       0.041565016 -0.047701683 -0.06030431 0.0074029975
000100 d1 c3 17 3d cb d0 61 3d d8 19 0d 3c 8a 8a 80 3a
       0.03705198 0.05513076 0.008612119 0.0009806913
000110 6e 69 0e 3d c0 b7 2a 3d 58 39 46 bd 46 fc be bc
       0.034768514 0.041679144 -0.04839453 -0.023313653
000120 04 21 1e 3d 97 0c 3d bc f3 9e 34 bd 32 24 1e bd
       0.038605705 -0.011538646 -0.0440969 -0.038608737
000130 f7 8c 82 bc 98 e0 9a 3b 73 f2 ff 3a bd af 28 bd
       -0.015936358 0.0047264807 0.0019527212 -0.041183222
000140 a8 87 83 3d 1c 31 2c 3b ce df 74 3d e6 3c 62 bc
       0.06422359 0.0026274389 0.05978375 -0.013808465
000150 6b a7 3a 3d 64 89 02 3d 02 61 3e bd 13 75 16 3d
       0.04556982 0.031869307 -0.046479233 0.036732744
000160 56 ab 26 3d 10 cd 1d bd 2d e1 7a 3d 8e 33 31 3a
       0.040690742 -0.03852564 0.0612499 0.00067596964
000170 1c d9 33 bc 0b b6 8b bb e5 f9 e1 bc 37 f6 81 3d
       -0.010977056 -0.0042636446 -0.02758498 0.0634579
000180 45 0d 2b bc 7d 28 d0 bc da 46 87 3d e0 90 95 bd
       -0.010440175 -0.025409931 0.06605311 -0.07303023
000190 8a 56 26 bd 8f 81 a2 3c c9 8b 1a 3d 29 93 80 bc
       -0.040609874 0.019837169 0.037730966 -0.015695171
0001a0 24 80 82 bc bd 9f ec bc cc 79 68 3d 51 01 9c 3c
       -0.015930243 -0.028884763 0.05675678 0.019043596
0001b0 3c 08 21 bd b0 91 a7 bc 11 25 31 bd b6 fb e7 3c
       -0.039314494 -0.020455211 -0.04324824 0.028318267
0001c0 cc f0 c4 bc 31 9c 10 3c 49 67 36 3d 42 e8 3c 3d
       -0.024040602 0.008826301 0.044532094 0.046119936
0001d0 c6 0f 5e bd 50 7b fb 3c f5 a3 80 3d 22 b5 3b 3d
       -0.05421426 0.030698448 0.06281272 0.04582704
0001e0 58 20 5c 3c 07 1e 02 3c 4d b1 ba bc b3 d2 ee bc
       0.013435446 0.007941729 -0.022789622 -0.029153204
0001f0 f1 81 ed bc 5b 84 91 bb 71 c4 6d 3d 49 c5 32 3d
       -0.028992625 -0.004440827 0.05804867 0.043645177
000200 06 f0 db 3c d4 d9 d9 bc c3 7b 60 3c bd e8 fb bc
       0.02684785 -0.026593126 0.013701382 -0.030750627
000210 dd 99 df bc 3e d6 7a 3a f4 d3 07 3c 60 89 90 3c
       -0.027295047 0.0009568668 0.00829028 0.01764363
000220 c1 60 17 3d 39 e1 1b 3c a5 3d 27 3d 00 52 8c 3c
       0.036957506 0.0095141465 0.040830273 0.017128944
000230 fd 08 4a bd 90 b8 c1 3b 49 c1 95 3c 4c e1 eb bc
       -0.04932498 0.005911894 0.018280642 -0.028793953
000240 78 01 c9 3b 3f c7 2b 3d 74 b2 02 bd ad 4c 03 3d
       0.0061342083 0.041938063 -0.031908467 0.032055546
000250 0e b5 ee bc 88 5c 21 3d 22 e2 cb 3c 5d 9f 06 3d
       -0.029139068 0.039394885 0.024888102 0.032866824
000260 b1 f0 ee bc 2b f7 6a 3c b8 50 3f bd 51 f0 ed bc
       -0.029167505 0.014341156 -0.04670784 -0.029045256
000270 7b be 84 3c c4 80 39 bd 88 45 cc 3c 18 a9 c4 3c
       0.01620411 -0.045288816 0.024935499 0.024006411
000280 92 6c 95 3d f6 cc 22 bd a0 a2 e3 3b c3 e0 1a 3d
       0.07296099 -0.039746247 0.0069468766 0.037812006
000290 85 2f 0b 3d 87 85 41 3b ec 92 a1 3d 4e a6 e2 3c
       0.033980865 0.0029529051 0.07889351 0.02766719
0002a0 41 6a 27 3c 96 dc ac bc c7 fc 25 bd 45 9b 59 3d
       0.010218204 -0.021101277 -0.04052427 0.053126592
0002b0 d7 e2 bd 3b 15 80 3f bc e1 1e bd bb ba 98 8d bc
       0.0057948637 -0.011688252 -0.0057715033 -0.01728474
0002c0 29 ce 14 3d 49 ad 76 3c 56 45 8f 3c 4a a5 bc bb
       0.036329422 0.015055963 0.017489117 -0.0057570087
0002d0 ff b9 b1 3c 88 f6 6d 3d fb 94 15 3d 83 c8 50 3d
       0.021695135 0.05809644 0.036519032 0.050972473
0002e0 b6 f4 ef 3c 79 27 22 3d 71 9f 6c bc eb c9 f0 bc
       0.029291492 0.039588425 -0.014442311 -0.029393157
0002f0 6a d7 22 3d 84 ef 69 3b cc 2b e9 3a ba e1 5a 3c
       0.039756216 0.003569574 0.0017789542 0.0133594815
000300 9c ba d5 3c 70 4f 72 ba e9 6f b7 3c 13 32 4c 3d
       0.026089959 -0.00092434045 0.02239223 0.049852442
000310 9e 8f 93 ba d0 08 fe bb 78 47 af bc a0 06 31 3d
       -0.0011258011 -0.0077525154 -0.021396384 0.04321921
000320 30 fc 25 bc 00 5f a0 3c f2 ab 0c bd b4 76 c7 3c
       -0.010130927 0.01957655 -0.034343667 0.024348594
000330 de 72 1d bd ae 39 7c 3c 46 35 e8 bc 33 3c 37 bd
       -0.038439624 0.015394611 -0.028345715 -0.044735145
000340 ef ce 4b 3c 43 09 e7 3c 83 4c 01 bd 72 61 b8 bc
       0.0124394735 0.028202659 -0.031567108 -0.022507403
000350 4e 73 48 3d e9 c9 eb ba 6c a9 3c 3d 27 60 b8 bc
       0.048938088 -0.0017989251 0.04606001 -0.022506787
000360 4c 7a f0 bb b8 75 20 3d 36 55 31 bd db 60 d3 3c
       -0.0073387977 0.039174765 -0.043294154 0.02580302
000370 0a 76 e5 bc 90 ee a5 bc 94 2f a5 3c f2 1e 2e 3d
       -0.028010387 -0.020255357 0.020164289 0.04250998
000380 96 21 b5 bc c2 14 46 3c c4 52 11 bb 25 4b 0f bd
       -0.022110742 0.01208991 -0.0022174576 -0.034983773
000390 50 ca 2a bb 05 82 53 3c 7b df ab bc 7d b3 bb bc
       -0.002606053 0.012909417 -0.020980587 -0.022912735
0003a0 26 18 5f 3d 72 b5 ed bc c6 31 ae bc 38 48 04 3e
       0.05446639 -0.029017184 -0.021263968 0.12918174
0003b0 bb 4f a9 bd 38 e3 8f 3d f0 89 13 3e de 14 23 bd
       -0.082671605 0.070257604 0.14408088 -0.039814822
0003c0 dc 59 d0 bd 7f 13 a6 bd 57 64 60 bb 59 7d ae 3c
       -0.10173389 -0.08109187 -0.0034239495 0.021300005
0003d0 2c ba 9f bc 7c ff 9f 3c 3b 67 25 3d 50 44 af bc
       -0.019497953 0.019531004 0.04038165 -0.021394879
0003e0 93 09 14 3d 3a b5 68 bc 79 97 1d 3d a2 70 63 bd
       0.036141943 -0.014203364 0.038474534 -0.055527337
0003f0 1d 45 dd bc 1e 9e 8a 3c 6c c9 22 bd b5 e7 24 bd
       -0.027010495 0.0169211 -0.039742872 -0.040260036

bias f4 [9]
000000 fb c0 0e 3d d5 1a bd 3b 20 44 d8 3c 71 dd 88 3c
       0.03485201 0.005771021 0.026399672 0.016707154
000010 42 6a 07 bc c1 85 8b 3b c9 78 1b bc e2 f2 ea 3b
       -0.00826508 0.004257888 -0.009489247 0.007170067
000020 c4 8d 9f 3b
       0.0048691947
