.processed/999_logs_scale_3_crop_256_lr0001_epoch100/epoch_56_model.pth (torch_old, 93460 bytes, 6 tensors)

weight f4 [64, 1, 5, 5]
0	0x3e1352a2	0.1438699
1	0x3e2348ce	0.15945742
2	0xbd5c7d6d	-0.053830553
3	0x3e34a412	0.17640713
4	0xbd265cfe	-0.040616028
5	0x3d199380	0.037494183
6	0xbdb5af56	-0.08871333
7	0x3de68c74	0.11257258
8	0x3e3a254a	0.18178287
9	0xbe1b96a2	-0.1519418
10	0x3e33af6c	0.17547387
11	0x3cf6f23e	0.030144807
12	0x3e24a29c	0.16077656
13	0x3d1b8424	0.037967816
14	0x3dccb2a3	0.0999501
15	0xbd077fdd	-0.033080924
16	0x3e2aef8f	0.16692947
17	0x3d1c7114	0.038193777
18	0xbdb8e5fd	-0.09028242
19	0x3d461022	0.04835523
20	0xbdc9f74e	-0.09861623
21	0xbcb4a181	-0.022049667
22	0xbd9885cd	-0.074473955
23	0x3e0a62bc	0.13514227
24	0xbe27f0f1	-0.16400506
25	0xbdb1e1f4	-0.08685675
26	0xbd48cb8b	-0.04902224
27	0xbdeb8b35	-0.11501161
28	0x3cc13526	0.023584913
29	0xbe43053c	-0.19044966
30	0x3e4071d3	0.1879342
31	0xbe29c750	-0.16579938
32	0x3e25ef27	0.1620451
33	0x3d22302c	0.03959672
34	0xbd6e0669	-0.058111582
35	0x3e03ce85	0.1287175
36	0x3d239469	0.039936457
37	0x3e32855e	0.17433688
38	0x3ce83eef	0.028350322
39	0xbd6949a5	-0.056955
40	0x3d6d1fcf	0.057891663
41	0xbd4476ba	-0.04796479
42	0x3dbe7c52	0.09301056
43	0x3e3d90d4	0.18512279
44	0x3df8b605	0.121440925
45	0xbda7881f	-0.0818026
46	0x3df2ff98	0.11865157
47	0x3d210608	0.039312392
48	0x3dd8beab	0.10583242
49	0xbdf213aa	-0.11820157
50	0xbe504680	-0.20339394
51	0xbe01b8bb	-0.12668125
52	0xbeb9d524	-0.36295426
53	0x3dc61553	0.09672036
54	0xbecf9837	-0.40545818
55	0x3e156cd2	0.14592293
56	0x3da2d901	0.079515465
57	0x3e3c14b0	0.18367267
58	0x3ed049be	0.4068126
59	0xbe89d478	-0.26919913
60	0x3d39f5f9	0.045400593
61	0xbe19095b	-0.14944975
62	0x3e1665e5	0.14687307
63	0xbd313877	-0.04326674
64	0xbd7033cd	-0.05864315
65	0xbd80c4e5	-0.06287555
66	0x3e264f83	0.16241269
67	0xbd943b2b	-0.07237848
68	0xbc98a51c	-0.018633418
69	0xbd8eae0c	-0.069667906
70	0x3d73cfb6	0.05952426
71	0xbd6a5a3c	-0.05721496
72	0x3e2e29b8	0.17008102
73	0xbd80c2d2	-0.06287159
74	0xbdbb8594	-0.091563374
75	0xbe01edef	-0.1268842
76	0xbdd2d5e9	-0.102947064
77	0x3de4f8c0	0.11180258
78	0x3dca890a	0.098894194
79	0x3e27b8af	0.16379045
80	0xbd9c124c	-0.07620677
81	0xbdf749b7	-0.12074607
82	0x3e23e114	0.16003829
83	0xbd4a27d0	-0.049354374
84	0x3e1abe17	0.15111576
85	0xbca06ccd	-0.01958313
86	0x3e309fa1	0.17248394
87	0xbde6eb0f	-0.112753026
88	0xbd7747d6	-0.060371242
89	0x3dc8aced	0.09798608
90	0x3d8d9f71	0.06915177
91	0xbc3bb188	-0.011455901
92	0x3e372a3f	0.1788721
93	0x3e463c54	0.19358951
94	0xbdecfc73	-0.11571588
95	0xbdda291a	-0.10652371
96	0x3e5012c8	0.20319664
97	0xbd1e47f4	-0.03864284
98	0xbd319ae5	-0.04336061
99	0xbe29dce7	-0.16588174
100	0x3ab856c3	0.0014063943
101	0x3d9d0f98	0.0766899
102	0xba8cc4ec	-0.001073984
103	0xbe527822	-0.2055364
104	0xbc3288d5	-0.010896881
105	0xbe163f62	-0.14672616
106	0xbe5d8058	-0.2163099
107	0x3bf5d916	0.0075026853
108	0xbe8a93e5	-0.2706596
109	0xbe1159c7	-0.14194404
110	0x3e34b451	0.1764691
111	0x3e3ecd68	0.18633044
112	0x3eef8a1f	0.46785066
113	0xbe4d12bc	-0.20026678
114	0xbe132d74	-0.14372808
115	0xbe026564	-0.1273399
116	0x3c64dbb6	0.013968399
117	0xbe67a1d4	-0.22620326
118	0xbe13c010	-0.14428735
119	0xbe1b097e	-0.1514034
120	0x3d5b4ecb	0.05354194
121	0xbcbe0a0e	-0.023198154
122	0x3c178f81	0.009250523
123	0xbd243d58	-0.040097564
124	0xbd80d195	-0.062899746
125	0xbdbdd429	-0.09268982
126	0xbd448b61	-0.047984485
127	0xbe02574a	-0.1272861
128	0x3e3c6324	0.18397194
129	0xbc91e1c4	-0.017807849
130	0x3e3bbe5a	0.18334332
131	0x3dc5edef	0.09664523
132	0xbe1db96e	-0.15402767
133	0x3e236dcc	0.15959853
134	0xbd2577b8	-0.040397376
135	0xbd5e487f	-0.054268356
136	0xbe138696	-0.14406809
137	0xbe3c5226	-0.18390712
138	0x3dac8057	0.084229164
139	0xbcdacb30	-0.026708215
140	0x3dcfbf11	0.10143865
141	0xbe1b0cac	-0.15141553
142	0x3e3390e3	0.17535739
143	0xbe09071d	-0.1338162
144	0xbc472a2e	-0.0121560525
145	0x3d32af32	0.04362411
146	0x3df6103e	0.12014817
147	0x3e2a0234	0.16602403
148	0x3e4b2f7f	0.19842337
149	0xbe1d8484	-0.15382582
150	0x3d89052e	0.06690441
151	0xbd98af56	-0.07455318
152	0x3b49e520	0.0030806735
153	0xbe101d4a	-0.14073673
154	0x3e4baccd	0.19890137
155	0xbe07a4d1	-0.13246466
156	0x3e054bd5	0.13017209
157	0x3de06ce5	0.1095827
158	0x3da3e055	0.08001772
159	0xbdb49582	-0.08817579
160	0x3e57ed96	0.21086726
161	0x3da0eb27	0.07857352
162	0x3d9f4b09	0.07777984
163	0xbe225cac	-0.15855664
164	0x3df61aa3	0.12016799
165	0xbc05d7dd	-0.008169142
166	0xbd8f03dc	-0.06983158
167	0x3e5e472d	0.21706839
168	0x3d84410d	0.0645772
169	0xbda5f8b9	-0.08104081
170	0xbda651c3	-0.081210636
171	0x3c171663	0.009221646
172	0x3e0f534d	0.1399662
173	0xbcf845ca	-0.030306716
174	0xbda367e9	-0.07978804
175	0xbd81bd61	-0.06334949
176	0xbe16cfcb	-0.14727704
177	0x3d984fef	0.07437121
178	0x3e215d2a	0.15758196
179	0xbe4046f1	-0.18777062
180	0x3d4ca1f0	0.049959123
181	0x3de0dd40	0.109797
182	0x3d2ecdfc	0.04267691
183	0xbd885ad0	-0.06657946
184	0x3ddd6e59	0.10812063
185	0x3de06ea0	0.109586
186	0x3daca206	0.08429341
187	0xbcdf8c27	-0.02728851
188	0xbd43028b	-0.047609847
189	0x3cd94805	0.0265236
190	0xbd00a35a	-0.031405784
191	0xbd59b77e	-0.053153507
192	0x3e0854c6	0.13313589
193	0x3e35c43f	0.17750643
194	0xbc9226cc	-0.017840765
195	0xbd2cf124	-0.042222157
196	0x3bd3d130	0.006464146
197	0xbc0a7713	-0.008451241
198	0x3d4ed3ce	0.05049496
199	0x3d7063db	0.05868898
200	0xbd67a73b	-0.056555968
201	0xbbedfe7c	-0.007263003
202	0x3e3060da	0.17224446
203	0xbd1a5882	-0.037682064
204	0xbd4bca49	-0.04975346
205	0xbdfdfa0e	-0.1240121
206	0xbe08263f	-0.1329584
207	0xbe936020	-0.28784275
208	0xbe4f633d	-0.202527
209	0x3c5a7130	0.01333265
210	0x3e20ed8c	0.15715617
211	0x3e2a3b6c	0.1662423
212	0xbe53a066	-0.20666656
213	0xbd9f4bbd	-0.07778118
214	0x3c09688d	0.008386743
215	0x3e63ac44	0.22233683
216	0x3dc2389b	0.09483453
217	0xbd8165b0	-0.063182235
218	0x3e30e93f	0.17276476
219	0xbab01fc4	-0.0013437201
220	0xbdc3a586	-0.095530555
221	0x3e317fd3	0.17333917
222	0xbd8ef6a6	-0.06980638
223	0xbcfcc70e	-0.030856635
224	0xbe0843a4	-0.13307053
225	0x3e1d30ee	0.15350696
226	0x3e11dc6d	0.14244242
227	0x3dbcbf97	0.0921623
228	0xbe153f30	-0.14574885
229	0xbe1dc20a	-0.15406051
230	0xbe2538b8	-0.16134918
231	0x3e2c8b48	0.16850007
232	0x3e379ee9	0.17931713
233	0x3e806549	0.25077274
234	0x3e14575e	0.14486453
235	0x3d94860a	0.072521284
236	0x3cc3085e	0.0238077
237	0xbe3a9ad6	-0.18223128
238	0xbe22471b	-0.15847437
239	0xbe3465d7	-0.17616974
240	0x3dea07e5	0.11427287
241	0xbdca185a	-0.09867926
242	0x3d675e5a	0.056486465
243	0xbd9655a6	-0.07340555
244	0x3c998f83	0.01874519
245	0xbd96c8ea	-0.0736254
246	0xbde3a6de	-0.11115812
247	0x3d94ac5b	0.07259437
248	0xbca2cc3f	-0.019872783
249	0x3e26ed34	0.16301423
250	0xbd2377ab	-0.039909046
251	0xbe051317	-0.12995563
252	0xbbe71a41	-0.0070526903
253	0xbdac3169	-0.08407862
254	0xbd1ef848	-0.038811
255	0xbe3755c9	-0.17903818

bias f4 [64]
0	0xbe2a45f4	-0.16628247
1	0x3dd47cad	0.103753425
2	0xbda8980e	-0.08232127
3	0x3d0b03a3	0.033939015
4	0x3d69db28	0.05709377
5	0x3e299379	0.16560163
6	0xbc98f9c9	-0.018673794
7	0x3d762648	0.0600951
8	0x3d585b19	0.052821252
9	0x3dfe7767	0.12425118
10	0x3d22b43e	0.039722674
11	0x3d3ec758	0.046576828
12	0xbddad477	-0.10685056
13	0xbe108a9d	-0.14115377
14	0x3e3ccb0e	0.18436834
15	0xbdc3946b	-0.09549793
16	0x3d1cdf56	0.038298927
17	0xbb670379	-0.0035249873
18	0x3e4becc2	0.19914535
19	0xbcc76486	-0.024339925
20	0xbdbbd238	-0.091709554
21	0xbd1a0b9b	-0.037608724
22	0x3e1a5f00	0.15075302
23	0x3de560ad	0.1120008
24	0x3e39efe2	0.18157914
25	0xbd34f348	-0.044177324
26	0x3dc7438a	0.09729679
27	0xbe1cd15e	-0.15314242
28	0x3dc7827f	0.09741687
29	0x3dfb442a	0.12268861
30	0x3e1dcec9	0.15410914
31	0xbd164864	-0.03669013
32	0xbd2e0c55	-0.04249223
33	0x3d530628	0.051519543
34	0xbe03021b	-0.12793772
35	0xbe1b63da	-0.15174809
36	0xbe2233af	-0.15840028
37	0x3d2fae00	0.04289055
38	0x3e0a4e58	0.13506448
39	0x3d939864	0.072068006
40	0x3d6e9478	0.05824706
41	0x3dcc1521	0.099649675
42	0xbdd567d9	-0.10420198
43	0x3d368658	0.044561714
44	0xbca8cf10	-0.020606548
45	0xba6302ba	-0.0008659769
46	0x3e33deb6	0.17565426
47	0xbe16108d	-0.14654751
48	0x3d05a998	0.03263244
49	0xbe1dc4fb	-0.15407173
50	0x3d2265dd	0.039647926
51	0xbd9e5299	-0.07730598
52	0x3d973c62	0.07384564
53	0xbd8d87eb	-0.0691069
54	0x3e119dd2	0.1422036
55	0xbdfaef56	-0.12252681
56	0x3e161a6c	0.14658517
57	0xbdff6692	-0.124707356
58	0x3ddc1cfe	0.10747717
59	0x3bbff606	0.0058581857
60	0xb6eec011	-7.115312e-06
61	0xbc3d56f2	-0.011556374
62	0x3e08d8e8	0.13363993
63	0x3dab7f7f	0.08373927

weight f4 [32, 64, 3, 3]
0	0xbcfa4ac0	-0.030553222
1	0x3c2120d1	0.009834484
2	0xbca18c89	-0.019720333
3	0x3d185992	0.037194796
4	0x3c5fa623	0.01365045
5	0xbbb43c17	-0.0055003273
6	0xbc888b75	-0.01666806
7	0x3cb785f0	0.022402734
8	0xbca5c220	-0.020234168
9	0x3ccac1de	0.024750646
10	0x3cff37bb	0.031154504
11	0x3d019b0b	0.031642
12	0x3c9a940d	0.018869424
13	0xbcecd8e9	-0.028912025
14	0x3d21879a	0.03943596
15	0xbc06cf47	-0.00822813
16	0xbb75c920	-0.0037503913
17	0x3a6551cc	0.00087478454
18	0xbaa1d379	-0.0012346349
19	0xbc965bba	-0.018354286
20	0x3daef209	0.08542258
21	0xbc92403e	-0.017852899
22	0x3d369e3b	0.044584494
23	0x3d8c0718	0.068372905
24	0x3b8e4f6b	0.0043429635
25	0x3d8b448b	0.06800183
26	0xbe114cd2	-0.14189461
27	0xbc9ad941	-0.018902423
28	0x3d679be9	0.056545172
29	0x3cd59251	0.026070746
30	0x3c3b1a1e	0.011419801
31	0xbc74aeb3	-0.01493423
32	0xbbe7cc6c	-0.0070739295
33	0x3d475fd6	0.04867538
34	0xbc57c37a	-0.013169164
35	0xbd2a59a7	-0.041589405
36	0xbcda37e9	-0.026637988
37	0xbc028afa	-0.007967705
38	0x3cb52942	0.0221144
39	0xbba91c50	-0.005160846
40	0x3d4f8e3e	0.050672762
41	0x3d547acb	0.051874917
42	0x3cfe75f3	0.031062102
43	0x3b62ccf9	0.0034607037
44	0xbcb15c9e	-0.021650609
45	0x3cf0b6d6	0.029384058
46	0x3d020761	0.03174532
47	0x3cf7d693	0.030253684
48	0xbc635bc7	-0.013876862
49	0x3cf4c840	0.029880643
50	0x3d0518ec	0.03249447
51	0xbcd24148	-0.025665894
52	0x3af1fb43	0.0018461723
53	0xbc6f5abe	-0.014609037
54	0x3c829d86	0.015944254
55	0xbb7397c2	-0.0037169312
56	0x3d25f75d	0.040519107
57	0x3cf670bf	0.030083058
58	0x3c1e899f	0.009676366
59	0xbc9b98f1	-0.018993827
60	0xbc801e88	-0.015639558
61	0x3cc8bc0d	0.024503732
62	0x3d8083ae	0.06275116
63	0xbcb16f79	-0.0216596
64	0x3c59827f	0.013275742
65	0xbc72de72	-0.014823543
66	0xbc602860	-0.013681501
67	0x3d367b0b	0.044550937
68	0x3cd7d3c9	0.026346104
69	0xbbc761ef	-0.0060846726
70	0x3c3640b6	0.011123827
71	0x3c6ce29d	0.014458326
72	0x3d32cb76	0.043651067
73	0x3d2cdf66	0.042205237
74	0xbd862cc9	-0.06551511
75	0x3d5d7468	0.05406609
76	0xbd693c7f	-0.05694246
77	0xbd0664b8	-0.032810897
78	0x3d35c92d	0.04438131
79	0x3c8a1c78	0.016859278
80	0xbbb3ed2e	-0.0054909205
81	0xbae62002	-0.0017557146
82	0x3be83635	0.00708654
83	0x3d539171	0.051652376
84	0xbc08afc5	-0.008342688
85	0x3c209174	0.009800304
86	0x3cf5ed97	0.030020518
87	0x3cec2518	0.028826281
88	0xbc9270a6	-0.01787598
89	0x3d5976fd	0.05309199
90	0x3cbacf89	0.022804039
91	0xbc7045c9	-0.014665076
92	0x3d3fa06f	0.04678386
93	0xbcc2acc8	-0.02376403
94	0x3d4b7eb8	0.049681395
95	0x3d210b8a	0.039317645
96	0xbcbe815b	-0.02325504
97	0xbcb9164c	-0.02259364
98	0xbcffd824	-0.031230994
99	0xbd46fb0a	-0.048579253
100	0xbd107a62	-0.035272963
101	0xbb8335ad	-0.0040042014
102	0x3d69b6ad	0.05705898
103	0x3e15bd6f	0.14623044
104	0x3dbabdee	0.091182575
105	0xbc0a8fb0	-0.008457109
106	0x3d2e3090	0.04252678
107	0xbc2e4172	-0.010635721
108	0xbcffcd70	-0.03122589
109	0x3c2c225a	0.010506237
110	0x3d3f1a4c	0.046655938
111	0x3c3debad	0.011591834
112	0x39febad8	0.00048585865
113	0xbcacbeb0	-0.02108702
114	0xbc87d6bd	-0.016581887
115	0xbcda0ac4	-0.026616462
116	0x3d1542e7	0.036440756
117	0xbc447c4b	-0.011992524
118	0xbd317b6a	-0.043330587
119	0xbafbec3f	-0.0019220187
120	0xbb5ac847	-0.0033383535
121	0xbc37dfaf	-0.011222764
122	0x3c14e64c	0.00908811
123	0x3c88886c	0.016666614
124	0xbd36b7f7	-0.044609036
125	0xbd18a32a	-0.03726498
126	0x3aee3a0f	0.0018175262
127	0xbd227b22	-0.03966821
128	0xbcfff96a	-0.03124686
129	0x3d21258a	0.03934244
130	0x3b3f3ea7	0.002918163
131	0xbc830077	-0.015991433
132	0xbc4684e2	-0.012116643
133	0xbcfd8961	-0.030949296
134	0x3d091d9e	0.03347551
135	0xbb341cc1	-0.002748296
136	0xbbb03ada	-0.0053781094
137	0xbd053533	-0.032521438
138	0x3ceb0639	0.02868949
139	0xb94e577c	-0.00019678281
140	0xbb987d80	-0.0046536326
141	0x3910194f	0.00013742338
142	0xbb90c9f7	-0.0044186073
143	0xbc04ec86	-0.008113032
144	0x3d9f6cef	0.07784449
145	0xbc62717f	-0.013821005
146	0x3c68ef6f	0.014217242
147	0xbc7015de	-0.014653651
148	0xb9772ad7	-0.00023571715
149	0x3d061b2f	0.032740768
150	0x3cd53d81	0.026030304
151	0x3d9b2935	0.07576219
152	0xbca83a4b	-0.020535609
153	0xbc31a703	-0.010843041
154	0xbca97caa	-0.020689327
155	0x3d2c7243	0.042101156
156	0xbcd0ce31	-0.025488945
157	0x3ce415cb	0.027842423
158	0x3c8188cc	0.0158123
159	0x3c8eaa40	0.017415166
160	0x3d081586	0.03322365
161	0xbc0381b4	-0.008026529
162	0x3d0322b8	0.032015532
163	0xbce515fa	-0.02796458
164	0xbc39830a	-0.011322746
165	0x3d22bc6a	0.039730467
166	0x3c9b6a6d	0.018971646
167	0x3b12daad	0.0022408173
168	0xbbf7ec25	-0.0075659924
169	0xbca71c66	-0.020399284
170	0x3cf2d08c	0.029640459
171	0x3b867a2d	0.00410392
172	0x3c051fa1	0.008125217
173	0x3c2aa4a7	0.010415233
174	0x3d2df93f	0.042474028
175	0xbc509856	-0.012731632
176	0xbbf9ddff	-0.007625341
177	0x3d05a466	0.032627486
178	0x3cd22eb9	0.025657045
179	0xbc71eede	-0.014766423
180	0xbd303f6e	-0.04302924
181	0xbcdf23c7	-0.02723874
182	0x3b3f83ec	0.0029222919
183	0xbcb3d043	-0.021949893
184	0xbb847476	-0.0040422035
185	0xbd5a4dbb	-0.053296786
186	0xbb87f840	-0.0041494668
187	0xbd3018ce	-0.042992406
188	0x39b88b96	0.00035199214
189	0x3d229279	0.03969047
190	0x3c845628	0.016154364
191	0x3d0ff90f	0.03514963
192	0xbcbfcfc0	-0.023414493
193	0xbd04559c	-0.032308206
194	0xbd094d1a	-0.033520795
195	0x3cf68845	0.030094275
196	0x3caae4d6	0.02086107
197	0xbcfb37a5	-0.030666182
198	0x3979de9c	0.00023829419
199	0x3c79f642	0.015256466
200	0xbd797eda	-0.06091199
201	0x3cb037fb	0.021511069
202	0x3c404f7a	0.011737699
203	0xbb78a230	-0.0037938468
204	0x3bf90c29	0.0076003266
205	0x3d206111	0.03915507
206	0x3c3a6607	0.011376864
207	0x3cfb8404	0.030702598
208	0xbbc5f1b2	-0.006040775
209	0x3b2f2408	0.0026724357
210	0xbd1ce665	-0.03830566
211	0x3b391ea8	0.0028247032
212	0xbbc342aa	-0.0059588747
213	0x3cc64035	0.024200538
214	0x3bb7df27	0.0056113186
215	0x3bdb57bd	0.006693809
216	0xbcf83a0b	-0.030301115
217	0xbcda792f	-0.026669113
218	0x3d262316	0.040560804
219	0x3d21f1c8	0.03953722
220	0x3cb154ae	0.021646824
221	0xbc4f66bf	-0.012658774
222	0x3b292d2b	0.0025814276
223	0x3b3cd39a	0.0028812648
224	0x3cca6399	0.024705695
225	0xbcc65420	-0.024210036
226	0x3cae0c95	0.021246234
227	0x3cb804ad	0.022463167
228	0xbd3931f8	-0.04521367
229	0xbbd7eab9	-0.0065892604
230	0xbc8265a7	-0.015917612
231	0xbcd7fc08	-0.026365295
232	0x3c35da58	0.0110994205
233	0xbc21b1c9	-0.009869047
234	0x3d2f19f0	0.042749345
235	0xbc9d4740	-0.019199014
236	0x3cb92668	0.022601321
237	0xbce7962f	-0.028269855
238	0xbc82d31d	-0.015969807
239	0x3c01128b	0.007877956
240	0x3d1d6efb	0.038435917
241	0x3cba8269	0.022767263
242	0xbcf78d80	-0.03021884
243	0x3c249bd9	0.010046923
244	0xbcc8173e	-0.024425145
245	0x3c09d1ac	0.008411806
246	0xbcf42eea	-0.029807527
247	0xbbb0debc	-0.0053976458
248	0x3d01d75e	0.03169953
249	0xbd125c01	-0.035732273
250	0xbd0e7d56	-0.0347875
251	0x3c4f0b24	0.0126369335
252	0x3c489294	0.012241978
253	0xbc445c5e	-0.011984913
254	0x3d3d704e	0.04624968
255	0xbc838777	-0.016055806

bias f4 [32]
0	0x3d0b0494	0.033939913
1	0x3b813ee7	0.003944266
2	0xbcb53e71	-0.022124501
3	0x3bf6309d	0.0075131194
4	0x3a5ecab3	0.00084988325
5	0x3c12583f	0.008932172
6	0x3cf6d882	0.030132536
7	0xbd1a8c3a	-0.037731387
8	0xbbf006e1	-0.007325039
9	0xbc90b969	-0.017666535
10	0x3d410989	0.047128234
11	0xbc3cb9fc	-0.0115189515
12	0xb9cc064c	-0.00038914604
13	0xbcfbc0fc	-0.03073167
14	0x3c578c11	0.013155953
15	0xbc5651c3	-0.013081017
16	0x3c510004	0.012756351
17	0xbbfebb42	-0.0077737877
18	0x3a3e2db4	0.0007254735
19	0xbc9916e7	-0.018687679
20	0x3d02f4d2	0.03197176
21	0xbcb4d168	-0.022072509
22	0xbcdf3ad7	-0.027249737
23	0xbbb5a674	-0.0055435244
24	0xbd19c858	-0.03754458
25	0xbc9120ba	-0.0177158
26	0x3cc4c19c	0.024018101
27	0xbcf8841d	-0.030336434
28	0xbbb37f9a	-0.005477858
29	0x3cd7b635	0.026332
30	0x3d0ecf65	0.034865756
31	0x3d0db684	0.03459789

weight f4 [9, 32, 3, 3]
0	0x3d5e02d5	0.05420192
1	0x3d58aa2b	0.05289666
2	0xbc4092af	-0.011753722
3	0xbcc062b1	-0.02348456
4	0xbb86e86f	-0.0041170637
5	0x3cbdfcdd	0.023191864
6	0x3c14237d	0.009041664
7	0xbcfe51b1	-0.031044813
8	0x3d709fa0	0.05874598
9	0xbcdcefe5	-0.02696986
10	0x3cf68d50	0.03009668
11	0xbc9faece	-0.019492533
12	0x3c29b3ae	0.01035778
13	0xbc65d96e	-0.01402889
14	0x3ba565a4	0.005047517
15	0xbd29eada	-0.041483738
16	0x3c1e96af	0.00967948
17	0xbd4b99a2	-0.049707063
18	0x3d175bb1	0.036952678
19	0xbd3997d6	-0.045310818
20	0x3d7b063d	0.061285246
21	0xbd874897	-0.06605642
22	0xbd682fda	-0.05668626
23	0x3d85bb7e	0.06529902
24	0x3d0bba1a	0.034113027
25	0xbd4b83a4	-0.04968609
26	0xbd081282	-0.033220775
27	0xbd6d5e67	-0.057951357
28	0x3c09c0a1	0.008407743
29	0xbc6bc5ca	-0.014390418
30	0x3c194eb3	0.009357142
31	0x3ce5f0c3	0.028068906
32	0x3cfb65d6	0.030688208
33	0xbbce3190	-0.0062925294
34	0x3c99788d	0.01873424
35	0xbd1dadac	-0.038495705
36	0x3c6fe629	0.014642277
37	0xbda6c601	-0.08143235
38	0x3b727475	0.0036995683
39	0xbd879e6c	-0.066220134
40	0x3dc0c852	0.09413208
41	0x3d095539	0.03352854
42	0x3caeddd7	0.021346016
43	0xbdb18bd2	-0.08669247
44	0xbd07d881	-0.03316546
45	0xbcea5f5e	-0.028609928
46	0x3ce84709	0.028354185
47	0xbd09c547	-0.033635404
48	0x3d51288b	0.051064055
49	0x3cb423b0	0.021989673
50	0xbd19441a	-0.037418462
51	0x3afa8524	0.0019113165
52	0x3ce0c8e0	0.027439535
53	0x3d8e7ca7	0.06957369
54	0xbc5469af	-0.01296465
55	0xbd36e508	-0.044652015
56	0xbce5a568	-0.028032973
57	0x3c8bd41f	0.01706892
58	0x3d47e6f3	0.048804235
59	0x3c354267	0.011063195
60	0x3d567e70	0.052366674
61	0xbd146396	-0.036227785
62	0xbd45429a	-0.04815922
63	0xbc390352	-0.0112922955
64	0x3d7ff7f2	0.06249232
65	0x3d112f26	0.035445355
66	0xbc33548c	-0.0109454505
67	0xbd8f1b7e	-0.069876656
68	0x3ca6590a	0.020306129
69	0x3caeadd1	0.021323116
70	0xbdbf38ae	-0.09336983
71	0x3aacddf3	0.0013188705
72	0x3d342d6d	0.043988634
73	0xbc55331e	-0.013012676
74	0xbd39460f	-0.04523283
75	0xbd0f5855	-0.03499635
76	0xbca53680	-0.02016759
77	0x3b8ed5d6	0.0043589873
78	0xbae3ad47	-0.0017370366
79	0xbd33c23c	-0.04388641
80	0x3d8257c2	0.06364395
81	0x3b2f8050	0.002677936
82	0x3d80966b	0.0627869
83	0xbc8890ab	-0.016670546
84	0x3d52767b	0.051382523
85	0x3ccdad59	0.025107073
86	0xbd44d0cb	-0.048050683
87	0x3d2ce059	0.042206142
88	0x3d32ad12	0.043622084
89	0xbd154608	-0.03644374
90	0x3b52e001	0.0032176974
91	0xbe72155c	-0.2364096
92	0x3da0c1e8	0.07849485
93	0xbd1c1e4d	-0.038114835
94	0xbe9cfa4f	-0.3065972
95	0x3e026d00	0.12736893
96	0x3d889843	0.066696666
97	0x3bb65c0e	0.005565173
98	0x3cb4dfc3	0.022079354
99	0xbdad5be0	-0.084647894
100	0x3c6bacf3	0.014384496
101	0x3d0829d6	0.033243023
102	0xbb7d1231	-0.003861558
103	0xbbb58c88	-0.0055404343
104	0xbcb35e2f	-0.021895496
105	0xbd625a83	-0.0552621
106	0x3d4d9d79	0.050199006
107	0x3d0fae62	0.035078414
108	0xbd0cdb59	-0.034388874
109	0xbd9f4cfb	-0.07778355
110	0xbdcfc76c	-0.101454586
111	0xb8894fdf	-6.547546e-05
112	0xbd4ea7b6	-0.05045291
113	0x3ceb8a69	0.028752523
114	0xbba71d68	-0.005099941
115	0x3d092ecd	0.0334919
116	0xbcf46792	-0.029834542
117	0x3d0823be	0.03323721
118	0x3d6d66eb	0.05795948
119	0x3d40ea56	0.04709848
120	0x3ce5c8ae	0.028049793
121	0x3b491c80	0.0030687153
122	0xbcd81bf0	-0.02638051
123	0xbcd9e46b	-0.026598176
124	0xbce6e95b	-0.028187444
125	0xbbe795b1	-0.007067405
126	0x3d96edc8	0.07369572
127	0x3d847e08	0.06469351
128	0xb972ea6f	-0.00023166252
129	0x3c25e426	0.010125196
130	0x3d784844	0.060615793
131	0x3c19fe77	0.009399048
132	0xbd9ee17d	-0.07757852
133	0xbc316144	-0.010826413
134	0x3c90da94	0.017682351
135	0x3c836daa	0.016043503
136	0x3d67c528	0.056584507
137	0x3bf0f76a	0.007353713
138	0x3d625e56	0.055265747
139	0x3ccb9ab4	0.024854042
140	0xbce665b7	-0.028124673
141	0x3c1cf3e8	0.009579636
142	0x3d04639e	0.032321565
143	0xbcfe0a3a	-0.031010736
144	0x3c1cc889	0.009569296
145	0x3d206bd1	0.03916532
146	0xbcef9ad4	-0.029248632
147	0x3d06f474	0.032947972
148	0xbcf619dc	-0.030041628
149	0x3d130a53	0.035898518
150	0x3cc43abf	0.023953794
151	0x3d01e888	0.0317159
152	0xbcf62e1b	-0.030051282
153	0x3ccb3685	0.02480627
154	0xbc56865d	-0.013093558
155	0xbd0b0c4c	-0.033947274
156	0x3d57f34f	0.05272227
157	0x3c11c865	0.008897875
158	0xbc2f6b6a	-0.010706762
159	0x3cc085e6	0.023501348
160	0x3d91e3ec	0.07123551
161	0xbd80cf90	-0.062895894
162	0x3c8f8a9d	0.01752215
163	0x3d6c8db7	0.057752337
164	0x3cda75d4	0.026667513
165	0xbb92895e	-0.004471942
166	0x3d922470	0.07135856
167	0x3d27442d	0.040836502
168	0x3cb604c0	0.022219062
169	0xbc1f4f6f	-0.009723528
170	0xbcf3ebea	-0.029775579
171	0x3d85afa8	0.065276444
172	0x3bf5a824	0.0074968506
173	0x3aa639e0	0.0012682043
174	0x3b8045f3	0.0039145886
175	0xbcc31692	-0.023814473
176	0x3d161559	0.036641452
177	0x3cbe3342	0.023217801
178	0x3cbf87d1	0.023380192
179	0x3ae5d0b8	0.0017533517
180	0x3cc9184b	0.024547717
181	0x3d584a11	0.05280501
182	0x3d23908e	0.03993278
183	0x3d6ea9b4	0.05826731
184	0x3cb027e4	0.021503396
185	0x3d291696	0.041281305
186	0xbca346de	-0.019931253
187	0xbd0f6514	-0.035008505
188	0x3d1a846e	0.03772395
189	0x3c944303	0.01809836
190	0x3b30b180	0.0026961267
191	0x3c8069ae	0.015675392
192	0x3d044223	0.032289635
193	0x3bab476e	0.005227021
194	0x3d17fa1f	0.03710377
195	0x3d724e74	0.05915685
196	0xba175d1b	-0.00057740667
197	0xbbaefbb6	-0.005340065
198	0xbcba3aca	-0.022733111
199	0x3d4dee38	0.05027601
200	0xbc3b15fb	-0.011418815
201	0x3ca93adc	0.02065795
202	0xbcc038ae	-0.023464527
203	0x3d08686b	0.033302706
204	0xbd17b5ff	-0.0370388
205	0x3c95ce11	0.018286737
206	0xbcab1f81	-0.020889046
207	0xbdb3b79c	-0.08775255
208	0x3b704159	0.0036660044
209	0xbcdaf7bc	-0.026729457
210	0x3caf291d	0.021381909
211	0xbd11675f	-0.035498973
212	0x3b025b0e	0.0019890699
213	0xbcf645c0	-0.030062556
214	0xbc188c1f	-0.009310751
215	0xbcbafb21	-0.022824826
216	0xbc56f89d	-0.013120797
217	0x3d06d851	0.03292114
218	0xbd4bbae8	-0.049738795
219	0x3ca361dd	0.019944126
220	0xbd0a92d7	-0.033831444
221	0xbcd971f3	-0.026543593
222	0x3c6b634b	0.014366935
223	0x3d13afc7	0.036056306
224	0xbce5cd82	-0.028052095
225	0xbe06f9c2	-0.13181213
226	0x3e5f58f3	0.21811275
227	0xbddfecd4	-0.10933843
228	0x3c5c7c77	0.013457409
229	0x3db148b1	0.08656443
230	0x3ceb2983	0.028706318
231	0xbd7ed386	-0.062213443
232	0xbc8339a2	-0.016018692
233	0xbce571a6	-0.028008293
234	0xbcb5a635	-0.02217398
235	0x3d46d13b	0.04853938
236	0xbca9877a	-0.020694483
237	0xbd11adc2	-0.0355661
238	0xbc9f5d04	-0.019453533
239	0xbcd29785	-0.025707016
240	0x3d4eeeeb	0.05052082
241	0xbc950678	-0.018191561
242	0x3d18c0f4	0.03729339
243	0x3d112de7	0.035444167
244	0xbc74ab58	-0.01493343
245	0x3d0d29ef	0.03446382
246	0x3d68116a	0.056657232
247	0xba0135a5	-0.0004928953
248	0x3d0d27be	0.03446173
249	0xbca5456f	-0.02017471
250	0x3d52c94c	0.051461503
251	0xbd2fd967	-0.04293194
252	0xbd6b8b1f	-0.057505723
253	0x3ba4b931	0.0050269593
254	0xbced4ccf	-0.02896729
255	0xbda4a167	-0.080385976

bias f4 [9]
0	0x3d49639b	0.049167257
1	0xbaba819f	-0.0014229304
2	0x3d17c197	0.037049856
3	0x3b774653	0.0037731125
4	0xbcc2c97f	-0.023777721
5	0xbc802102	-0.01564074
6	0xbcd1948f	-0.025583534
7	0x3c85e2eb	0.016343554
8	0x3a90f71c	0.0011059972
