.processed/999_logs_scale_3_crop_256_lr0001_epoch100/epoch_36_model.pth (torch_old, 93460 bytes, 6 tensors)

weight f4 [64, 1, 5, 5]
000000 31 a0 16 3e 6a ed 25 3e 68 e5 55 bd 3a 99 36 3e
       0.14709546 0.16203848 -0.052220732 0.17831889
000010 2e 8f 28 bd c5 c5 1d 3d e8 52 b7 bd 4d 39 e6 3d
       -0.04115217 0.038518686 -0.0895136 0.11241398
000020 c4 ac 38 3e 35 ac 1b be 19 00 35 3e 89 99 08 3d
       0.18034655 -0.1520241 0.17675819 0.033349548
000030 cf 0b 23 3e 29 fd 0f 3d 89 0d cb 3d dc 75 f2 bc
       0.15922473 0.03515354 0.09914691 -0.029597215
000040 8a b2 2b 3e 3b 48 1c 3d 65 8a b8 bd 74 5f 55 3d
       0.16767326 0.03815482 -0.09010772 0.052092984
000050 0a 95 c2 bd 7a 8a 9c bc 5d 21 9b bd d7 6e 0c 3e
       -0.09501083 -0.019109 -0.07574723 0.13714157
000060 14 6a 26 be 19 3d b1 bd e1 65 4b bd d8 dd ea bd
       -0.16251403 -0.086542316 -0.049657706 -0.114680946
000070 51 f7 bc 3c 7a 3b 44 be ba d9 3f 3e 06 4e 29 be
       0.023067148 -0.19163314 0.187354 -0.1653367
000080 92 51 25 3e 60 c8 1e 3d 6f 81 73 bd 12 29 04 3e
       0.16144398 0.03876531 -0.05944961 0.12906292
000090 98 1a 22 3d c2 33 31 3e 00 25 e5 3c 6f 85 6a bd
       0.039576143 0.173049 0.027971745 -0.05725616
0000a0 a2 1b 6d 3d e4 ef 43 bd a5 f2 bc 3d 27 6c 3d 3e
       0.05788768 -0.0478362 0.09225968 0.18498288
0000b0 4d da f7 3d 66 50 a8 bd 50 ab f4 3d ba 09 24 3d
       0.121021844 -0.0821846 0.11946738 0.04004834
0000c0 41 3b d9 3d c0 f9 f1 bd 8a 1e 83 be 87 ec 1e be
       0.10607005 -0.11815214 -0.25609237 -0.15519916
0000d0 d5 28 9b be 67 0c 04 3e aa 3e 81 be 2b 8b 11 3e
       -0.3030459 0.12895356 -0.2524312 0.14213245
0000e0 42 05 c5 3d a9 9c 32 3e ba 12 ad 3e 34 e5 84 be
       0.096201435 0.17442574 0.3380335 -0.25956118
0000f0 d2 2f 2b 3d 20 34 1d be 6c fc 00 3e cc c9 62 bd
       0.041793652 -0.15351915 0.12596291 -0.05536823
000100 07 ab 47 bd dc 79 27 bd 81 f4 2e 3e 88 ed ac bd
       -0.04874709 -0.0408877 0.17085458 -0.08443743
000110 b7 86 16 bd 93 bb de bd 03 46 e1 3d 1b 98 43 bc
       -0.036749568 -0.10875621 0.10999682 -0.01193812
000120 5f 92 40 3e d8 e6 8e bd 5a 16 0f be f8 be 06 be
       0.18805836 -0.06977624 -0.1397337 -0.13158786
000130 5b 42 da bd 48 8b e4 3d 16 5b cc 3d d6 06 2b 3e
       -0.106571876 0.11159378 0.09978311 0.16701826
000140 61 df a4 bd f3 48 f9 bd bc d9 21 3e a2 5b 45 bd
       -0.08050419 -0.12172117 0.15805715 -0.04818309
000150 c5 74 1b 3e 1c 6f b0 bc ba a2 2d 3e a0 61 e7 bd
       0.15181263 -0.021537356 0.16956607 -0.11297917
000160 f3 3c 77 bd 00 97 c9 3d b0 85 8b 3d 86 a9 40 bc
       -0.06036086 0.09843254 0.06812608 -0.011759168
000170 c7 1f 36 3e 26 03 46 3e 3a 1b f0 bd a4 89 db bd
       0.1778556 0.19337139 -0.11723943 -0.10719612
000180 1f e4 4f 3e 8c 7e 22 bd 6d b3 35 bd 4e ad 2b be
       0.20301865 -0.039671466 -0.044360567 -0.16765329
000190 26 29 45 bd 9b c1 84 3d cf 76 a0 3b 4e 1f 4b be
       -0.048134945 0.0648224 0.0048969756 -0.1983616
0001a0 d0 36 3c bc 2a e7 26 be 91 e3 4e be 5c e6 a8 bc
       -0.011487678 -0.1629912 -0.20203997 -0.020617656
0001b0 6e ed 6b be 19 ff 0b be f1 a4 54 3e 62 e3 3c 3e
       -0.23039791 -0.13671531 0.20766045 0.18446115
0001c0 b1 22 b4 3e 0e f2 2b be 83 f6 f4 bd 06 0b b7 bd
       0.35182717 -0.16791555 -0.11961081 -0.089376494
0001d0 bf cf ef 3c b3 5d 4b be 93 68 fc bd 73 d1 fe bd
       0.029273866 -0.19859962 -0.123246334 -0.12442293
0001e0 b4 d7 46 3d 41 49 3c bd 2b 7c 6e 3c a2 f1 ab bd
       0.048545554 -0.045968298 0.014555971 -0.08395697
0001f0 96 fc 84 bd 2e a0 c6 bd 1c f9 4d bd 83 a9 07 be
       -0.064934894 -0.096985206 -0.050286397 -0.13248257
000200 a7 bf 3a 3e 5a 3e ae bc 48 28 3a 3e 1a ae bb 3d
       0.18237172 -0.021269966 0.18179429 0.091640666
000210 3f 01 20 be f4 49 21 3e 0e 2e 2f bd 81 73 65 bd
       -0.15625475 0.15750867 -0.04276853 -0.056018356
000220 73 1c 17 be 62 61 3d be 19 a2 a4 3d 1c 25 ea bc
       -0.14756946 -0.1849418 0.0803873 -0.028582148
000230 f7 af c8 3d 71 0b 1c be 5c ed 2f 3e fd 13 0b be
       0.09799188 -0.1523874 0.17180389 -0.13581844
000240 39 c9 72 bc c3 8a 3d 3d 44 01 f2 3d 8e f8 2b 3e
       -0.014818483 0.04627491 0.11816648 0.16794035
000250 2f 34 49 3e 4e 07 1c be 9d 15 86 3d 88 76 98 bd
       0.19648813 -0.15237162 0.06547091 -0.07444483
000260 fb 8c 22 3b 1e 84 10 be d7 af 4a 3e 18 53 08 be
       0.002480327 -0.14112899 0.1979364 -0.13312948
000270 5a ce 04 3e 1f 1c df 3d 7c a5 a1 3d f9 6a b5 bd
       0.12969342 0.108940355 0.07892892 -0.08858294
000280 25 8a 56 3e 7f d6 a0 3d 9c c8 9b 3d 88 8e 22 be
       0.20951135 0.07853412 0.076066226 -0.15874684
000290 0a 0c f4 3d 93 9b 0f bc b1 fb 8e bd 90 9f 5d 3e
       0.11916359 -0.008765119 -0.069816 0.216429
0002a0 ec 6d 83 3d a7 3c a8 bd 37 96 a8 bd 1f 53 10 3c
       0.0641745 -0.082146935 -0.08231776 0.00880888
0002b0 3d 57 0f 3e d0 e2 ff bc f1 21 a8 bd f6 f6 83 bd
       0.13998123 -0.031236082 -0.08209599 -0.064435884
0002c0 1e e5 15 be 2a 39 99 3d e9 11 22 3e 18 78 3f be
       -0.14638183 0.07481606 0.15827145 -0.18698156
0002d0 2a 01 4c 3d 48 39 e1 3d b9 a6 2e 3d 53 cb 86 bd
       0.049805798 0.10997254 0.042639468 -0.0658175
0002e0 c9 53 df 3d 1f 93 e1 3d f1 8a ac 3d 13 b8 dd bc
       0.109046526 0.11014389 0.084249385 -0.027065312
0002f0 d0 49 3f bd 1b 71 de 3c 0d 79 fe bc 75 f8 5a bd
       -0.046701252 0.027153542 -0.03106358 -0.053459603
000300 13 c5 08 3e 34 02 36 3e 42 81 8f bc ec 8e 2c bd
       0.13356428 0.17774278 -0.01751769 -0.04212849
000310 38 bf d4 3b 16 17 f7 bb e8 cc 4f 3d 37 75 71 3d
       0.0064925216 -0.007540594 0.050732523 0.058949675
000320 73 ca cf bd 49 43 c4 bc 90 0f 32 3e a9 73 ab bc
       -0.10146036 -0.023957865 0.17388749 -0.020929174
000330 b0 dd 6d bd 55 87 cf bd 88 3b be bd 95 b7 6d be
       -0.058072746 -0.101332344 -0.092886984 -0.23214562
000340 b1 1c 28 be c8 0f 33 3d 57 24 24 3e d8 79 16 3e
       -0.16417195 0.043716222 0.16029488 0.14694917
000350 dd e4 5f be 43 67 e4 bd 6c b8 f4 3b fd 4f 62 3e
       -0.21864648 -0.11152508 0.007468274 0.22100826
000360 06 fa 8f 3d aa a5 b4 bd 48 a1 f5 3d ba af d1 bc
       0.0703011 -0.088206604 0.119936526 -0.025596488
000370 6c 72 b2 bd 33 e1 41 3e 76 6a 63 bd a0 4f 33 bd
       -0.087132305 0.18933563 -0.05552145 -0.04377711
000380 e1 7f 1f be aa d0 25 3e 75 be 1a 3e e9 70 c1 3d
       -0.15576126 0.1619288 0.15111716 0.09445364
000390 2f fe 0f be 65 41 31 be fe 79 25 be cc b7 2b 3e
       -0.14061807 -0.17310102 -0.16159818 0.16769332
0003a0 33 1f 27 3e c9 2a 70 3e e5 72 12 3e 0e 28 98 3d
       0.16320495 0.23453821 0.14301641 0.07429515
0003b0 98 4b f4 3c cd 29 2a be dc 2d 1d be 1b 17 36 be
       0.029821202 -0.16617508 -0.15349525 -0.17782252
0003c0 1e 6b e8 3d 68 47 b8 bd d9 c1 2f 3d 7e 60 a0 bd
       0.11348556 -0.08997995 0.042909477 -0.078309044
0003d0 4f 18 3a 3c 3c a6 ab bd 8f 06 e6 bd a8 c9 ac 3d
       0.011358335 -0.08381316 -0.1123172 0.084369004
0003e0 9f 17 ee bc 9b 62 27 3e 4e 0e 3d bd 64 83 06 be
       -0.029063998 0.16346209 -0.04615622 -0.13136059
0003f0 f9 78 6d bc cd c2 ad bd 3b c6 3b bd a4 5b 38 be
       -0.014494174 -0.08484421 -0.045843344 -0.18003708

bias f4 [64]
000000 ca 57 2b be 54 fb d4 3d 9b a4 a8 bd 4f ee ff 3c
       -0.16732708 0.103994995 -0.08234521 0.031241564
000010 44 8a aa 3d d6 a4 25 3e 6f 6b a7 bc 85 45 75 3d
       0.08327153 0.16176161 -0.02043697 0.059880752
000020 07 83 8f 3d 21 cd 02 3e 52 16 08 3d 4e 53 81 3d
       0.07007413 0.12773563 0.03322441 0.06314717
000030 a9 cc dc bd 97 75 11 be 57 03 3b 3e 84 7b d2 bd
       -0.10781223 -0.14205013 0.18262993 -0.10277465
000040 1b ad 17 3d 7c a6 06 bc 13 f9 4c 3e 3a 03 ef bc
       0.03703032 -0.008218404 0.2001689 -0.029176343
000050 d8 90 c2 bd 72 3a 22 bd a4 72 19 3e bf 4b e0 3d
       -0.09500283 -0.03960652 0.14985138 0.109519474
000060 8f d7 39 3e 3a 49 36 bd a6 37 bf 3d 57 94 22 be
       0.18148635 -0.044503428 0.09336786 -0.158769
000070 64 72 bf 3d 52 ca db 3d bd 85 1c 3e de 48 13 bd
       0.0934799 0.10731949 0.15285392 -0.035958163
000080 d3 00 32 bd b3 42 6a 3d 85 14 06 be 22 af 1a be
       -0.043457817 0.057192516 -0.13093765 -0.1510587
000090 2e e0 23 be 48 fd 42 3d d0 38 06 3e ae 43 87 3d
       -0.16003487 0.04760483 0.1310761 0.06604706
0000a0 13 7c 53 3d 14 cb cc 3d 8d df df bd b4 9e 24 3d
       0.051632 0.099996716 -0.10931311 0.040190414
0000b0 df 1b f4 bc e1 19 bc bb ed 05 35 3e 64 00 fe bd
       -0.029798446 -0.0057403897 0.17678042 -0.12402418
0000c0 17 69 02 3d 9b 03 21 be 84 b3 16 3d 57 80 a3 bd
       0.031838503 -0.15724032 0.036792293 -0.07983463
0000d0 d8 22 98 3d 45 3f 8a bd af ff 0e 3e 56 14 05 be
       0.07428521 -0.06750349 0.13964723 -0.12996039
0000e0 e0 98 12 3e d8 e4 c0 bd 66 48 db 3d 7c 64 83 3b
       0.1431613 -0.094186485 0.10707168 0.0040097814
0000f0 a5 f9 3d 3a 29 a6 86 bc 21 34 09 3e c5 ac a9 3d
       0.0007246978 -0.016436653 0.13398792 0.08284906

weight f4 [32, 64, 3, 3]
000000 69 50 f7 bc 17 35 1b 3c d8 b1 a8 bc 3e 18 16 3d
       -0.03018971 0.009473107 -0.020592615 0.036644213
000010 00 8f 57 3c 37 2a a6 bb 49 03 85 bc 57 2d b4 3c
       0.013156652 -0.0050709504 -0.016236918 0.021994276
000020 93 62 a4 bc 7b 74 cf 3c 62 c4 f5 3c f0 3c 04 3d
       -0.020066535 0.025324097 0.03000087 0.032284677
000030 16 3d 99 3c 90 83 ed bc 89 d0 1f 3d 0d fc 01 bc
       0.018705886 -0.028993398 0.039017234 -0.007933629
000040 96 bd 72 bb 68 fa ab 3a 97 1d c6 3c ea 09 11 3c
       -0.0037039272 0.0013120892 0.024184031 0.008852461
000050 ab 7d 5f 3d dc 18 84 bb f4 f6 94 bb 59 48 a3 3c
       0.054563206 -0.004031284 -0.0045460407 0.019931959
000060 36 e5 f8 bb b9 67 b5 3c e6 1b c1 bd 71 45 91 bc
       -0.0075956834 0.022144185 -0.09429149 -0.017733308
000070 52 63 64 3d 83 79 d7 3c b0 0c 34 3c 67 dc 65 bc
       0.05575878 0.026303058 0.010989353 -0.014029599
000080 c1 c7 c9 bb cc e6 45 3d ab 7a 3c bc 4c be 29 bd
       -0.0061578457 0.04831581 -0.011503856 -0.041441247
000090 92 d1 fb bc 10 04 a9 3a cb e4 18 3d 7f 47 a7 bc
       -0.03073958 0.0012894887 0.03732757 -0.020419834
0000a0 cb fd cb 3c 66 c2 ac 3c c9 eb f9 3c 7b 9d 96 bb
       0.024901291 0.02108879 0.030507939 -0.00459641
0000b0 36 7e 81 bc f1 70 ed 3c ac f5 03 3d 31 e2 00 3d
       -0.015807252 0.028984519 0.032216713 0.031465713
0000c0 30 31 68 bc 55 5b f6 3c f9 61 03 3d a6 77 de bc
       -0.014171883 0.030072847 0.032075856 -0.027156662
0000d0 8b 99 7a 3b df 8e 65 bc 4e 88 84 3c fb e3 55 bb
       0.0038238491 -0.014011114 0.016178276 -0.0032637108
0000e0 98 03 1f 3d 96 b2 f9 3c 78 a7 07 3c 25 06 95 bc
       0.038821787 0.030480664 0.008279674 -0.018191407
0000f0 75 fc 82 bc 2e b4 cf 3c f6 c7 7f 3d 79 3d b6 bc
       -0.015989522 0.025354471 0.062446557 -0.02224611
000100 50 f9 62 3c 6e 67 7d bc 3b 9c 54 bc dd a1 33 3d
       0.013853386 -0.015466554 -0.012976701 0.043855537
000110 fc d4 db 3c b1 03 cd bb 29 da 47 3c 28 02 73 3c
       0.026834957 -0.0062565436 0.0121980095 0.014832057
000120 31 65 2c 3d c4 28 a2 3c 4f 90 62 bd 28 cf 7f 3d
       0.04208869 0.01979483 -0.055313405 0.06245342
000130 66 d7 8d bc 05 4a ba bc 73 e2 99 3c 93 67 0b 3d
       -0.017314624 -0.022740373 0.018784737 0.034034323
000140 fe 36 1e 3d d3 cc af ba f5 bf 02 3c 7d ab 4f 3d
       0.038626663 -0.0013412483 0.007980336 0.050700653
000150 47 00 04 bc 3f b8 1c 3c db 2e f6 3c 21 b4 e3 3c
       -0.008056707 0.009565412 0.03005164 0.027795853
000160 67 91 91 bc 64 70 57 3d 52 6d b9 3c 2d 68 36 bc
       -0.017769529 0.05259742 0.022635136 -0.011133236
000170 4a 3e 38 3d c6 3b ae bc 4b a8 44 3d 7a 53 25 3d
       0.04498128 -0.021268737 0.04801206 0.040362813
000180 8a c8 be bc 93 08 aa bc 89 24 fb bc 90 05 ef bc
       -0.023288984 -0.020756042 -0.03065707 -0.029177457
000190 22 97 6d bd b9 e4 3c bc 16 eb a7 3c 0a 21 80 3d
       -0.05800546 -0.011529141 0.02049784 0.06256302
0001a0 0c 58 26 3d 09 8f d0 3c ef d7 04 3d ac 3e ce bc
       0.04061131 0.02545883 0.032432493 -0.025176369
0001b0 29 0b f5 bc d0 60 1d 3c dd bd 3d 3d da 26 30 3c
       -0.029912548 0.009605601 0.046323646 0.01075145
0001c0 d1 72 2c 3a 35 1c a6 bc e0 2c 81 bc 60 b0 d7 bc
       0.0006578388 -0.020277122 -0.015768468 -0.02632922
0001d0 ab f9 1a 3d ff eb 46 bc cb cb 31 bd e7 a9 d8 ba
       0.03783576 -0.012141227 -0.043407243 -0.0016530127
0001e0 c4 6d 3e bb 86 99 36 bc 6b 0a 16 3c 73 ff 88 3c
       -0.0029057125 -0.011145001 0.009157757 0.01672337
0001f0 95 b2 37 bd 32 ba 19 bd c3 f6 88 38 5e 1f 1c bd
       -0.044848043 -0.037531085 6.530948e-05 -0.03811585
000200 c3 3a 04 bd 4f 64 1f 3d c2 b5 0b 3a 66 72 7d bc
       -0.032282602 0.03891402 0.0005329513 -0.015469169
000210 98 f6 65 bc 0d d5 f8 bc 35 a7 0d 3d 60 e5 1e bb
       -0.014035843 -0.030375028 0.03458329 -0.0024245605
000220 ca 1b ce bb 03 c4 00 bd 69 e7 f4 3c 5c 19 dd 39
       -0.006289934 -0.03143693 0.029895501 0.000421713
000230 d7 69 93 bb 21 39 79 39 2f ca 95 bb e5 5a d5 bb
       -0.004498701 0.00023767773 -0.0045712213 -0.0065110796
000240 c9 cf a0 3d f7 9d 5c bc 6b 40 5a 3c f9 69 7d bc
       0.07852132 -0.013465396 0.0133210225 -0.01546716
000250 e8 a2 91 ba 44 d7 04 3d 89 90 d8 3c 96 2c 9e 3d
       -0.0011111172 0.032431856 0.026436107 0.07723348
000260 c5 95 a1 bc d2 67 44 bc c9 14 a6 bc 7e b5 31 3d
       -0.019724736 -0.011987643 -0.020273583 0.043385975
000270 c9 6c cf bc e1 e8 eb 3c 81 42 87 3c 25 51 97 3c
       -0.025320427 0.028797569 0.016511204 0.01847131
000280 42 0f 02 3d 7b da c8 bb f5 0e 02 3d 8d 73 e6 bc
       0.031752832 -0.0061295605 0.031752545 -0.02813127
000290 e3 b9 2c bc 53 85 1d 3d 81 72 9b 3c 37 be eb 3a
       -0.010542366 0.038457226 0.018975498 0.0017985766
0002a0 42 50 d8 bb 59 65 a4 bc f2 f3 f6 3c 66 ea 92 3b
       -0.0066013644 -0.020067858 0.030145619 0.004483509
0002b0 4f df e9 3b e6 2f 3c 3c 15 44 27 3d 88 19 56 bc
       0.007137216 0.011486029 0.040836412 -0.013067611
0002c0 b5 f7 e1 bb b5 cf 0b 3d d8 ca d6 3c df 4e 6e bc
       -0.006895984 0.03413363 0.02621977 -0.0145451715
0002d0 f9 44 35 bd 81 53 da bc e6 a4 63 3b c4 c6 ae bc
       -0.04425523 -0.026651146 0.0034735738 -0.021335013
0002e0 f4 2f 93 bb a7 2b 5e bd af 8a 23 bb 4d 18 30 bd
       -0.0044918004 -0.05424085 -0.0024954488 -0.042991925
0002f0 36 20 7e 38 d3 85 21 3d ce 62 8b 3c 7f b8 18 3d
       6.0588318e-05 0.039434265 0.017014887 0.037285324
000300 03 ea b5 bc d0 57 01 bd dc 2d 0e bd de 11 00 3d
       -0.022206312 -0.031577885 -0.034711704 0.03126704
000310 7a c3 a9 3c 3b 18 ee bc 8a cd 08 39 c3 cb 83 3c
       0.020723093 -0.029064288 0.0001304654 0.016088372
000320 f8 28 7f bd 1e c9 ab 3c cf 77 33 3c ad 0a ac bb
       -0.06229493 0.020969924 0.010953858 -0.005250296
000330 84 9b f8 3b b3 53 22 3d 9d 0a 3f 3c a4 44 f4 3c
       0.0075868983 0.039630603 0.011660245 0.029817887
000340 4c a9 d3 bb ac ea 47 3b c0 a9 17 bd e6 6f 1b 3b
       -0.0064593907 0.0030504866 -0.03702712 0.002371782
000350 0e 0d d8 bb 80 c9 c3 3c bf ec a6 3b f4 d3 d4 3b
       -0.006593353 0.023899794 0.0050941403 0.0064949933
000360 16 7f fb bc c9 34 dc bc 11 7e 20 3d c2 ae 19 3d
       -0.030700248 -0.026880639 0.039182726 0.037520178
000370 5d 88 af 3c 24 c0 49 bc f4 0b 84 3a ac 28 46 3b
       0.021427328 -0.012313876 0.0010074363 0.0030236645
000380 37 96 c7 3c bc 57 c3 bc 38 4b ab 3c 4c 87 bb 3c
       0.02436362 -0.023845546 0.02090989 0.022891663
000390 8a b1 36 bd 9a e8 c3 bb 37 15 7c bc 58 9e de bc
       -0.04460291 -0.005978656 -0.015385917 -0.027175114
0003a0 61 8c 39 3c d4 52 2a bc 40 df 2c 3d 77 54 9d bc
       0.011324973 -0.010395724 0.042205095 -0.019205315
0003b0 04 07 bb 3c d0 f0 ea bc d4 6d 83 bc 5d 6a 09 3c
       0.022830494 -0.028679281 -0.016043581 0.008387175
0003c0 95 59 1d 3d f0 19 c4 3c db 1a ef bc ed 4e 21 3c
       0.03841551 0.02393815 -0.02918761 0.0098454775
0003d0 f0 4c be bc 8e f0 0e 3c ed e2 ee bc ef be aa bb
       -0.023230046 0.008724345 -0.029160941 -0.0052107493
0003e0 78 00 06 3d bc f0 0c bd e5 ef 0c bd 42 68 5c 3c
       0.03271529 -0.03440927 -0.03440847 0.013452591
0003f0 03 cf 4c 3c 5d 00 24 bc 16 3d 38 3d 5a e5 88 bc
       0.012500527 -0.010009852 0.04498013 -0.016710926

bias f4 [32]
000000 22 b6 09 3d 19 2b 1c bb f0 4b bd bc 38 a2 02 3c
       0.03362096 -0.00238294 -0.023107499 0.007973246
000010 15 b4 41 38 96 bf 0f 3c 59 4e ff 3c 8f 37 1c bd
       4.61825e-05 0.008773705 0.031165289 -0.038138922
000020 71 5f 06 bc e0 eb 8d bc bb 58 39 3d 28 48 37 bc
       -0.008201466 -0.017324388 0.045250636 -0.011186637
000030 4d eb 02 ba 3c 4e fe bc 5a 5b 68 3c a3 bd 37 bc
       -0.0004994169 -0.031043164 0.014181936 -0.0112146465
000040 aa 00 5a 3c 17 b7 f5 bb 86 a6 09 3b 71 01 94 bc
       0.013305822 -0.0074986327 0.0021003797 -0.018067094
000050 04 37 03 3d 84 c7 ae bc 52 a3 db bc 8e e5 b0 bb
       0.03203489 -0.02133537 -0.026811276 -0.005398459
000060 5b 80 19 bd 3e ab 98 bc c6 f7 b9 3c ea 11 f0 bc
       -0.037475925 -0.018636342 0.022701155 -0.029305417
000070 63 2f 00 bc 20 55 d8 3c 2f 0c 11 3d 5e 44 16 3d
       -0.007823798 0.026407778 0.03541201 0.036686294

weight f4 [9, 32, 3, 3]
000000 29 89 5e 3d 91 e3 59 3d 64 23 22 bc ba 8d b8 bc
       0.054330025 0.05319554 -0.009896133 -0.022528518
000010 4e e1 8f bb 0d 83 b7 3c 84 1e 22 3c bd 0a f8 bc
       -0.004390872 0.022401357 0.009894971 -0.030278558
000020 f6 7b 71 3d 5b 8f ac bc 97 d7 24 3d 11 d8 a1 bb
       0.05895611 -0.021064451 0.040244665 -0.004939087
000030 ab 43 97 3c 58 f5 bf ba f8 57 6c 3c 01 21 28 bd
       0.018464884 -0.0014645262 0.01442527 -0.0410471
000040 09 4b 92 3c 88 d9 2e bd 7c 90 1f 3d 5e fa 32 bd
       0.017858045 -0.042687923 0.03895615 -0.0436958
000050 d6 6a 6d 3d 69 7c 86 bd 24 10 6a bd ac 2e 84 3d
       0.057963215 -0.06566698 -0.0571443 0.064542145
000060 0a b5 0e 3d 61 7b 54 bd 32 f9 04 bd 5c 90 5d bd
       0.03484062 -0.051875476 -0.032464214 -0.05409275
000070 a0 c5 2a 3c 63 7f 37 bc cd 52 00 3c 8a b7 dd 3c
       0.010423094 -0.011199805 0.007832241 0.027065057
000080 51 7b ed 3c 9d 93 85 bb 76 c4 96 3c 8f 11 1d bd
       0.028989466 -0.0040764348 0.018404227 -0.038346823
000090 c8 29 b9 3c 48 1f aa bd 28 7f 53 3b 27 91 8a bd
       0.02260293 -0.08306748 0.0032271836 -0.06765967
0000a0 f5 71 b7 3d 54 fc 15 3d e7 5e bb 3c 02 1e af bd
       0.089572825 0.036617592 0.022872401 -0.085506454
0000b0 30 80 0d bd ae eb e6 bc 6e 31 e8 3c d3 ac 0b bd
       -0.034546077 -0.028188553 0.028343882 -0.034100365
0000c0 b9 15 52 3d 3a 7b b0 3c 03 bc 18 bd 52 b7 e2 3a
       0.051290248 0.021543134 -0.037288677 0.0017297065
0000d0 eb 7a dc 3c 25 5f 8d 3d 0b de 6b bc 28 61 34 bd
       0.02691408 0.06902913 -0.014396201 -0.044037968
0000e0 b8 40 e2 bc f0 51 95 3c 96 1e 47 3d a6 0f 41 3c
       -0.02761875 0.018227547 0.048613153 0.011783516
0000f0 da 1b 5a 3d 1b b0 0e bd 7e 46 43 bd 3f b6 37 bc
       0.053249218 -0.034835916 -0.04767465 -0.011212884
000100 28 ed 71 3d a8 5f 16 3d 09 bf 44 bc a4 fb 8c bd
       0.05906406 0.03671232 -0.012008437 -0.06883934
000110 f8 f4 9d 3c 31 80 b3 3c c4 cf be bd 15 ef 67 3a
       0.01928185 0.021911712 -0.09316972 0.00088475767
000120 d8 99 3e 3d 7b 13 44 bc 47 ff 33 bd 55 36 17 bd
       0.046533436 -0.011967535 -0.043944623 -0.03691705
000130 b5 ee b6 bc 8e b4 2a 3b eb 16 53 3a c2 ff 2e bd
       -0.022330621 0.002604756 0.0008052426 -0.04272438
000140 33 63 84 3d 97 9d c1 3b 32 6e 7e 3d ee d6 6a bc
       0.06464233 0.0059086788 0.06211681 -0.01433347
000150 54 d6 49 3d 15 a2 cc 3c 03 46 40 bd 1b f1 38 3d
       0.049276665 0.02497963 -0.04694177 0.04515181
000160 dc 60 3a 3d f8 05 12 bd 8b fe 80 3d c2 65 1e be
       0.04550253 -0.035650223 0.0629855 -0.15468505
000170 ec 08 a5 3d 76 54 98 bd 68 74 87 be 19 aa d8 3d
       0.08058342 -0.07437985 -0.26455998 0.105793186
000180 f5 fc 34 3d 90 3e 78 bc a0 b1 0c 3d 6f a1 ae bd
       0.04418655 -0.015151635 0.034349084 -0.08526885
000190 50 fc 5d 3c 80 78 08 3d 80 be 7c bb 20 32 d7 bb
       0.0135489255 0.033318043 -0.0038565695 -0.0065672547
0001a0 e4 91 b7 bc d0 f1 61 bd 4f 48 4b 3d c6 1d 11 3d
       -0.022408433 -0.05516225 0.049629506 0.035428785
0001b0 d7 73 16 bd 13 74 a2 bd 3b 06 d1 bd 46 2b ba ba
       -0.036731567 -0.07932296 -0.102062665 -0.001420357
0001c0 f3 75 4b bd 8c ab e3 3c 15 ce bb bb c1 6f 10 3d
       -0.049673032 0.02779176 -0.005731354 0.035262827
0001d0 8a ff f0 bc b4 8f 09 3d 54 e0 6b 3d 28 d7 45 3d
       -0.029418726 0.03358431 0.057586983 0.048300892
0001e0 f1 ea e4 3c 28 f9 55 3b bf 4d d7 bc 6b b4 d4 bc
       0.02794406 0.003264973 -0.02628219 -0.025964936
0001f0 43 eb e1 bc 7a ce da bb 7e dd 92 3d 73 37 88 3d
       -0.027578002 -0.006677446 0.071711525 0.06651201
000200 46 50 54 ba 8d bb 29 3c 5f af 6d 3d 4a 57 1d 3c
       -0.000809912 0.010359657 0.058028575 0.009603331
000210 2f 80 9f bd dd 2e 2e bc bc 53 8d 3c d5 55 6e 3c
       -0.07788121 -0.01063129 0.017251842 0.014546831
000220 23 7a 57 3d 33 68 44 3c 9c 36 6c 3d 66 95 d2 3c
       0.052606713 0.011987734 0.057669267 0.025706004
000230 ea dc ea bc ad 69 26 3c 47 77 00 3d e2 79 07 bd
       -0.028669793 0.010157031 0.03136375 -0.03307522
000240 d0 b8 11 3c b7 8f 27 3d b0 21 f5 bc 56 9a 09 3d
       0.00889416 0.04090854 -0.02992329 0.03359445
000250 6b ce ee bc 80 69 0f 3d ea 3e c8 3c 79 92 02 3d
       -0.029151162 0.035012722 0.024444062 0.03187797
000260 83 f7 fb bc d5 28 cd 3c 83 7f 41 bc 3b 33 15 bd
       -0.030757671 0.025043884 -0.011810186 -0.03642581
000270 0a 01 58 3d fb cb bb 3b 86 f7 15 bc 6e c3 b5 3c
       0.052735366 0.0057311035 -0.0091532525 0.022187915
000280 b2 39 93 3d b0 67 81 bd d2 45 8f 3c 47 94 69 3d
       0.07188739 -0.06318605 0.017489348 0.057026174
000290 d2 28 cc 3c 86 96 63 bb 8a a5 8f 3d 75 e2 2d 3d
       0.024921808 -0.003472717 0.07013996 0.042452294
0002a0 a9 be b8 3c 68 02 0a bc e0 4d ee bc bf e9 81 3d
       0.022551851 -0.008423425 -0.029089868 0.06343412
0002b0 af 0d d2 3b 99 a3 89 38 77 6a b1 3b 1d 32 bb bc
       0.0064103226 6.5631415e-05 0.005414303 -0.022851044
0002c0 dc 1e 17 3d a1 38 b7 3c 48 97 b9 3c a6 bd ea 3a
       0.036894664 0.02236587 0.022655144 0.0017909303
0002d0 b6 a6 c8 3c 8f c6 5c 3d 4b 30 1f 3d c7 43 73 3d
       0.024493556 0.053900298 0.038864415 0.05939081
0002e0 81 bf be 3c cd 5a 24 3d 31 96 84 bc 6e 40 0b bd
       0.023284676 0.040125657 -0.016184898 -0.03399699
0002f0 67 c1 1f 3d ec 64 8c 3c 29 2c 1e 3b 35 0f 85 3c
       0.039002802 0.017137967 0.0024135208 0.016242603
000300 d0 f1 04 3d 0e af d3 3b 87 e6 1c 3d 8b 3d 76 3d
       0.032457173 0.006460077 0.038305786 0.060117286
000310 7f 05 10 b8 ea 3a 91 bb b1 c8 b1 bc 0a 43 49 3d
       -3.4337394e-05 -0.004432072 -0.021702142 0.0491362
000320 78 7c 2a bc 4f d6 ab 3c 0d 3f c9 bc 88 f5 03 3d
       -0.010405652 0.020976214 -0.024566198 0.03221658
000330 ac da 11 bd 01 52 a0 3c c0 84 a1 bc 15 73 b3 bd
       -0.035608932 0.019570353 -0.01971662 -0.087621845
000340 8e 5e 0a ba 89 4a c3 bc 86 06 7f 3c 05 d5 0d bd
       -0.0005278372 -0.023839252 0.01556552 -0.03462698
000350 d1 15 0e b9 7c 3b ec bc 97 e4 f3 bb 62 3e be bc
       -0.00013550303 -0.028836958 -0.0074430215 -0.023223106
000360 58 bf 5a bc 3e 8a 07 3d 49 97 4a bd 45 9b a1 3c
       -0.013351284 0.033090822 -0.049460683 0.019727359
000370 a7 54 0b bd 96 2f d8 bc 7a 68 68 3c 7e fe 14 3d
       -0.034016278 -0.026389878 0.014185065 0.036375515
000380 29 78 e6 bc d7 8a 61 bd a4 bc 30 3d cf c2 32 bd
       -0.028133469 -0.05506405 0.04314865 -0.043642815
000390 e9 66 4d bc a7 a1 d2 3c d6 e8 1b 3b d1 82 b6 bc
       -0.012536743 0.025711847 0.0023789904 -0.022279175
0003a0 8c c3 33 3d 7c 4a a1 bc a8 57 9a bc 71 57 46 3d
       0.04388766 -0.019688837 -0.018840626 0.048423234
0003b0 02 d0 a4 bc 8e 2a 0b bd d1 81 9e bc 68 df dd bc
       -0.020118717 -0.03397613 -0.01934901 -0.027084067
0003c0 d9 4e 48 3d 87 8d 98 bc cc c7 10 3d c4 87 14 3d
       0.04890332 -0.018622173 0.03534679 0.03626229
0003d0 d1 4a 38 bc 07 6a 0a 3d fe 16 6c 3d 63 c8 bb ba
       -0.011248306 0.03379252 0.057639115 -0.0014326688
0003e0 c8 f4 05 3d f6 92 a0 bc df 46 55 3d 6b be 2e bd
       0.032704145 -0.019601326 0.05206954 -0.042662065
0003f0 16 5e 68 bd f4 3f 8d 3b 3e 34 e5 bc 5e 21 a6 bd
       -0.056730352 0.0043106023 -0.027979013 -0.08111833

bias f4 [9]
000000 96 87 51 3d 27 d3 67 bb 5b e9 1b 3d fb a7 3e 3b
       0.051154695 -0.003537366 0.038064342 0.0029091823
000010 20 df d9 bc 4f c3 95 bc 28 64 ea bc 7a a8 93 3c
       -0.026595652 -0.018281607 -0.028612211 0.018024672
000020 4a 6e 26 3b
       0.0025395327
