.processed/999_logs_scale_3_crop_256_lr0001_epoch100/epoch_39_model.pth (torch_old, 93460 bytes, 6 tensors)

weight f4 [64, 1, 5, 5]
0.14680831 0.16162759 -0.05240793 0.17798334 -0.040806074 0.038434498 -0.089216344 0.11234804
0.18069766 -0.15199958 0.17681143 0.032826066 0.15956564 0.035667304 0.09938087 -0.029797664
0.16775393 0.03818963 -0.09003671 0.051530447 -0.09551527 -0.019500673 -0.07563657 0.13699397
-0.16268437 -0.08661978 -0.049553063 -0.114707954 0.023135269 -0.19149871 0.1874476 -0.16539487
0.16157426 0.038897496 -0.059254203 0.12900291 0.039618466 0.17321868 0.02800577 -0.057246406
0.057904363 -0.047881313 0.09237064 0.18499415 0.12106764 -0.08203591 0.119378 0.039991852
0.10608221 -0.11811228 -0.24750005 -0.15027441 -0.3119361 0.1263027 -0.27891862 0.1433511
0.09415247 0.17830205 0.35170397 -0.26308885 0.04262192 -0.15325396 0.12982236 -0.05221982
-0.051171638 -0.045356765 0.1684453 -0.08342636 -0.03286992 -0.103675805 0.09928742 -0.02221443
0.18293868 -0.06930583 -0.13412449 -0.13113217 -0.10609122 0.11156097 0.09965791 0.16641958
-0.07986359 -0.12170061 0.15841298 -0.04835066 0.15176275 -0.021417668 0.17000078 -0.1129128
-0.060326885 0.098358095 0.068245456 -0.011737427 0.17799535 0.19339071 -0.11700614 -0.10724866
0.20300363 -0.039512653 -0.04424604 -0.16739613 -0.041798323 0.06698412 0.0047584204 -0.20165806
-0.011953384 -0.16065086 -0.20240551 -0.015668938 -0.23605919 -0.13690573 0.20419215 0.18757366
0.37074235 -0.17176804 -0.1232724 -0.09480553 0.028360816 -0.20088334 -0.1265479 -0.12815295
0.04705548 -0.043828733 0.014307961 -0.07931734 -0.0643625 -0.09616434 -0.04987621 -0.13148043
0.18266822 -0.020656034 0.18202993 0.092595406 -0.15580761 0.15796803 -0.042370416 -0.055577874
-0.14680612 -0.1846957 0.081178464 -0.028210748 0.09874878 -0.1521776 0.1724776 -0.1354196
-0.0142645445 0.045960348 0.11875438 0.16760692 0.19693357 -0.15259588 0.065698996 -0.07447772
0.0025941222 -0.14108053 0.19809037 -0.13303141 0.1297753 0.10903109 0.079098545 -0.08852357
0.20970422 0.0784776 0.07634453 -0.15874511 0.11932445 -0.008642929 -0.06982197 0.21654442
0.064236514 -0.08199625 -0.08213747 0.008850359 0.13997456 -0.031072352 -0.08175707 -0.064278245
-0.14650668 0.07478936 0.15818803 -0.18708646 0.04985755 0.10995093 0.04273108 -0.06589608
0.10899691 0.110083275 0.08429576 -0.027034992 -0.0467962 0.027134819 -0.031100549 -0.053348605
0.13352081 0.17770556 -0.017548056 -0.042034756 0.006609154 -0.0075677056 0.05072392 0.059002865
-0.09646437 -0.023408702 0.17060496 -0.02821625 -0.059671734 -0.105479166 -0.0960695 -0.2391222
-0.16978423 0.03819346 0.16177371 0.15242524 -0.21628755 -0.10282848 0.01006403 0.22157452
0.07382165 -0.08693243 0.12837775 -0.020942269 -0.08753958 0.18785217 -0.057980828 -0.042868763
-0.15415217 0.1610353 0.149471 0.094257236 -0.14152753 -0.16983852 -0.16123354 0.16787641
0.16685784 0.23799925 0.14396732 0.07431949 0.029605173 -0.16834547 -0.15394568 -0.17757474
0.11424618 -0.091107875 0.04626579 -0.07686995 0.013722785 -0.0808918 -0.111264065 0.08253402
-0.026778165 0.16404743 -0.045039136 -0.13092636 -0.01308999 -0.084599845 -0.044603225 -0.17982902
00000000: eb54 163e b481 253e b3a9 56bd 4441 363e
00000010: 4524 27bd 7e6d 1d3d 0fb7 b6bd bb16 e63d
00000020: cf08 393e c7a5 1bbe 0e0e 353e a074 063d
00000030: 2d65 233e e117 123d 3388 cb3d 3b1a f4bc
00000040: b0c7 2b3e bb6c 1c3d 2b65 b8bd 9711 533d
00000050: 839d c3bd e0bf 9fbc 59e7 9abd 2648 0c3e
00000060: bb96 26be b665 b1bd 27f8 4abd 01ec eabd
00000070: 2d86 bd3c 3d18 44be 43f2 3f3e 465d 29be
00000080: b973 253e fb52 1f3d 89b4 72bd 5719 043e
00000090: f946 223d 3d60 313e 5b6c e53c 357b 6abd
000000a0: 202d 6d3d 321f 44bd d12c bd3d 1b6f 3d3e
000000b0: 50f2 f73d 7102 a8bd 747c f43d 7fce 233d
000000c0: a141 d93d dae4 f1bd a770 7dbe 89e1 19be
000000d0: 17b6 9fbe 7f55 013e 6cce 8ebe a1ca 123e
000000e0: 03d3 c03d d094 363e 8b12 b43e 95b3 86be
000000f0: 5394 2e3d 9bee 1cbe 27f0 043e 73e4 55bd
00000100: 5a99 51bd 04c8 39bd ed7c 2c3e 70db aabd
00000110: 9ca2 06bd fb53 d4bd 3457 cb3d 09fb b5bc
00000120: 4754 3b3e 37f0 8dbd ee57 09be 8347 06be
00000130: 5b46 d9bd 147a e43d 7219 cc3d e569 2a3e
00000140: 868f a3bd 2b3e f9bd 0337 223e 570b 46bd
00000150: b267 1b3e 1b74 afbc af14 2e3e d33e e7bd
00000160: 5319 77bd f86f c93d 46c4 8b3d 564e 40bc
00000170: 6a44 363e 3708 463e eaa0 efbd 2fa5 dbbd
00000180: 2fe0 4f3e 05d8 21bd 563b 35bd e469 2bbe
00000190: b834 2bbd f82e 893d 86ec 9b3b 737f 4ebe
000001a0: 20d8 43bc a981 24be 6443 4fbe 255c 80bc
000001b0: 80b9 71be 0431 0cbe bf17 513e 4f13 403e
000001c0: f1d1 bd3e f6e3 2fbe 3d76 fcbd 6729 c2bd
000001d0: f154 e83c 5db4 4dbe c695 01be 873a 03be
000001e0: 3fbd 403d c285 33bd f06b 6a3c 2171 a2bd
000001f0: 7dd0 83bd cff1 c4bd ff4a 4cbd cea2 06be
00000200: 610d 3b3e d836 a9bc 0e66 3a3e a9a2 bd3d
00000210: 088c 1fbe 5fc2 213e 9a8c 2dbd a0a5 63bd
00000220: 5854 16be df20 3dbe e540 a63d 3a1a e7bc
00000230: cd3c ca3d 72d4 1bbe f89d 303e 70ab 0abe
00000240: d6b5 69bc eb40 3c3d 7f35 f33d 26a1 2b3e
00000250: f4a8 493e 1842 1cbe 328d 863d c687 98bd
00000260: 2602 2a3b 6a77 10be 34d8 4a3e 6339 08be
00000270: d1e3 043e b14b df3d 6bfe a13d d84b b5bd
00000280: b4bc 563e ddb8 a03d 855a 9c3d 148e 22be
00000290: 6160 f43d 129b 0dbc d2fe 8ebd d2bd 5d3e
000002a0: 6f8e 833d a6ed a7bd b137 a8bd 1901 113c
000002b0: 7e55 0f3e 728b febc 4070 a7bd 50a4 83bd
000002c0: d905 16be 2a2b 993d 0bfc 213e 9893 3fbe
000002d0: 6e37 4c3d f42d e13d c906 2f3d 86f4 86bd
000002e0: c639 df3d 5773 e13d 41a3 ac3d 7d78 ddbc
000002f0: 5fad 3fbd d749 de3c 94c6 febc 1184 5abd
00000300: aeb9 083e 72f8 353e f1c0 8fbc a32c 2cbd
00000310: 9a91 d83b 84fa f7bb e3c3 4f3d fdac 713d
00000320: 1d8f c5bd 9bc3 bfbc 11b3 2e3e c425 e7bc
00000330: 596a 74bd 7605 d8bd 16c0 c4bd 73dc 74be
00000340: ebdb 2dbe bf70 1c3d 02a8 253e 5d15 1c3e
00000350: 7c7a 5dbe bd97 d2bd 9ae3 243c 6ee4 623e
00000360: ce2f 973d a109 b2bd 7575 033e 1f8f abbc
00000370: f447 b3bd 525c 403e 4e7d 6dbd 2897 2fbd
00000380: 11da 1dbe 70e6 243e ed0e 193e f009 c13d
00000390: 98ec 10be 26ea 2dbe 681a 25be cbe7 2b3e
000003a0: c8dc 2a3e 13b6 733e 2b6c 133e d134 983d
000003b0: 8c86 f23c c162 2cbe f0a3 1dbe 27d6 35be
000003c0: e7f9 e93d c496 babd 3281 3d3d fe6d 9dbd
000003d0: 88d5 603c 9aaa a5bd 6ade e3bd 9907 a93d
000003e0: e25d dbbc 0dfc 273e f57a 38bd 8f11 06be
000003f0: 6677 56bc af42 adbd dfb1 36bd 1925 38be

bias f4 [64]
-0.1670062 0.1039099 -0.08488909 0.031534 0.07916687 0.16251564 -0.02008564 0.05994597
0.0662506 0.12708895 0.034419548 0.05789583 -0.10761123 -0.14189987 0.18331885 -0.10220089
0.03725646 -0.007354302 0.19996975 -0.028282763 -0.094552115 -0.03900349 0.15021713 0.11010948
0.18168749 -0.044460807 0.09427412 -0.15764189 0.09431755 0.11021119 0.15317374 -0.036216043
-0.043363385 0.05416249 -0.13057041 -0.15127112 -0.15960826 0.050076157 0.13167793 0.067994915
0.05303113 0.09989679 -0.10845373 0.04117964 -0.028337443 -0.004397378 0.17654718 -0.1274595
0.031928826 -0.15628591 0.037190855 -0.07919352 0.07420409 -0.067965604 0.14038858 -0.12851305
0.14367509 -0.103562914 0.10696345 0.0042202305 0.0005355253 -0.015674215 0.13391586 0.08298187
00000000: ac03 2bbe b7ce d43d 55da adbd cc29 013d
00000010: 3d22 a23d 806a 263e a48a a4bc e889 753d
00000020: 65ae 873d 9b23 023e 83fb 0c3d 2e24 6d3d
00000030: 4763 dcbd 334e 11be f0b7 3b3e b34e d1bd
00000040: 3b9a 183d 5bfc f0bb dfc4 4c3e 41b1 e7bc
00000050: 8aa4 c1bd 20c2 1fbd 85d2 193e 1481 e13d
00000060: 490c 3a3e 891c 36bd ca12 c13d e06c 21be
00000070: 8f29 c13d 68b6 e13d 94d9 1c3e 4657 14bd
00000080: ce9d 31bd 7dd9 5d3d 40b4 05be d1e6 1abe
00000090: 5970 23be a81c 4d3d 94d6 063e eb40 8b3d
000000a0: 2c37 593d b096 cc3d fd1c debd fbab 283d
000000b0: ed23 e8bc e117 90bb c9c8 343e be84 02be
000000c0: cdc7 023d 6a09 20be 7055 183d 3630 a2bd
000000d0: 50f8 973d 8d31 8bbd 06c2 0f3e ed98 03be
000000e0: 901f 133e cb18 d4bd a70f db3d dc49 8a3b
000000f0: 7f62 0c3a 3667 80bc 3d21 093e 66f2 a93d

weight f4 [32, 64, 3, 3]
-0.030180935 0.009526398 -0.0204665 0.0367119 0.013239128 -0.00519506 -0.016304115 0.022043861
-0.020149503 0.025210567 0.030196153 0.03217461 0.018706502 -0.029015988 0.039101914 -0.008012898
-0.0036337152 0.0012816977 0.022366766 0.0048249825 0.062349148 -0.007308659 0.004789392 0.027912693
-0.0032816955 0.027119221 -0.103635065 -0.017898612 0.05593378 0.02613949 0.011097536 -0.014264638
-0.0063811434 0.0483738 -0.0117654465 -0.04145861 -0.03090585 -0.0009499626 0.0367784 -0.018293476
0.028526772 0.025303613 0.031143589 -0.0029822988 -0.017191678 0.02890185 0.032141052 0.03109961
-0.014102089 0.03011484 0.03222293 -0.026940236 0.0035272231 -0.013976695 0.016170891 -0.0033686983
0.039093513 0.030353058 0.008482853 -0.018468037 -0.015921857 0.025152372 0.062549524 -0.022148963
0.013796546 -0.015382168 -0.013070898 0.043950967 0.026755087 -0.006284578 0.012077949 0.014850801
0.04510037 0.023863118 -0.058370396 0.06340258 -0.024860512 -0.02759016 0.026444344 0.035757996
0.03580055 -0.0014352546 0.007933973 0.050982036 -0.008110653 0.009588681 0.030072192 0.028042011
-0.017648784 0.05285997 0.02261461 -0.011891171 0.045273084 -0.02188705 0.048460305 0.040170606
-0.023310322 -0.021025157 -0.030535545 -0.03373325 -0.055599134 -0.0068677277 0.02420426 0.077945136
0.051247843 0.023831239 0.037877318 -0.021645105 -0.030106863 0.009821381 0.046375338 0.010897137
0.0005671647 -0.020437187 -0.015939772 -0.026329359 0.037629545 -0.012092891 -0.043403734 -0.0016946649
-0.0029431295 -0.011151896 0.009148972 0.01670798 -0.04483529 -0.037528552 0.00020060937 -0.038293958
-0.03215135 0.038971044 0.0009600821 -0.015481664 -0.013755292 -0.030398902 0.034450267 -0.0024581675
-0.006059091 -0.031582795 0.029688615 0.00027061236 -0.0045476896 0.0001442739 -0.0045472733 -0.006799063
0.078370124 -0.013585962 0.013448647 -0.015353516 -0.0009274336 0.032544393 0.026380261 0.07699552
-0.019839814 -0.011750082 -0.020429952 0.04322026 -0.025438998 0.028639304 0.016325207 0.018335536
0.03200432 -0.006322532 0.031745646 -0.028126951 -0.010682911 0.038617894 0.018965147 0.0019009523
-0.0067545683 -0.02003133 0.03016903 0.0043623364 0.0072337654 0.011169098 0.041125547 -0.013008509
-0.006977772 0.03393872 0.026091084 -0.014614776 -0.044038136 -0.026847504 0.0033395304 -0.021424618
-0.0043868287 -0.054124776 -0.0027577057 -0.04299634 8.7268985e-05 0.039528582 0.016828889 0.036912896
-0.02239788 -0.031706195 -0.03459762 0.03109931 0.020698382 -0.02930813 0.0001842074 0.015952958
-0.062071066 0.02103587 0.011064135 -0.0050121928 0.007575502 0.039619766 0.011663209 0.029961606
-0.006433767 0.0030268566 -0.03729063 0.0025023725 -0.0064881993 0.02395756 0.0051935366 0.0065666204
-0.03069864 -0.026888745 0.039409615 0.037722927 0.021318318 -0.012360601 0.0012641274 0.0031064088
0.024537023 -0.023902016 0.0209834 0.022859195 -0.04470392 -0.006084166 -0.015487196 -0.027056769
0.011263769 -0.0103072915 0.042225122 -0.019214142 0.022704272 -0.028587325 -0.01602671 0.008331176
0.038426045 0.023758572 -0.029312726 0.009845764 -0.023459578 0.008673266 -0.029272038 -0.0051779053
0.03249514 -0.034633562 -0.034468662 0.013310605 0.012452246 -0.010469944 0.045107678 -0.016669918
00000000: 023e f7bc 9c14 1c3c 5da9 a7bc 385f 163d
00000010: ede8 583c 523b aabb 3590 85bc 5495 b43c
00000020: 9210 a5bc 6486 ce3c ec5d f73c 86c9 033d
00000030: 613e 993c f0b2 edbc 5429 203d 8848 03bc
00000040: a023 6ebb a3fe a73a 823a b73c e31a 9e3b
00000050: d261 7f3d 7a7d efbb 55f0 9c3b 29a9 e43c
00000060: b711 57bb 2129 de3c 9f3e d4bd 1ca0 92bc
00000070: d21a 653d 7c22 d63c 71d2 353c 3ab6 69bc
00000080: e918 d1bb 9b23 463d dcc3 40bc 81d0 29bd
00000090: 442e fdbc e906 79ba f3a4 163d 33dc 95bc
000000a0: fab0 e93c 8649 cf3c d720 ff3c ac72 43bb
000000b0: 90d5 8cbc 93c3 ec3c 56a6 033d 9cc4 fe3c
000000c0: 730c 67bc 66b3 f63c 31fc 033d c5b1 dcbc
000000d0: fc28 673b 82fe 64bc d178 843c 61c5 5cbb
000000e0: 8520 203d faa6 f83c aafb 0a3c 484a 97bc
000000f0: 8e6e 82bc 590c ce3c f719 803d be71 b5bc
00000100: e80a 623c 7d05 7cbc 5227 56bc ee05 343d
00000110: 7c2d db3c dcee cdbb 97e2 453c c650 733c
00000120: 2abb 383d 967c c33c cc15 6fbd 36d9 813d
00000130: 46a8 cbbc c204 e2bc cfa1 d83c fa76 123d
00000140: 99a3 123d 271f bcba 7ffd 013c 8ad2 503d
00000150: 8be2 04bc d819 1d3c f559 f63c 5cb8 e53c
00000160: 2f94 90bc b283 583d 4642 b93c 30d3 42bc
00000170: 4570 393d 784c b3bc 507e 463d ef89 243d
00000180: 4af5 bebc f33c acbc ae25 fabc e02b 0abd
00000190: ebbb 63bd ad0a e1bb 0348 c63c b3a1 9f3d
000001a0: 42e9 513d bb39 c33c 3f25 1b3d 1351 b1bc
000001b0: aba2 f6bc dce9 203c 11f4 3d3d e889 323c
000001c0: c7ad 143a e36b a7bc 2094 82bc abb0 d7bc
000001d0: 7021 1a3d 4321 46bc 1dc8 31bd 851f deba
000001e0: 85e1 40bb 71b6 36bc 92e5 153c 2cdf 883c
000001f0: 36a5 37bd 8ab7 19bd ab5a 5239 20da 1cbd
00000200: 22b1 03bd 1aa0 1f3d 05ae 7b3a cea6 7dbc
00000210: e05d 61bc 1e07 f9bc b91b 0d3d 3519 21bb
00000220: 578b c6bb f65c 01bd 8a35 f33c fae0 8d39
00000230: c904 95bb 3b48 1739 4b01 95bb adca debb
00000240: 8480 a03d a897 5ebc b757 5c3c 508d 7bbc
00000250: 041f 73ba 454d 053d 6b1b d83c d4af 9d3d
00000260: 1b87 a2bc 6a83 40bc b75c a7bc ba07 313d
00000270: 7265 d0bc f99c ea3c 71bc 853c 6834 963c
00000280: f616 033d 3e2d cfbb b907 023d 7e6a e6bc
00000290: 6007 2fbc cc2d 1e3d cc5c 9b3c 6029 f93a
000002a0: 6d55 ddbb be18 a4bc 0b25 f73c eef1 8e3b
000002b0: 3909 ed3b 98fe 363c 4373 283d a421 55bc
000002c0: cba5 e4bb 5403 0b3d f8bc d53c d072 6fbc
000002d0: 5561 34bd 4cef dbbc 06dc 5a3b ae82 afbc
000002e0: 63bf 8fbb f1b1 5dbd a0ba 34bb ee1c 30bd
000002f0: 2e04 b738 b9e8 213d bddc 893c fa31 173d
00000300: c27b b7bc 5bde 01bd 3cb6 0dbd fbc3 fe3c
00000310: a78f a93c 9a17 f0bc cc27 4139 c7af 823c
00000320: 3b3e 7ebd 6b53 ac3c 5846 353c 523d a4bb
00000330: eb3b f83b 5648 223d 0b17 3f3c 0b72 f53c
00000340: 59d2 d2bb 3a5e 463b 0fbe 18bd d8fe 233b
00000350: f69a d4bb a542 c43c 8b2e aa3b ce2c d73b
00000360: b77b fbbc c945 dcbc fa6b 213d 5b83 1a3d
00000370: c1a3 ae3c 1e84 4abc 14b1 a53a e494 4b3b
00000380: de01 c93c 29ce c3bc 61e5 ab3c 3543 bb3c
00000390: 751b 37bd af5d c7bb 02be 7dbc 28a6 ddbc
000003a0: ac8b 383c eadf 28bc 40f4 2c3d fa66 9dbc
000003b0: 4ffe b93c f72f eabc 724a 83bc 7c7f 083c
000003c0: a164 1d3d 56a1 c23c 3e21 f0bc 2150 213c
000003d0: 4d2e c0bc 501a 0e3c eacb efbc 6bab a9bb
000003e0: a019 053d ecdb 0dbd 032f 0dbd b914 5a3c
000003f0: 8104 4c3c 218a 2bbc d4c2 383d 5a8f 88bc

bias f4 [32]
0.03369712 -0.002009937 -0.022990692 0.0079135075 0.00046858168 0.008722516 0.03099447 -0.037969835
-0.008067486 -0.017392471 0.045250062 -0.011200232 -0.00045907602 -0.031047601 0.013917723 -0.011548241
0.01317965 -0.007619204 0.0018548601 -0.018208586 0.032040287 -0.021441802 -0.026871998 -0.005274389
-0.037477322 -0.018338887 0.022838224 -0.029388038 -0.007258094 0.026453065 0.035804547 0.036305238
00000000: fe05 0a3d 26b9 03bb fa56 bcbc a8a7 013c
00000010: f8ab f539 e2e8 0e3c 1de8 fd3c 4286 1bbd
00000020: 7d2d 04bc a87a 8ebc 2158 393d 2e81 37bc
00000030: 24b0 f0b9 8a57 febc 2907 643c d534 3dbc
00000040: 75ef 573c 84aa f9bb c71e f33a 2c2a 95bc
00000050: ad3c 033d b8a6 afbc aa22 dcbc c8d4 acbb
00000060: d281 19bd 6f3b 96bc 3a17 bb3c 2fbf f0bc
00000070: 4ed5 edbb 19b4 d83c caa7 123d cdb4 143d

weight f4 [9, 32, 3, 3]
0.054335743 0.05317232 -0.010235553 -0.022685245 -0.0043267403 0.022525927 0.009746193 -0.030368662
0.05895989 -0.0210659 0.04040471 -0.0049079848 0.018545076 -0.001426352 0.014411471 -0.041002955
0.017862901 -0.042718034 0.038673487 -0.044026695 0.0584896 -0.06568525 -0.057108518 0.064664304
0.034746975 -0.051609274 -0.032554865 -0.05475259 0.010071525 -0.011802915 0.008020435 0.02718988
0.029343061 -0.0045039845 0.018472837 -0.038351644 0.021073962 -0.08271357 0.003262389 -0.06728262
0.090414844 0.036170363 0.02269628 -0.08577935 -0.034237392 -0.028201569 0.028332943 -0.03405636
0.051268034 0.02162045 -0.037274845 0.0016716813 0.026993783 0.06911911 -0.014149338 -0.044178236
-0.027713362 0.017980063 0.048632424 0.011739642 0.052993156 -0.035082947 -0.04773877 -0.011188737
0.059598245 0.036353238 -0.011827216 -0.06909666 0.019414432 0.021875922 -0.09319432 0.00098071
0.046216797 -0.012143169 -0.044297665 -0.036691174 -0.022068495 0.0028464575 0.0005081964 -0.042901624
0.0645502 0.0055424585 0.062162135 -0.014631015 0.049586106 0.024992714 -0.047047153 0.04484798
0.045255605 -0.03572143 0.051164128 -0.16970603 0.07999203 -0.06623018 -0.27488822 0.11059592
0.047402203 -0.013540248 0.028607622 -0.08517492 0.013590908 0.03318439 -0.003983263 -0.0064734113
-0.02245208 -0.05526193 0.049699478 0.03541514 -0.03633593 -0.07916826 -0.101988636 -0.0011228727
-0.04985977 0.027833806 -0.0055332743 0.034808725 -0.029663324 0.033542283 0.057621162 0.04800743
0.02794386 0.0032039105 -0.026377209 -0.026131978 -0.027686028 -0.006748402 0.072154574 0.066103965
-0.0006532435 0.010215124 0.058392927 0.009489588 -0.07775944 -0.010674311 0.017206416 0.01483013
0.053381525 0.011230664 0.05735318 0.025584169 -0.02856209 0.009995854 0.031512007 -0.03285072
0.00912761 0.04069498 -0.029794749 0.03353047 -0.029247489 0.035183452 0.024285754 0.03182002
-0.030663682 0.025104456 -0.012139601 -0.035941552 0.052569315 0.006262436 -0.009390691 0.022410417
0.07187725 -0.06307369 0.017515736 0.057182614 0.025185429 -0.0036711232 0.07034814 0.042276427
0.022337219 -0.008655033 -0.029189596 0.0637384 0.006538937 0.00025646779 0.0051840297 -0.022957277
0.036823627 0.02238802 0.022761617 0.0017864008 0.02461668 0.05375519 0.03907852 0.059221365
0.022966413 0.040329497 -0.016830545 -0.03417423 0.03892828 0.017412823 0.0023811196 0.01610069
0.032404277 0.006264195 0.038189966 0.059817944 -0.00018149754 -0.004565692 -0.021848299 0.049337707
-0.010604343 0.02084735 -0.024391413 0.03241199 -0.035815466 0.019448142 -0.019849367 -0.08757874
0.00017163652 -0.024438743 0.016530072 -0.035057746 0.00017533179 -0.02906585 -0.007896186 -0.02312013
-0.013338678 0.033081643 -0.04947908 0.01972796 -0.034004252 -0.026405538 0.014205696 0.03635801
-0.028122738 -0.07628684 0.07777354 -0.05265589 -0.012495548 0.037036467 0.005103983 -0.028306043
0.040369716 -0.020511372 -0.01941001 0.048349466 -0.020261705 -0.034071624 -0.019325865 -0.026770966
0.049116835 -0.01854529 0.035686795 0.036258344 -0.011753232 0.033851504 0.057505906 -0.0013528876
0.033052344 -0.01981314 0.051900122 -0.042706702 -0.05702623 0.0042375675 -0.028329697 -0.08094216
00000000: 288f 5e3d 38cb 593d 05b3 27bc 68d6 b9bc
00000010: 54c7 8dbb 4b88 b83c 7fae 1f3c b3c7 f8bc
00000020: ed7f 713d 6592 acbc 697f 253d 29d3 a0bb
00000030: d8eb 973c 6ef4 baba 171e 6c3c b7f2 27bd
00000040: 3855 923c 1bf9 2ebd 1768 1e3d 5655 34bd
00000050: ca92 6f3d fd85 86bd 9fea 69bd b86e 843d
00000060: d852 0e3d 3f64 53bd 4058 05bd 4044 60bd
00000070: 0a03 253c 0361 41bc 2568 033c 50bd de3c
00000080: dc60 f03c 2996 93bb 5954 973c 9d16 1dbd
00000090: 4da3 ac3c bb65 a9bd cecd 553b 78cb 89bd
000000a0: 6b2b b93d 6027 143d 8ded b93c 15ad afbd
000000b0: 823c 0cbd fa06 e7bc 7d1a e83c af7e 0bbd
000000c0: 6efe 513d 5f1d b13c 82ad 18bd 511c db3a
000000d0: 1122 dd3c 528e 8d3d a0d2 67bc 3df4 34bd
000000e0: 2207 e3bc ed4a 933c cb32 473d a157 403c
000000f0: 5a0f 593d 23b3 0fbd ba89 43bd f750 37bc
00000100: 4a1d 743d 22e7 143d f0c6 41bc 8d82 8dbd
00000110: 040b 9f3c 2235 b33c aadc bebd 2b8b 803a
00000120: d34d 3d3d 24f4 46bc 7871 35bd 7c49 16bd
00000130: fdc8 b4bc a28b 3a3b 7c38 053a 9db9 2fbd
00000140: e532 843d 839d b53b b99d 7e3d edb6 6fbc
00000150: cd1a 4b3d 85bd cc3c 84b4 40bd 84b2 373d
00000160: f15d 393d a250 12bd 7a91 513d 6bc7 2dbe
00000170: ddd2 a33d b0a3 87bd 26be 8cbe 1d80 e23d
00000180: d028 423d ebd7 5dbc 885a ea3c 3070 aebd
00000190: 66ac 5e3c 5bec 073d 0886 82bb e91e d4bb
000001a0: 6ded b7bc 555a 62bd ae91 4b3d 770f 113d
000001b0: fcd4 14bd f822 a2bd 6bdf d0bd 5b2d 93ba
000001c0: c239 4cbd b903 e43c 7850 b5bb 9893 0e3d
000001d0: 8000 f3bc a263 093d 2b04 6c3d 70a3 443d
000001e0: 86ea e43c b3f8 513b 0415 d8bc bb12 d6bc
000001f0: cfcd e2bc b321 ddbb c7c5 933d 8461 873d
00000200: 6e3e 2bba 565d 273c 6c2d 6f3d 387a 1b3c
00000210: 5740 9fbd 4ee3 2ebc 78f4 8c3c 13fa 723c
00000220: 96a6 5a3d d200 383c 2beb 6a3d e495 d13c
00000230: 0bfb e9bc a7c5 233c bc12 013d 7a8e 06bd
00000240: f98b 153c c8af 263d 1e14 f4bc 3f57 093d
00000250: 6e98 efbc 861c 103d ebf2 c63c b655 023d
00000260: 6732 fbbc dca7 cd3c 2de5 46bc 7337 13bd
00000270: ec52 573d 1f35 cd3b 6adb 19bc 0d96 b73c
00000280: 6134 933d c72c 81bd 297d 8f3c 5138 6a3d
00000290: ac51 ce3c 3a97 70bb b012 903d 0c2a 2d3d
000002a0: 8bfc b63c d7cd 0dbc 051f efbc 4789 823d
000002b0: 9444 d63b 8676 8639 cbde a93b e610 bcbc
000002c0: 5fd4 163d 1567 b73c 9276 ba3c aa25 ea3a
000002d0: eba8 c93c 672e 5c3d cc10 203d 1a92 723d
000002e0: 0f24 bc3c 8b30 253d 36e0 89bc 47fa 0bbd
000002f0: 4373 1f3d 56a5 8e3c 8f0c 1c3b 98e5 833c
00000300: 59ba 043d e043 cd3b 156d 1c3d a903 753d
00000310: 6050 3eb9 cd9b 95bb 34fb b2bc 5616 4a3d
00000320: d7bd 2dbc 10c8 aa3c 80d0 c7bc 6fc2 043d
00000330: 3db3 12bd b651 9f3c 249b a2bc 7c5c b3bd
00000340: 54f9 3339 c233 c8bc 136a 873c b698 0fbd
00000350: 45d9 3739 811b eebc 015f 01bc 6d66 bdbc
00000360: 788a 5abc 9e80 073d 93aa 4abd 889c a13c
00000370: 0b48 0bbd 6d50 d8bc 02bf 683c 23ec 143d
00000380: a861 e6bc 463c 9cbd bc47 9f3d b4ad 57bd
00000390: 21ba 4cbc 8db3 173d 503f a73b 13e2 e7bc
000003a0: b75a 253d 7707 a8bc be01 9fbc 170a 463d
000003b0: e0fb a5bc b08e 0bbd 4751 9ebc c94e dbbc
000003c0: bc2e 493d 4bec 97bc 512c 123d a183 143d
000003d0: a190 40bc e0a7 0a3d 508b 6b3d 6053 b1ba
000003e0: e561 073d 2b4f a2bc 3995 543d 39ed 2ebd
000003f0: 5694 69bd 4bdb 8a3b ae13 e8bc 01c5 a5bd

bias f4 [9]
0.050920166 -0.0032690796 0.037920624 0.0028872015 -0.026261458 -0.017867848 -0.028319385 0.017616874
0.0023526342
00000000: aa91 503d 0e3e 56bb a852 1b3d 3437 3d3b
00000010: 4522 d7bc 985f 92bc 0efe e7bc 4351 903c
00000020: a72e 1a3b
