.processed/999_logs_scale_3_crop_256_lr0001_epoch100/epoch_24_model.pth (torch_old, 93460 bytes, 6 tensors)

weight f4 [64, 1, 5, 5]
0.14736022 0.16374226 -0.05118013 0.18084295 -0.04357094 0.039309163 -0.09168455 0.113689974
0.17924474 -0.15170588 0.17625941 0.036790483 0.15816219 0.0334484 0.09767452 -0.029045079
0.16595069 0.037700504 -0.09065263 0.054517027 -0.093307756 -0.018722584 -0.07608201 0.13711518
-0.16131827 -0.08616662 -0.05000643 -0.11431966 0.023266328 -0.19176298 0.1870112 -0.1649433
0.16122298 0.038675122 -0.059870668 0.12925005 0.03933551 0.17239556 0.028031461 -0.057097845
0.057958968 -0.047765028 0.091777794 0.18485878 0.120984726 -0.082783386 0.120099865 0.040604245
0.10621841 -0.1180282 -0.28070602 -0.16123046 -0.25561276 0.15383637 -0.1297192 0.12826578
0.10669704 0.14683227 0.27917972 -0.23607516 0.03229037 -0.14650872 0.11061303 -0.062587515
-0.036840733 -0.036300395 0.17259604 -0.09982515 -0.07045868 -0.14815815 0.14384511 0.025178978
0.19482164 -0.098433375 -0.18986899 -0.13238828 -0.108494334 0.11215073 0.100100055 0.1704391
-0.08330366 -0.12078472 0.1560843 -0.04758329 0.15115419 -0.02085243 0.1676291 -0.113287866
-0.06089375 0.09826217 0.06770096 -0.011637291 0.17740108 0.1931025 -0.118261665 -0.10584968
0.20343034 -0.040263366 -0.04444018 -0.16866687 -0.07649049 0.05841219 0.0018114805 -0.17412135
-0.005570599 -0.1678711 -0.19373797 -0.045390613 -0.20345531 -0.13598326 0.23247452 0.17563683
0.26892528 -0.14569831 -0.09544452 -0.059294138 0.043238577 -0.18621927 -0.096966594 -0.100335754
0.057921752 -0.046315122 0.015839154 -0.0946484 -0.06596539 -0.10152011 -0.0523123 -0.13838886
0.18114391 -0.024720844 0.1810527 0.08629609 -0.15851954 0.15503643 -0.04448068 -0.05872204
-0.15126075 -0.18647794 0.07656186 -0.030458685 0.094185345 -0.15264468 0.16770011 -0.13695328
-0.018113732 0.047820166 0.11498153 0.16982387 0.19432998 -0.15132491 0.06443914 -0.07421658
0.0020456824 -0.14137074 0.19708744 -0.13336365 0.12916651 0.10860169 0.0778691 -0.08884792
0.20871098 0.07865716 0.0745131 -0.15890971 0.118284546 -0.009375841 -0.06996079 0.21575336
0.063613296 -0.08300488 -0.082672074 0.008727869 0.14032222 -0.03205932 -0.08347243 -0.06480879
-0.14542718 0.07529765 0.15863201 -0.1863626 0.04954429 0.11031557 0.042457093 -0.06552275
0.10908288 0.11020454 0.08389929 -0.027214315 -0.046468068 0.027165746 -0.030827176 -0.053813968
0.13393366 0.17797211 -0.016930046 -0.042192865 0.006172459 -0.0073241075 0.051170986 0.059108935
-0.119957335 -0.02476409 0.18417981 0.01751607 -0.04622178 -0.09349221 -0.09143657 -0.21122748
-0.13231973 0.057918604 0.15281177 0.12811917 -0.21693471 -0.12956876 -0.011725691 0.21981604
0.06089481 -0.08397771 0.100113004 -0.047458697 -0.08917036 0.19133909 -0.04945166 -0.03635274
-0.16320562 0.16526523 0.16232738 0.09619014 -0.13314113 -0.17958778 -0.15701038 0.17109734
0.14858302 0.22001962 0.14164607 0.07704701 0.031456225 -0.15342815 -0.15064569 -0.17349109
0.11308717 -0.079505764 0.028601058 -0.08011703 0.0028401562 -0.0943055 -0.11440253 0.09465612
-0.035723608 0.16342708 -0.05083005 -0.1345608 -0.021213733 -0.08686899 -0.051276222 -0.18100847
00000000: 99e5 163e 0dac 273e 42a2 51bd e52e 393e
00000010: 7177 32bd a502 213d 1cc5 bbbd 4ad6 e83d
00000020: ef8b 373e c958 1bbe 597d 343e 9eb1 163d
00000030: 45f5 213e 3101 093d 9409 c83d f2ef edbc
00000040: faee 293e d86b 1a3d 16a8 b9bd 3f4d 5f3d
00000050: 2318 bfbd 1b60 99bc e3d0 9bbd ec67 0c3e
00000060: 9e30 25be 2078 b0bd 8bd3 4cbd 6d20 eabd
00000070: 0799 be3c 845d 44be dd7f 3f3e e5e6 28be
00000080: a317 253e ce69 1e3d f23a 75bd 205a 043e
00000090: 461e 213d 7688 303e 3ca2 e53c 6edf 69bd
000000a0: 6266 6d3d 43a5 43bd fff5 bb3d 9f4b 3d3e
000000b0: d7c6 f73d 568a a9bd ebf6 f53d a350 263d
000000c0: 0a89 d93d c5b8 f1bd b3b8 8fbe 9919 25be
000000d0: addf 82be 4887 1d3e 1cd5 04be 1b58 033e
000000e0: fa83 da3d 335b 163e a5f0 8e3e b0bd 71be
000000f0: e842 043d 6206 16be 1689 e23d e22d 80bd
00000100: 4fe6 16bd b9af 14bd 04bd 303e 2171 ccbd
00000110: a44c 90bd c5b6 17be 224c 133e 2544 ce3c
00000120: 537f 473e 7097 c9bd 046d 42be cb90 07be
00000130: 4732 debd 48af e53d 4201 cd3d 9687 2e3e
00000140: 1c9b aabd fb5d f7bd 90d4 1f3e b2e6 42bd
00000150: 2ac8 1a3e b7d2 aabc f6a6 2b3e 7803 e8bd
00000160: ba6b 79bd ad3d c93d cda6 8a3d 56aa 3ebc
00000170: a1a8 353e a9bc 453e 2c33 f2bd b8c7 d8bd
00000180: 0b50 503e 33eb 24bd e806 36bd 02b7 2cbe
00000190: 0ca7 9cbd 9f41 6f3d 336f ed3a de4c 32be
000001a0: 9289 b6bb 67e6 2bbe 3f63 46be 82eb 39bd
000001b0: 9756 50be 323f 0bbe cd0d 6e3e 24da 333e
000001c0: 93b0 893e f031 15be 6b78 c3bd 69de 72bd
000001d0: ef1a 313d 44b0 3ebe 6c96 c6bd d57c cdbd
000001e0: 5c3f 6d3d edb4 3dbd 1dc1 813c 05d7 c1bd
000001f0: dd18 87bd c7e9 cfbd 6c45 56bd cfb5 0dbe
00000200: ca7d 393e 5e83 cabc e165 393e 01bc b03d
00000210: f252 22be dfc1 1e3e 6031 36bd 8686 70bd
00000220: 19e4 1abe 13f4 3ebe 77cc 9c3d 7e84 f9bc
00000230: 3fe4 c03d e34e 1cbe 94b9 2b3e 7b3d 0cbe
00000240: 4063 94bc 14df 433d 707b eb3d 4fe6 2d3e
00000250: 70fe 463e ebf4 1abe abf8 833d ddfe 97bd
00000260: db10 063b 7ec3 10be 4ad1 493e 7b90 08be
00000270: 3a44 043e 906a de3d d679 9f3d e6f5 b5bd
00000280: 55b8 553e 0117 a13d 539a 983d 3ab9 22be
00000290: 2b3f f23d 219d 19bc 9a47 8fbd 73ee 5c3e
000002a0: b047 823d 76fe a9bd fa4f a9bd 56ff 0e3c
000002b0: a1b0 0f3e a250 03bd 98f3 aabd 79ba 84bd
000002c0: ddea 14be a835 9a3d 6e70 223e d6d5 3ebe
000002d0: f4ee 4a3d 21ed e13d 7de7 2d3d cb30 86bd
000002e0: d866 df3d ebb2 e13d 64d3 ab3d 8ef0 debc
000002f0: 4d55 3ebd b38a de3c 4689 fcbc 096c 5cbd
00000300: e825 093e 523e 363e e1b0 8abc 6dd2 2cbd
00000310: 5742 ca3b 11ff efbb ab98 513d 361c 723d
00000320: 31ac f5bd 10de cabc a299 3c3e dc7d 8f3c
00000330: 0d53 3dbd d878 bfbd 1943 bbbd 044c 58be
00000340: d37e 07be 0f3c 6d3d b07a 1c3e ac31 033e
00000350: 2224 5ebe acad 04be 1d1d 40bc 7517 613e
00000360: d66c 793d 81fc abbd 0c08 cd3d 0d64 42bd
00000370: f39e b6bd 65ee 433e d38d 4abd 9ce6 14bd
00000380: 601f 27be 4a3b 293e 2639 263e 56ff c43d
00000390: 2656 08be dce5 37be 54c7 20be 2434 2f3e
000003a0: 2626 183e d34c 613e ab0b 113e d3ca 9d3d
000003b0: 3ed8 003d 451c 1dbe dd42 1abe a6a7 31be
000003c0: 3f9a e73d ebd3 a2bd c44c ea3c 6614 a4bd
000003d0: ea21 3a3b 3e23 c1bd e04b eabd 11db c13d
000003e0: eb52 12bd 6e59 273e 2c33 50bd 4eca 09be
000003f0: 6cc8 adbc 5ee8 b1bd 0407 52bd 495a 39be

bias f4 [64]
-0.17010647 0.10443525 -0.07798266 0.030358015 0.10000754 0.15845756 -0.022530679 0.05999527
0.06853359 0.13572323 0.027341189 0.09653553 -0.11003316 -0.14284238 0.18209165 -0.104785904
0.035792727 -0.011723264 0.20085737 -0.032898635 -0.0960634 -0.04364462 0.1476832 0.111402795
0.17951272 -0.04444571 0.0934398 -0.16225818 0.08948634 0.10113499 0.1518137 -0.03554442
-0.044215716 0.056225076 -0.13266842 -0.15110077 -0.1636888 0.032201685 0.12963171 0.061037492
0.045201033 0.10037102 -0.113259755 0.035817582 -0.034411646 -0.011585673 0.17752254 -0.10378864
0.031781588 -0.16380584 0.034314793 -0.082119934 0.073713996 -0.06777927 0.1361992 -0.13726386
0.1417986 -0.06769262 0.10799116 -0.0030890808 0.00119959 -0.020481259 0.13383475 0.08194924
00000000: 6430 2ebe 26e2 d53d 5fb5 9fbd 5fb1 f83c
00000010: c1d0 cc3d b342 223e 4292 b8bc 9abd 753d
00000020: 575b 8c3d 08fb 0a3e a1fa df3c 6cb4 c53d
00000030: 1159 e1bd 4645 12be 3c76 3a3e fe99 d6bd
00000040: 659b 123d ef12 40bc 8ead 4d3e b8c0 06bd
00000050: e3bc c4bd b3c4 32bd 443a 173e 2627 e43d
00000060: 2fd2 373e b40c 36bd 5e5d bf3d 0227 26be
00000070: 9d44 b73d dd1f cf3d 0d75 1b3e 0797 11bd
00000080: 8a1b 35bd 444c 663d 3bda 07be 29ba 1abe
00000090: 099e 27be eae5 033d 2dbe 043e 7302 7a3d
000000a0: b824 393d 528f cd3d bbf4 e7bd 75b5 123d
000000b0: 3af3 0cbd d6d1 3dbc 78c8 353e 238f d4bd
000000c0: 692d 023d b8bc 27be ab8d 0c3d 7f2e a8bd
000000d0: 5df7 963d dccf 8abd ce77 0b3e e68e 0cbe
000000e0: a733 113e 6ea2 8abd 782a dd3d 2d72 4abb
000000f0: 903b 9d3a 50c8 a7bc fa0b 093e 01d5 a73d

weight f4 [32, 64, 3, 3]
-0.030243518 0.009450296 -0.021261388 0.0365046 0.013018242 -0.0045261215 -0.015925145 0.02181678
-0.019541694 0.02575108 0.029354805 0.032536376 0.018493475 -0.028993016 0.038360555 -0.007665486
-0.0044116713 0.0014239016 0.02525268 0.021532763 0.025958847 0.008566267 -0.020165194 0.009897483
-0.02493467 0.020313442 -0.058555197 -0.01703904 0.054201007 0.02762907 0.009865461 -0.013145624
-0.005476046 0.047695205 -0.010510151 -0.041337922 -0.032324526 0.009078516 0.04015553 -0.025571978
0.016484933 0.015427905 0.028590757 -0.008475834 -0.0076484755 0.029954629 0.031994905 0.033898048
-0.014231024 0.029048175 0.030581562 -0.027783558 0.0060160644 -0.014123683 0.016335577 -0.002578462
0.03741159 0.03126541 0.006771948 -0.016030474 -0.01701849 0.026526125 0.06147989 -0.022472003
0.014072662 -0.015733505 -0.012713315 0.043387704 0.026947824 -0.006039068 0.012515327 0.01462345
0.024370719 0.0048006442 -0.031110054 0.047583196 0.002247795 -0.0011527407 -0.0012913279 0.023161419
0.037621804 -0.0001109126 0.008032688 0.048909217 -0.007433678 0.009831582 0.030269217 0.027121142
-0.01805129 0.05119438 0.022564638 -0.0067866626 0.043518048 -0.017765703 0.044120744 0.04221788
-0.023131747 -0.0191128 -0.032078363 -0.0141954245 -0.052691724 -0.021482784 0.013230771 0.02633536
0.017565895 0.02721795 0.017154949 -0.032725647 -0.02867465 0.008869736 0.046300847 0.010140054
0.0017390532 -0.019653434 -0.015100263 -0.02642923 0.038982842 -0.012374297 -0.043285474 -0.0014340805
-0.0027764486 -0.011109428 0.009208967 0.016739346 -0.044936564 -0.037579346 -9.594743e-05 -0.037414048
-0.032920722 0.039095506 -0.00085534697 -0.01589522 -0.0141107 -0.029847039 0.03534299 -0.00195637
-0.007661618 -0.031073319 0.031173501 0.0016826272 -0.004513051 0.0008171195 -0.0048297527 -0.0045157475
0.07893646 -0.013001051 0.012765023 -0.015861861 -0.0021959203 0.031932335 0.027026286 0.07830797
-0.018895915 -0.013074795 -0.018988984 0.043714885 -0.024845814 0.029364953 0.017516196 0.01855828
0.030594587 -0.0054117385 0.031860948 -0.028093698 -0.0099995835 0.037840523 0.01891108 0.0012877727
-0.005854601 -0.020221842 0.030193299 0.004986187 0.006745045 0.013298341 0.039303962 -0.013274196
-0.00683383 0.034485362 0.027114948 -0.014211963 -0.045972753 -0.025244799 0.0040400084 -0.020981153
-0.0051888484 -0.054582573 -0.0008222842 -0.042793777 0.0004561958 0.03847 0.017574225 0.038558513
-0.02161303 -0.031393718 -0.03499078 0.03169489 0.020792397 -0.027572818 8.280126e-05 0.016612431
-0.06331188 0.020923732 0.010453152 -0.006316399 0.008014335 0.03963844 0.011691412 0.028898563
-0.0060424423 0.002638886 -0.03583501 0.0015867482 -0.0074379737 0.023547297 0.0044729 0.006192312
-0.030472195 -0.026903331 0.037431333 0.035666678 0.022401148 -0.011901116 -0.00020786597 0.0013113494
0.023947041 -0.023657743 0.020586664 0.0229257 -0.04409921 -0.0056305826 -0.014940549 -0.027642965
0.011629669 -0.010758638 0.04205699 -0.019400623 0.023524452 -0.029165844 -0.016050242 0.008364311
0.038438357 0.024978565 -0.02873621 0.00948905 -0.021995777 0.008699732 -0.029023565 -0.005670058
0.033838116 -0.03353813 -0.034170013 0.014026074 0.012375685 -0.0074064624 0.04453968 -0.016978603
00000000: 41c1 f7bc 6ad5 1a3c 5d2c aebc d985 153d
00000010: 774a 553c dc4f 94bb 7375 82bc 1bb9 b23c
00000020: e715 a0bc eef3 d23c 7d79 f03c dd44 053d
00000030: a17f 973c c382 edbc f51f 1d3d c22e fbbb
00000040: c88f 90bb 36a2 ba3a b5de ce3c 7a65 b03c
00000050: a6a7 d43c 8759 0c3c 7a31 a5bc 0d29 223c
00000060: cb43 ccbc 6068 a63c 93d7 6fbd 7595 8bbc
00000070: e001 5e3d 5c56 e23c bea2 213c be60 57bc
00000080: 6770 b3bb 0c5c 433d c532 2cbc f451 29bd
00000090: b966 04bd 0ebe 143c 207a 243d 537c d1bc
000000a0: 690b 873c 53c5 7c3c 2a37 ea3c 39de 0abc
000000b0: 10a0 fabb 6963 f53c 170d 033d aed8 0a3d
000000c0: 3e29 69bc 70f6 ed3c 2f86 fa3c 589a e3bc
000000d0: 6822 c53b 0567 67bc 30d2 853c 6afb 28bb
000000e0: e53c 193d 2910 003d 38e7 dd3b 5752 83bc
000000f0: 5c6a 8bbc 514d d93c 56d2 7b3d 3517 b8bc
00000100: 0691 663c 8de3 80bc 824b 50bc 4eb7 313d
00000110: afc1 dc3c 60e3 c5bb 160d 4d3c 3297 6f3c
00000120: 1aa5 c73c b94e 9d3b 83da febc 99e6 423d
00000130: be4f 133b 8f17 97ba c641 a9ba 04bd bd3c
00000140: 5219 1a3d c099 e8b8 899b 033c 0855 483d
00000150: 3696 f3bb a514 213c 26f7 f73c 282d de3c
00000160: 4de0 93bc 33b1 513d 7ad9 b83c a762 debb
00000170: fb3f 323d 6189 91bc f4b7 343d a8ec 2c3d
00000180: ca7e bdbc 7292 9cbc 9a64 03bd ed93 68bc
00000190: 47d3 57bd aafc afbc e0c5 583c 41bd d73c
000001a0: 5ae6 8f3c 2ef8 de3c 8988 8c3c 540b 06bd
000001b0: 19e7 eabc 5f52 113c f5a5 3d3d 7822 263c
000001c0: f1f0 e33a 3d00 a1bc 1867 77bc 1d82 d8bc
000001d0: 79ac 1f3d 90bd 4abc 1c4c 31bd c2f7 bbba
000001e0: 14f5 35bb 5104 36bc 35e1 163c f420 893c
000001f0: 670f 38bd cdec 19bd 6237 c9b8 793f 19bd
00000200: e1d7 06bd 9c22 203d 5d39 60ba b136 82bc
00000210: 9130 67bc c781 f4bc d0c3 103d 7136 00bb
00000220: 4f0e fbbb 798d febc 925f ff3c 9a8b dc3a
00000230: 37e2 93bb f633 563a e742 9ebb d6f8 93bb
00000240: 70a9 a13d 5c02 55bc 6324 513c bcf0 81bc
00000250: 6ee9 0fbb 7bcb 023d 3b66 dd3c ee5f a03d
00000260: 9bcb 9abc aa37 56bc c98e 9bbc 610e 333d
00000270: 7389 cbbc c58e f03c 207e 8f3c 8907 983c
00000280: 80a1 fa3c f454 b1bb a080 023d c124 e6bc
00000290: 4bd5 23bc aafe 1a3d 69eb 9a3c 7bca a83a
000002a0: f4d7 bfbb 47a8 a5bc f057 f73c 2b63 a33b
000002b0: 8a05 dd3b 49e1 593c 31fd 203d 037c 59bc
000002c0: 52ee dfbb 8640 0d3d 2b20 de3c 4bd9 68bc
000002d0: ed4d 3cbd 2ece cebc 0c62 843b abe0 abbc
000002e0: 3707 aabb fa91 5fbd 8f8e 57ba 8748 2fbd
000002f0: 902d ef39 b892 1d3d d2f7 8f3c 88ef 1d3d
00000300: cf0d b1bc b396 00bd 7e52 0fbd 80d2 013d
00000310: d154 aa3c 64e0 e1bc 97a5 ad38 cb16 883c
00000320: a9a9 81bd 3f68 ab3c b243 2b3c ccf9 cebb
00000330: 8f4e 033c eb5b 223d 568d 3f3c aebc ec3c
00000340: aeff c5bb 29f1 2c3b bbc7 12bd 6ffa cf3a
00000350: 3fba f3bb 43e6 c03c 6891 923b e1e8 ca3b
00000360: d3a0 f9bc 6064 dcbc 9951 193d 3917 123d
00000370: 9d82 b73c e6fc 42bc 99f6 59b9 96e1 ab3a
00000380: 962c c43c e2cd c1bc 5da5 a83c adce bb3c
00000390: 60a1 34bd c080 b8bb 34c9 74bc 8073 e2bc
000003a0: 5e8a 3e3c 0045 30bc f343 2c3d 0eee 9ebc
000003b0: 5ab6 c03c 35ed eebc cc7b 83bc 770a 093c
000003c0: 8a71 1d3d d99f cc3c 3368 ebbc f677 1b3c
000003d0: 7d30 b4bc 5289 0e3c d4c2 edbc e5cb b9bb
000003e0: d699 0a3d 475f 09bd dbf5 0bbd 9ecd 653c
000003f0: 63c3 4a3c e9b1 f2bb 3d6f 363d b616 8bbc

bias f4 [32]
0.03323706 -0.0028610474 -0.023517912 0.007919261 -0.0015923625 0.008651171 0.031123288 -0.03828899
-0.008531516 -0.017285563 0.04672327 -0.011480776 -9.465345e-06 -0.03154488 0.014652284 -0.010178171
0.013390902 -0.0075081326 0.002415903 -0.01785424 0.03175119 -0.021298349 -0.027226362 -0.0054521966
-0.037468072 -0.018194502 0.022024784 -0.029091656 -0.009226576 0.02714914 0.03253204 0.03830268
00000000: 9523 083d 6980 3bbb a3a8 c0bc cabf 013c
00000010: d2b6 d0ba a4bd 0d3c 44f6 fe3c ead4 1cbd
00000020: c6c7 0bbc 749a 8dbc e660 3f3d dd19 3cbc
00000030: 59cd 1eb7 3435 01bd 2210 703c 58c2 26bc
00000040: 8465 5b3c c806 f6bb 2054 1e3b 0e43 92bc
00000050: 890d 023d e079 aebc d209 dfbc 57a8 b2bb
00000060: 1f78 19bd a30c 95bc 526d b43c a051 eebc
00000070: 112b 17bc e067 de3c 5140 053d 45e3 1c3d

weight f4 [9, 32, 3, 3]
0.054620907 0.053396408 -0.008473268 -0.021756345 -0.0048965947 0.021665672 0.010769963 -0.029980676
0.0586198 -0.02121238 0.039582305 -0.0048057893 0.018285222 -0.0014952262 0.014773253 -0.041313954
0.018080695 -0.042232294 0.041398235 -0.04235095 0.055179723 -0.064723365 -0.05797691 0.06341097
0.037157923 -0.05345215 -0.032567643 -0.0520105 0.011480565 -0.009701794 0.0070632594 0.026803462
0.02705026 -0.0028177435 0.017650831 -0.03878242 0.030819932 -0.08642458 0.002044681 -0.06825679
0.08555841 0.038963098 0.023356963 -0.08396808 -0.037010394 -0.028209314 0.028505927 -0.03440538
0.05111438 0.021126142 -0.037610646 0.001978036 0.026260886 0.06839576 -0.015506861 -0.042978153
-0.027196055 0.01928397 0.048090693 0.011417003 0.054633114 -0.034226056 -0.04784404 -0.010963551
0.056422252 0.038975827 -0.012730494 -0.06722814 0.01796782 0.022751283 -0.092855684 -0.00010945193
0.047322568 -0.01134003 -0.042590853 -0.037454147 -0.023102092 0.0017982905 0.0014902678 -0.042638388
0.06431159 0.0072553568 0.062258627 -0.013854699 0.048712093 0.025155006 -0.04623051 0.0456642
0.045973845 -0.03549752 0.07064708 -0.12184965 0.046275146 -0.08668113 -0.21243434 0.075236835
0.020486994 -0.055774108 0.056409355 -0.086094975 0.0137976175 0.035104327 -0.0037442478 -0.007385936
-0.02234494 -0.054487992 0.049740087 0.03485744 -0.03767524 -0.07970729 -0.102183186 -0.0018956534
-0.04806449 0.027611446 -0.006116414 0.037736993 -0.029489746 0.033807665 0.057586793 0.04972613
0.027553597 0.003235126 -0.026276292 -0.02499436 -0.027344422 -0.006870236 0.069959976 0.06930951
-0.0014856905 0.01109755 0.05619563 0.010387122 -0.07832853 -0.00986224 0.017363977 0.013194529
0.049359858 0.014880191 0.057675347 0.026134416 -0.030515874 0.010401734 0.031313684 -0.034431055
0.008275135 0.04211474 -0.030328372 0.034048066 -0.028712848 0.034204796 0.025753574 0.03213144
-0.031059472 0.023963006 -0.00931628 -0.038981237 0.053147916 0.0030077884 -0.007787793 0.021127414
0.07274484 -0.063348584 0.017521854 0.05658001 0.024355488 -0.003253861 0.06897197 0.0430416
0.022568068 -0.0083692735 -0.029543832 0.06221314 0.00682802 -0.0004937775 0.00569988 -0.022684878
0.03687342 0.021978986 0.021984547 0.0014212718 0.024603935 0.055180117 0.038504295 0.0601082
0.024416598 0.03912854 -0.013871237 -0.033844374 0.038579836 0.015540383 0.003322748 0.016576944
0.032338794 0.0070731435 0.037660223 0.061497435 0.00094200054 -0.0047897664 -0.020970356 0.048261788
-0.009468702 0.021442218 -0.025776183 0.031113839 -0.035355855 0.019285696 -0.01982487 -0.08715063
-0.004060318 -0.019632986 0.011355905 -0.03185134 -0.0017334379 -0.028047282 -0.006196453 -0.025966585
-0.013400564 0.033102386 -0.049413234 0.019712724 -0.03405667 -0.026341517 0.014113917 0.03641266
-0.02814729 0.008461301 -0.017252397 -0.035117976 -0.004884951 -0.00090569747 -0.017063312 -0.0051611844
0.05167692 -0.022844555 -0.016297428 0.04866205 -0.020060392 -0.034119748 -0.019446218 -0.02996572
0.048880853 -0.018102877 0.033636753 0.035503596 -0.009371051 0.03293316 0.057656627 -0.0010256664
0.030558966 -0.01919981 0.0528898 -0.0436303 -0.055423208 0.004741927 -0.025690746 -0.08178219
00000000: 2cba 5f3d 31b6 5a3d 76d3 0abc 5d3a b2bc
00000010: 9d73 a0bb 357c b13c 8074 303c 099a f5bc
00000020: 511b 703d 96c5 adbc 0e21 223d e279 9dbb
00000030: e4ca 953c 77fb c3ba 840b 723c d238 29bd
00000040: f71d 943c c5fb 2cbd 3291 293d 3178 2dbd
00000050: 2204 623d af8d 84bd 3279 6dbd 9cdd 813d
00000060: e832 183d a4f0 5abd a665 05bd f608 55bd
00000070: fb18 3c3c 46f4 1ebc ea72 e73b ef92 db3c
00000080: 8298 dd3c e4a9 38bb 7a98 903c 51da 1ebd
00000090: 157a fc3c 5fff b0bd 0e00 063b 37ca 8bbd
000000a0: 3f39 af3d c597 1f3d 1a57 bf3c 75f7 abbd
000000b0: 3698 17bd 3817 e7bc 4385 e93c a8ec 0cbd
000000c0: 505d 513d bb10 ad3c 9f0d 1abd f0a1 013b
000000d0: 1221 d73c 1413 8c3d 7d10 7ebc dc09 30bd
000000e0: 43ca debc 6bf9 9d3c bffa 443d 620e 3b3c
000000f0: f9c6 5f3d 9f30 0cbd 1df8 43bd 77a0 33bc
00000100: 051b 673d 1ea5 1f3d 9093 50bc e8ae 89bd
00000110: 4031 933c e660 ba3c 1f2b bebd 8f89 e5b8
00000120: 4fd5 413d 88cb 39bc bf73 2ebd 8569 19bd
00000130: 9940 bdbc 9eb4 eb3a 1755 c33a 97a5 2ebd
00000140: cbb5 833d 58be ed3b e702 7f3d d2fe 62bc
00000150: 5586 473d df11 ce3c 345c 3dbd 620a 3b3d
00000160: 124f 3c3d d965 11bd 6baf 903d 4f8c f9bd
00000170: 028b 3d3d e085 b1bd 6388 59be c515 9a3d
00000180: 57d4 a73c 6473 64bd 7f0d 673d 9052 b0bd
00000190: 670f 623c 8ec9 0f3d 0e62 75bb b905 f2bb
000001a0: bc0c b7bc cd2e 5fbd 43bc 4b3d adc6 0e3d
000001b0: 5a51 1abd 933d a3bd 6b45 d1bd 9377 f8ba
000001c0: 45df 44bd 6631 e23c 336c c8bb 1b92 1a3d
000001d0: 7b94 f1bc e879 0a3d 21e0 6b3d a0ad 4b3d
000001e0: 15b8 e13c 6804 543b 6141 d7bc f9c0 ccbc
000001f0: 6901 e0bc b71f e1bb 2d47 8f3d 25f2 8d3d
00000200: 80bb c2ba 80d2 353c 642d 663d bf2e 2a3c
00000210: b56a a0bd 3c95 21bc e63e 8e3c de2d 583c
00000220: 902d 4a3d 0bcc 733c fc3c 6c3d d817 d63c
00000230: 6dfc f9bc 096c 2a3c c742 003d 9407 0dbd
00000240: 6f94 073c 8180 2c3d 3573 f8bc fc75 0b3d
00000250: 3537 ebbc 541a 0c3d 29f9 d23c 429c 033d
00000260: 6f70 febc 114e c43c 4fa3 18bc caaa 1fbd
00000270: a1b1 593d 511e 453b be30 ffbb 6613 ad3c
00000280: 3ffb 943d e7bc 81bd fe89 8f3c 71c0 673d
00000290: 2985 c73c bb3e 55bb 2d41 8d3d 644c 303d
000002a0: abe0 b83c 471f 09bc e805 f2bc 35d3 7e3d
000002b0: 95bd df3b d970 01ba 0fc6 ba3b a3d5 b9bc
000002c0: 9508 173d 460d b43c f018 b43c f849 ba3a
000002d0: 318e c93c 8c04 623d aeb6 1d3d 0434 763d
000002e0: 5105 c83c 3f45 203d 2f44 63bc 66a0 0abd
000002f0: e405 1e3d 179d 7e3c 76c2 593b 5fcc 873c
00000300: af75 043d d4c5 e73b 9b41 1a3d bce4 7b3d
00000310: 96f0 763a 79f3 9cbb 06ca abbc 27ae 453d
00000320: 9d22 1bbc 97a7 af3c 9328 d3bc 73e2 fe3c
00000330: 4dd1 10bd 09fd 9d3c c467 a2bc 087c b2bd
00000340: 6b0c 85bb 5bd5 a0bc 1e0e 3a3c 8d76 02bd
00000350: 8634 e3ba 6ac3 e5bc 9d0b cbbb e0b7 d4bc
00000360: 0a8e 5bbc 5e96 073d 8865 4abd 947c a13c
00000370: 027f 0bbd 2aca d7bc 0f3e 673c 7125 153d
00000380: 2595 e6bc 45a1 0a3c e654 8dbc ded7 0fbd
00000390: f011 a0bb 546c 6dba 5cc8 8bbc 271f a9bb
000003a0: 2eab 533d 8124 bbbc 2f82 85bc dc51 473d
000003b0: b155 a4bc 26c1 0bbd ad4d 9fbc ab7a f5bc
000003c0: 4a37 483d 7c4c 94bc b1c6 093d 386c 113d
000003d0: 0989 19bc ece4 063d 5b29 6c3d a76f 86ba
000003e0: cc56 fa3c ec48 9dbc faa2 583d afb5 32bd
000003f0: 7203 63bd 2b62 9b3b 6675 d2bc 6c7d a7bd

bias f4 [9]
0.051580388 -0.00508871 0.03823931 0.0029229722 -0.027760075 -0.020287918 -0.030311663 0.019077683
0.002883923
00000000: f545 533d 32bf a6bb d3a0 1c3d 568f 3f3b
00000010: 1969 e3bc d932 a6bc 2a50 f8bc cd48 9c3c
00000020: 3300 3d3b
