.processed/999_logs_scale_3_crop_256_lr0001_epoch100/epoch_23_model.pth (torch_old, 93460 bytes, 6 tensors)

weight f4 [64, 1, 5, 5]
0	0x3e16cd48	0.14726746
1	0x3e27c0fd	0.16382213
2	0xbd51ab8f	-0.051189
3	0x3e396077	0.18103205
4	0xbd33d00a	-0.043899573
5	0x3d212949	0.039346013
6	0xbdbc7063	-0.092011236
7	0x3de90fdc	0.11379978
8	0x3e376655	0.1791013
9	0xbe1b5102	-0.15167621
10	0x3e343f03	0.17602162
11	0x3d17c43f	0.03705239
12	0x3e21bead	0.15795393
13	0x3d083d4e	0.03326159
14	0x3dc7a96d	0.09749112
15	0xbcee7109	-0.029106634
16	0x3e299a4e	0.16562769
17	0x3d1995c9	0.037496362
18	0xbdb9ebfa	-0.09078212
19	0x3d5fc290	0.05462891
20	0xbdbf188c	-0.09330854
21	0xbc9a5f80	-0.018844366
22	0xbd9c1481	-0.07621098
23	0x3e0c420e	0.13697073
24	0xbe2520b2	-0.16125754
25	0xbdb0683e	-0.086136326
26	0xbd4cf50c	-0.050038382
27	0xbdea1578	-0.11429876
28	0x3cbed60f	0.02329543
29	0xbe446272	-0.19178179
30	0x3e3f76ad	0.18697615
31	0xbe28dcfe	-0.16490552
32	0x3e25124f	0.16120265
33	0x3d1e6cb8	0.0386779
34	0xbd755acb	-0.05990104
35	0x3e0459ba	0.12924853
36	0x3d20fd6a	0.039304174
37	0x3e30715a	0.1723074
38	0x3ce5b790	0.028041631
39	0xbd69d5e6	-0.057088755
40	0x3d6d74dd	0.057972778
41	0xbd43af06	-0.047774337
42	0x3dbbdace	0.09172593
43	0x3e3d492a	0.18484941
44	0x3df7c4ac	0.12098059
45	0xbda9a994	-0.082842976
46	0x3df614a9	0.12015659
47	0x3d2690bf	0.040665384
48	0x3dd99bb7	0.106254034
49	0xbdf1b13b	-0.11801382
50	0xbe8fb71c	-0.2806939
51	0xbe238bbc	-0.15971273
52	0xbe802fbe	-0.25036424
53	0x3e2136b6	0.15743527
54	0xbdf0146f	-0.117226474
55	0x3e028148	0.1274463
56	0x3ddd27ec	0.1079863
57	0x3e12382f	0.14279245
58	0x3e8c3433	0.27383575
59	0xbe6e01cc	-0.23242873
60	0x3d046275	0.03232046
61	0xbe13d6ca	-0.14437404
62	0x3de034d5	0.10947577
63	0xbd7d20a0	-0.06179869
64	0xbd0c62ce	-0.034273915
65	0xbd122d16	-0.03568753
66	0x3e31417d	0.17310138
67	0xbdcf87aa	-0.10133298
68	0xbd96935c	-0.07352325
69	0xbe1b7ac6	-0.15183553
70	0x3e16ef0f	0.14739631
71	0x3cedd440	0.029031873
72	0x3e47e455	0.19520696
73	0xbdd079e2	-0.10179497
74	0xbe48076f	-0.19534086
75	0xbe07aa9d	-0.13248678
76	0xbddec762	-0.10877873
77	0x3de5b815	0.112167515
78	0x3dcce865	0.10005263
79	0x3e2eece1	0.1708255
80	0xbdab5fca	-0.0836788
81	0xbdf718c4	-0.120652705
82	0x3e1f8a49	0.15580095
83	0xbd42b994	-0.047540262
84	0x3e1aa95a	0.15103665
85	0xbca9f50d	-0.020746732
86	0x3e2b5fca	0.1673576
87	0xbde82dc8	-0.11336857
88	0xbd79c739	-0.06098101
89	0x3dc924b7	0.09821456
90	0x3d8a6856	0.06758182
91	0xbc3f9d72	-0.011695253
92	0x3e359384	0.17732054
93	0x3e45a725	0.19302042
94	0xbdf26c57	-0.118370704
95	0xbdd87a9f	-0.10570263
96	0x3e5050b8	0.20343292
97	0xbd2542d1	-0.040346924
98	0xbd3612ce	-0.044451527
99	0xbe2cdf48	-0.1688205
100	0xbda39e4b	-0.07989176
101	0x3d6d7f85	0.05798294
102	0x3a820f5c	0.000992279
103	0xbe2ebbe2	-0.17063859
104	0xbb87cc11	-0.0041441997
105	0xbe2b33a3	-0.16718917
106	0xbe43fe8c	-0.1914007
107	0xbd44f147	-0.048081663
108	0xbe4c85dd	-0.1997294
109	0xbe0a7d2f	-0.13524316
110	0x3e715970	0.23569274
111	0x3e324ec3	0.17412858
112	0x3e848b8b	0.25887713
113	0xbe135a0d	-0.1438982
114	0xbdc04763	-0.09388616
115	0xbd6442e7	-0.055727866
116	0x3d3bc615	0.045843203
117	0xbe3cc0d8	-0.18432939
118	0xbdbfa3ad	-0.093573906
119	0xbdca1926	-0.09868078
120	0x3d6d4445	0.057926435
121	0xbd3cefb2	-0.04612703
122	0x3c80f87c	0.015743487
123	0xbdc5e367	-0.09662514
124	0xbd8cafdd	-0.06869481
125	0xbdd10d72	-0.102076426
126	0xbd579515	-0.05263241
127	0xbe0e7dc3	-0.13915162
128	0x3e394044	0.18090922
129	0xbcceb088	-0.025230661
130	0x3e394f57	0.18096672
131	0x3daf40fc	0.08557317
132	0xbe22a4d1	-0.15883185
133	0x3e1e5726	0.15462932
134	0xbd37516d	-0.044755388
135	0xbd723747	-0.059134748
136	0xbe1b6182	-0.15173915
137	0xbe3f39d1	-0.18674399
138	0x3d9bbf67	0.076048665
139	0xbcfbe9fd	-0.030751223
140	0x3dbfee29	0.09371597
141	0xbe1c610e	-0.15271398
142	0x3e2b268f	0.16713928
143	0xbe0c68ab	-0.13711803
144	0xbc981239	-0.018563377
145	0x3d4439a4	0.047906533
146	0x3deaa797	0.114577465
147	0x3e2e0659	0.16994609
148	0x3e46aa7c	0.19400972
149	0xbe1ae250	-0.15125394
150	0x3d83b46c	0.06430897
151	0xbd97ef16	-0.07418649
152	0x3b026ef2	0.0019902554
153	0xbe10c8c2	-0.14139083
154	0x3e49bc60	0.19700766
155	0xbe089884	-0.1333943
156	0x3e043595	0.12911065
157	0x3dde50f3	0.108552836
158	0x3d9f414d	0.07776127
159	0xbdb5fa7c	-0.08885667
160	0x3e55a0ea	0.20862165
161	0x3da11714	0.0786573
162	0x3d9833cc	0.074317545
163	0xbe22bbc6	-0.15891942
164	0x3df20c68	0.118187726
165	0xbc1b291f	-0.009470253
166	0xbd8f506e	-0.069977626
167	0x3e5cd615	0.21566041
168	0x3d822a0c	0.06355676
169	0xbdaa368e	-0.08311187
170	0xbda96627	-0.08271437
171	0x3c0ee125	0.008720671
172	0x3e0fbd46	0.14037046
173	0xbd03ae9a	-0.032148935
174	0xbdab3e2c	-0.08361468
175	0xbd84cf06	-0.06484799
176	0xbe14d3f9	-0.14533986
177	0x3d9a5109	0.075349875
178	0x3e22769c	0.15865558
179	0xbe3ec5f6	-0.18630204
180	0x3d4acc50	0.049511254
181	0x3de1fc37	0.11034434
182	0x3d2dd941	0.042443518
183	0xbd8625d9	-0.065501876
184	0x3ddf5b44	0.109060794
185	0x3de1a83b	0.110184155
186	0x3dabb102	0.08383371
187	0xbcdf3270	-0.02724573
188	0xbd3e5556	-0.0464681
189	0x3cde3bef	0.027128188
190	0xbcfc97fa	-0.030834187
191	0xbd5ca027	-0.05386367
192	0x3e092d02	0.13396075
193	0x3e363ce4	0.17796665
194	0xbc8a60ee	-0.016891923
195	0xbd2ccb2f	-0.04218596
196	0x3bc921ef	0.0061380784
197	0xbbef8aab	-0.0073102317
198	0x3d51c479	0.05121276
199	0x3d7221ae	0.05911415
200	0xbdf81933	-0.12114181
201	0xbcca125b	-0.024666956
202	0x3e3d7443	0.18501382
203	0x3cadabe6	0.021200132
204	0xbd32f1ce	-0.043687634
205	0xbdbe5ca5	-0.09295014
206	0xbdbb536a	-0.09146769
207	0xbe56d5b3	-0.20979957
208	0xbe048e46	-0.12944898
209	0x3d747dff	0.05969047
210	0x3e1c546d	0.15266581
211	0x3e0230bc	0.12713903
212	0xbe5d76f3	-0.21627407
213	0xbe054ef3	-0.13018398
214	0xbc512f56	-0.012767633
215	0x3e6130c9	0.21991266
216	0x3d7758ea	0.06038753
217	0xbdaabc1a	-0.08336659
218	0x3dca8f1f	0.098905794
219	0xbd479813	-0.048729014
220	0xbdb703de	-0.089362845
221	0x3e43c656	0.19118628
222	0xbd4bc73f	-0.049750563
223	0xbd11799a	-0.03551636
224	0xbe2762f3	-0.1634634
225	0x3e28d4f3	0.16487484
226	0x3e26d94e	0.16293833
227	0x3dc4275b	0.09577819
228	0xbe0817e2	-0.1329036
229	0xbe3837a2	-0.17989972
230	0xbe204f64	-0.15655285
231	0x3e2f5c91	0.17125155
232	0x3e16a617	0.14711796
233	0x3e5fbe6b	0.21849982
234	0x3e10b4be	0.14131448
235	0x3d9dfe1d	0.07714484
236	0x3cff9651	0.031199606
237	0xbe1c05ee	-0.15236637
238	0xbe1a63b4	-0.15077096
239	0xbe3139fa	-0.17307273
240	0x3de6f75d	0.112776496
241	0xbda10d6a	-0.07863887
242	0x3cdd4e06	0.027014744
243	0xbda4f823	-0.08055141
244	0x3ad9a53b	0.0016605029
245	0xbdc3dc14	-0.09563461
246	0xbdeaec6c	-0.11470875
247	0x3dc2fde8	0.09521085
248	0xbd15de21	-0.03658879
249	0x3e26da21	0.16294147
250	0xbd520996	-0.051278673
251	0xbe0a37df	-0.13497876
252	0xbcb30ab6	-0.021855693
253	0xbdb277ae	-0.08714233
254	0xbd53e859	-0.051735256
255	0xbe398371	-0.18116547

bias f4 [64]
0	0xbe2e98f6	-0.17050537
1	0x3dd5f570	0.10447204
2	0xbd9f9c07	-0.07793432
3	0x3cf7a45b	0.030229738
4	0x3dcdeb2f	0.10054623
5	0x3e21c749	0.15798678
6	0xbcba7b14	-0.022763766
7	0x3d75ccb8	0.06000969
8	0x3d8ab842	0.06773426
9	0x3e0b3f52	0.13598374
10	0x3cdb091f	0.026737748
11	0x3dc8f720	0.0981276
12	0xbde1ced4	-0.110257775
13	0xbe124ed8	-0.14287889
14	0x3e3a6813	0.18203764
15	0xbdd812eb	-0.10550483
16	0x3d11f13a	0.035630442
17	0xbc464017	-0.012100241
18	0x3e4db667	0.20089112
19	0xbd08192a	-0.033227123
20	0xbdc4f92b	-0.096178375
21	0xbd351bca	-0.044215955
22	0x3e16f576	0.14742073
23	0x3de44907	0.11146741
24	0x3e372fd6	0.17889342
25	0xbd360987	-0.04444268
26	0x3dbf6279	0.09344954
27	0xbe26ad4b	-0.16277044
28	0x3db6499c	0.089007586
29	0x3dce2e5c	0.10067436
30	0x3e1b5739	0.15169992
31	0xbd173d25	-0.036923546
32	0xbd3587d1	-0.044318978
33	0x3d64fb43	0.055903684
34	0xbe08036e	-0.13282558
35	0xbe1ac6d8	-0.15114915
36	0xbe282665	-0.16420896
37	0x3cf6c757	0.03012435
38	0x3e04a210	0.12952447
39	0x3d783a00	0.060602188
40	0x3d362916	0.044472776
41	0x3dcd8ddf	0.100368254
42	0xbde897bf	-0.11357068
43	0x3d1093b6	0.035297118
44	0xbd0ecf93	-0.034865927
45	0xbc463762	-0.012098165
46	0x3e35d381	0.17756464
47	0xbdd0a635	-0.101879515
48	0x3d023fac	0.031799003
49	0xbe287118	-0.16449392
50	0x3d0af7cf	0.033927735
51	0xbda879d3	-0.08226361
52	0x3d96b9e9	0.07359678
53	0xbd8b2609	-0.06794364
54	0x3e0b1ab6	0.13584408
55	0xbe0d6b0a	-0.13810363
56	0x3e114cc9	0.14189447
57	0xbd86b9c9	-0.065784045
58	0x3ddd53f4	0.108070284
59	0xbba5b134	-0.0050565246
60	0x3aa2187d	0.0012366917
61	0xbcaba745	-0.020953784
62	0x3e090701	0.13381578
63	0x3da78fa9	0.08181698

weight f4 [32, 64, 3, 3]
0	0xbcf7d6a5	-0.030253718
1	0x3c1b21cb	0.009468506
2	0xbcaea0c4	-0.021316893
3	0x3d1583c6	0.036502622
4	0x3c556cad	0.013026399
5	0xbb92adfe	-0.004476308
6	0xbc824810	-0.015903503
7	0x3cb293d7	0.021799011
8	0xbc9fa2c3	-0.01948679
9	0x3cd33cd7	0.025785847
10	0x3cf0433f	0.02932894
11	0x3d0553c0	0.032550573
12	0x3c974904	0.018467434
13	0xbced7577	-0.028986676
14	0x3d1ce465	0.03830375
15	0xbbfa956c	-0.007647207
16	0xbb933af0	-0.00449311
17	0x3abd18d8	0.001442696
18	0x3cce07f9	0.025150286
19	0x3cb6f23f	0.022332309
20	0x3cc37d2d	0.0238634
21	0x3c199e49	0.009376117
22	0xbcad6aab	-0.021169027
23	0x3c174b09	0.009234198
24	0xbcda45ff	-0.026644705
25	0x3ca57d52	0.020201359
26	0xbd6652f2	-0.056231447
27	0xbc8adbc0	-0.016950488
28	0x3d5d25d3	0.05399115
29	0x3ce3ae0b	0.027792951
30	0x3c1f73ec	0.009732228
31	0xbc55ebab	-0.013056676
32	0xbbb195ad	-0.005419454
33	0x3d431b0a	0.04763321
34	0xbc2a6df6	-0.010402193
35	0xbd29544d	-0.04134016
36	0xbd04db05	-0.032435436
37	0x3c1e6f9a	0.009670163
38	0x3d23cab9	0.039988253
39	0xbcd311ed	-0.025765384
40	0x3c841228	0.016121939
41	0x3c7a1528	0.015263833
42	0x3ce8ba26	0.028409075
43	0xbc11b9dd	-0.008894411
44	0xbbec3374	-0.007208282
45	0x3cf66caf	0.030081121
46	0x3d02d880	0.03194475
47	0x3d0c598a	0.03426508
48	0xbc685800	-0.014181137
49	0x3cec7c83	0.028867966
50	0x3cf8e66a	0.030383307
51	0xbce3c58b	-0.027804157
52	0x3bcf511b	0.006326807
53	0xbc67280d	-0.01410867
54	0x3c862c9b	0.016378691
55	0xbb211ef7	-0.0024585107
56	0x3d189e32	0.03726024
57	0x3d008734	0.03137894
58	0x3bd7643c	0.006573228
59	0xbc80be63	-0.015715783
60	0xbc8cb776	-0.017177325
61	0x3cda9741	0.026683452
62	0x3d7b37a5	0.061332364
63	0xbcb81301	-0.02247
64	0x3c66ee90	0.014094964
65	0xbc8116bc	-0.01575791
66	0xbc5001b9	-0.012695723
67	0x3d319083	0.043350708
68	0x3cdcc46e	0.026949134
69	0xbbc53fa2	-0.0060195485
70	0x3c4d4f31	0.012531088
71	0x3c6f55b1	0.014607833
72	0x3cb828f0	0.022480458
73	0x3b74ede0	0.003737323
74	0xbcecd8ef	-0.028912036
75	0x3d3bca4a	0.045847215
76	0x3b19f1a2	0.0023489972
77	0x37f6ef19	2.9436824e-05
78	0xbb1e46b5	-0.0024151031
79	0x3cb52a5c	0.022114925
80	0x3d165bfd	0.03670882
81	0x38e27d99	0.00010799914
82	0x3c03f81e	0.008054761
83	0x3d476702	0.04868222
84	0xbbf01873	-0.0073271333
85	0x3c227299	0.0099150175
86	0x3cf8d612	0.030375514
87	0x3cddf1fe	0.02709293
88	0xbc93ab0a	-0.018025894
89	0x3d512b69	0.05106679
90	0x3cb8c23c	0.022553556
91	0xbbce7e06	-0.0063016443
92	0x3d31b201	0.04338265
93	0xbc8e87d9	-0.017398762
94	0x3d327e60	0.04357755
95	0x3d2def23	0.042464387
96	0xbcbd37df	-0.02309793
97	0xbc9b4d9e	-0.01895791
98	0xbd046265	-0.0323204
99	0xbc60913c	-0.013706502
100	0xbd536e78	-0.051619023
101	0xbcb0a1b6	-0.021561485
102	0x3c51ce5c	0.012805548
103	0x3cd12f30	0.025535196
104	0x3c8a8957	0.016911192
105	0x3cda1cc0	0.026625037
106	0x3c87b81d	0.016567284
107	0xbd0724c2	-0.03299404
108	0xbce9fb7f	-0.028562305
109	0x3c10bc8e	0.008834017
110	0x3d3db2f7	0.046313252
111	0x3c24991a	0.010046268
112	0x3af21f04	0.0018472378
113	0xbca0bf80	-0.019622564
114	0xbc773d05	-0.015090232
115	0xbcd8c88e	-0.02646282
116	0x3d2015e9	0.039083395
117	0xbc4b197c	-0.012396213
118	0xbd313a81	-0.043268684
119	0xbab94a30	-0.001413649
120	0xbb35db3c	-0.0027749082
121	0xbc361c3f	-0.011115133
122	0x3c16d93e	0.009207068
123	0x3c891785	0.016734848
124	0xbd3820c5	-0.044953126
125	0xbd19f80d	-0.037590075
126	0xb8dfbfc8	-0.00010669191
127	0xbd1900a6	-0.037354134
128	0xbd0701ff	-0.032960888
129	0x3d20621c	0.039156064
130	0xba6fc513	-0.0009146493
131	0xbc827f30	-0.015929788
132	0xbc65816a	-0.0140079055
133	0xbcf39b6e	-0.0297372
134	0x3d1146f6	0.035468064
135	0xbaf44b96	-0.0018638249
136	0xbc003709	-0.007825621
137	0xbcfea826	-0.031086039
138	0x3d00663c	0.0313475
139	0x3af4bd5f	0.001867216
140	0xbb94cdd0	-0.0045411363
141	0x3a660722	0.00087748666
142	0xbba0a345	-0.0049022757
143	0xbb8b3b36	-0.004249002
144	0x3da1b2a1	0.07895399
145	0xbc544fb3	-0.012958455
146	0x3c4f9ef4	0.012672175
147	0xbc821b46	-0.015882146
148	0xbb1939f4	-0.002338049
149	0x3d027ada	0.03185544
150	0x3cde4c87	0.0271361
151	0x3da099ff	0.078418724
152	0xbc99f701	-0.018794538
153	0xbc57f4f4	-0.01318096
154	0xbc9a4b82	-0.018834833
155	0x3d331399	0.04371986
156	0xbccb7654	-0.024836697
157	0x3cf0ed48	0.02941002
158	0x3c9027d1	0.017597111
159	0x3c9788bf	0.018497823
160	0x3cf986f7	0.030459864
161	0xbbb03a4f	-0.0053780447
162	0x3d0286f3	0.03186698
163	0xbce61e06	-0.028090488
164	0xbc231d5d	-0.009955731
165	0x3d1ace0a	0.03779415
166	0x3c9ae32a	0.018907148
167	0x3aa2ec46	0.0012430034
168	0xbbbd894b	-0.005784189
169	0xbca5ae7c	-0.020224802
170	0x3cf7764a	0.030207772
171	0x3ba4be7c	0.0050275903
172	0x3bdc2ff9	0.006719586
173	0x3c5d1d53	0.013495761
174	0x3d20581a	0.03914652
175	0xbc59cd79	-0.013293617
176	0xbbe089cc	-0.006852364
177	0x3d0d32ba	0.034472205
178	0x3cdef2e4	0.027215429
179	0xbc68ae1d	-0.014201668
180	0xbd3d5107	-0.04621985
181	0xbccd425b	-0.025056055
182	0x3b8579b6	0.004073347
183	0xbcabb68f	-0.020961074
184	0xbbac4df3	-0.0052583157
185	0xbd5fb9e0	-0.054620624
186	0xba21ff0f	-0.0006179669
187	0xbd2f373f	-0.042777296
188	0x3a0b7ec6	0.000532132
189	0x3d1d3e15	0.038389284
190	0x3c905bc1	0.017621877
191	0x3d1e332a	0.038623013
192	0xbcb09627	-0.021555973
193	0xbd009603	-0.031393062
194	0xbd0f8061	-0.03503454
195	0x3d01fd14	0.031735495
196	0x3caa4bb0	0.020788044
197	0xbce0d998	-0.027447507
198	0x38ed2ac6	0.00011309008
199	0x3c88a3ee	0.01667973
200	0xbd81ddf8	-0.06341165
201	0x3cabbd1a	0.020964194
202	0x3c2ad8f6	0.010427704
203	0xbbd19023	-0.0063953563
204	0x3c04fea1	0.008117349
205	0x3d22831f	0.039675828
206	0x3c407062	0.011745544
207	0x3cebdf0c	0.02879288
208	0xbbc181d3	-0.005905369
209	0x3b28fca2	0.0025785347
210	0xbd1253e4	-0.035724536
211	0x3ac92c6b	0.0015348321
212	0xbbf69fe3	-0.007526384
213	0x3cc0aeec	0.02352091
214	0x3b90825c	0.0044100713
215	0x3bcb484f	0.006203688
216	0xbcf9a858	-0.03047578
217	0xbcdc316a	-0.026879031
218	0x3d181c71	0.0371365
219	0x3d10eb12	0.03538043
220	0x3cb91d02	0.02259684
221	0xbc41d889	-0.011831411
222	0xb99fbebd	-0.00030468954
223	0x3a8292b6	0.0009961936
224	0x3cc45ecc	0.023970984
225	0xbcc1b257	-0.02364461
226	0x3ca86b08	0.020558849
227	0x3cbbbe56	0.022917908
228	0xbd347355	-0.0440553
229	0xbbb81604	-0.005617859
230	0xbc743b51	-0.01490672
231	0xbce2bc99	-0.027677821
232	0x3c3edd40	0.01164943
233	0xbc30f033	-0.010799455
234	0x3d2c3709	0.042044673
235	0xbc9f1cb7	-0.019422872
236	0x3cc151ce	0.023598578
237	0xbcef4599	-0.029207991
238	0xbc8359bc	-0.016034
239	0x3c08e535	0.008355428
240	0x3d1d74a7	0.038441326
241	0x3ccd8f17	0.025092645
242	0xbceb1a93	-0.028699195
243	0x3c1a3dd4	0.009414155
244	0xbcb307a7	-0.021854235
245	0x3c0eb6d5	0.008710583
246	0xbcee1d1a	-0.029066611
247	0xbbbb9ab7	-0.0057252306
248	0x3d0b2044	0.033966318
249	0xbd093afb	-0.033503514
250	0xbd0bfda3	-0.034177434
251	0x3c6691f9	0.0140728885
252	0x3c4a18ba	0.012334997
253	0xbbe8f859	-0.0071096835
254	0x3d36634d	0.044528294
255	0xbc8b7fe4	-0.017028756

bias f4 [32]
0	0x3d0813e6	0.0332221
1	0xbb3eb252	-0.0029097986
2	0xbcc09d54	-0.02351252
3	0x3c01a336	0.007912448
4	0xbaec2df9	-0.0018019072
5	0x3c0d9bc3	0.0086430935
6	0x3cfebaee	0.031094994
7	0xbd1ce887	-0.038307693
8	0xbc0c3ca0	-0.008559376
9	0xbc8d7701	-0.01726866
10	0x3d3e4a64	0.046457663
11	0xbc3e45f8	-0.011613362
12	0x373b4448	1.11619665e-05
13	0xbd01659f	-0.031591054
14	0x3c705155	0.014667829
15	0xbc24d7e0	-0.010061234
16	0x3c5b87a7	0.013399041
17	0xbbf63ab5	-0.0075143226
18	0x3b1de290	0.002409134
19	0xbc922944	-0.017841943
20	0x3d01e50a	0.03171257
21	0xbcae3ee7	-0.021270229
22	0xbcdf949f	-0.027292548
23	0xbbb32584	-0.0054671187
24	0xbd1977c9	-0.03746775
25	0xbc9493cd	-0.018136883
26	0x3cb43fed	0.022003138
27	0xbceec4e8	-0.029146627
28	0xbc1a3691	-0.009412424
29	0x3cdf0061	0.02722186
30	0x3d02cd9e	0.031934373
31	0x3d1da344	0.03848578

weight f4 [9, 32, 3, 3]
0	0x3d5fe2d4	0.05465968
1	0x3d5aca10	0.053415358
2	0xbc08fd7c	-0.008361217
3	0xbcb18c42	-0.021673325
4	0xbba21861	-0.004946754
5	0x3cb0ee0c	0.021597885
6	0x3c320dec	0.010867577
7	0xbcf54a27	-0.029942585
8	0x3d6fe924	0.05857195
9	0xbcadf34c	-0.021234177
10	0x3d21de5d	0.039518703
11	0xbb9d5cec	-0.004802337
12	0x3c95b4fa	0.018274773
13	0xbac5f23c	-0.0015102099
14	0x3c726c00	0.014796257
15	0xbd295449	-0.041340146
16	0x3c944f68	0.01810427
17	0xbd2ccacc	-0.04218559
18	0x3d2a6f57	0.04161009
19	0xbd2caaa4	-0.042154923
20	0x3d607fb2	0.05480928
21	0xbd844a5f	-0.06459498
22	0xbd6d9edc	-0.05801283
23	0x3d81a5d5	0.06330458
24	0x3d19c070	0.03753704
25	0xbd5b8387	-0.05359223
26	0xbd058f5d	-0.032607425
27	0xbd545387	-0.05183747
28	0x3c3d9bd0	0.011572793
29	0xbc1d7317	-0.009609959
30	0x3be52317	0.0069927084
31	0x3cdb76a8	0.026789978
32	0x3cdc0de0	0.026862085
33	0xbb3262ea	-0.0027219602
34	0x3c901433	0.017587757
35	0xbd1f2181	-0.03885031
36	0x3d024e9a	0.03181324
37	0xbdb20b8c	-0.08693609
38	0x3aea1135	0.0017857911
39	0xbd8bdf74	-0.0682973
40	0x3dae017e	0.08496378
41	0x3d212d7d	0.03935002
42	0x3cbfaa57	0.023396654
43	0xbdab79cf	-0.083728425
44	0xbd18e3b4	-0.03732653
45	0xbce74bc9	-0.02823438
46	0x3ce98d5d	0.02850979
47	0xbd0d04a6	-0.03442826
48	0x3d512a02	0.051065452
49	0x3caca5e0	0.02107519
50	0xbd1a3f3c	-0.03765796
51	0x3b01d422	0.001981028
52	0x3cd6722b	0.026177486
53	0x3d8bea30	0.06831777
54	0xbc801e59	-0.01563947
55	0xbd2f6a75	-0.042826135
56	0xbcde2981	-0.0271194
57	0x3c9ebde3	0.019377654
58	0x3d44d1d2	0.048051663
59	0x3c3a74fa	0.011380428
60	0x3d607679	0.054800484
61	0xbd0bd76b	-0.034140985
62	0xbd43f9f8	-0.04784581
63	0xbc3413f5	-0.010991086
64	0x3d65d88f	0.05611473
65	0x3d2101e3	0.03930844
66	0xbc528089	-0.012848028
67	0xbd892983	-0.06697371
68	0x3c91b79c	0.017787747
69	0x3cbb30a4	0.022850342
70	0xbdbdfced	-0.092767574
71	0xb986cb05	-0.00025709733
72	0x3d41efa8	0.047347695
73	0xbc390dac	-0.011294764
74	0xbd2e0a3a	-0.04249022
75	0xbd199982	-0.037499912
76	0xbcbdb1f5	-0.023156146
77	0x3ae33102	0.0017333331
78	0x3ac7f492	0.0015255383
79	0xbd2ea012	-0.042633124
80	0x3d839f93	0.06426921
81	0x3bf0f5ba	0.0073535116
82	0x3d7f277f	0.062293526
83	0xbc63636d	-0.013878685
84	0x3d477cad	0.048702884
85	0x3cce1dff	0.025160788
86	0xbd3d2e68	-0.046186835
87	0x3d3b2aec	0.04569523
88	0x3d3c5393	0.04597814
89	0xbd11873e	-0.035529368
90	0x3d911ffe	0.0708618
91	0xbdeface2	-0.11702897
92	0x3d2c4223	0.04205526
93	0xbdae7756	-0.08518855
94	0xbe52f4b9	-0.20601167
95	0x3d928948	0.071550906
96	0x3c9680c6	0.01837195
97	0xbd72ca9a	-0.059275247
98	0x3d6c92ef	0.057757314
99	0xbdb0949a	-0.086220935
100	0x3c628b81	0.013827206
101	0x3d11498d	0.035470534
102	0xbb752ea4	-0.0037411833
103	0xbbf645b0	-0.0075156316
104	0xbcb63c65	-0.022245595
105	0xbd5ef32c	-0.054431126
106	0x3d4be3f5	0.049777944
107	0x3d0eab61	0.03483141
108	0xbd1ab3ba	-0.037769057
109	0xbda33006	-0.07968144
110	0xbdd12e4e	-0.1021391
111	0xbaf950bd	-0.0019021254
112	0xbd43aa1f	-0.047769662
113	0x3ce28650	0.027651936
114	0xbbc9296e	-0.006138972
115	0x3d1c2130	0.038117588
116	0xbcf1cbd6	-0.029516142
117	0x3d0a849d	0.033817876
118	0x3d6bfa00	0.057611465
119	0x3d4c581d	0.04988872
120	0x3ce14007	0.02749635
121	0x3b54c914	0.0032468485
122	0xbcd741e3	-0.026276534
123	0xbccbd522	-0.024881903
124	0xbcdfaf45	-0.027305255
125	0xbbe2c2f6	-0.006920214
126	0x3d8ee451	0.06977142
127	0x3d8ea882	0.06965734
128	0xbac5a136	-0.0015077952
129	0x3c37c909	0.011217364
130	0x3d655b7c	0.05599545
131	0x3c2c801f	0.010528593
132	0xbda07202	-0.07834245
133	0xbc1f7728	-0.009732999
134	0x3c8e9bb9	0.017408239
135	0x3c54f8bb	0.012998755
136	0x3d48970a	0.048972167
137	0x3c77eae3	0.015131685
138	0x3d6bcaf4	0.057566598
139	0x3cd6661e	0.02617174
140	0xbcfc41e2	-0.030793134
141	0x3c291595	0.010320087
142	0x3d0061a1	0.031343106
143	0xbd0ddcb3	-0.034634303
144	0x3c065975	0.008200039
145	0x3d2cd5a7	0.042195942
146	0xbcf8ffbc	-0.030395381
147	0x3d0b8289	0.034060035
148	0xbceb24fe	-0.028704163
149	0x3d0b9932	0.034081645
150	0x3cd40fe3	0.025886482
151	0x3d039fbe	0.032134764
152	0xbcfed219	-0.031106042
153	0x3cc2279d	0.02370053
154	0xbc14ca17	-0.009081385
155	0xbd20b4c6	-0.0392349
156	0x3d59981a	0.05312357
157	0x3b2be99c	0.0026231771
158	0xbbf7b301	-0.0075591807
159	0x3cabb4bf	0.02096021
160	0x3d953482	0.07285406
161	0xbd818bdf	-0.063255064
162	0x3c8f7872	0.017513487
163	0x3d677155	0.056504566
164	0x3cc73e5b	0.024321726
165	0xbb5883c9	-0.0033037534
166	0x3d8cee48	0.06881386
167	0x3d307037	0.043075766
168	0x3cb89c8c	0.022535585
169	0xbc09e8e0	-0.008417338
170	0xbcf2b2a9	-0.029626207
171	0x3d7e35f7	0.062063184
172	0x3be20a06	0.0068981675
173	0xba10e49d	-0.000552723
174	0x3bb9ebda	0.0056738677
175	0xbcb9e3b8	-0.022691593
176	0x3d16feed	0.03686421
177	0x3cb389d5	0.02191631
178	0x3cb372ee	0.021905389
179	0x3ab31f4d	0.0013665945
180	0x3cc99024	0.024604864
181	0x3d626461	0.05527151
182	0x3d1da402	0.03848649
183	0x3d763e4d	0.06011801
184	0x3cc88123	0.02447564
185	0x3d1fecd2	0.03904421
186	0xbc60f871	-0.013731108
187	0xbd0ac4fd	-0.03387927
188	0x3d1dc38e	0.038516574
189	0x3c7afbbb	0.015318806
190	0x3b60924b	0.0034266885
191	0x3c881dc7	0.016615761
192	0x3d0457ca	0.032310285
193	0x3be93efd	0.0071181045
194	0x3d19ebfb	0.037578564
195	0x3d7c7279	0.061632607
196	0x3a8bc6ca	0.0010664102
197	0xbb9e0837	-0.0048227566
198	0xbcab4efc	-0.020911686
199	0x3d4545df	0.048162337
200	0xbc199c90	-0.009375706
201	0x3cafd3bb	0.021463266
202	0xbcd474a6	-0.025934529
203	0x3cfdb71b	0.0309711
204	0xbd10e794	-0.0353771
205	0x3c9d7899	0.019222545
206	0xbca2fccf	-0.01989594
207	0xbdb24689	-0.0870486
208	0xbb931b8f	-0.004489369
209	0xbc9bdd54	-0.019026436
210	0x3c33ab59	0.010966145
211	0xbd00c304	-0.03143598
212	0xbaef5261	-0.0018258804
213	0xbce46f15	-0.027885
214	0xbbc46548	-0.005993519
215	0xbcd80d1a	-0.026373435
216	0xbc5b95a2	-0.013402374
217	0x3d079760	0.033103347
218	0xbd4a626d	-0.049410272
219	0x3ca17b16	0.019712012
220	0xbd0b81dd	-0.034059394
221	0xbcd7c606	-0.026339542
222	0x3c672e0b	0.014110099
223	0x3d152765	0.036414523
224	0xbce69833	-0.028148746
225	0x3c13d684	0.0090233125
226	0xbc8e10cf	-0.017342
227	0xbd1233bc	-0.03569387
228	0xbbb9c313	-0.0056690066
229	0xbaa1c568	-0.0012342157
230	0xbc994c1b	-0.018713048
231	0xbbb6ab33	-0.0055746078
232	0x3d573d0d	0.052548457
233	0xbcbcc0d1	-0.02304116
234	0xbc838069	-0.016052442
235	0x3d478018	0.048706144
236	0xbca462dc	-0.020066671
237	0xbd0c04e8	-0.034184366
238	0xbc9f1530	-0.019419283
239	0xbcf899b0	-0.030346721
240	0x3d4854a7	0.048908856
241	0xbc93362b	-0.017970165
242	0x3d08fc68	0.03344384
243	0x3d10f4b3	0.035389613
244	0xbc179401	-0.0092515955
245	0x3d0696e8	0.03285876
246	0x3d6be060	0.057587028
247	0xba8334b5	-0.0010010215
248	0x3cf860c5	0.03031958
249	0xbc9d777e	-0.019222017
250	0x3d58f724	0.052970067
251	0xbd3332dd	-0.04374968
252	0xbd62619d	-0.055268873
253	0x3b9e72c7	0.00483546
254	0xbccfb063	-0.025352662
255	0xbda77f2f	-0.08178555

bias f4 [9]
0	0x3d538393	0.05163915
1	0xbba99cae	-0.0051761484
2	0x3d1cb9f7	0.038263287
3	0x3b3f14d2	0.0029156697
4	0xbce41161	-0.027840318
5	0xbca73789	-0.020412223
6	0xbcf98e30	-0.030463308
7	0x3c9cade0	0.019125879
8	0x3b3ef9fa	0.0029140697
