processed/7-logs-models_scale_3/epoch_28_model.pth (torch_old, 93448 bytes, 6 tensors)

weight f4 [64, 1, 5, 5]
0	0x3ddbe0e8	0.10736257
1	0x3e045efd	0.1292686
2	0xbda346df	-0.07972502
3	0x3e1f9439	0.15583886
4	0xbd823745	-0.06358198
5	0x3bd94bbd	0.006631343
6	0xbdf7bea3	-0.12096908
7	0x3ddffe66	0.109371945
8	0x3e283978	0.16428173
9	0xbe245b02	-0.16050342
10	0x3e1cf14a	0.1532642
11	0x3d120fcb	0.035659593
12	0x3e2e85d4	0.17043239
13	0x3cba4c45	0.022741446
14	0x3dacfa1d	0.08446143
15	0xbd4c1ee2	-0.04983414
16	0x3e164f57	0.14678703
17	0x3cd6cb8e	0.02622011
18	0xbde005b4	-0.10938588
19	0x3d079ef7	0.033110585
20	0xbdd3eafe	-0.103475556
21	0xbd0d0566	-0.034428976
22	0xbdc09a52	-0.09404434
23	0x3dea9cd7	0.11455696
24	0xbe304a1c	-0.1721577
25	0xbdc5c37d	-0.09656427
26	0xbd6436e5	-0.055716414
27	0xbdf95cc1	-0.121758945
28	0x3c582238	0.013191752
29	0xbe456807	-0.19277965
30	0x3e32920b	0.17438523
31	0xbe34bc0d	-0.1764986
32	0x3e26cf1c	0.16289943
33	0x3ce1e285	0.027573833
34	0xbd875818	-0.066085994
35	0x3df915bb	0.12162348
36	0x3d29437d	0.041324127
37	0x3e4bd8bd	0.19906898
38	0x3caa3c4e	0.020780709
39	0xbd829ec4	-0.063779384
40	0x3d48945d	0.048969615
41	0xbd556f1a	-0.052107908
42	0x3dca213d	0.09869621
43	0x3e312b36	0.1730164
44	0x3ddef8ea	0.1088732
45	0xbdc9ddbe	-0.09856747
46	0x3ddf4c54	0.1090323
47	0x3cf4fa9a	0.029904652
48	0x3daf13ca	0.08548696
49	0xbe08c347	-0.13355742
50	0xbe415e8a	-0.1888372
51	0xbd5ceef0	-0.053938806
52	0xbe1786c0	-0.14797497
53	0x3e3e8017	0.1860355
54	0x3dac2e01	0.08407212
55	0x3dce81d9	0.1008336
56	0x3d9af470	0.07566154
57	0x3a8aadaf	0.0010580326
58	0x3e41dce0	0.18931913
59	0xbdef76ca	-0.11692579
60	0x3caed555	0.021341959
61	0xbe1a6842	-0.15078834
62	0x3d1ea879	0.038734887
63	0xbd8d76a3	-0.06907394
64	0x3d96eb51	0.07369102
65	0xbc87033e	-0.016481038
66	0x3e4e187b	0.20126526
67	0xbe0c163f	-0.13680361
68	0xbde3225a	-0.110905364
69	0xbdc55766	-0.096358106
70	0x3e55e615	0.2088855
71	0x3dac499a	0.08412476
72	0x3e4e76c9	0.201625
73	0xbe17e052	-0.14831665
74	0xbe2108c0	-0.15725994
75	0xbdb8ff38	-0.09033054
76	0xbe0888dd	-0.13333459
77	0x3dd76a76	0.10518353
78	0x3dd2b07d	0.10287569
79	0x3e1b1851	0.15145995
80	0xbde543f8	-0.11194605
81	0xbe4740fe	-0.19458386
82	0x3e4df50b	0.20113008
83	0xbd9e9fba	-0.07745309
84	0x3e147475	0.1449755
85	0xbc8861ba	-0.016648162
86	0x3e74b246	0.23896131
87	0xbee98d6f	-0.45615718
88	0xbe1051b1	-0.14093663
89	0x3dcf27c6	0.10115008
90	0x3da555f6	0.080730364
91	0xbc9e0ad4	-0.019292273
92	0x3e4ff274	0.20307332
93	0x3e4999fc	0.19687647
94	0xbe1517cb	-0.14559858
95	0xbd855dd4	-0.06512037
96	0x3e501f5e	0.20324466
97	0xbd3ea887	-0.04654744
98	0xbc894633	-0.016757106
99	0xbdd59b12	-0.10429968
100	0xbd88b006	-0.06674199
101	0x3de174c9	0.11008603
102	0x3c2ed388	0.01067055
103	0xbd8baccd	-0.068200685
104	0x3dbde2a6	0.092717454
105	0xbd9ff017	-0.078094654
106	0xbe0d7fc6	-0.13818273
107	0xbd3383b2	-0.043826766
108	0xbdd9c362	-0.106329694
109	0xbd2f5894	-0.042809084
110	0x3e6c3c6a	0.23069921
111	0x3df338a7	0.1187604
112	0x3e0ef035	0.13958819
113	0xbde6c691	-0.11268342
114	0xbd7ab457	-0.06120714
115	0xbbf64298	-0.007515263
116	0x3dc6e65c	0.09711906
117	0xbdf53ce2	-0.11974503
118	0x3ca9a66d	0.02070924
119	0xbd2fd74b	-0.04292993
120	0x3d82d4ed	0.063882686
121	0xbca99d06	-0.020704757
122	0x3d8091ce	0.0627781
123	0xbd8af28e	-0.06784545
124	0xbd5165cd	-0.051122475
125	0xbdca8d4c	-0.098902315
126	0xbd5b37ae	-0.053519897
127	0xbe22fb37	-0.15916143
128	0x3e29d1ad	0.16583891
129	0xbd14d447	-0.036335256
130	0x3e342b3e	0.1759462
131	0x3d85899e	0.06520389
132	0xbe4b9468	-0.19880831
133	0x3e07a19c	0.13245243
134	0xbd783724	-0.06059946
135	0xbd9c123d	-0.07620666
136	0xbe4210d0	-0.18951726
137	0xbe820d95	-0.25400987
138	0x3d45121b	0.04811297
139	0xbd414c06	-0.047191642
140	0x3da6bada	0.08141108
141	0xbe268278	-0.16260707
142	0x3e102ee9	0.14080395
143	0xbe18c192	-0.14917591
144	0xbcf45cd2	-0.029829416
145	0x3d011764	0.031516448
146	0x3dd1d0b0	0.10244882
147	0x3e223b2d	0.15842886
148	0x3e3cb1a4	0.1842714
149	0xbe2a46bb	-0.16628544
150	0x3d576727	0.052588608
151	0xbdb1db78	-0.086844385
152	0xbc8910b7	-0.016731603
153	0xbe1492f1	-0.14509179
154	0x3e4b6a45	0.19864757
155	0xbe17d5aa	-0.148276
156	0x3de2eca5	0.110802926
157	0x3dc8a6cb	0.09797438
158	0x3d90479b	0.07044908
159	0xbdc19d56	-0.094538376
160	0x3e4376d8	0.19088304
161	0x3d7e85fc	0.062139496
162	0x3d9273c7	0.07150989
163	0xbe353181	-0.17694665
164	0x3dcaa906	0.0989552
165	0xbcf2aad6	-0.029622477
166	0xbdbaac87	-0.09114938
167	0x3e508b9a	0.20365754
168	0x3d44354f	0.0479024
169	0xbdcd4285	-0.10022453
170	0xbdc39dbb	-0.09551569
171	0xbbd96cf2	-0.0066353017
172	0x3df15d18	0.11785334
173	0xbd371e7c	-0.044706807
174	0xbdcca16f	-0.099917285
175	0xbdb2ad9a	-0.08724518
176	0xbe2c86f3	-0.16848354
177	0x3d7f4775	0.062324006
178	0x3e0a5d06	0.13512048
179	0xbe5e1e3e	-0.21691224
180	0x3cc169e0	0.023610055
181	0x3dcada1b	0.099048816
182	0x3d0f10cd	0.03492813
183	0xbdbcd7d0	-0.092208505
184	0x3daa8e1d	0.08327887
185	0x3db86a5a	0.0900466
186	0x3d9c1acf	0.07622301
187	0xbc9fd4c9	-0.019510644
188	0xbd8a3419	-0.06748218
189	0x3b738f49	0.0037164262
190	0xbd864de1	-0.06557823
191	0xbdb43356	-0.08798854
192	0x3e005c25	0.1253515
193	0x3e1a142a	0.15046754
194	0xbd43cf24	-0.047804967
195	0xbd9d6d0e	-0.07686816
196	0xbca30cb0	-0.01990351
197	0xbcbacaf7	-0.02280186
198	0x3cda4708	0.026645198
199	0x3ce3fa08	0.027829185
200	0xbe22a6f9	-0.15884008
201	0xbd52de0d	-0.051481295
202	0x3e45372d	0.19259329
203	0x3dcbdbc9	0.0995403
204	0x3bde8884	0.0067911763
205	0xbdccc66e	-0.09998785
206	0xbdda645b	-0.106636725
207	0xbe3466c9	-0.17617334
208	0xbd447e4e	-0.047972016
209	0x3db750d5	0.08950964
210	0x3e0d0970	0.13773131
211	0x3dd224c3	0.10260918
212	0xbe4c7bd5	-0.19969113
213	0xbdd8ee20	-0.10592294
214	0xbc18fcf8	-0.009337656
215	0x3e4fe028	0.20300353
216	0x3d38dcff	0.045132633
217	0xbd3da6f8	-0.046301812
218	0x3dd22e92	0.10262789
219	0xbd5e17db	-0.05422197
220	0xbdf21190	-0.11819756
221	0x3e2597c4	0.16171175
222	0xbd9208d0	-0.07130587
223	0xbc6a74a7	-0.014310039
224	0xbe32ffa2	-0.17480329
225	0x3e1e6cd9	0.1547121
226	0x3e26b740	0.16280842
227	0x3d9fee32	0.07809104
228	0xbe0919cd	-0.13388748
229	0xbe3ee2e1	-0.18641235
230	0xbe1a6848	-0.15078843
231	0x3e254640	0.1614008
232	0x3dd61d87	0.10454851
233	0x3e3570fa	0.17718878
234	0x3dd8695c	0.10566971
235	0x3d821132	0.06350936
236	0xbab1edb2	-0.0013574867
237	0xbe52bd81	-0.20580103
238	0xbe3f25c4	-0.1866675
239	0xbe387b20	-0.18015718
240	0x3dbca3d0	0.09210932
241	0xbdc50aaa	-0.09621175
242	0xbd24b5b6	-0.040212356
243	0xbde24c5b	-0.1104972
244	0xbc8de51a	-0.017321158
245	0xbe0c2448	-0.13685715
246	0xbdfe72d1	-0.12424243
247	0x3dae6132	0.08514632
248	0xbd0ab1e3	-0.033861052
249	0x3e1afb81	0.15135004
250	0xbc3d31ff	-0.0115475645
251	0xbe057c99	-0.13035811
252	0xbcf2500d	-0.029579187
253	0xbdd6daf6	-0.10490982
254	0xbd2fb87f	-0.04290056
255	0xbe4ed577	-0.20198618

bias f4 [64]
0	0xbe655190	-0.22394395
1	0x3dd88055	0.105713524
2	0xbe6967f7	-0.22793566
3	0xbd527219	-0.051378343
4	0x3cac44eb	0.021028956
5	0x3e1d913e	0.15387437
6	0xbd9a211b	-0.075258456
7	0x3d957d0a	0.0729924
8	0x3d763411	0.06010825
9	0x3e299d81	0.16563989
10	0x3c669b0d	0.014075053
11	0x3dbff771	0.093733676
12	0xbe2a2bd6	-0.16618285
13	0xbe1d1db7	-0.15343367
14	0x3e6a3377	0.22871195
15	0xbe480234	-0.1953209
16	0xbba616f1	-0.005068653
17	0xbc0e44d5	-0.008683403
18	0x3e5bc3e5	0.21461447
19	0xbd4c2d9b	-0.04984818
20	0xbe279e42	-0.16368964
21	0xbda8c036	-0.08239786
22	0x3de379cf	0.111072175
23	0x3e0ca58a	0.13735023
24	0x3e5514cb	0.20808713
25	0xbd05d8c0	-0.032677412
26	0x3dcff66e	0.101544246
27	0xbe8821b2	-0.26588207
28	0x3dbe2c0c	0.09285745
29	0x3e17b9fb	0.1481704
30	0x3e136c65	0.14396818
31	0xbe1ddefd	-0.15417095
32	0xbda12b1e	-0.07869552
33	0x3d7dd246	0.06196811
34	0xbe33475f	-0.17507695
35	0xbe833e57	-0.256335
36	0xbe6aee6e	-0.22942516
37	0x3d1363ea	0.035983957
38	0x3e3df7a5	0.185515
39	0x3dbd58a0	0.092454195
40	0xba8c19e3	-0.0010688867
41	0x3e27ec86	0.1639882
42	0xbe1af9c9	-0.15134348
43	0xbb80581e	-0.0039167544
44	0xbda98f6f	-0.08279311
45	0xbe0b86d7	-0.13625656
46	0x3e3dfd4e	0.1855366
47	0xbe200748	-0.15627778
48	0x3c48a1fa	0.0122456495
49	0xbe746ed4	-0.23870403
50	0x3beb9d03	0.007190348
51	0xbdd954df	-0.10611891
52	0x3dc9fa62	0.0986221
53	0xbe1a0290	-0.1504004
54	0x3e4fe754	0.20303088
55	0xbe542276	-0.20716271
56	0x3e14c8c1	0.14529707
57	0xbe66bf22	-0.22533849
58	0x3e0dd25b	0.13849775
59	0xbdf7f983	-0.121081375
60	0xbb8764c3	-0.004131885
61	0xbd8265e2	-0.06367089
62	0x3e296df0	0.16545844
63	0x3dd938a7	0.10606509

weight f4 [32, 64, 3, 3]
0	0xbd11f94d	-0.035638142
1	0xbb9ce305	-0.004787805
2	0xbc6dec57	-0.01452168
3	0x3cd37a56	0.02581517
4	0x3bfca325	0.007709878
5	0xbb420c1a	-0.0029609264
6	0xbc969a68	-0.018384174
7	0x3cac8219	0.02105813
8	0xbccd8788	-0.02508904
9	0x3d2631c0	0.04057479
10	0x3d56feb6	0.052489005
11	0x3d4cfbaa	0.050044693
12	0x3d4a85b4	0.049443915
13	0x3c800324	0.015626498
14	0x3d827f0c	0.063718885
15	0x3c6f56e3	0.014608118
16	0x3d01d50a	0.03169731
17	0x3cb0a863	0.021564668
18	0x3c201f2c	0.009773057
19	0xbb87c62b	-0.0041434965
20	0xbc9ec6bf	-0.019381879
21	0xbc0186f2	-0.007905709
22	0xbd989060	-0.07449412
23	0xbcdede96	-0.027205747
24	0xbd77853a	-0.06042979
25	0xbc2bf54f	-0.010495498
26	0xbd768a05	-0.06019022
27	0x3c2d1532	0.010564135
28	0x3d27d2cb	0.040972512
29	0x3d070a8e	0.03296905
30	0xbd06ff08	-0.03295806
31	0xbd8389d0	-0.0642277
32	0x3bfc7c3c	0.0077052396
33	0x3c4fbb8d	0.012678993
34	0xbca485c3	-0.020083314
35	0xbc28d6cb	-0.010305117
36	0xbcfea10c	-0.031082653
37	0x3c023f1e	0.007949619
38	0x3d027b22	0.03185571
39	0xbcf89f87	-0.030349506
40	0x3c77ccc4	0.0151245035
41	0x3c78592d	0.01515798
42	0x3cd312c3	0.025765782
43	0xbc1f1d43	-0.009711566
44	0xbbb0312f	-0.005376957
45	0x3c6a7ee8	0.014312483
46	0x3d0d53c5	0.034503717
47	0x3d150a60	0.036386847
48	0xbcbf01f2	-0.023316357
49	0xbb374282	-0.0027963226
50	0x3c3ebadb	0.0116412295
51	0xbcfe2055	-0.031021276
52	0xbca843eb	-0.020540198
53	0xbc380a07	-0.011232859
54	0x3cfd6a9a	0.03093462
55	0x3a9c07d5	0.001190419
56	0x3b4bcec0	0.0031098574
57	0x3c8e3310	0.017358333
58	0x397bcad9	0.00024012792
59	0xbd0e17c0	-0.03469062
60	0x3b3be23e	0.0028668786
61	0x3d273c25	0.040828843
62	0x3c9ff889	0.01952769
63	0xbc4081a7	-0.0117496615
64	0x3cfc9fef	0.030837981
65	0xbbb94caf	-0.0056548933
66	0x3b1add7a	0.0023630545
67	0x3d8a17b9	0.06742806
68	0x3d232086	0.03982594
69	0x3a18765a	0.00058159756
70	0x3d037a1a	0.032098867
71	0x3ccc02a4	0.024903603
72	0x3b1cb5f9	0.0023912175
73	0xbd0cd4a4	-0.034382477
74	0xbd322473	-0.043491792
75	0xbaa4d541	-0.0012575762
76	0xbcf38e96	-0.029731076
77	0x3af39728	0.0018584477
78	0xbd22cedc	-0.039748058
79	0xbc46d505	-0.012135749
80	0x3cc3c3e6	0.023897123
81	0x3c895239	0.01676284
82	0x3c9197f9	0.017772662
83	0x3d6656ec	0.05623524
84	0xbcbc19d9	-0.022961544
85	0x3bfec77f	0.0077752466
86	0x3d3c6f9b	0.046004873
87	0x3d4dbc30	0.050228298
88	0xbb103973	-0.0022006899
89	0x3d71e869	0.059059534
90	0x3c653f01	0.013992072
91	0x3b08e34e	0.0020887437
92	0x3c7451de	0.014912097
93	0xbcc5392c	-0.024075113
94	0x3e18b5e2	0.14913133
95	0xbbff77cd	-0.007796264
96	0x3ba5afde	0.0050563654
97	0xbd0c0642	-0.034185655
98	0xbd77404e	-0.06036406
99	0xbc3270f3	-0.010891187
100	0xbd3733c6	-0.04472711
101	0xbca2617f	-0.01982188
102	0x3c938e29	0.018012123
103	0x3d140ad0	0.036143124
104	0x3c4df5d2	0.012570815
105	0x3c9d0a51	0.019169958
106	0x3c89643c	0.016771428
107	0xbd080d19	-0.033215616
108	0xbd779a51	-0.060449902
109	0xbbdb0f1e	-0.0066851517
110	0x3c9a2bd2	0.018819723
111	0xbba10820	-0.0049142987
112	0xbd2e9d68	-0.042630583
113	0xbd294735	-0.041327674
114	0xbca11ea2	-0.019667927
115	0xbd2fed5c	-0.042950973
116	0x3cb548c9	0.022129433
117	0xbce5fda7	-0.028075052
118	0xbd8954c7	-0.06705623
119	0xbcc45cf3	-0.023970103
120	0xbcb7adbe	-0.022421714
121	0xbd1273d8	-0.03575501
122	0xbc63818c	-0.013885867
123	0xbadaf11f	-0.001670394
124	0xbd83818a	-0.06421192
125	0xbd6679d1	-0.056268517
126	0x3c2e3883	0.010633591
127	0xbd02b054	-0.03190644
128	0xbc2e5178	-0.010639541
129	0x3d250bb9	0.040294383
130	0xbb96217e	-0.0045816293
131	0xba12abaa	-0.0005595038
132	0xbca47fe7	-0.02008052
133	0xbcaf7296	-0.021416944
134	0x3d35a172	0.04434342
135	0xbd0339ba	-0.032037474
136	0xbd3c3063	-0.045944583
137	0xbd61229b	-0.054964643
138	0x3bff84f2	0.0077978307
139	0xbd7a54b2	-0.061115928
140	0xbd385ed2	-0.045012303
141	0xbc8c515e	-0.017128643
142	0xbd5c2e7e	-0.053755276
143	0xbce7a4c8	-0.028276816
144	0x3d095737	0.03353044
145	0xbc5774d1	-0.01315041
146	0xba1d4914	-0.0005999964
147	0xbcf66056	-0.030075233
148	0xba511fc1	-0.0007977449
149	0x3cabca23	0.02097041
150	0xbbc05139	-0.0058690575
151	0x3cfaa49c	0.03059607
152	0xbcaf7ee0	-0.021422803
153	0xbd082a84	-0.03324367
154	0xbcfa12c7	-0.030526532
155	0x3d2c3751	0.04204494
156	0xbcc1991b	-0.023632577
157	0xbc06154f	-0.008183791
158	0xbb3aa42e	-0.0028479206
159	0x3d2afc8c	0.041744754
160	0x3cbc2ec2	0.022971515
161	0x3c4ceeec	0.012508135
162	0x3d68e9a9	0.05686346
163	0x39ae8a00	0.00033290684
164	0x3c8902b4	0.016724922
165	0x3d8d1eba	0.06890626
166	0x3d81c66a	0.063366726
167	0x3d0a5f1c	0.03378211
168	0x3c9f8253	0.019471323
169	0x3c9123e2	0.017717306
170	0x3d65cf52	0.05610592
171	0xbc4a66a0	-0.012353569
172	0x3bb159f2	0.0054123336
173	0x3b712376	0.0036794818
174	0x3d7a30de	0.06108176
175	0xbca79735	-0.020457843
176	0xbcb7857f	-0.022402523
177	0x3d292161	0.0412916
178	0x3bebd0d2	0.007196524
179	0xbc81c526	-0.015841078
180	0xbd55f50a	-0.05223564
181	0xbd15beac	-0.036558792
182	0xbab0b4a7	-0.0013481573
183	0xbcc9502c	-0.024574362
184	0xbccf36ad	-0.025294626
185	0xbd812e52	-0.06307663
186	0xbc4869f5	-0.012232293
187	0xbd74db5e	-0.059779517
188	0x3bcc3b96	0.006232689
189	0x3d6199ac	0.055078194
190	0x3c58a56d	0.013223034
191	0x3d2a9a15	0.04165085
192	0xbd008728	-0.031378895
193	0xbd68ca6e	-0.056833677
194	0xbd591290	-0.05299622
195	0x3cc0e774	0.023547865
196	0x3c12826f	0.008942231
197	0xbd0f90be	-0.035050146
198	0x3cb5649f	0.022142706
199	0x3d24b0c7	0.04020765
200	0xbceaa291	-0.02864197
201	0x3c2702ec	0.010193568
202	0x3cc70783	0.024295574
203	0x3cc7c34e	0.02438512
204	0x3cfecc9b	0.031103423
205	0x3d42019d	0.04736482
206	0x3c9fbb01	0.01949835
207	0x3d5824c1	0.052769426
208	0xbb8a21db	-0.0042154617
209	0x3cfabae2	0.03060669
210	0xbcaf90c5	-0.021431336
211	0x3b88d706	0.0041760234
212	0x3b5c9305	0.0033656966
213	0x3d489cb8	0.048977584
214	0x3c8ae54a	0.016955037
215	0x3d071f04	0.032988563
216	0xbce3a2ab	-0.027787527
217	0xbc1d3eb1	-0.009597466
218	0x3d4fec7c	0.05076264
219	0x3d229c9e	0.039700143
220	0x3d09259e	0.03348314
221	0xba499406	-0.0007689599
222	0x3bcc2767	0.006230283
223	0xba7c40d0	-0.0009622695
224	0x3d10db7e	0.035365574
225	0xbd100083	-0.035156738
226	0x3bd8b33c	0.0066131633
227	0x3b9f748a	0.0048661875
228	0xbd818fe2	-0.063262716
229	0xbcf07a26	-0.02935512
230	0xbd0ed3c5	-0.034869928
231	0xbd1d1aa4	-0.038355485
232	0xbc20206b	-0.009773354
233	0xbcd5ed14	-0.026114024
234	0x3d4e785f	0.050407764
235	0xbc08a157	-0.008339248
236	0x3d1f2fc7	0.038863923
237	0xbc4eacdd	-0.012614456
238	0xbc81daff	-0.015851496
239	0x3ca4f791	0.02013758
240	0x3d3c9032	0.046035953
241	0x3cd5a43d	0.026079291
242	0xbc479b14	-0.01218297
243	0xbc9ed167	-0.01938696
244	0xbd80a099	-0.062806316
245	0xbc88ad32	-0.016684148
246	0xbd8edbc1	-0.069755085
247	0xbd85eddf	-0.06539511
248	0x3a874d4e	0.0010322721
249	0xbd6158b8	-0.05501625
250	0xbd943a66	-0.07237701
251	0x3bf89173	0.0075856983
252	0x3c87094d	0.016483927
253	0xbc984e98	-0.018592164
254	0x3d44cca9	0.04804674
255	0xbcb33799	-0.021877097

bias f4 [32]
0	0x3da3c089	0.079957075
1	0xbd4fc69c	-0.050726518
2	0xbd81a1b0	-0.063296676
3	0x3d3dc169	0.04632703
4	0xbcc03521	-0.023462834
5	0x3d18cc92	0.03730447
6	0x3d4bd377	0.049762215
7	0xbd80b5fb	-0.0628471
8	0xbb6b192c	-0.0035873158
9	0x3bc83e3f	0.006110936
10	0xbc89a319	-0.016801404
11	0xbc3341fb	-0.010941024
12	0x3cadf9f7	0.021237357
13	0xbc1834b9	-0.009289914
14	0x3d435b56	0.047694527
15	0xbcebd07b	-0.028785935
16	0x3d827cba	0.06371446
17	0xbd40b51c	-0.04704772
18	0xbd3313bb	-0.04371999
19	0x3b32a61c	0.0027259653
20	0x3d15e4a5	0.036595006
21	0xbd403ae0	-0.046931148
22	0xbc4e57fa	-0.012594217
23	0xbcbafa99	-0.022824572
24	0xbd6f0e52	-0.058363266
25	0xbd824fc2	-0.06362869
26	0x3d56d6db	0.052450996
27	0xbc8984b5	-0.016786912
28	0xbd2e9119	-0.042618845
29	0xbcc0e7a7	-0.02354796
30	0xbc9941c6	-0.018708121
31	0x3db6645e	0.08905862

weight f4 [9, 32, 3, 3]
0	0x3d873049	0.066010065
1	0x3d970651	0.07374252
2	0x39970017	0.0002880103
3	0xba91e054	-0.0011129477
4	0x3cf4cf7d	0.029884094
5	0x3d1443d6	0.036197506
6	0x3c88da03	0.016705519
7	0xbcabcedc	-0.020972662
8	0x3d7f9f3e	0.062407725
9	0xbd1db2be	-0.03850054
10	0x3cb3afdd	0.021934444
11	0xbc86d256	-0.016457718
12	0xba2a505e	-0.0006496961
13	0xbcf76812	-0.030200992
14	0xb914adb5	-0.00014179091
15	0xbd36f525	-0.04466738
16	0x3c18c6cc	0.009324741
17	0xbd2a2bfe	-0.04154586
18	0x3d0d9352	0.034564324
19	0xbd6bba0b	-0.05755047
20	0x3dd3ea10	0.10347378
21	0xbd9633e0	-0.07334113
22	0xbdc56569	-0.09638483
23	0x3dd75c77	0.10515683
24	0x3d580e92	0.05274827
25	0xbd50a5fc	-0.050939545
26	0xbd29cf73	-0.041457605
27	0xbd4e46f8	-0.05036065
28	0x3cb67f64	0.022277541
29	0xbc490655	-0.012269576
30	0x3c91db4e	0.017804768
31	0x3d5d8d72	0.05408997
32	0x3d15c090	0.036560595
33	0xbb56edf2	-0.0032795635
34	0x3c85f8a4	0.016353913
35	0xbd467258	-0.04844889
36	0x3d310a2c	0.04322259
37	0xbd9aa2fd	-0.07550619
38	0xb9040dde	-0.00012593667
39	0xbd278fa2	-0.040908463
40	0x3c6f0a07	0.014589793
41	0x3c019d22	0.007910999
42	0x3cf09ca2	0.029371563
43	0xbd7688d8	-0.060189098
44	0xbc8361c2	-0.016037825
45	0xbd032a1f	-0.03202259
46	0x3d0fab9c	0.03507577
47	0xbd2992e6	-0.04139986
48	0x3d80aea3	0.06283309
49	0x3d191ef6	0.037383042
50	0xbd3233b3	-0.043506335
51	0xbb1a4d3e	-0.0023544575
52	0x3cd07728	0.025447443
53	0x3d52acda	0.051434375
54	0xbcbb5da3	-0.022871798
55	0xbd2a4352	-0.041568108
56	0xbd0e54bf	-0.03474879
57	0x3c89c726	0.016818594
58	0x3da40bad	0.080100395
59	0x3b4ce80d	0.0031266243
60	0x3d197d24	0.03747286
61	0xbd509c36	-0.050930224
62	0xbd706f68	-0.058699995
63	0x3c0e1c61	0.008673758
64	0x3d439f06	0.04775908
65	0x3d3e5fa8	0.046477944
66	0xbbcc482b	-0.006234189
67	0xbd90178b	-0.070357405
68	0x3ce5284a	0.027973313
69	0x3d29faaa	0.041498818
70	0xbd9bb683	-0.07603171
71	0xba748509	-0.0009327685
72	0x3ce96db9	0.028494703
73	0x3c966a50	0.01836124
74	0xbd4c7f31	-0.049925987
75	0xbd2d4343	-0.042300474
76	0xba3ce63f	-0.000720594
77	0xbbbb3510	-0.0057131127
78	0x3c223746	0.0099008735
79	0xbc946404	-0.018114097
80	0x3d970d7e	0.0737562
81	0xbc1c580e	-0.009542478
82	0x3d711e5d	0.058866847
83	0xbcf9d60a	-0.03049757
84	0x3d471fde	0.048614375
85	0x3d4c6441	0.049900297
86	0xbd759818	-0.0599595
87	0x3ce7315e	0.028221782
88	0x3cc9075b	0.02453964
89	0xbd707af1	-0.058710996
90	0x3d12f849	0.035881314
91	0xbd16c411	-0.036808077
92	0xbd0582f6	-0.032595597
93	0xbd0a0ac4	-0.033701673
94	0xbd9f774c	-0.07786426
95	0x3d0fb428	0.03508392
96	0xbce743a1	-0.02823049
97	0xbd4844a3	-0.048893582
98	0x3d4e8606	0.050420783
99	0xbd3ab1eb	-0.045579832
100	0xbcf1f847	-0.029537333
101	0xbb88c206	-0.00417352
102	0x3d46ce3b	0.04853652
103	0x3c99df07	0.018783106
104	0xbd04d916	-0.03243359
105	0xbd06c411	-0.032901827
106	0x3d95198f	0.072802655
107	0x3d154779	0.036445115
108	0x3cd81ba1	0.026380362
109	0xbcdf5327	-0.02726133
110	0xbd788d59	-0.060681675
111	0x3cb802f1	0.02246234
112	0x3d25a74e	0.040442757
113	0xbb8c1366	-0.0042747734
114	0xbc5699a3	-0.013098153
115	0x3c4f59db	0.012655701
116	0x3c18d46d	0.00932799
117	0x3ce243fd	0.02762031
118	0x3d82ce05	0.06386951
119	0x3d3dae7b	0.046308976
120	0x3cdac5ce	0.026705649
121	0x3c031911	0.008001582
122	0xbcdc3ce8	-0.026884511
123	0xbd2cfca8	-0.04223314
124	0xbd5cb80d	-0.053886462
125	0xbcc4765c	-0.02398222
126	0x3ca1cb65	0.019750306
127	0x3c5d5a5d	0.013510314
128	0xbd2a840d	-0.04162984
129	0xbd74edaa	-0.059796967
130	0xbcff467b	-0.031161537
131	0xbdabf60e	-0.083965406
132	0xbd582c31	-0.05277652
133	0xbc501483	-0.012700203
134	0xbc9713aa	-0.018441994
135	0x3d3d763e	0.046255343
136	0x3dabca70	0.08388221
137	0xbd39d0d5	-0.045365173
138	0x3d10d414	0.035358503
139	0x3c4cb202	0.012493612
140	0xbd6b79ec	-0.05748932
141	0xbd2b308f	-0.041794356
142	0xbd48a702	-0.048987396
143	0x3bc546ed	0.006020418
144	0x3cbbfa97	0.022946639
145	0x3d834274	0.06409159
146	0xbc6dc125	-0.014511381
147	0x3d60430c	0.05475144
148	0x3b70eb7e	0.0036761458
149	0x3d6a2a1f	0.057169076
150	0x3d1414a6	0.036152504
151	0x3d43a9cc	0.047769353
152	0xbca5dee2	-0.02024788
153	0x3d5c781d	0.053825486
154	0xbd437b6e	-0.047725134
155	0xbcf37b85	-0.029721985
156	0x3c47837a	0.012177343
157	0xbd9b5841	-0.075851925
158	0x3d06856e	0.032842092
159	0x3c899950	0.016796738
160	0x3d397123	0.04527391
161	0xbd2e6f42	-0.042586572
162	0xbbb88f17	-0.005632292
163	0x3d47fd5e	0.048825614
164	0xbc9b40af	-0.018951742
165	0x3d74d2eb	0.05977146
166	0x3e4728b2	0.19449118
167	0xbd07c2da	-0.03314481
168	0xbb84e9f5	-0.00405621
169	0xbcbea140	-0.02327025
170	0xbc09e9b9	-0.00841754
171	0x3d970a3b	0.07374998
172	0x3c8e04a6	0.0173362
173	0xbbcd4fff	-0.00626564
174	0x3b0595d4	0.0020383494
175	0xbcb4f354	-0.022088684
176	0x3d09a50a	0.03360466
177	0xba8b379b	-0.001062143
178	0x3c850933	0.016239738
179	0xbc9da4ca	-0.019243617
180	0x3bb4339d	0.005499317
181	0x3d83fbee	0.06444536
182	0x3d053238	0.032518595
183	0x3d7449f9	0.05964086
184	0x3dd36b65	0.10323218
185	0x3d4329b7	0.047647204
186	0xbbf38a22	-0.007432238
187	0xbb6ebec4	-0.0036429623
188	0x3d297757	0.041373577
189	0x3cef01df	0.029175697
190	0x3c657e6a	0.01400719
191	0xbc3996a4	-0.011327419
192	0x3c44e59d	0.012017635
193	0xbd2288ba	-0.039681174
194	0x3a965a49	0.0011470999
195	0x3d2fd1d7	0.04292473
196	0xbd0d49f2	-0.034494348
197	0x3d0f6cff	0.035016056
198	0xbbdfca80	-0.00682956
199	0x3d865f3c	0.06561133
200	0xbcfb80b0	-0.030701011
201	0x3c5b7b1a	0.013396049
202	0xbb9324de	-0.004490479
203	0x3c221642	0.009893002
204	0xbd50885b	-0.05091129
205	0xbc71b669	-0.014752963
206	0xbc9519c8	-0.01820077
207	0xbd15e0e1	-0.036591414
208	0x3bfefc01	0.007781506
209	0x3c86e2cf	0.016465573
210	0xbd147649	-0.036245618
211	0xbd48218d	-0.04886012
212	0x3cf1b404	0.029504783
213	0xbc067ca5	-0.0082084285
214	0x3caae13a	0.02085935
215	0xbc7effb1	-0.015563891
216	0x3ccf9c0e	0.025342967
217	0x3c99c145	0.018768916
218	0xbd1bfe47	-0.038084295
219	0x3d005bd1	0.031337563
220	0xbd4e7d04	-0.050412193
221	0x3a7dfaf0	0.00096885767
222	0x3a397631	0.0007074802
223	0x3cfc4952	0.03079668
224	0x3b607674	0.003425029
225	0xbc5668c6	-0.013086503
226	0xbcc0957f	-0.023508785
227	0xbd338b13	-0.043833803
228	0xbcb917a5	-0.022594282
229	0xbcedfdaf	-0.02905163
230	0xbd1eeabd	-0.038798083
231	0xbd244f48	-0.04011467
232	0x3cd6fa0d	0.02624228
233	0xbd377c8c	-0.04479651
234	0xbd480046	-0.048828386
235	0x3d8e4ed6	0.069486305
236	0xbcd7a740	-0.026324868
237	0xbc120526	-0.00891236
238	0x3d1aca40	0.037790537
239	0xbc54de14	-0.012992401
240	0x3d292062	0.04129065
241	0xbd254190	-0.04034573
242	0x3b09e68f	0.0021041965
243	0x3c51d4f5	0.012807121
244	0xbc946840	-0.018116117
245	0x3b210578	0.002456991
246	0x3d829279	0.06375594
247	0xbc331d20	-0.010932237
248	0x3cc19ade	0.023633417
249	0xbc0d6f8a	-0.00863255
250	0x3d05697e	0.03257131
251	0xbd6f9c08	-0.058498412
252	0xbcaafd38	-0.020872697
253	0x3bdef243	0.006803782
254	0xbd1f42cf	-0.038882073
255	0xbd5af5c5	-0.05345704

bias f4 [9]
0	0x3de1ea81	0.11031056
1	0x3d48ce6a	0.049024977
2	0x3dbda2de	0.0925958
3	0x3d84be92	0.06481661
4	0x3cc17e8e	0.023619916
5	0x3d0ecce4	0.034863368
6	0x3cfb4d33	0.03067646
7	0x3d90f346	0.07077651
8	0x3d658626	0.056036137
