.processed/6_logs_scale_3_crop_64/epoch_20_model.pth (torch_old, 93448 bytes, 6 tensors)

weight f4 [64, 1, 5, 5]
00000000: 4924 083e e2bc 193e 37d6 71bd 995b 2d3e
00000010: 57f8 75bd e7f7 de3c 0314 debd f7bb de3d
00000020: e68d 2e3e 91bf 1fbe 47b7 263e aa73 023d
00000030: 5a94 193e b3bd e03c 5148 b63d bd96 1ebd
00000040: c174 1d3e 35d1 153d 390d bdbd bbc6 3d3d
00000050: fd8a cdbd 8020 d1bc 3aa5 9bbd 267a 063e
00000060: ec59 24be 2c40 b4bd 9287 46bd 93be e9bd
00000070: 7abc ca3c 49ab 40be cd18 3a3e cd1f 28be
00000080: d7e6 253e 1fab 183d 40fe 73bd 4604 ff3d
00000090: 2445 203d b512 353e fd0f f93c 0007 6cbd
000000a0: acbf 553d 64b1 45bd 913c c13d e5eb 3d3e
000000b0: bc9c f23d 23f2 bebd e9d4 e53d 86a3 133d
000000c0: 722e cf3d d09a fbbd 7fb7 11be 4e83 1cbc
000000d0: d93b 0cbe 0efb 3b3e d28d 80bc ca28 493d
000000e0: f5ff 263d df5c 433d 0dc9 9c3e 0f05 7fbe
000000f0: cc7f bbbc d371 01be 23b9 313e f9a4 113d
00000100: 7799 81bd 454f a2bd 4544 153e a584 cbbd
00000110: cd5f f4bd 89bb 96be 7f74 043e a970 c13c
00000120: 5a30 4e3e 198c aebd e644 a3be 21a8 26be
00000130: 4b14 08be 40c6 8d3d b845 523d c072 093e
00000140: c8ba e3bd dac0 08be 0a80 f73d 6b44 aebd
00000150: 52d5 dc3d e21a 8ebd b2f0 243e a3bb 03be
00000160: 2e0b 93bd eef4 7a3d 6d8e 033d 3763 d6bc
00000170: 83c0 253e a186 243e 6dd1 0dbe 7fb2 dcbd
00000180: 4a02 593e 5320 2cbd d161 47bd e652 2ebe
00000190: c143 32bc 3d2f b03d 5663 4bbb 425f ae3c
000001a0: 4a1a d03d c6a3 aabd 137f 33be 7499 d63c
000001b0: 1d33 42be a6ed c0bd 18e5 203e c692 7b3d
000001c0: 3f3f d23e 4274 d8be 2896 afbd 93bd 9abd
000001d0: 9d4f d03c 2747 26bd ade0 68be bf9b 80bd
000001e0: cd7c 25bb 6274 cebd c42d 403d 1c3b 2a3c
000001f0: 5491 2f3d 62e0 cdbd bdc3 45bd e464 09be
00000200: 3537 1c3e ef66 2cbd 1846 333e e943 9e3d
00000210: 9d1b 33be 58b2 0c3e 2a5d 78bd bf95 8cbd
00000220: 2029 20be d543 55be bc72 6f3d 081d 1ebd
00000230: 5a42 c33d f7cf 15be 9bb4 2c3e f703 15be
00000240: 6f23 52bc 2fa3 323d 58d5 db3d 7524 1e3e
00000250: d26f 393e 21a2 25be 0b7f 983d 2add 9ebd
00000260: 7446 22bb 3b89 1cbe 2644 1c3e 04d3 16be
00000270: e61a b83d a579 c33d 6564 463d 9f23 f2bd
00000280: d95e 343e a8b0 f03c fb5b 9a3d 77c4 4abe
00000290: 5374 8c3d 59b8 05bd 8e66 ddbd babb 533e
000002a0: f31f 233d 1f8c 0dbe 5899 acbd fa58 5dbc
000002b0: de12 fb3d b3ce 03bd b9b5 e1bd 72c5 8fbd
000002c0: 22bb 19be cba6 923d d7bf 1c3e 3e70 42be
000002d0: 2731 313d 4f65 d83d 2883 1e3d 1fbd 8cbd
000002e0: 3a1f d13d 31b2 d03d 5df4 a53d 3fd7 dbbc
000002f0: 631f 50bd a269 9a3c e229 27bd 0867 77bd
00000300: 0861 073e 2f34 313e 1922 c2bc 2746 5cbd
00000310: d6e5 81bb 37c3 8abc 02f9 313d 0d88 453d
00000320: 011b 03be c236 19bd 24d2 503e 84b8 c33d
00000330: 4e2c 44bb f3ce a4bd 1569 abbd e876 20be
00000340: 41e7 eabc 31b0 c03d d336 213e c42c 3e3e
00000350: bc5a 1bbe f2db b8bd 4a7e 743c 4fe2 553e
00000360: 3042 9b3d c0c1 90bc d571 cb3d acfe 36bd
00000370: c373 cebd 0b28 3a3e 7365 3bbd 2a0f cfbc
00000380: 92cb 1cbe 9a2d d43d 4288 d23d c017 993d
00000390: 9632 e8bd 049f febd 4605 1fbe aad5 103e
000003a0: d130 063e 3906 513e 73ce 053e ee76 013d
000003b0: f743 c9bc d5c2 43be 51e9 67be da3f 46be
000003c0: 6967 d93d 8d19 8fbd a0ef ba3c 8596 afbd
000003d0: d7c3 843c 71a8 a5bd 786a e8bd 6566 b93d
000003e0: 9a36 28bd b14c 153e 061f 45bd 81fb 0dbe
000003f0: f5f5 dfbc d5f0 bebd 9699 7cbd a5f4 4abe
0.13295092 0.1501346 -0.05904218 0.16929473 -0.06005129 0.027217818 -0.10843661 0.10875695
0.17046317 -0.1560042 0.16280852 0.031848587 0.14997998 0.027434206 0.08900512 -0.038717974
0.1537657 0.03657647 -0.09231038 0.046332102 -0.100362755 -0.025528193 -0.07599874 0.13132533
-0.16049927 -0.08801302 -0.048469134 -0.11413302 0.024748076 -0.1881534 0.18173523 -0.16418381
0.1620134 0.03727257 -0.059568644 0.12451987 0.039128438 0.17682917 0.030403132 -0.057623863
0.052184746 -0.048264876 0.0943538 0.18547018 0.11846301 -0.09323528 0.1122225 0.03604462
0.101162806 -0.122853875 -0.14230154 -0.00955279 -0.13694705 0.18357489 -0.015692625 0.049111165
0.040771443 0.04769599 0.3062214 -0.24904273 -0.022888087 -0.12641077 0.1735578 0.03555772
-0.06328099 -0.07925276 0.14576824 -0.09937409 -0.11932335 -0.29439953 0.12935065 0.02361329
0.20135632 -0.08522815 -0.31888503 -0.16275074 -0.13288991 0.06922579 0.05133602 0.1342268
-0.1111961 -0.13354817 0.120849684 -0.085091434 0.10782875 -0.06938721 0.16107443 -0.12864546
-0.07179867 0.06126874 0.03211825 -0.026170356 0.16186719 0.16066982 -0.13849421 -0.10776233
0.2119228 -0.042023014 -0.04867727 -0.1702381 -0.010880412 0.0860276 -0.003103455 0.021285657
0.10161264 -0.083320186 -0.17528944 0.026196219 -0.1896481 -0.09420328 0.15712392 0.06141927
0.41063878 -0.42276198 -0.08573562 -0.0755569 0.025428588 -0.0405952 -0.22741957 -0.06279706
-0.002525139 -0.10080792 0.046918646 0.010390069 0.042863205 -0.10052563 -0.048282374 -0.13417393
0.15255435 -0.042090353 0.17507207 0.077277966 -0.17491002 0.13739908 -0.060635723 -0.06864499
-0.15640688 -0.20826657 0.05845903 -0.038601905 0.0953414 -0.14630114 0.1686577 -0.14552294
-0.012825831 0.043612655 0.107340515 0.15443595 0.18109062 -0.16175129 0.074461065 -0.077570274
-0.0024761232 -0.15286724 0.15260372 -0.14728934 0.089895055 0.09544686 0.048435587 -0.118232004
0.17614307 0.029381111 0.07537075 -0.19801508 0.068581246 -0.03264651 -0.108105764 0.20677081
0.03982539 -0.13822983 -0.084276855 -0.013509983 0.12259458 -0.032179546 -0.11020989 -0.070200816
-0.15012792 0.071607195 0.15307556 -0.1898813 0.043259766 0.10566198 0.0386993 -0.068720095
0.10211034 0.10190237 0.08103249 -0.026836036 -0.050811183 0.018849198 -0.040811427 -0.060400993
0.13220608 0.17305063 -0.0236979 -0.05377784 -0.003964166 -0.016938789 0.043450363 0.04822545
-0.1280327 -0.037405737 0.20392662 0.09556678 -0.0029933634 -0.08047285 -0.08369652 -0.15670359
-0.028674724 0.09408606 0.1574357 0.18571764 -0.15171331 -0.09026326 0.014922688 0.20887111
0.07580984 -0.017670512 0.09933821 -0.044676468 -0.100806735 0.18179338 -0.045751046 -0.025275785
-0.15312031 0.1036026 0.10279895 0.07475233 -0.113377735 -0.124326736 -0.15529355 0.14144006
0.1310456 0.2041253 0.13067035 0.03160756 -0.024568541 -0.19117291 -0.22647597 -0.19360295
0.10615427 -0.06987295 0.02281934 -0.08573631 0.016206665 -0.08088768 -0.11348432 0.09052733
-0.041067697 0.14580037 -0.04812529 -0.13865472 -0.027338961 -0.09323279 -0.06166991 -0.19819887

bias f4 [64]
00000000: 409b 28be 37da c73d a5fe b3bd 7da4 d1bb
00000010: ae5b 1e3d c0ba 1c3e 1cd2 8ebd 13a2 463d
00000020: f06e 913d 074c f13d b0e2 b43b 07d0 b23d
00000030: 6001 edbd 5a51 0ebe 0aa2 323e 272d 02be
00000040: b512 13bc 62f5 8abc 002b 413e 7107 00bd
00000050: de2c 07be 7c65 51bd 6318 173e 0d6e d43d
00000060: f58e 2a3e f22d f73d 5fc6 ad3d be54 4fbe
00000070: 55bb aa3d 0e3c bf3d a2b7 c73d f6f2 88bd
00000080: 8954 3ebd db4e 723d 9c07 08be 7432 0ebe
00000090: 55a4 55be 3feb 773d 8212 ef3d 8e7e 4e3d
000000a0: f562 953d d811 793d e145 d7bd 777b 93bb
000000b0: c3ae 09bd f6a8 95bd f16f 233e a7fe 07be
000000c0: 90ea a33c a3be 38be ebd0 893c ba1a 9bbd
000000d0: f5d8 8c3d 6a86 8bbd 23fe 023e 84a5 1bbe
000000e0: b640 ee3d 1658 dabd e568 c03d babc 61bc
000000f0: 1f3a 82bc 2000 95bc b523 e33d b05e 6c3d
-0.16465473 0.09758418 -0.08788804 -0.0063977824 0.03866165 0.15305614 -0.06973669 0.04849441
0.07101238 0.11782079 0.0055201873 0.08731084 -0.11572528 -0.1389822 0.17444625 -0.12712537
-0.008976628 -0.01696271 0.1886406 -0.031257097 -0.13200709 -0.051122174 0.14755397 0.10372553
0.16656096 0.1206931 0.08485102 -0.2024717 0.08336512 0.093376264 0.09751822 -0.06686966
-0.046467338 0.059157234 -0.13284153 -0.13886434 -0.20863469 0.060527083 0.11673452 0.05041366
0.07294265 0.060808033 -0.10511375 -0.004500802 -0.03361393 -0.07307617 0.15960671 -0.13280736
0.020009309 -0.18041472 0.016823253 -0.07573457 0.06877319 -0.06812747 0.12792258 -0.15199858
0.116334364 -0.10661332 0.09395007 -0.013777906 -0.015896855 -0.018188536 0.11090795 0.05770749

weight f4 [32, 64, 3, 3]
00000000: 7f52 04bd a250 2b3c aa8f 82bc 522d 173d
00000010: abc4 9b3c 7566 8d39 429e 68bc 7690 e73c
00000020: fc66 59bc 8abe 023d 31df 1e3d 89e9 293d
00000030: 03a3 de3c 9862 9dbc f109 463d accf bebb
00000040: 9715 00bb 4234 793b 45d7 30bd 35a7 20bc
00000050: 012c b83c 9945 8ebc 1c06 2f3c 99d7 20bb
00000060: 1081 c13d d77d 563d b586 e6bc a0d8 923b
00000070: 647f 273d d07d 403c 111b 543a b18f cfbc
00000080: 8b2e 46bc 58fd 333d 6dae 8a3c 1d23 24bd
00000090: a5c1 1ebe e23e cebd a357 b33c 63ad 2bbe
000000a0: 7691 853c a42f f2ba 22ba 77bd ff9c 3abc
000000b0: 4901 b9bd 0ab9 cf3c 0750 d83c f845 053d
000000c0: 1bd1 29bc 4811 73bb 081e a43b f8ac 74bc
000000d0: 2d40 a9bc eb1b 71bc ad3e 10bd 2f66 373c
000000e0: 6d6c ce3c d9e8 ca3c dac1 a8bc 0e6c 6bbc
000000f0: 1a4e 88bc 538e 273d 8d8a b43c 6bc4 57bc
00000100: edab 9e3c ebaf 18bc 0b8f eebb 268b 503d
00000110: c77e 083d 807f bcbb 919b 733c f6fe 9d3c
00000120: 605b 1b3c db6d c53c b5e8 063d a54f de3c
00000130: 8e7e b0bc 4756 67bc 7c9e b93c 071e e8bc
00000140: b9a7 d73c 6df4 ac3b 4819 06bd 5c6c 043d
00000150: f91c 33bd 07c9 edbc a003 243d a97f df3b
00000160: 7921 10bd 471d 2c3d 3dfd 673c f520 cabc
00000170: fd81 003d e553 a9bb 8ff9 103d 78d2 1d3d
00000180: 2504 1c3c 351d f7bc 9c0a ddbc 0e8c cfbc
00000190: ffab 81bd 6717 fd39 7943 243d 2b11 223d
000001a0: fa1a 833c 7d9d db3c 0472 5c3d 5b7f 52bd
000001b0: 28be d4bc f199 6b3c bbcd 463d 06b1 2d3c
000001c0: 6357 be3b 4772 88bc b25f c5bc ae05 02bd
000001d0: 7e6d 123d 0874 debb b7c4 16bd 3877 923b
000001e0: d028 463b 60af a8bb bc5e 743c de8f b73c
000001f0: 267f 20bd 0fbf 02bd 858f 3cbc 0501 79bd
00000200: b595 05bd 1016 173d 9300 66bc 4719 d6bc
00000210: 3c99 a3bc b966 2abd 2e03 e23c 0be8 5fbc
00000220: 1d1c 24bc bebb 17bd d01e e83c df5b f93b
00000230: 38b6 97bc 07c0 f6ba 4a31 80bc 51fb 56ba
00000240: 1d8f 303d 08ec 4bbc 7e42 f33b 22e4 78bc
00000250: 9d27 49bd 2f48 5d3b b5df 8fbb 409e 133d
00000260: 02b4 d9bd a850 7f3b a2fb 39bc 0c97 0d3d
00000270: 6e90 bfbc 9109 ab3c 60f0 463c 5be6 9a3c
00000280: 40af 873c 1485 a0bc 07c0 123d 1af1 dbbc
00000290: f9eb 02bc 9269 2b3d 71ed a53c 2fa4 b33a
000002a0: a186 b6bb 7a93 b5bc 8ab8 e83c 61d8 df3b
000002b0: d092 4f3c 3ae1 633c f867 2d3d 507f 12bc
000002c0: 12dc 5dbc 4cfd d03c acd3 663c be69 e5bc
000002d0: d20d 3ebc 66b0 133b fe33 213c addb 863c
000002e0: b688 fc3c 1a5d 3bbd f494 f33c ea57 bc3b
000002f0: f260 cb3c 98ef 2e3d d2bd 973c 2e6a 033d
00000300: 28f7 43bc c98b edbc 42fa 11bd 8ea3 2b3d
00000310: d75e ba3c 8ca2 f9bc bda5 83bc d159 12bd
00000320: 2a0b b6bd c4a8 083d a8a8 1a3d 25e0 1b3d
00000330: 6b3e f33c f536 533d 2546 0d3d 7303 413c
00000340: 0044 e43b 7543 483b 3f8e 06bd 9508 f53b
00000350: 7ef2 263b 9733 3a3d 9440 61bb b880 01bb
00000360: 0e3a 1ebd 0d37 2fbd c662 883c e846 483d
00000370: 6eab 5b3b 8eb7 ddbb 9dd2 3b3c 645a b33c
00000380: ba70 683c 1b84 a43c 39d0 c73c 1355 4f3d
00000390: 58d4 ce3c 3322 223d d22d 3fbd 62af 9d3d
000003a0: 0602 b1bd f85f b1bc 8615 313d eb57 5bbc
000003b0: efe8 c83c 3986 e3bc c046 7cbc 80bb b03b
000003c0: d632 183d 2a58 9f3c ba7f 00bd 0182 a03b
000003d0: 852e d7bc 2d5f 903a 7091 11bd db27 2abc
000003e0: 46c3 a03c 1260 28bd 2213 33bd fed6 5e3b
000003f0: d8b1 893b 6f95 a9bc 0913 4f3d 2419 f0bc
-0.032305237 0.010456236 -0.015937645 0.036908455 0.019014677 0.00026969952 -0.014197888 0.028267127
-0.013269182 0.031919993 0.03878707 0.041482482 0.02717734 -0.019212052 0.048349325 -0.0058230963
-0.0019544119 0.0038025533 -0.043174047 -0.00980549 0.02248192 -0.017367171 0.010682609 -0.0024542569
0.09448445 0.052366104 -0.028140405 0.00448139 0.040892974 0.011748746 0.00080911914 -0.025337072
-0.012096058 0.04394278 0.016928876 -0.04007255 -0.15503557 -0.10070588 0.021892374 -0.1676536
0.016304713 -0.0018477333 -0.060480244 -0.01138997 -0.09033448 0.025356788 0.026405348 0.03253743
-0.010364796 -0.0037089158 0.005008463 -0.014933817 -0.020660484 -0.014716129 -0.035216022 0.011193796
0.025198186 0.024769234 -0.020600248 -0.014369024 -0.016638804 0.040907215 0.022038722 -0.013169388
0.01936909 -0.009319286 -0.0072802356 0.050913952 0.03332403 -0.005752504 0.014868633 0.019286614
0.009482235 0.024100235 0.03293677 0.027137587 -0.021544721 -0.014119691 0.022658579 -0.02833463
0.026325094 0.0052781613 -0.032738954 0.032329902 -0.043728802 -0.029026521 0.04004252 0.006820638
-0.035188172 0.04202011 0.014159498 -0.024673918 0.031373966 -0.0051674717 0.035394248 0.038530797
0.0095224725 -0.030165294 -0.026982598 -0.025335338 -0.06331634 0.00048273357 0.04010341 0.039567154
0.016004074 0.026808495 0.05381967 -0.051390987 -0.02596958 0.014379964 0.048536044 0.010601288
0.005808757 -0.016656054 -0.024093483 -0.031743698 0.03574895 -0.0067887343 -0.036808696 0.0044697784
0.0030236728 -0.0051478595 0.014915165 0.022407468 -0.03918376 -0.03192049 -0.011508827 -0.060791988
-0.032613475 0.036886275 -0.014038223 -0.0261351 -0.019970529 -0.04160187 0.027589407 -0.013666163
-0.010016468 -0.03704428 0.028335005 0.007609829 -0.018519506 -0.0018825539 -0.015648503 -0.0008200901
0.043105233 -0.012446411 0.007423698 -0.01519111 -0.049110044 0.0033764949 -0.0043906816 0.03603959
-0.10630037 0.0038957987 -0.011351498 0.034567878 -0.0233843 0.020878585 0.012142271 0.01890867
0.016563058 -0.019594707 0.035827663 -0.026848365 -0.007990831 0.041848727 0.020254822 0.0013705547
-0.0055702482 -0.022165049 0.028408308 0.0068312143 0.01266928 0.013908679 0.04233548 -0.0089414865
-0.013541238 0.025511406 0.014088552 -0.028004523 -0.011599975 0.0022535562 0.009839056 0.016462171
0.030826908 -0.045743085 0.029734112 0.005747785 0.0248265 0.042708963 0.01852313 0.032083683
-0.011960782 -0.028997319 -0.035639055 0.041904025 0.022750301 -0.030473016 -0.016070241 -0.035730187
-0.08888848 0.033364072 0.0377585 0.038055558 0.02969285 0.051566083 0.034490723 0.0117806075
0.006966114 0.0030557786 -0.0328505 0.0074778297 0.0025474126 0.045459356 -0.0034370767 -0.001976056
-0.038629584 -0.04277711 0.016648661 0.048895746 0.0033518928 -0.006766266 0.011463788 0.021893688
0.014187032 0.020082524 0.02439128 0.050618242 0.025247738 0.039583396 -0.046674557 0.07699467
-0.08642964 -0.021652207 0.043233417 -0.0133876605 0.024525134 -0.027773963 -0.0153977275 0.0053934455
0.037157856 0.01945122 -0.03137181 0.00489831 -0.0262673 0.0011014693 -0.03553909 -0.010385479
0.019624364 -0.041107245 -0.04371942 0.0034002657 0.004202109 -0.020701138 0.050555263 -0.029308863

bias f4 [32]
00000000: 2ec6 103d 2d32 383c 6d2c 05bd 511d 673c
00000010: c035 2dbd 39a6 653c 46b9 e33c 43ba 26bd
00000020: 990e 97bb ddfa 82bc d128 9c3c 29b5 ccbc
00000030: 21c5 d83b fbd2 cbbc b56e ffbc 6ed7 80bc
00000040: da8b a43c 5127 e4bc aa59 4abb ba4d 1fbc
00000050: c1e4 063d ec75 b2bc 2beb 25bd a48c a13b
00000060: 35f5 31bd e760 c4bc 6294 9f3c f5c2 c8bc
00000070: a44f 75bc 357c 923c 9a08 c73c 0482 de3c
0.03534525 0.011242432 -0.03251307 0.014106111 -0.042287588 0.014016681 0.027798306 -0.040704977
-0.0046098945 -0.015988762 0.019062432 -0.024988728 0.0066152965 -0.024880877 -0.031180719 -0.015727725
0.020086218 -0.027850779 -0.0030876198 -0.009723121 0.032933 -0.021784745 -0.040507477 0.0049300957
-0.04344674 -0.023971988 0.019479934 -0.024507025 -0.014972601 0.017881492 0.024296094 0.027161606

weight f4 [9, 32, 3, 3]
00000000: 9127 563d 4c6f 6f3d 4196 18bc 3774 95bc
00000010: c8f5 e93b d31a f93c d4e7 2c3c b65f e8bc
00000020: b654 7f3d 3c06 60bc 2858 a73d a006 f0bc
00000030: c18d 53bd 6904 9d3d 9fc0 7fbd cce1 d23b
00000040: 5a13 4e3d 569d 8fbc adf2 183d 27d6 9bbc
00000050: 593f c23c 42f2 44bd c91e f4bc 6ade 6c3d
00000060: 8233 583d 025e 35bd 8ab9 e6bc 0d54 7abd
00000070: 1da7 6c3c 7744 cbbb f322 3e3c bb5a 3a3d
00000080: 2cf7 113d 5648 9e3b 6b53 bf3c 19b7 16bd
00000090: 0c01 1f3d 232e 8dbd cb07 6d3c 7fb8 a23d
000000a0: 4f2e f03d 5e11 383d 631e c5bd 67ae 0ebe
000000b0: 29bf a1bb 0404 23bd 536f ad3c 9ff6 e7bc
000000c0: 2ac2 5b3d 6025 da3c 164e 10bd 7da5 ef3b
000000d0: 5f25 e83c e538 923d 0e55 f1bc 3a1f edbc
000000e0: 58c2 4dbc c877 e53b 6c82 3d3d 98ea 023c
000000f0: 158c 3a3d 17a8 5dbd c5ae 81bd d894 f23b
00000100: d1c3 173d cbd0 613d 614a 183c 4ffd d13a
00000110: cc6c 103d a681 2b3d a05d 44bd 2d30 bcbc
00000120: 87fa 2e3d 5fb8 76bb a800 3abd 18db 11bd
00000130: 5905 f7bb 409e 1b3c 0055 debb f6e2 34bd
00000140: 1d9e 843d bd17 053b 7873 813d 4180 ecbb
00000150: 8e9c 673d 506a 173d d335 3fbd f613 103d
00000160: 4170 353d 537a 1ebd a39b 7e3d 497b c63a
00000170: 7264 28bc 2c70 3fbb a409 d7bc c3a5 843d
00000180: e4b7 36bc 005a d5bc 27d3 853d c992 a0bd
00000190: c67f 02bd 87ea c93b f79e 573d aa1d 13bb
000001a0: a906 84bc 925c 0cbd 1306 5b3d 5f5b 4e3c
000001b0: 3ccd 68bc ad36 f4bc 7149 51bd c382 0e3d
000001c0: 7f2b 21bd 81ca 6d3c 730c 8a3c ac85 c63c
000001d0: 0ea6 d4bc 2a34 083d a049 923d c0ee 5d3d
000001e0: 58ff c53c 5a53 763c c281 98bc b9f7 febc
000001f0: a72d dabc f17b 19bb 5b60 ad3d f1b2 683d
00000200: 77cd 793c 5e6b eabc a1b8 113b 3d65 59bc
00000210: daec 21bd 13b2 1abc 151e 443c 589d 323c
00000220: 40ab 2a3d 8f24 0a3b 91e9 663d cd1f 443c
00000230: 5cc6 0dbd 1b91 1cbc c619 c43c 6e5a 12bd
00000240: 2d66 aa3b 1148 363d 0328 ffbc f7de 023d
00000250: a202 c0bc 58da 373d 4460 b93c 946c 0d3d
00000260: 5ec0 f0bc 9ade 893c df96 0cbd eab7 c0bc
00000270: 1e8e 783d c144 d4bc 0459 193c 1c2e da3c
00000280: b188 263a 1ee2 95bc ecb1 9a3b 3126 953c
00000290: 3def b23c 223b 363c aa6c 663d 5290 023d
000002a0: 9dc4 983c e0ea 21bd 77cf 15bd 7027 893d
000002b0: 4104 413b a52e 4ebb 6c9f 91ba 4663 84bc
000002c0: 7b29 2a3d 4c5a 593c 4212 8e3c 59e7 edbb
000002d0: 4fee 603c b494 443d 0ba5 0a3d 84ba 423d
000002e0: 7a4f 043d 36f5 283d ed1d 10bc d254 12bd
000002f0: bb4d 053d 799a 243a 1eb7 20bc 3013 fb3b
00000300: af09 503d 6839 a4bb 94a6 153d 00cb 613d
00000310: 1a40 47bc faa6 e2bb 86ed aebc 7eb2 313d
00000320: 0ae7 22bc eb38 a13c 5fda 0bbd 770e c93c
00000330: 74c2 1cbd a7ca 7f3c 6c94 e6bc 4f13 8abd
00000340: 1be0 a1bc b34a b23a 9b80 75bc 83ee 4e3b
00000350: f3ec 123d 39fe 383b 90fd 223d 580e 8bbc
00000360: 211d f0bb 9d87 203d fb5b 31bd c18c d33c
00000370: 0c46 e5bc ffe4 a5bc 3663 a53c 813a 2e3d
00000380: 0909 b5bc 12f6 493c 0603 03bb bec7 0ebd
00000390: 1b1e 16bb 7789 583c 1cce a9bc 1a65 b9bc
000003a0: 9047 603d daa0 ebbc a270 42bc 6fa3 793d
000003b0: 96be 02bd b271 a43d 7aa9 a03e 4b7b b93c
000003c0: d56f 23bd fe00 ed3c e695 2cbe dc8d a03c
000003d0: 3385 85bd f85d e93c cd31 fe3c 326d 25bc
000003e0: d1a9 153d b969 78bb b68d 0f3d a36a 33bd
000003f0: a3ee 94bc 0f56 c43d 513c 9cbd aa8b 483b
0.052283827 0.05845575 -0.009313167 -0.018243892 0.007139895 0.030408299 0.010553319 -0.028365951
0.062336646 -0.013673361 0.08171111 -0.029300034 -0.05164886 0.07666857 -0.062439557 0.0064356085
0.050311424 -0.017531078 0.03734081 -0.019023014 0.023711847 -0.048082598 -0.029799836 0.057829298
0.052783497 -0.044279106 -0.028164644 -0.061115313 0.01444414 -0.00620323 0.011605012 0.045496684
0.035636112 0.0048304005 0.023355206 -0.03679571 0.038819358 -0.068935655 0.01446719 0.07945346
0.11727583 0.044938438 -0.096249364 -0.13933717 -0.004936118 -0.03979875 0.021171248 -0.02831584
0.053651966 0.02662915 -0.03523072 0.007313429 0.028338132 0.07139758 -0.029459503 -0.028945554
-0.012558542 0.0070028044 0.046266958 0.007990502 0.04554375 -0.05411538 -0.06332163 0.0074029975
0.03705198 0.05513076 0.009295077 0.0016020926 0.035260007 0.04187169 -0.04794085 -0.02297219
0.04271939 -0.0037646515 -0.045410782 -0.035609335 -0.0075384793 0.009498179 -0.006785035 -0.04416176
0.0647547 0.0020308339 0.06320852 -0.0072174375 0.056545787 0.036966622 -0.04668219 0.035175286
0.044296507 -0.038690876 0.062160145 0.0015142943 -0.010277854 -0.0029211147 -0.026249714 0.06476929
-0.011152241 -0.026043892 0.06534415 -0.07840497 -0.031860135 0.006161991 0.052641835 -0.00224481
-0.016116457 -0.03426797 0.05347259 0.012595027 -0.014209088 -0.029811228 -0.05109543 0.034792673
-0.03934812 0.014513613 0.01685164 0.024233662 -0.025958087 0.033252873 0.07142949 0.054182768
0.024169609 0.015034521 -0.01861656 -0.031123983 -0.026633097 -0.0023419822 0.08465644 0.056811277
0.015246741 -0.02861565 0.0022235292 -0.013268766 -0.03953252 -0.00944187 0.011970063 0.0109017715
0.041667223 0.002107892 0.05637509 0.0119704725 -0.034613 -0.00955608 0.023938071 -0.03573077
0.0052001686 0.04450232 -0.031147009 0.031950917 -0.023438755 0.044885963 0.02262891 0.034527376
-0.029388603 0.016829778 -0.03432357 -0.023525197 0.06068241 -0.02591169 0.009359602 0.026633315
0.0006352766 -0.018296298 0.004720917 0.018206688 0.021842593 0.011122497 0.056255974 0.031875916
0.01864844 -0.039530635 -0.036574807 0.06696975 0.0029451998 -0.0031460908 -0.0011110133 -0.016160619
0.041543465 0.013266157 0.01734269 -0.007260245 0.013728692 0.047993377 0.033848803 0.047541156
0.032302357 0.041249476 -0.008796197 -0.035725422 0.032544833 0.0006279122 -0.009809284 0.0076621994
0.050790485 -0.005011726 0.036535814 0.055125237 -0.012161279 -0.006916878 -0.021353494 0.043383114
-0.009942779 0.01968046 -0.0341438 0.02454303 -0.038271382 0.015612281 -0.028146945 -0.06741964
-0.019760182 0.0013602584 -0.014984275 0.003157527 0.035870504 0.00282277 0.039792597 -0.016974613
-0.007327691 0.03919183 -0.04330061 0.025823953 -0.027987503 -0.020250795 0.020188909 0.042536262
-0.022099035 0.012326734 -0.0019990816 -0.034858458 -0.0022906128 0.013216368 -0.020728163 -0.022631217
0.054755747 -0.028763223 -0.011867674 0.060946878 -0.03192004 0.08029498 0.313793 0.022641798
-0.039901573 0.028931137 -0.16854057 0.019598894 -0.06519546 0.02848719 0.031029606 -0.010096835
0.036538903 -0.0037904812 0.035047255 -0.04380287 -0.018180197 0.09586727 -0.07628692 0.0030600824

bias f4 [9]
00000000: 6144 b43c c358 863b 84ea ba3c 629c 333c
00000010: 3db9 29bc cf7b 203b cadb 52bc 0e5b 13b9
00000020: a99e 1f3c
0.022005262 0.0040999367 0.022816904 0.010962578 -0.010359106 0.0024487858 -0.012869785 -0.00014052933
0.009742417
