.processed/6_logs_scale_3_crop_64/epoch_25_model.pth (torch_old, 93448 bytes, 6 tensors)

weight f4 [64, 1, 5, 5]
000000 90 c2 02 3e 63 0d 15 3e 00 ba 80 bd 4f c4 29 3e
       0.12769532 0.14555888 -0.06285477 0.16578792
000010 28 f9 81 bd ba 95 bb 3c df e0 e5 bd d2 e3 d8 3d
       -0.06346351 0.022898544 -0.112245314 0.10590328
000020 90 c8 2b 3e ee ae 22 be ab 96 22 3e 07 51 ec 3c
       0.16775727 -0.15887043 0.15877788 0.02884723
000030 e3 29 18 3e c4 a0 d4 3c d8 22 b2 3d fc f3 2f bd
       0.14859729 0.025955565 0.08698052 -0.04295729
000040 66 ed 1a 3e 27 44 12 3d dd f3 bf bd a6 02 37 3d
       0.15129623 0.035709526 -0.09372685 0.04468026
000050 bf b6 d4 bd 18 38 e4 bc f6 23 9c bd a9 4b 05 3e
       -0.103864186 -0.027858779 -0.076240465 0.13017143
000060 a2 9c 24 be 07 cf b3 bd 97 df 44 bd 22 43 e9 bd
       -0.16075376 -0.08779722 -0.048064794 -0.11389758
000070 bc 98 d0 3c 68 72 3e be 7e b8 39 3e d5 2f 28 be
       0.025463454 -0.1859833 0.18136784 -0.16424496
000080 d6 5c 26 3e 22 f2 19 3d ec 40 6d bd da bb fd 3d
       0.16246352 0.03758443 -0.057923242 0.123893455
000090 37 87 21 3d b3 68 36 3e 69 33 00 3d b4 6d 66 bd
       0.03943559 0.17813377 0.03129903 -0.056256965
0000a0 26 62 50 3d 16 2f 46 bd a1 e2 c2 3d 54 b0 3e 3e
       0.05087485 -0.04838475 0.09515882 0.18621951
0000b0 70 18 f4 3d 88 79 c3 bd 32 0e e3 3d e7 1c 11 3d
       0.119187236 -0.095446646 0.11086692 0.035427954
0000c0 f5 b8 ce 3d f9 60 fb bd af fa 0c be 35 5d 55 bb
       0.100938715 -0.122743554 -0.13767503 -0.0032556776
0000d0 48 1f 0d be a9 d3 33 3e 35 2c 01 bd b8 f9 13 3d
       -0.13781464 0.1756121 -0.0315363 0.036126822
0000e0 bf fa 05 3d 06 46 2f 3d b6 eb a0 3e 92 97 80 be
       0.032709833 0.04279139 0.31429833 -0.2511564
0000f0 a3 a5 04 bd 98 5d 02 be 30 be 39 3e d4 b7 43 3d
       -0.032384526 -0.12731016 0.18138957 0.047782734
000100 c1 3d 7f bd b6 1c b0 bd a7 69 14 3e 9e 9f d4 bd
       -0.062314752 -0.08599226 0.14493428 -0.10382007
000110 0d 59 f9 bd 82 5d 9d be 62 2c e4 3d 2c 81 37 3c
       -0.12175188 -0.30735403 0.11141278 0.011200231
000120 12 d2 3f 3e e1 76 9b bd 2f f9 9e be ab fa 1b be
       0.18732479 -0.07591034 -0.31049487 -0.15232341
000130 93 89 0b be c3 07 7a 3d 52 3e 18 3d b2 0a f3 3d
       -0.13626699 0.06104256 0.03716881 0.11867274
000140 8f f9 f6 bd ba ae 13 be 1b e6 f3 3d 9d a8 b8 bd
       -0.12059318 -0.14422122 0.119091235 -0.090165354
000150 01 9a c8 3d 8d fa 93 bd 51 c5 2c 3e c2 6b 02 be
       0.09794999 -0.07225523 0.16872145 -0.12736419
000160 3c ec 86 bd 8e 78 6c 3d 8a b0 38 3d 6a b5 9c bc
       -0.06588027 0.057732157 0.045090236 -0.019129474
000170 09 32 29 3e 4b 84 27 3e 65 2b 10 be 39 09 d5 bd
       0.16522993 0.1635906 -0.14079054 -0.1040215
000180 95 ec 5a 3e 43 48 1d bd 5a 97 29 bd 46 0a 27 be
       0.21379311 -0.038398992 -0.041404106 -0.16312513
000190 a4 b5 48 bb 97 3a b2 3d b2 a4 0b 3a 09 b6 f8 3c
       -0.0030625844 0.087025814 0.0005326971 0.030360239
0001a0 f0 3b f6 3d 34 46 8e bd b3 f8 28 be da d7 2e 3d
       0.12023151 -0.06946984 -0.16501121 0.04268632
0001b0 1a 37 50 be 3c f3 73 bd 5e 79 0e 3e 57 1e 4a 3d
       -0.2033352 -0.05955814 0.13913485 0.04934534
0001c0 ed 77 d8 3e b6 c9 f5 be 5e 28 94 bd a6 66 93 bd
       0.42278996 -0.48005456 -0.07234262 -0.07197313
0001d0 fe a4 0f 3d 84 d2 07 bd 40 5f 80 be 74 c3 c8 bc
       0.03506946 -0.033159748 -0.2507267 -0.024507262
0001e0 af bf c6 3b 0b e4 b5 bd cb 46 22 3d 82 63 49 3c
       0.006065331 -0.08881386 0.039618295 0.012291791
0001f0 f7 56 50 3d d6 ea d9 bd c8 9b 51 bd eb 9d 0b be
       0.050864186 -0.106404945 -0.051173955 -0.1363446
000200 16 12 15 3e 64 28 39 bd 49 b3 2c 3e 85 71 93 3d
       0.1455768 -0.045204535 0.16865267 0.071993865
000210 2a 2d 37 be ba 72 06 3e 12 e8 85 bd 81 c1 9c bd
       -0.17888322 0.13129702 -0.065384045 -0.076540954
000220 20 64 25 be ba 4b 5b be 33 c8 5a 3d 58 51 23 bd
       -0.16151476 -0.21415606 0.05341358 -0.039872497
000230 54 a2 b6 3d 99 82 19 be 86 b9 2a 3e 0f e4 17 be
       0.089176804 -0.14991225 0.16672334 -0.14833091
000240 13 3b 23 bc d8 6a 0d 3d c1 f9 cd 3d 1d b8 16 3e
       -0.009962815 0.034525722 0.100574024 0.14718671
000250 5f fb 32 3e dc 5a 25 be 02 14 b1 3d ca 81 93 bd
       0.17478703 -0.16147941 0.08646394 -0.0720249
000260 52 f5 e2 3b a7 aa 1f be df 0c 1b 3e 23 c7 19 be
       0.006926217 -0.15592442 0.15141629 -0.15017371
000270 4f 50 98 3d b1 3e d2 3d 1e 04 03 3d 5f d8 e3 bd
       0.07437193 0.10265864 0.03198635 -0.11125254
000280 ce 44 32 3e 8f d7 82 3c f6 3e c1 3d b4 a8 60 be
       0.1740906 0.015971927 0.09435837 -0.21939355
000290 4d 60 8f 3d a5 e4 cf bc 66 77 ea bd 38 7b 60 3e
       0.0700079 -0.02537758 -0.11448555 0.21922004
0002a0 9d a7 c0 3c 75 4a 15 be 7a 6c 98 bd 73 25 97 bc
       0.023517424 -0.14579184 -0.07442565 -0.018450474
0002b0 71 da ed 3d 49 5e 34 bd a3 1e ca bd ec e4 90 bd
       0.1161393 -0.04403523 -0.09869125 -0.070749134
0002c0 1d 78 1a be e1 e6 90 3d f8 e2 1b 3e 49 3d 42 be
       -0.15084882 0.07075287 0.152233 -0.18968691
0002d0 2f a8 2b 3d a3 5f d6 3d 27 72 1a 3d 63 b5 8e bd
       0.04190844 0.1046746 0.03770652 -0.069681905
0002e0 3f 61 d0 3d c4 8b cc 3d d3 08 a4 3d 51 51 e3 bc
       0.10174798 0.09987596 0.080094956 -0.027748736
0002f0 0b 88 54 bd 92 8f 92 3c b9 cf 32 bd 84 ac 7e bd
       -0.051887553 0.017890725 -0.04365513 -0.062176242
000300 af 6d 06 3e 56 2c 30 3e 49 f7 ca bc fa 04 69 bd
       0.13127778 0.17204413 -0.024776118 -0.05688951
000310 5e 91 cd bb 0e 5c 99 bc c2 cb 2b 3d cd 04 3f 3d
       -0.0062734326 -0.018720653 0.041942365 0.046635438
000320 58 9e fa bd 20 54 14 bd 99 d6 4c 3e 56 17 bb 3d
       -0.12237233 -0.03621304 0.20003738 0.0913531
000330 c5 24 97 bb 16 09 9f bd a0 b7 a2 bd fb 4c 1f be
       -0.0046125376 -0.07765405 -0.0794518 -0.1555671
000340 e9 6c cd bc e3 e7 c6 3d 45 f7 1d 3e d3 bb 40 3e
       -0.025076346 0.09712198 0.15426357 0.18821649
000350 e7 31 1d be 13 1b ae bd e5 45 a0 3c 37 78 4e 3e
       -0.15351067 -0.08501258 0.019564578 0.20163046
000360 26 21 94 3d dc aa ac bc 07 05 cf 3d e6 f1 1b bd
       0.07232885 -0.021077566 0.10108381 -0.03807249
000370 99 49 d2 bd d1 cc 37 3e cd 78 40 bd 6c 2b a4 bc
       -0.10267944 0.17949225 -0.046990205 -0.020040236
000380 25 e4 11 be f3 23 b1 3d b0 9d a1 3d 72 16 95 3d
       -0.14247186 0.08649435 0.07891405 0.07279672
000390 c1 f7 bf bd ce c1 b1 bd c2 b2 17 be a2 50 0e 3e
       -0.09373427 -0.086795434 -0.14814284 0.13897946
0003a0 09 78 09 3e 70 1b 5c 3e 6a dc 13 3e 10 3c 8b 3c
       0.13424696 0.21494842 0.1443955 0.016996413
0003b0 32 e5 2b bd 14 ec 63 be ba ca 84 be 13 bd 55 be
       -0.041966625 -0.22258025 -0.25935918 -0.20872907
0003c0 cf cb df 3d 0e 76 57 bd 5e 2a 18 3d 55 64 9c bd
       0.10927545 -0.05260282 0.03714978 -0.07636324
0003d0 3c 4a c9 3c 6e 14 98 bd b1 94 f3 bd 18 b9 a0 3d
       0.02457153 -0.07425772 -0.11893595 0.07847804
0003e0 4a 4a 5b bd 52 12 02 3e 53 0e 33 bd ef bc 0c be
       -0.053537644 0.12702301 -0.043714833 -0.13743947
0003f0 a1 42 ef bc 0e af c5 bd 2b b6 87 bd 73 6e 4e be
       -0.029206576 -0.0965253 -0.06626543 -0.2015932

bias f4 [64]
000000 37 71 28 be bb 55 c0 3d 6a 3a a3 bd 7a e9 6f bc
       -0.16449438 0.09391352 -0.07970126 -0.0146430675
000010 8e d0 2a 3d 15 bc 17 3e cd 5c 8b bd 7c 49 32 3d
       0.0417028 0.14817841 -0.0680481 0.04352711
000020 ea 2e 98 3d b6 91 e2 3d 52 11 ee 3b 8b 8e a1 3d
       0.07430823 0.110629484 0.0072652483 0.07888516
000030 a4 63 f4 bd 5a 51 0e be 41 1a 2c 3e 21 50 fd bd
       -0.119330674 -0.1389822 0.1680689 -0.12368799
000040 90 15 55 bc 42 bf b8 bc 79 f7 39 3e b9 6f 0f bd
       -0.013005629 -0.022552136 0.1816081 -0.035018656
000050 50 83 fe bd de a8 5d bd 65 69 1e 3e 38 df d0 3d
       -0.124273896 -0.054116122 0.15469892 0.101988256
000060 a9 68 2b 3e 8b c8 00 3e db ae ac 3d 03 8c 4d be
       0.16739143 0.12576501 0.084317885 -0.20072941
000070 da 60 a3 3d c0 e3 a8 3d 93 82 c4 3d 10 a0 9d bd
       0.07977457 0.08246565 0.095952176 -0.07696545
000080 01 4e 47 bd 11 4e 87 3d 7f e1 09 be 18 e1 0c be
       -0.048658375 0.06606687 -0.13464926 -0.13757741
000090 c1 7f 58 be d1 a8 67 3d 65 00 df 3d 68 8b 37 3d
       -0.21142484 0.05655748 0.10888747 0.044810683
0000a0 af 13 93 3d ec dd 31 3d 84 0f d7 bd 07 9e 38 bc
       0.07181489 0.04342453 -0.10501006 -0.011268145
0000b0 85 6f 0a bd 51 8d a1 bd 7d d2 1e 3e 2c 5b 14 be
       -0.03379776 -0.07888282 0.15509982 -0.14487904
0000c0 f7 1e 82 3c 61 55 36 be 5d 3b bd 3c 9f 96 9b bd
       0.015883906 -0.17806007 0.023099596 -0.07597088
0000d0 3d fd 85 3d 39 fb 8a bd 6d 50 ff 3d 7b 2b 1c be
       0.06542442 -0.06786198 0.12466512 -0.15250961
0000e0 ed 5e e8 3d 0b a1 d1 bd 04 2e b5 3d 7e 41 0e bc
       0.11346231 -0.10235795 0.088466674 -0.008682607
0000f0 f1 fd 9b bc 72 ea 8e bc de 36 cb 3d 1b b5 3d 3d
       -0.019041987 -0.017445777 0.099225745 0.046315294

weight f4 [32, 64, 3, 3]
000000 e7 bc 04 bd 8d 77 2a 3c b2 2a 6a bc b5 6e 17 3d
       -0.032406714 0.01040448 -0.014292406 0.036970813
000010 eb c0 a4 3c b1 dd f9 3a a4 24 70 bc c4 8a ef 3c
       0.020111522 0.0019063262 -0.014657173 0.029240973
000020 a3 d8 3f bc 0b 11 0d 3d 50 3a 29 3d c0 7e 35 3d
       -0.011709365 0.03444008 0.041315377 0.04431033
000030 0c ed f0 3c b7 0e 88 bc 33 56 51 3d 0f e4 93 bb
       0.029409908 -0.01660858 0.051107597 -0.0045132707
000040 56 0b 2d b8 e7 97 bc 3b 03 c9 10 bd 20 ff 6c bb
       -4.125697e-05 0.005755413 -0.03534795 -0.0036162809
000050 c0 05 d5 3c 4a 31 1f bc 3b dc 92 3c f9 46 60 3b
       0.026003718 -0.009716341 0.01792728 0.003422199
000060 63 38 ca 3d dc b6 4c 3d 46 19 a7 bc 2a 7f 1e 3c
       0.09874036 0.049979076 -0.020397794 0.009673873
000070 53 e4 19 3d 79 50 87 3c 10 25 e3 39 86 46 b1 bc
       0.037571263 0.016517865 0.00043324428 -0.021640074
000080 67 15 19 bc ab 69 29 3d f6 2d 8d 3c e4 2f 17 bd
       -0.009343482 0.04136054 0.01723383 -0.036910906
000090 c3 d1 bf bd 51 53 da bd d7 c6 da 3c 4a b4 f4 bd
       -0.09366181 -0.106604226 0.026706142 -0.1194845
0000a0 a6 b0 80 3c e2 f7 b9 bb af 4a 95 bd 35 0c fe b9
       0.015709233 -0.005675302 -0.072896354 -0.0004845575
0000b0 0f 48 c9 bd 84 0a c8 3c f0 e5 cd 3c 59 1b 0e 3d
       -0.09828197 0.024419077 0.025134057 0.03469405
0000c0 32 fd 0a bc 4a 41 ad bb 71 69 07 3b a7 b7 60 bc
       -0.008483218 -0.005287324 0.0020662213 -0.013715661
0000d0 c7 6d c3 bc f1 c5 57 bc 9e 7c 19 bd 6d dc 9d 3c
       -0.023856057 -0.0131697515 -0.03747236 0.019270146
0000e0 78 39 d4 3c 4a b3 fb 3c 8d 4a a9 bc 3a 77 4e bc
       0.02590631 0.03072514 -0.020665431 -0.012601668
0000f0 8c b4 f4 bb 2b 77 2b 3d 34 a6 96 3c 85 0b 3c bc
       -0.007467812 0.041861694 0.018389799 -0.011477356
000100 03 f6 a6 3c 41 84 ff bb 40 a5 d1 bb eb af 54 3d
       0.02038098 -0.0077977483 -0.006397873 0.05192558
000110 11 ea 0c 3d be 9a ba bb d9 a3 7e 3c 00 d0 a7 3c
       0.03440291 -0.0056947162 0.015541994 0.020484924
000120 bd 4b 33 3c 91 8a df 3c 01 2e 1c 3d 23 ff e7 3c
       0.01094335 0.027287753 0.03812981 0.0283199
000130 77 62 98 bc 4b d9 15 bc 18 82 ba 3c 58 83 d6 bc
       -0.01860164 -0.009146045 0.022767112 -0.026185676
000140 71 86 f4 3c f6 ff 44 3c b9 22 15 bd 0c 04 d8 3c
       0.029849263 0.0120239165 -0.036410067 0.026369117
000150 d0 78 37 bd 4a 50 0e bd e3 f7 1b 3d 18 72 ed 3b
       -0.04479295 -0.03474454 0.0380782 0.007246267
000160 36 95 16 bd 72 96 2a 3d e5 42 1a 3c 4b a2 e5 bc
       -0.036763392 0.041647382 0.009415363 -0.028031489
000170 38 6b 05 3d 27 95 1f bb 34 24 02 3d 89 ed 0b 3d
       0.032572955 -0.0024350376 0.031772807 0.034162078
000180 47 74 08 3c b0 28 0f bd c7 f8 d7 bc be 13 dc bc
       0.008328504 -0.034950912 -0.026363743 -0.026864883
000190 88 76 86 bd 11 c9 e8 b8 db 82 2d 3d ec 9d 24 3d
       -0.06565577 -0.000111000736 0.04236112 0.04018967
0001a0 96 30 7c 3c 53 fe e5 3c 3f 8a 5f 3d 3c 8d 56 bd
       0.015392443 0.028075373 0.0545752 -0.052380785
0001b0 2a 66 cb bc 08 b5 64 3c ee bc 44 3d 3c 40 28 3c
       -0.024828989 0.013959177 0.04803174 0.010269221
0001c0 20 3d c8 3b 38 7e 8b bc ac 3b da bc ef 44 09 bd
       0.0061108023 -0.01702796 -0.026639782 -0.033513006
0001d0 65 a3 0c 3d 08 74 de bb b7 c4 16 bd 38 77 92 3b
       0.034335513 -0.0067887343 -0.036808696 0.0044697784
0001e0 d0 28 46 3b 60 af a8 bb bc 5e 74 3c de 8f b7 3c
       0.0030236728 -0.0051478595 0.014915165 0.022407468
0001f0 26 7f 20 bd 0f bf 02 bd 9d c3 35 bc 29 2a 7e bd
       -0.03918376 -0.03192049 -0.011094001 -0.062051926
000200 63 ca fd bc 1a a2 21 3d 56 8e 69 bc 1a 39 cc bc
       -0.030980295 0.039461233 -0.014255127 -0.024929572
000210 b4 6c 89 bc 5e e9 22 bd ff c3 fa 3c fe 8a 92 bb
       -0.016775467 -0.039773338 0.030611036 -0.0044721356
000220 0d 5a a8 bb 0a 82 e0 bc f1 9d 05 3d a3 7e 57 3c
       -0.005137688 -0.027405757 0.032621328 0.013152751
000230 3e 59 71 bc c8 e5 df 39 9e 24 59 bc 95 f2 55 3b
       -0.01473075 0.00042705075 -0.013253359 0.003264581
000240 b1 4e 23 3d 1a 50 a8 bb 75 3d 05 3c a3 c0 b8 bb
       0.039869968 -0.005136502 0.008132328 -0.0056381985
000250 34 d3 5c bd d1 13 a0 3b 98 8b 06 bc ea 54 2c 3d
       -0.053912356 0.004885175 -0.008211993 0.042073168
000260 10 49 ee bd 70 57 c0 3b 20 c6 38 bc cc 51 03 3d
       -0.11635029 0.0058697984 -0.011277705 0.03206043
000270 f4 06 ba bc fb 02 9c 3c 95 7b 44 3c 23 6d 87 3c
       -0.022708394 0.01904439 0.011992355 0.016531533
000280 02 81 46 3c 5c c0 c6 bc 9a a6 12 3d a3 20 de bc
       0.012115719 -0.024261646 0.035803415 -0.027115172
000290 57 9a 09 bc 6a 8a 29 3d 8c 20 a0 3c f4 29 88 3a
       -0.008398614 0.041391768 0.01954677 0.001038848
0002a0 ac 8a ba bb eb af b5 bc ac fe e7 3c 23 f4 b3 3b
       -0.0056928005 -0.02217861 0.02831968 0.00549175
0002b0 ce 30 38 3c cc 54 49 3c ce 70 2a 3d 52 9f 22 bc
       0.011242105 0.012288284 0.041611485 -0.00992568
0002c0 0a bf 76 bc b0 f2 b9 3c 40 7a 2b 3c 53 af 03 bd
       -0.015060196 0.02269873 0.010466158 -0.032149624
0002d0 27 6c d7 3a 9a 85 18 3b eb 2e 69 3c c4 e2 97 3c
       0.001643543 0.0023272992 0.0142323775 0.018540747
0002e0 e3 28 ed 3c 15 4b 4b bd 4c 55 ef 3c cd b7 2b 3c
       0.02895016 -0.04963215 0.029215477 0.010480833
0002f0 cc da fa 3c c0 f7 2a 3d 07 b0 92 3c 4f ec 04 3d
       0.030621909 0.04174018 0.017906202 0.032451924
000300 2b 72 44 bc a8 f8 f0 bc 12 07 0e bd 22 61 2f 3d
       -0.01199011 -0.029415444 -0.03467471 0.042817242
000310 82 d4 b0 3c 6f 3d 01 bd ac 69 6d bc 4a c8 1d bd
       0.021585707 -0.03155273 -0.014490526 -0.03852109
000320 ed 9d b8 bd 33 94 03 3d a0 85 20 3d c2 3e 25 3d
       -0.09014497 0.032123756 0.039189935 0.040343054
000330 9c 1e 06 3d 7d 79 55 3d 59 f5 12 3d 21 3f 2f 3c
       0.032744035 0.052117813 0.035878513 0.010696203
000340 e5 03 cd 3b 37 5a 2c 3b bb 51 02 bd a3 01 d4 3b
       0.006256568 0.002629889 -0.031816225 0.0064699217
000350 36 99 50 3b 51 04 43 3d 50 38 80 bb 49 95 4d bb
       0.0031829602 0.04761154 -0.003912963 -0.0031369498
000360 df a3 40 bd 1a cc 5f bd d7 9c 12 3c ef 38 44 3d
       -0.04703128 -0.054638006 0.008948526 0.04790586
000370 9e ec 6f bc ea 6d 03 bc 83 3f 15 3c b4 98 b2 3c
       -0.014643816 -0.008021811 0.009109381 0.02180133
000380 6a 94 1e 3c 79 2c b1 3c 05 25 d9 3c 3d ee 53 3d
       0.009678939 0.021627652 0.02650691 0.051740874
000390 37 3e d7 3c 0f fe 22 3d c0 5d 3d bd 36 3e a0 3d
       0.026274784 0.03979307 -0.046231985 0.07824366
0003a0 29 9e ae bd f1 6b ac bc e1 58 2a 3d 9f b0 6b bc
       -0.085262604 -0.021047564 0.041588668 -0.0143853715
0003b0 a5 b3 c0 3c 86 18 ef bc 59 e5 8d bc 43 be 57 3b
       0.023523161 -0.029186498 -0.017321276 0.0032919801
0003c0 d1 b5 10 3d 36 cc 87 3c a2 eb 08 bd 13 af 19 3c
       0.035329644 0.016576868 -0.033427842 0.00938012
0003d0 ac b8 cb bc 70 9f 2c 3b 52 e1 07 bd 85 8d d0 bb
       -0.024868332 0.002634015 -0.033173867 -0.0063645267
0003e0 1c da 85 3c af 59 39 bd 71 20 3d bd 96 f5 ca 3a
       0.016339354 -0.045251545 -0.046173517 0.0015484567
0003f0 27 bf 31 3b 72 28 bd bc 43 3a 47 3d 51 1f 06 bd
       0.0027121992 -0.023090575 0.048639547 -0.03274471

bias f4 [32]
000000 18 16 1b 3d fe b0 01 3c 6d 2c 05 bd e1 06 85 3c
       0.037862867 0.007915733 -0.03251307 0.016238632
000010 49 e2 36 bd f0 5b 8a 3c 0a 8f cd 3c 43 ba 26 bd
       -0.044649396 0.016889542 0.02509262 -0.040704977
000020 d6 76 44 bb 79 3c 7c bc d1 28 9c 3c 02 a4 c6 bc
       -0.0029978058 -0.015395277 0.019062432 -0.024248127
000030 8a f2 dd 3b c6 25 b1 bc d9 02 26 bd 81 40 8c bc
       0.0067732977 -0.021624457 -0.04053006 -0.017120602
000040 d9 1e c2 3c 58 b0 d3 bc a7 09 d5 bb b1 55 04 bc
       0.02369635 -0.025840923 -0.006501395 -0.008077071
000050 32 b7 06 3d 87 33 b4 bc 2b eb 25 bd 80 67 b7 38
       0.032889552 -0.021997226 -0.040507477 8.7453984e-05
000060 35 f5 31 bd e7 60 c4 bc aa f1 9c 3c cd 36 bd bc
       -0.04344674 -0.023971988 0.019158203 -0.02309742
000070 4a 0d 82 bc 35 7c 92 3c 9a 08 c7 3c 78 34 db 3c
       -0.015875477 0.017881492 0.024296094 0.026758417

weight f4 [9, 32, 3, 3]
000000 89 e8 5e 3d 72 30 7a 3d 0a 87 ea bb 0b d5 78 bc
       0.05442098 0.061081357 -0.007157211 -0.015187512
000010 08 b8 2f 3c f6 eb 07 3d 43 23 4a 3c 5d 18 e6 bc
       0.010725029 0.033184014 0.012337509 -0.02808779
000020 88 af 81 3d 66 19 99 bb 8b a8 bb 3d be 76 07 bd
       0.06332308 -0.004672217 0.091630064 -0.033072226
000030 fd 04 99 bd dc 64 7e 3d f1 f1 81 bd 9c bc 99 3c
       -0.074716546 0.062107906 -0.06344975 0.018766694
000040 ea 13 47 3d 84 c5 65 bc ad f2 18 3d 27 d6 9b bc
       0.048602976 -0.014024142 0.03734081 -0.019023014
000050 59 3f c2 3c 42 f2 44 bd c9 1e f4 bc 6a de 6c 3d
       0.023711847 -0.048082598 -0.029799836 0.057829298
000060 82 33 58 3d 02 5e 35 bd 8a b9 e6 bc 9c 97 7b bd
       0.052783497 -0.044279106 -0.028164644 -0.061423883
000070 74 e1 71 3c c1 3a 9c bb c9 90 51 3c c9 67 42 3d
       0.014763225 -0.004767746 0.012790867 0.04746226
000080 1f 5b 16 3d 87 0d d8 3b 27 10 c9 3c 52 48 18 bd
       0.036707994 0.0065934095 0.024543835 -0.037178345
000090 b9 b7 14 3d 81 46 93 bd f9 1c 64 3c 1e a5 a8 3d
       0.036308024 -0.07191182 0.013922923 0.082346186
0000a0 95 af f8 3d 88 fa 34 3d 80 2b c6 bd 79 a6 0f be
       0.121428646 0.044184238 -0.09676266 -0.14028348
0000b0 91 bb d7 bb 1a 9a 25 bd 80 99 ad 3c e6 f6 ce bc
       -0.006583639 -0.040430166 0.021191359 -0.025264215
0000c0 43 5d 60 3d 50 1e e6 3c db 9d 0b bd db 9e 0b 3c
       0.05477644 0.028090626 -0.03408609 0.008521761
0000d0 63 ed eb 3c e3 fb 90 3d 82 c4 e3 bc 20 05 e0 bc
       0.028799718 0.070792936 -0.027803663 -0.027346194
0000e0 69 fc 18 bc 7c 35 0f 3b 05 2a 36 3d cc 03 29 3c
       -0.009337523 0.0021851948 0.044473667 0.010315847
0000f0 6c 1f 39 3d bd b1 6a bd c5 24 8c bd d8 94 f2 3b
       0.04519598 -0.05729841 -0.06842951 0.0074029975
000100 d1 c3 17 3d cb d0 61 3d 61 4a 18 3c 4f fd d1 3a
       0.03705198 0.05513076 0.009295077 0.0016020926
000110 cc 6c 10 3d a6 81 2b 3d a0 5d 44 bd 2d 30 bc bc
       0.035260007 0.04187169 -0.04794085 -0.02297219
000120 db a8 27 3d f6 c0 7e bb 96 12 3e bd 99 8d 15 bd
       0.040932517 -0.0038872338 -0.046404444 -0.03651199
000130 57 0f b9 bb 3f cf 11 3c 8f 44 1a bc a0 31 41 bd
       -0.0056475806 0.008899509 -0.00941576 -0.047166467
000140 ea 30 82 3d 96 45 af 3a cb 26 81 3d d4 57 c7 bb
       0.06356986 0.0013372179 0.06306227 -0.006083468
000150 0a c3 68 3d c0 cb 18 3d f3 98 44 bd f9 1e 05 3d
       0.05682663 0.037303686 -0.047997426 0.03250024
000160 a0 6d 2e 3d 21 62 28 bd a3 9b 7e 3d 49 7b c6 3a
       0.042585015 -0.041109208 0.062160145 0.0015142943
000170 72 64 28 bc 2c 70 3f bb a4 09 d7 bc c3 a5 84 3d
       -0.010277854 -0.0029211147 -0.026249714 0.06476929
000180 e4 b7 36 bc 00 5a d5 bc 27 d3 85 3d 9c 45 ad bd
       -0.011152241 -0.026043892 0.06534415 -0.084605426
000190 f9 d7 02 bd ce 20 3c 3b 19 8e 4c 3d af 3d a1 ba
       -0.03194425 0.0028706077 0.049940202 -0.0012301708
0001a0 78 99 91 bc 26 2b 1b bd 43 50 54 3d 20 5b 17 3c
       -0.017773375 -0.037882946 0.051834356 0.0092380345
0001b0 7f c9 6a bc 96 14 f7 bc b4 f7 56 bd 36 69 0d 3d
       -0.014330267 -0.030161183 -0.05248232 0.034524165
0001c0 ba 73 26 bd 22 cb 6d 3c 21 f1 43 3c 37 7a 96 3c
       -0.04063771 0.014513763 0.011959345 0.018368823
0001d0 f3 d3 98 bc 4d 2d 10 3d 73 a0 98 3d e1 28 67 3d
       -0.018655753 0.035199452 0.07452478 0.05643547
0001e0 7a 6c d6 3c 07 bd 90 3c 54 12 8c bc a9 a2 fd bc
       0.026174773 0.01766826 -0.017098583 -0.030961351
0001f0 d7 ab d6 bc df 29 fe ba d6 04 b6 3d a9 d7 5a 3d
       -0.026204986 -0.0019391141 0.08887641 0.053428326
000200 7c 39 80 3c 33 64 1e bd d8 d7 9f bb ea 7d 48 bc
       0.01565241 -0.038669776 -0.0048780255 -0.0122370515
000210 78 87 0c bd f9 ed e5 bb 56 33 0e 3c 29 a2 e2 3b
       -0.03430888 -0.007016894 0.008679232 0.0069163037
000220 08 5c 28 3d 1d c5 45 bb 94 22 5b 3d 4f be 03 3c
       0.041103393 -0.0030177303 0.053499773 0.008040979
000230 97 91 15 bd c2 be 35 bc 24 47 b4 3c 45 4a 19 bd
       -0.0365158 -0.0110928435 0.022006579 -0.037424345
000240 1e d7 d3 3b 36 df 3d 3d ed 9e e7 bc d8 49 0c 3d
       0.006464853 0.04635545 -0.028274024 0.03425011
000250 4d b8 ad bc ab c1 41 3d 9e 1f c0 3c d8 d9 0d 3d
       -0.021206046 0.047303837 0.023452576 0.03463158
000260 f7 a4 e9 bc f9 e5 8a 3c 93 9f ee bc ad 20 9b bc
       -0.028521044 0.016955363 -0.029128825 -0.01893648
000270 e5 ba 99 3d 6a 17 d9 bc e4 62 59 3c 85 75 9c 3c
       0.075063504 -0.026500423 0.013268206 0.019099006
000280 ca 05 ed 39 f5 da 82 bc c1 75 56 bb 73 60 b5 3b
       0.00045208476 -0.015973547 -0.0032723995 0.0055351793
000290 f3 04 b5 3c 1a fe 87 3c 24 45 52 3d ad 56 fb 3c
       0.022097087 0.016600657 0.05133547 0.030680979
0002a0 03 44 7d 3c b2 cb 35 bd 43 02 1b bd 41 b2 8a 3d
       0.01545811 -0.044383712 -0.037843954 0.067722805
0002b0 a8 28 f2 3a 2f 26 6b bb c0 a0 15 bb 1a 6f 86 bc
       0.0018475251 -0.0035880913 -0.002283141 -0.0164104
0002c0 00 10 25 3d 95 73 3f 3c 12 22 85 3c 02 b3 2a bc
       0.040298462 0.011685272 0.016251598 -0.010418655
0002d0 9e c0 0c 3c e2 fa 32 3d 8d db fe 3c af 43 29 3d
       0.008590845 0.04369629 0.03111055 0.041324314
0002e0 b6 a2 f5 3c 08 ff 18 3d 2b 8b 3b bc 5a 0e 1e bd
       0.029984813 0.03735259 -0.011446754 -0.038587905
0002f0 3d e5 eb 3c 58 09 b2 bb 7e 9d 72 bc a4 81 98 3b
       0.028795833 -0.005433243 -0.014808057 0.0046541262
000300 75 aa 56 3d d9 98 37 bc 90 a1 0c 3d 8a 99 58 3d
       0.052408654 -0.011205875 0.034333766 0.0528808
000310 f0 f3 88 bc 3c 66 1f bc 86 ed ae bc 7e b2 31 3d
       -0.016717881 -0.009728964 -0.021353494 0.043383114
000320 0a e7 22 bc eb 38 a1 3c 5f da 0b bd 77 0e c9 3c
       -0.009942779 0.01968046 -0.0341438 0.02454303
000330 74 c2 1c bd a7 ca 7f 3c 6c 94 e6 bc a0 3d 99 bd
       -0.038271382 0.015612281 -0.028146945 -0.07482457
000340 26 3d ec bc 3d 6a b2 ba 46 52 54 bc bb f5 3e 3c
       -0.028837752 -0.0013611984 -0.012959069 0.011655266
000350 82 57 0a 3d 2f a0 fd 38 71 57 0e 3d 47 aa 85 bc
       0.03377486 0.000120938166 0.03475136 -0.016316546
000360 21 1d f0 bb 9d 87 20 3d fb 5b 31 bd c1 8c d3 3c
       -0.007327691 0.03919183 -0.04330061 0.025823953
000370 0c 46 e5 bc ff e4 a5 bc 36 63 a5 3c 81 3a 2e 3d
       -0.027987503 -0.020250795 0.020188909 0.042536262
000380 09 09 b5 bc 12 f6 49 3c 06 03 03 bb be c7 0e bd
       -0.022099035 0.012326734 -0.0019990816 -0.034858458
000390 1b 1e 16 bb 77 89 58 3c 1c ce a9 bc 1a 65 b9 bc
       -0.0022906128 0.013216368 -0.020728163 -0.022631217
0003a0 90 47 60 3d da a0 eb bc 23 ed e5 bb 7c cc 71 3d
       0.054755747 -0.028763223 -0.0070167943 0.059032902
0003b0 7a cf c2 bc d2 bc 9c 3d 37 bb a7 3e 27 16 9f 3c
       -0.023780573 0.07653202 0.3276002 0.019419743
0003c0 85 88 34 bd fe fe e8 3c 93 c1 5d be 63 0d 36 3c
       -0.044075508 0.028441902 -0.21655874 0.01111159
0003d0 63 72 99 bd 62 d3 0b 3d ad 16 cb 3c c3 f5 1d bc
       -0.07492521 0.034137137 0.024791086 -0.009641114
0003e0 c1 bb 1c 3d 09 5f 12 bb 56 6c 16 3d 6e 9f 2f bd
       0.038264994 -0.0022334477 0.03672441 -0.042876653
0003f0 43 10 81 bc 1e 0e cb 3d ac 9d 93 bd cd c4 cd 3b
       -0.015754825 0.09914802 -0.07207808 0.006279564

bias f4 [9]
000000 a9 da c3 3c c9 d9 25 3c da 1b c8 3c 4d 91 83 3c
       0.023907976 0.010122725 0.024427343 0.016060496
000010 30 53 6c bb d2 c3 1b 3c e6 c7 b5 bb 90 19 98 3b
       -0.0036060326 0.009507136 -0.0055475114 0.004641719
000020 ee b6 42 3c
       0.011884434
