.processed/6_logs_scale_3_crop_64/epoch_23_model.pth (torch_old, 93458 bytes, 6 tensors)

weight f4 [64, 1, 5, 5]
0.12796201 0.14557321 -0.06343162 0.16589218 -0.06298671 0.022234768 -0.11295464 0.1050847
0.16707619 -0.15912256 0.15721649 0.027281674 0.14633524 0.023539124 0.08535946 -0.044770166
0.14856571 0.032626446 -0.09630354 0.042852264 -0.10678153 -0.031105815 -0.08075888 0.12686247
-0.16469824 -0.088405564 -0.049038395 -0.11438227 0.025082255 -0.18656637 0.18120337 -0.16490458
0.16181123 0.03745306 -0.058364637 0.12383811 0.0388483 0.1771559 0.030919883 -0.05662257
0.05105632 -0.04865373 0.09461806 0.18600222 0.11941823 -0.09478603 0.11142078 0.035660345
0.1010997 -0.12225962 -0.14474592 -0.010474471 -0.13398674 0.18647963 -0.020387717 0.046234444
0.040550128 0.048526537 0.30374014 -0.25921455 -0.028132344 -0.13070475 0.17049225 0.031226674
-0.0722659 -0.08512795 0.14272887 -0.09820914 -0.11962781 -0.30880064 0.11931122 0.016155908
0.19723587 -0.086676195 -0.3200197 -0.15647112 -0.13309929 0.066357955 0.04547578 0.12646918
-0.11251343 -0.1368702 0.12097553 -0.08715704 0.101683535 -0.079816215 0.15990755 -0.13099647
-0.07372558 0.05490398 0.027274406 -0.027014773 0.16124004 0.15918012 -0.14127132 -0.10762868
0.21350724 -0.039603315 -0.04522273 -0.16788028 -0.008785899 0.08155568 -0.0020608834 0.033525236
0.10928916 -0.07589959 -0.17432469 0.02882692 -0.1859636 -0.06986299 0.15394136 0.052093107
0.40585485 -0.44225404 -0.07620862 -0.07572262 0.021675415 -0.044087227 -0.26036516 -0.048005413
0.0010081872 -0.09948014 0.043520264 0.0036082342 0.04019447 -0.11595081 -0.061955128 -0.14849558
0.135715 -0.05567181 0.16395986 0.066163115 -0.18696225 0.12529817 -0.07165238 -0.07900053
-0.16531849 -0.21672477 0.048391353 -0.04508681 0.082103364 -0.15941907 0.1566584 -0.15895876
-0.018728474 0.030389708 0.093270406 0.14071049 0.16747268 -0.16756698 0.080636054 -0.0757267
0.0033234626 -0.15647763 0.14966074 -0.14870591 0.081609815 0.09978244 0.036770336 -0.114754744
0.17598179 0.023363007 0.08624715 -0.21151167 0.06849468 -0.02675237 -0.10873983 0.21515213
0.029499548 -0.14138891 -0.07504141 -0.012132165 0.123410225 -0.037371278 -0.098111756 -0.07153007
-0.15130572 0.07054751 0.1527197 -0.18949771 0.04151022 0.10431883 0.037460163 -0.069497816
0.10192165 0.09982626 0.079403855 -0.028153488 -0.051825255 0.018146005 -0.04372246 -0.06252098
0.13069016 0.17190374 -0.02474439 -0.056899562 -0.00648821 -0.01893933 0.041750144 0.046537876
-0.12408578 -0.03602687 0.20347136 0.09554955 -0.0028470429 -0.078059 -0.08110395 -0.15603983
-0.026218768 0.09523914 0.15789877 0.18786041 -0.15262154 -0.08778326 0.016201627 0.20718384
0.07510933 -0.018688869 0.10039885 -0.04202788 -0.10025462 0.18138951 -0.045377973 -0.02214918
-0.14828129 0.09906741 0.09512996 0.080863446 -0.09812865 -0.105310746 -0.15234858 0.143986
0.13602047 0.21313289 0.14078607 0.030149348 -0.028638162 -0.20573351 -0.2384306 -0.19961487
0.11195013 -0.060232375 0.031616215 -0.07925501 0.025230626 -0.07737458 -0.12207472 0.08468142
-0.043686196 0.13845587 -0.050197408 -0.14301397 -0.02954829 -0.09606379 -0.065355375 -0.20075747
00000000: 7908 033e 2511 153e 70e8 81bd a4df 293e
00000010: 2dff 80bd b025 b63c c354 e7bd a636 d73d
00000020: 0516 2b3e 06f1 22be 5cfd 203e d17d df3c
00000030: e8d8 153e 1fd5 c03c f1d0 ae3d ec60 37bd
00000040: 9c21 183e 4fa3 053d ca3a c5bd db85 2f3d
00000050: 46b0 dabd 9fd1 febc e964 a5bd 3ce8 013e
00000060: a8a6 28be fa0d b5bd 7cdc 48bd 4041 eabd
00000070: 4d79 cd3c 410b 3fbe 608d 393e bfdc 28be
00000080: d8b1 253e 6168 193d c20f 6fbd d69e fd3d
00000090: 651f 1f3d 5b68 353e b24b fd3c 11ed 67bd
000000a0: 6f20 513d 2249 47bd 1dc7 c13d 5e77 3e3e
000000b0: 8c91 f43d 2e1f c2bd 9430 e43d 9510 123d
000000c0: 5c0d cf3d 4063 fabd 4638 14be 1e9d 2bbc
000000d0: d233 09be 84f4 3e3e 2404 a7bc 5460 3d3d
000000e0: e417 263d c3c3 463d d483 9b3e c5b7 84be
000000f0: cd75 e6bc 77d7 05be 8595 2e3e 15cf ff3c
00000100: 2500 94bd 9057 aebd 8427 123e e021 c9bd
00000110: 6dff f4bd 1e1b 9ebe 7159 f43d 6559 843c
00000120: 33f8 493e 4a83 b1bd 9fd9 a3be f739 20be
00000130: 2e4b 08be aee6 873d d044 3a3d 2381 013e
00000140: 716d e6bd b427 0cbe 05c2 f73d 647f b2bd
00000150: 753f d03d af76 a3bd cebe 233e f023 06be
00000160: 70fd 96bd ffe2 603d 936e df3c 164e ddbc
00000170: 1c1c 253e 1d00 233e 6ea9 10be 6d6c dcbd
00000180: a4a1 5a3e 1637 22bd 783b 39bd cfe8 2bbe
00000190: bbf2 0fbc aa06 a73d e30f 07bb c251 093d
000001a0: ffd2 df3d 3f71 9bbd 2c82 32be 6f26 ec3c
000001b0: 3e6d 3ebe 5414 8fbd cea2 1d3e 955f 553d
000001c0: 35cc cf3e 1f6f e2be 4413 9cbd 7614 9bbd
000001d0: a490 b13c cf94 34bd 954e 85be 53a1 44bd
000001e0: 2625 843a 3ebc cbbd 4e42 323d 2078 6c3b
000001f0: f5a2 243d 9e77 edbd a9c4 7dbd 3a0f 18be
00000200: dff8 0a3e 2008 64bd 18e5 273e 8780 873d
00000210: 0873 3fbe 2a4e 003e 7cbe 92bd 08cb a1bd
00000220: 4049 29be 19ed 5dbe 0336 463d f2ac 38bd
00000230: cf25 a83d c13e 23be 0f6b 203e 16c6 22be
00000240: 756c 99bc d6f3 f83c 8e04 bf3d 6916 103e
00000250: f57d 2b3e ae96 2bbe 8424 a53d 9a16 9bbd
00000260: 73ce 593b ac3b 20be aa40 193e 5d46 18be
00000270: 0c23 a73d bc5a cc3d 7e9c 163d 8904 ebbd
00000280: 9234 343e c763 bf3c 59a2 b03d 8496 58be
00000290: f046 8c3d c927 dbbc fdb2 debd d750 5c3e
000002a0: 09a9 f13c 41c8 10be 50af 99bd fdc5 46bc
000002b0: 80be fc3d a012 19bd d1ee c8bd 5b7e 92bd
000002c0: e3ef 1abe 377b 903d 8e62 1c3e b00b 42be
000002d0: 9f06 2a3d 1ca5 d53d d46f 193d df54 8ebd
000002e0: 4cbc d03d b671 cc3d 7d9e a23d 25a2 e6bc
000002f0: b846 54bd eea6 943c 5216 33bd 000b 80bd
00000300: a4d3 053e 8907 303e bfb4 cabc 840f 69bd
00000310: 0d9b d4bb a726 9bbc 3302 2b3d 809e 3e3d
00000320: af20 febd e990 13bd cc5a 503e 7caf c33d
00000330: 7495 3abb 66dd 9fbd d419 a6bd e8c8 1fbe
00000340: bec8 d6bc bd0c c33d 37b0 213e 7b5e 403e
00000350: d248 1cbe b6c7 b3bd 46b9 843c 0028 543e
00000360: ecd2 993d 6619 99bc ea9d cd3d 6d25 2cbd
00000370: 4b52 cdbd 2cbe 393e 41de 39bd 3272 b5bc
00000380: 0dd7 17be dbe3 ca3d 7fd3 c23d bc9b a53d
00000390: acf7 c8bd 29ad d7bd 4401 1cbe 1171 133e
000003a0: f348 0b3e 823f 5a3e 392a 103e c4fb f63c
000003b0: 949a eabc ceab 52be 2727 74be d767 4cbe
000003c0: 1c46 e53d 39b6 76bd 0180 013d 7350 a2bd
000003d0: 75b0 ce3c 9076 9ebd 5002 fabd 746d ad3d
000003e0: 4cf0 32bd 60c7 0d3e cc9b 4dbd 4172 12be
000003f0: 410f f2bc 18bd c4bd 0ad9 85bd 5e93 4dbe

bias f4 [64]
-0.17251211 0.09383268 -0.08767808 -0.010564494 0.042126283 0.14834401 -0.07112101 0.043792304
0.0734196 0.1139968 0.0051405556 0.08196414 -0.12208253 -0.1389822 0.17138423 -0.12130888
-0.010666764 -0.025237706 0.18264042 -0.047914613 -0.12786429 -0.056749757 0.14678335 0.10667786
0.16880868 0.11947148 0.08292506 -0.20366223 0.07690265 0.080422066 0.09469292 -0.074263945
-0.04965745 0.06513181 -0.13593116 -0.14218152 -0.20627041 0.054484423 0.11476712 0.045093372
0.073612764 0.046066463 -0.10791265 -0.009333396 -0.035888877 -0.07565462 0.15549366 -0.14248538
0.015036604 -0.17957848 0.019121565 -0.079944395 0.065235965 -0.070228525 0.12732571 -0.153448
0.11324496 -0.104029775 0.089486964 -0.010821794 -0.019547919 -0.020550655 0.101745255 0.04587147
00000000: 04a7 30be 592b c03d 9190 b3bd b316 2dbc
00000010: 9c8c 2c3d 7ee7 173e e4a7 91bd 8f5f 333d
00000020: 045d 963d 2777 e93d 1b72 a83b d1dc a73d
00000030: 6806 fabd 5a51 0ebe 597f 2f3e ca70 f8bd
00000040: a7c3 2ebc 4ebf cebc 1706 3b3e 1d42 44bd
00000050: dbee 02be 6f72 68bd 604e 163e ec79 da3d
00000060: 2fdc 2c3e 77ad f43d 9dd4 a93d d58c 50be
00000070: 237f 9d3d 53b4 a43d 5dee c13d b217 98bd
00000080: 9c65 4bbd d463 853d 8a31 0bbe 0898 11be
00000090: 8d38 53be 0f2b 5f3d 060b eb3d d4b3 383d
000000a0: 4ac2 963d 30b0 3c3d 4f01 ddbd 1aeb 18bc
000000b0: 3700 13bd cff0 9abd bb39 1f3e b0e7 11be
000000c0: 175c 763c 6ce3 37be d4a4 9c3c e3b9 a3bd
000000d0: 6f9a 853d f9d3 8fbd ac61 023e 7921 1dbe
000000e0: f9ec e73d 900d d5bd f144 b73d e54d 31bc
000000f0: f522 a0bc d959 a8bc d15f d03d b9e3 3b3d

weight f4 [32, 64, 3, 3]
-0.032827716 0.010579928 -0.014207855 0.037305385 0.020700824 0.002814412 -0.013980423 0.029950233
-0.010565272 0.034548324 0.04152635 0.044479754 0.029057397 -0.016817695 0.051074363 -0.0050591105
-0.00015374082 0.005673831 -0.030801516 -0.0040647397 0.027874527 -0.003650806 0.01778399 0.004885137
0.09914113 0.058916725 -0.026136018 0.003689542 0.03881604 0.014875429 0.00022813943 -0.027193276
-0.008122228 0.043237176 0.016291939 -0.037537035 -0.13519932 -0.10373823 0.024152314 -0.16329725
0.012188751 -0.006491342 -0.07904906 -0.0116532 -0.09038335 0.016571844 0.018599136 0.028974291
-0.0131865665 -0.009845682 -0.0018630958 -0.017921748 -0.027204385 -0.014566539 -0.038245425 0.0118806865
0.025532579 0.022547208 -0.01974428 -0.013569412 -0.017670529 0.040537465 0.0227634 -0.011571364
0.020731378 -0.008050165 -0.0065342216 0.05166382 0.034599625 -0.0056793275 0.015476555 0.020389173
0.011004263 0.027112452 0.038536362 0.028397609 -0.018842306 -0.009007949 0.02329968 -0.0256146
0.029689534 0.0104621295 -0.039979845 0.024768211 -0.0423902 -0.034552835 0.037699483 0.009031701
-0.035273243 0.04570317 0.012555272 -0.026748063 0.032021847 -0.0024091185 0.033670504 0.03347978
0.0075074644 -0.033515815 -0.029711854 -0.025604585 -0.06460312 0.0006675746 0.043232713 0.04144124
0.01611106 0.029882079 0.056395996 -0.05128389 -0.025037201 0.01502225 0.04834894 0.009904988
0.005686838 -0.015528806 -0.026343534 -0.033389557 0.035002448 -0.0067887343 -0.036808696 0.0044697784
0.0030236728 -0.0051478595 0.014915165 0.022407468 -0.03918376 -0.03192049 -0.011849896 -0.062759735
-0.032614905 0.038489368 -0.015982743 -0.026477486 -0.017850129 -0.040536407 0.03107542 -0.0064899055
-0.0069461716 -0.030658033 0.032971468 0.011596375 -0.014388158 -0.00043376142 -0.0126594575 0.002996647
0.043288335 -0.013224486 0.0049745934 -0.010674856 -0.04627819 0.007035674 -0.0027762828 0.039356176
-0.10955219 0.004252396 -0.010621721 0.032980584 -0.022570644 0.019998115 0.010849576 0.016013933
0.012549553 -0.022515025 0.03662822 -0.02648241 -0.007694001 0.041603476 0.020075496 0.0013738668
-0.0056832335 -0.022208154 0.027877249 0.005709841 0.01147967 0.012135337 0.041077808 -0.010447934
-0.014844559 0.022805884 0.011994216 -0.03171332 -0.004690227 0.0029183188 0.008803359 0.019936562
0.030839546 -0.05166739 0.032818772 0.007821474 0.024493339 0.04333487 0.019601054 0.033689067
-0.011672039 -0.029089756 -0.036122832 0.042465895 0.021962004 -0.031784676 -0.014621334 -0.03807567
-0.08894497 0.03331031 0.039229363 0.040927947 0.033363096 0.05356907 0.03779433 0.011847524
0.0055797906 0.003345681 -0.030239977 0.0067036944 0.0027285786 0.048796497 -0.0029294929 -0.0024997706
-0.043270003 -0.051751558 0.012776031 0.047014505 -0.011501599 -0.009405203 0.011493009 0.020606205
0.014243922 0.02110037 0.025701467 0.051196504 0.02633192 0.03966209 -0.047023173 0.07777128
-0.08627543 -0.022174332 0.041625414 -0.014514681 0.023396244 -0.029141251 -0.017787388 0.0030974653
0.035927318 0.016745448 -0.033595704 0.006816335 -0.02588731 0.0015706377 -0.034539066 -0.008691424
0.017370762 -0.044485837 -0.04632835 0.0016250612 0.0047929045 -0.021771729 0.04976534 -0.03107433
00000000: 5b76 06bd 6f57 2d3c 10c8 68bc 88cd 183d
00000010: c694 a93c ff71 383b 250e 65bc 315a f53c
00000020: f619 2dbc 8b82 0d3d 8917 2a3d 6730 363d
00000030: c709 ee3c 43c5 89bc 5a33 513d e5c6 a5bb
00000040: 7d35 21b9 8beb b93b 7653 fcbc 8231 85bb
00000050: 1f59 e43c 5c42 6fbb bbaf 913c 8013 a03b
00000060: 810a cb3d aa52 713d 341b d6bc 3ecc 713b
00000070: 91fd 1e3d 12b8 733c b638 6f39 6fc4 debc
00000080: 1813 05bc 7719 313d ac76 853c 6fc0 19bd
00000090: b171 0abe b674 d4bd 13db c53c 6537 27be
000000a0: 54b3 473c 53b5 d4bb 79e4 a1bd 10ed 3ebc
000000b0: e81a b9bd adc1 873c 375d 983c 7e5b ed3c
000000c0: 780c 58bc c94f 21bc 1f33 f4ba a1d0 92bc
000000d0: bbdb debc 7ea8 6ebc 3ca7 1cbd 36a7 423c
000000e0: b329 d13c ecb4 b83c c2be a1bc 3d52 5ebc
000000f0: c9c1 90bc 9d0a 263d 4f7a ba3c d195 3dbc
00000100: dad4 a93c d7e4 03bc 061d d6bb 719d 533d
00000110: 56b8 0d3d a719 babb 6091 7d3c 3207 a73c
00000120: 394b 343c ef1a de3c 4ed8 1d3d 1aa2 e83c
00000130: 2e5b 9abc 1496 13bc f8de be3c b6d5 d1bc
00000140: 7737 f33c 5a69 2b3c e8c1 23bd b4e6 ca3c
00000150: 59a1 2dbd 4687 0dbd c66a 1a3d b3f9 133c
00000160: ad7a 10bd 3f33 3b3d a1b4 4d3c c11e dbbc
00000170: 5729 033d 4de2 1dbb 15ea 093d 1822 093d
00000180: 2d01 f63b e147 09bd 4666 f3bc b5c0 d1bc
00000190: a44e 84bd 2c00 2f3a c914 313d 4abe 293d
000001a0: 57fb 833c 43cb f43c 7dff 663d 0e0f 52bd
000001b0: d11a cdbc e21f 763c 8a09 463d 8848 223c
000001c0: a858 ba3b 886c 7ebc 65ce d7bc 7dc3 08bd
000001d0: ba5e 0f3d 0874 debb b7c4 16bd 3877 923b
000001e0: d028 463b 60af a8bb bc5e 743c de8f b73c
000001f0: 267f 20bd 0fbf 02bd 1126 42bc 2d88 80bd
00000200: 3597 05bd 07a7 1d3d 3eee 82bc 50e7 d8bc
00000210: 6f3a 92bc 8109 26bd e191 fe3c 46a9 d4bb
00000220: b69c e3bb 8e26 fbbc 170d 073d b9fe 3d3c
00000230: 4fbc 6bbc 796a e3b9 9d69 4fbc 6563 443b
00000240: 1c4f 313d 84ab 58bc ea01 a33b 97e5 2ebc
00000250: 338e 3dbd 838b e63b 4cf2 35bb f133 213d
00000260: e65c e0bd af57 8b3b ba06 2ebc a616 073d
00000270: 12e6 b8bc 16d3 a33c 6cc2 313c a72f 833c
00000280: a49c 4d3c 6e71 b8bc 7907 163d a4f1 d8bc
00000290: f51d fcbb 6868 2a3d 5e75 a43c 5213 b43a
000002a0: 6b3a babb e0ed b5bc d45e e43c 9e19 bb3b
000002b0: 3a15 3c3c 4bd3 463c 3441 283d d02d 2bbc
000002c0: 9836 73bc 68d3 ba3c 6383 443c d4e5 01bd
000002d0: 7ab0 99bb 4441 3f3b f73b 103c 0052 a33c
000002e0: 37a3 fc3c 2fa1 53bd fa6c 063d a425 003c
000002f0: 41a6 c83c e87f 313d 6492 a03c 8cfd 093d
00000300: 143c 3fbc a44d eebc 89f5 13bd b8f0 2d3d
00000310: a9e9 b33c a630 02bd 528e 6fbc 3cf5 1bbd
00000320: c828 b6bd 6470 083d f8ae 203d 10a4 273d
00000330: bea7 083d 3e6b 5b3d 3ace 1a3d 1e1c 423c
00000340: add6 b63b 3643 5b3b d4b9 f7bc aaaa db3b
00000350: f4d1 323b d6de 473d bcfc 3fbb 31d3 23bb
00000360: e33b 31bd 71f9 53bd 8f52 513c 4892 403d
00000370: 3471 3cbc 4818 1abc 2c4d 3c3c 58ce a83c
00000380: 575f 693c afda ac3c e28b d23c 6db3 513d
00000390: 0ab6 d73c b774 223d 5f9b 40bd 8d46 9f3d
000003a0: 2cb1 b0bd f2a6 b5bc 697f 2a3d fcce 6dbc
000003b0: 7ba9 bf3c a2b9 eebc dbb6 91bc d8fe 4a3b
000003c0: 8628 133d c02d 893c a69b 09bd 905b df3b
000003d0: a011 d4bc dbdd cd3a d678 0dbd 7966 0ebc
000003e0: 214d 8e3c c836 36bd ccc2 3dbd 0100 d53a
000003f0: cc0d 9d3b a05a b2bc bed6 4b3d 988f febc

bias f4 [32]
0.03885117 0.010558412 -0.03251307 0.016535737 -0.044101674 0.017385641 0.027258629 -0.040704977
-0.0028344374 -0.014605984 0.019062432 -0.022580588 0.009644764 -0.020603752 -0.036389343 -0.017224638
0.023939345 -0.02753225 -0.0037134893 -0.008306417 0.032609783 -0.020756245 -0.04050748 0.0032083371
-0.04344674 -0.023971988 0.018912962 -0.022110417 -0.013234746 0.017881492 0.024312805 0.026879167
00000000: 6822 1f3d 31fd 2c3c 6d2c 05bd f475 873c
00000010: f5a3 34bd 556c 8e3c 7d4d df3c 43ba 26bd
00000020: f8c1 39bb f04d 6fbc d128 9c3c edfa b8bc
00000030: 1205 1e3c 33c9 a8bc fe0c 15bd af1a 8dbc
00000040: 721c c43c 508b e1bc 035e 73bb a317 08bc
00000050: d691 053d 0009 aabc 2ceb 25bd f742 523b
00000060: 35f5 31bd e760 c4bc 5bef 9a3c e820 b5bc
00000070: 8cd6 58bc 357c 923c a62b c73c b331 dc3c

weight f4 [9, 32, 3, 3]
0.05454814 0.06081359 -0.0069147646 -0.01546408 0.009739303 0.032621033 0.012444445 -0.0271457
0.06376182 -0.009741715 0.08926822 -0.029461386 -0.065012015 0.06886364 -0.06078268 0.016496116
0.05253449 -0.012606255 0.03734081 -0.019023014 0.023711847 -0.048082598 -0.029799836 0.057829298
0.052783497 -0.044279106 -0.028164644 -0.060327735 0.015929094 -0.0042701014 0.013469284 0.04684688
0.036992483 0.0059297993 0.023717541 -0.036480017 0.03629704 -0.07120715 0.013471899 0.080040775
0.119476736 0.04351224 -0.09792092 -0.14147568 -0.0072165374 -0.039472267 0.022052975 -0.02645705
0.05501156 0.027843151 -0.034267228 0.008644596 0.029367229 0.071800604 -0.027350487 -0.02707041
-0.009705835 0.0063096825 0.04537382 0.009103179 0.044581674 -0.057506572 -0.068141244 0.0074029975
0.03705198 0.05513076 0.009295077 0.0016020926 0.035260007 0.04187169 -0.04794085 -0.02297219
0.04175521 -0.0035053005 -0.045748893 -0.035944942 -0.006961364 0.009165872 -0.008612708 -0.046445154
0.06327389 0.0026075905 0.063188046 -0.0065503074 0.05683142 0.036962617 -0.047615144 0.03378444
0.04285667 -0.04065216 0.062160145 0.0015142934 -0.010277854 -0.0029211163 -0.026249714 0.06476929
-0.011152241 -0.026043896 0.06534415 -0.083616905 -0.032623485 0.0033169035 0.049625363 -0.0014591775
-0.017568264 -0.038169052 0.050607152 0.010053297 -0.0107439235 -0.029517867 -0.0539293 0.03432769
-0.041147973 0.013612915 0.014397033 0.019938856 -0.020366998 0.034926597 0.07378338 0.056380656
0.02615503 0.01738863 -0.016394777 -0.030378954 -0.026129643 -0.0014831617 0.09007957 0.056784533
0.016304981 -0.03259944 -0.00025112001 -0.011711345 -0.035972532 -0.007331531 0.010579438 0.007004748
0.040168934 -0.0021888213 0.052092735 0.009055702 -0.03743823 -0.011318121 0.021176705 -0.037033778
0.00651793 0.046630777 -0.028966613 0.03414767 -0.021111628 0.047187477 0.024066305 0.03532531
-0.028120982 0.016378857 -0.03045555 -0.015532681 0.07202905 -0.024051642 0.014909345 0.027420416
0.0005380536 -0.0147561515 0.0020222613 0.0114480145 0.021271516 0.01424396 0.05465893 0.030187612
0.018195668 -0.042005017 -0.038416963 0.06704944 0.003289065 -0.00291187 -0.0018630698 -0.016150149
0.040807124 0.01221793 0.016619213 -0.009101192 0.010312714 0.045350354 0.03126164 0.044366356
0.029697357 0.038147114 -0.011283834 -0.03833542 0.02960833 -0.0038411175 -0.014078125 0.0043075937
0.05050958 -0.008363891 0.033657845 0.05257909 -0.015446979 -0.009531361 -0.021353494 0.043383114
-0.009942779 0.01968046 -0.0341438 0.02454303 -0.038271382 0.015612281 -0.028146945 -0.07217458
-0.024740933 -0.00072040857 -0.013529663 0.0092109265 0.03517985 0.0014064171 0.03766547 -0.015943326
-0.007327691 0.03919183 -0.04330061 0.025823953 -0.027987504 -0.020250795 0.02018891 0.042536262
-0.022099033 0.012326734 -0.0019990825 -0.034858458 -0.0022906128 0.013216368 -0.020728162 -0.022631217
0.054755747 -0.028763223 -0.01226913 0.06262183 -0.029774565 0.07971854 0.32090968 0.021512106
-0.042123113 0.029805087 -0.17686321 0.010275126 -0.073068544 0.0320759 0.027612465 -0.011036903
0.039189983 -0.002251825 0.03596765 -0.043401178 -0.017661752 0.09710689 -0.0749797 0.004491349
00000000: df6d 5f3d ac17 793d 4095 e2bb 0d5d 7dbc
00000010: 9991 1f3c a29d 053d c9e3 4b3c a960 debc
00000020: 8f95 823d b79b 1fbc 42d2 b63d 0159 f1bc
00000030: 0525 85bd 6108 8d3d 42f7 78bd dd22 873c
00000040: 682e 573d 778a 4ebc adf2 183d 27d6 9bbc
00000050: 593f c23c 42f2 44bd c91e f4bc 6ade 6c3d
00000060: 8233 583d 025e 35bd 8ab9 e6bc 371a 77bd
00000070: bb7d 823c 35ec 8bbb 46ae 5c3c 84e2 3f3d
00000080: 6e85 173d c34e c23b 4a4b c23c 126c 15bd
00000090: 34ac 143d 0ed5 91bd 3db9 5c3c 6bec a33d
000000a0: 38b0 f43d e439 323d c38a c8bd 00df 10be
000000b0: b478 ecbb acad 21bd 71a8 b43c 75bc d8bc
000000c0: cd53 613d 5217 e43c cb5b 0cbd 10a2 0d3c
000000d0: 8b93 f03c 320c 933d 210e e0bc c4c2 ddbc
000000e0: 3905 1fbc 74c1 ce3b e6d9 393d 8025 153c
000000f0: 469b 363d 038c 6bbd a38d 8bbd d894 f23b
00000100: d1c3 173d cbd0 613d 614a 183c 4ffd d13a
00000110: cc6c 103d a681 2b3d a05d 44bd 2d30 bcbc
00000120: 8307 2b3d 2fb9 65bb 3163 3bbd 013b 13bd
00000130: 271c e4bb 742c 163c 511c 0dbc 463d 3ebd
00000140: be95 813d 1ce4 2a3b bc68 813d f6a3 d6bb
00000150: 10c8 683d 1d66 173d 1908 43bd 8e61 0a3d
00000160: 7a8a 2f3d e182 26bd a39b 7e3d 417b c63a
00000170: 7264 28bc 3370 3fbb a409 d7bc c3a5 843d
00000180: e4b7 36bc 025a d5bc 27d3 853d 573f abbd
00000190: 34a0 05bd 6860 593b f743 4b3d df41 bfba
000001a0: 52eb 8fbc 2757 1cbd 7249 4f3d 95b6 243c
000001b0: 4807 30bc 74cf f1bc f8e4 5cbd 319b 0c3d
000001c0: c78a 28bd b408 5f3c 88e1 6b3c d056 a33c
000001d0: b1d8 a6bc 310f 0f3d be1b 973d 67ef 663d
000001e0: 1343 d63c 9a72 8e3c 574e 86bc 49dd f8bc
000001f0: d50d d6bc a666 c2ba a37b b83d e696 683d
00000200: 0692 853c fe86 05bd c2a8 83b9 f1e0 3fbc
00000210: ef57 13bd 573d f0bb 6155 2d3c 1688 e53b
00000220: 2e88 243d 5472 0fbb 315f 553d 5e5e 143c
00000230: d458 19bd a46f 39bc c57a ad3c bbb0 17bd
00000240: 5c94 d53b eaff 3e3d 644b edbc 6dde 0b3d
00000250: 4bf2 acbc a847 413d b326 c53c 46b1 103d
00000260: f95d e6bc f42c 863c eb7d f9bc c97c 7ebc
00000270: f783 933d f307 c5bc 5346 743c c8a0 e03c
00000280: 2a0c 0d3a c9c3 71bc ea87 043b 7490 3b3c
00000290: 9a41 ae3c 805f 693c 0be2 5f3d 034c f73c
000002a0: 150f 953c 740d 2cbd 1b5b 1dbd 3851 893d
000002b0: 5b8d 573b 12d5 3ebb 4032 f4ba 514d 84bc
000002c0: 5f25 273d b62d 483c 0425 883c 2a1d 15bc
000002d0: a8f6 283c 4bc1 393d 350c 003d 7fb9 353d
000002e0: df47 f33c 2640 1c3d d5df 38bc 9a05 1dbd
000002f0: 2b8d f23c 42bb 7bbb f0a7 66bc b726 8d3b
00000300: 22e3 4e3d b408 09bc cfdc 093d 2c5d 573d
00000310: 5315 7dbc 6d29 1cbc 86ed aebc 7eb2 313d
00000320: 0ae7 22bc eb38 a13c 5fda 0bbd 770e c93c
00000330: 74c2 1cbd a7ca 7f3c 6c94 e6bc 44d0 93bd
00000340: 7fad cabc cdd9 3cba 85ab 5dbc 6de9 163c
00000350: bf18 103d 8757 b83a 1c47 1a3d 949b 82bc
00000360: 211d f0bb 9d87 203d fb5b 31bd c18c d33c
00000370: 0d46 e5bc ffe4 a5bc 3763 a53c 813a 2e3d
00000380: 0809 b5bc 12f6 493c 0a03 03bb bec7 0ebd
00000390: 1b1e 16bb 7789 583c 1bce a9bc 1a65 b9bc
000003a0: 9047 603d daa0 ebbc 7604 49bc e03f 803d
000003b0: cae9 f3bc 7943 a33d 464e a43e 283a b03c
000003c0: 4989 2cbd cc29 f43c a11b 35be 0159 283c
000003d0: f6a4 95bd 0562 033d 8933 e23c 20d4 34bc
000003e0: ad85 203d 5b93 13bb d152 133d 6fc5 31bd
000003f0: 61af 90bc fadf c63d f58e 99bd 2b2c 933b

bias f4 [9]
0.028292444 0.012735483 0.029081313 0.018795894 -0.0023333293 0.010655509 -0.0058028046 0.007401928
0.01580645
00000000: 8ec5 e73c 7da8 503c ef3b ee3c d9f9 993c
00000010: c5ea 18bb 7294 2e3c 7425 bebb df8b f23b
00000020: 877c 813c
