.processed/6_logs_scale_3_crop_64/epoch_2_model.pth (torch_old, 93448 bytes, 6 tensors)

weight f4 [64, 1, 5, 5]
000000 b3 3c 11 3e 4d aa 1f 3e 23 3f 6b bd 5e a4 32 3e
       0.14183311 0.15592308 -0.05743326 0.17445514
000010 31 e2 5d bd 79 3e fa 3c 06 76 da bd f2 a3 df 3d
       -0.05417079 0.030547367 -0.106670424 0.10919942
000020 05 e0 2d 3e 5c cf 1f be 82 60 2a 3e 13 0b 07 3d
       0.16979988 -0.15606445 0.16638377 0.032969546
000030 ce 70 16 3e 95 d7 c7 3c 90 b7 b6 3d bc bb 0f bd
       0.14691469 0.02439479 0.089217305 -0.035091147
000040 be c1 1b 3e bb f4 f1 3c 13 b1 c5 bd 02 bb 38 3d
       0.15210626 0.029535642 -0.09652915 0.04510022
000050 f2 37 ca bd 95 4e e3 bc 2a 7f ac bd 04 65 03 3e
       -0.09873952 -0.027747432 -0.08422692 0.12831503
000060 99 d9 29 be ec 69 b4 bd bc 40 53 bd 07 ba ed bd
       -0.16586913 -0.088092655 -0.051575407 -0.116077475
000070 73 4d b4 3c 3f 63 46 be d0 33 3c 3e 05 15 29 be
       0.022009587 -0.19373797 0.1837914 -0.16511925
000080 5e 4d 23 3e 14 13 16 3d 3b ab 7d bd 27 db 01 3e
       0.15947482 0.036639288 -0.061930876 0.12681256
000090 ae 87 1b 3d 8f ae 2e 3e 01 a1 e2 3c 79 e3 73 bd
       0.03797119 0.17058776 0.027664663 -0.059543107
0000a0 8a 5e 65 3d 60 f1 46 bd b0 b0 bb 3d 33 3c 3c 3e
       0.055998363 -0.048570037 0.0916456 0.18382339
0000b0 55 98 f2 3d 23 59 b2 bd d8 c0 f0 3d 99 f6 1c 3d
       0.11845461 -0.08708408 0.11755532 0.03832111
0000c0 28 a4 d3 3d 15 f2 f6 bd da c0 43 be 1e ae 8b bd
       0.10334045 -0.12057892 -0.19116536 -0.068203196
0000d0 19 2b 0c be 98 f6 37 3e a2 06 52 3d 45 6f b7 3d
       -0.13688315 0.17965162 0.051275857 0.0895677
0000e0 ca c9 9a 3d 16 70 1c 3d f7 80 45 3e 8d 98 2e be
       0.075580195 0.03819283 0.19287477 -0.17050381
0000f0 de db ce 3c ac c6 ee bd b8 b4 dc 3d 5f 36 46 bd
       0.025251325 -0.116589874 0.10776657 -0.048391696
000100 c6 de b9 3c b8 bf fb bc 48 d9 3a 3e 9d 2f ba bd
       0.022689234 -0.030731067 0.18246949 -0.09091113
000110 da d0 f9 bd 64 00 2a be 44 b4 40 3e c2 b2 9f 3d
       -0.121980384 -0.16601712 0.18818766 0.07797767
000120 30 d3 59 3e ca 06 2e be 6f 8d 76 be 20 54 21 be
       0.21271968 -0.16994777 -0.2407739 -0.15754747
000130 a3 75 fb bd 17 88 b9 3d a0 14 98 3d 6a 21 29 3e
       -0.12278297 0.0905916 0.07425809 0.16516653
000140 b6 11 d1 bd 4b d7 eb bd 22 3a ff 3d c2 2a 93 bd
       -0.10208456 -0.11515673 0.1246226 -0.0718589
000150 c7 ce 02 3e 31 d1 2c bd fc 08 17 3e 47 23 ff bd
       0.12774192 -0.042191688 0.14749521 -0.124579005
000160 cd 10 aa bd 84 bd 97 3d 64 e0 38 3d 20 5f c1 bc
       -0.08303986 0.07409194 0.04513587 -0.02360493
000170 37 b7 1b 3e e8 ae 1f 3e ee 7e 09 be fb 90 de bd
       0.1520661 0.15594065 -0.13427326 -0.108674966
000180 db 6b 4e 3e 2d 0c 57 bd 2d 23 84 bd ed bc 3f be
       0.20158331 -0.052501846 -0.06452022 -0.18724413
000190 49 16 c4 bd 17 86 89 3d cb b4 8d 3c 66 df c8 bd
       -0.09574563 0.06715029 0.017298123 -0.09808235
0001a0 fd af 3b bc d2 21 ea bd 54 a7 0b be ba a9 6c bc
       -0.011455533 -0.11432232 -0.1363805 -0.014444763
0001b0 23 be 2a be bf 0d 25 be 44 bf 88 3e e9 f1 1e 3e
       -0.16674094 -0.16118525 0.26708424 0.15521969
0001c0 4c d7 82 3e df dc 4d be 4c 07 0b be 53 50 1d bd
       0.25554883 -0.20103787 -0.13577002 -0.03840668
0001d0 c8 a5 b8 3d 90 25 38 bd 00 25 0f be ba 65 18 be
       0.09015995 -0.044957697 -0.13978958 -0.14882556
0001e0 af f4 9a 3c 80 26 2a bd 01 85 8f 3d e7 14 f4 bd
       0.018915502 -0.041540623 0.0700779 -0.11918049
0001f0 68 e3 0f be 19 db e8 bd 03 24 76 bd 71 6f 1c be
       -0.14051592 -0.113699146 -0.060092937 -0.15276887
000200 16 53 2d 3e 1b 76 15 bd 9c 9c 35 3e 3c 63 8b 3d
       0.16926226 -0.036489587 0.17735523 0.06806037
000210 fc 07 31 be 09 d4 13 3e 46 81 56 bd 98 24 85 bd
       -0.17288202 0.14436354 -0.05236938 -0.0650112
000220 90 33 27 be d4 98 48 be 88 60 8d 3d 00 49 14 bd
       -0.16328263 -0.1958955 0.069031775 -0.03620243
000230 13 65 af 3d b2 a5 21 be d9 96 22 3e c9 a3 11 be
       0.085642 -0.15785864 0.15877856 -0.14222635
000240 0d 65 ec bc 72 4c 3b 3d f8 bc dd 3d c5 e4 2c 3e
       -0.028856779 0.0457272 0.108270586 0.16884144
000250 d4 76 3e 3e e8 f8 21 be 6a 77 42 3d d6 36 b3 bd
       0.18600017 -0.15817606 0.047477163 -0.087506935
000260 83 eb 9d bc e8 c4 1a be 60 7d 3a 3e b7 53 19 be
       -0.01927734 -0.15114176 0.1821189 -0.14973341
000270 24 92 dc 3d 45 aa a2 3d 6a 25 86 3d 38 01 d8 bd
       0.107700616 0.079426326 0.06550105 -0.105471075
000280 ee 52 39 3e 34 75 47 3d db ca 29 3d 6c 20 33 be
       0.18098041 0.048695758 0.041453224 -0.17492837
000290 cf 68 b5 3d 91 bb 12 bd 74 0a be bd 49 2c 3a 3e
       0.08857881 -0.03582341 -0.092793375 0.18180956
0002a0 b0 93 3a 3d 47 c2 dd bd 0c 86 e3 bd cb a8 8e bc
       0.045551002 -0.10828071 -0.11109552 -0.017414471
0002b0 f6 9e de 3d 30 f5 67 bd 32 07 f1 bd 10 a0 8a bd
       0.10870163 -0.056630313 -0.117689505 -0.06768811
0002c0 bb 46 17 be 9b f5 95 3d 30 67 20 3e 64 a0 40 be
       -0.14773075 0.07322236 0.15664363 -0.18811184
0002d0 7e 26 42 3d a4 03 db 3d 65 80 25 3d 56 91 89 bd
       0.04739999 0.10694054 0.04040565 -0.06717174
0002e0 ba 7d d7 3d 6c 51 da 3d da 4e a5 3d f1 61 dd bc
       0.10522027 0.10660061 0.0807168 -0.027024241
0002f0 52 5f 48 bd ec f0 b4 3c c4 97 13 bd 96 54 6d bd
       -0.04891903 0.022087537 -0.036033407 -0.057941996
000300 70 9e 07 3e 25 ec 32 3e fa 52 aa bc 81 3e 40 bd
       0.13244033 0.17472894 -0.02079152 -0.04693461
000310 18 df e1 3a 2f f2 3f bc 0e 14 40 3d 54 07 5d 3d
       0.0017232625 -0.011715456 0.046894126 0.053962067
000320 df eb 15 be 8b 4a 45 bd 4c 58 56 3e 61 4a d3 3d
       -0.14640759 -0.048166793 0.2093212 0.10316921
000330 ad db 50 bb e9 f0 b8 bd dc d4 bd bd e5 f1 1f be
       -0.0031869218 -0.09030325 -0.09269115 -0.15619619
000340 f5 59 0a bd 6d 35 b7 3d 89 27 2e 3e 46 64 30 3e
       -0.033777196 0.08945737 0.17007269 0.17225751
000350 6c 21 13 be b2 f0 de bd 06 78 b1 ba 54 77 64 3e
       -0.14368218 -0.10885753 -0.0013539798 0.22311145
000360 88 b8 ac 3d 52 1e 04 bc ab dc ba 3d 1c aa 79 bd
       0.08433634 -0.00806387 0.0912412 -0.060953245
000370 56 87 cb bd 6b f6 3e 3e 13 ab 28 bd f2 ef 1c bd
       -0.09937923 0.18648688 -0.041178774 -0.038314767
000380 b3 29 38 be ea 9b 04 3e 90 f4 18 3e 8f 4c a2 3d
       -0.17984657 0.12950101 0.14937043 0.07924759
000390 0c 85 10 be 18 0f 4d be 88 63 25 be 58 af 23 3e
       -0.14113253 -0.20025289 -0.1615125 0.15984857
0003a0 bf 02 f6 3d e3 c7 34 3e 4e 73 db 3d 79 ae 77 3d
       0.120122425 0.17654376 0.10715352 0.060469124
0003b0 8a 5e 83 3c 34 80 04 be 6b 44 2d be 60 74 37 be
       0.01603629 -0.1293953 -0.1692063 -0.17915487
0003c0 42 4b b4 3d 4d 9d b7 bd 38 72 9b bc f3 5e fd bd
       0.08803417 -0.089655496 -0.018975362 -0.12371626
0003d0 d4 6a 1c bd a5 b6 07 be b0 66 02 be 77 48 a6 3d
       -0.038187817 -0.13253267 -0.12734485 0.0811929
0003e0 0d 05 75 bd 13 0f 00 3e 23 c0 83 bd 23 b2 16 be
       -0.05981927 0.1250575 -0.064331315 -0.14716391
0003f0 1b 40 12 bd 2b c4 c6 bd aa c4 7e bd 7b 50 43 be
       -0.035705667 -0.09705385 -0.062199272 -0.1907367

bias f4 [64]
000000 e4 87 39 be 18 f6 d2 3d 7d d7 12 be 3c 11 b4 bb
       -0.18118244 0.10300845 -0.14340015 -0.0054952186
000010 5e df 8f 3d cf 41 17 3e 74 b6 5b bd dd ef 6b 3d
       0.07025026 0.14771198 -0.053640798 0.0576018
000020 55 f5 56 3d a3 48 fb 3d 8e a4 39 3c 9e 6c 02 3e
       0.05248006 0.12269714 0.011330737 0.12736747
000030 ff b6 ef bd 5a 51 0e be cf f8 2e 3e fb d6 06 be
       -0.117048256 -0.1389822 0.170871 -0.13167946
000040 bd 1d 02 bc 01 80 bd bc 57 f5 4b 3e 9c 22 16 bd
       -0.0079416605 -0.023132326 0.19917808 -0.0366541
000050 00 23 03 be ab 31 6f bd 10 46 04 3e 50 b2 b4 3d
       -0.1280632 -0.058396976 0.12917352 0.08823073
000060 a3 89 27 3e c0 cf 74 3d 60 00 af 3d 35 2b 4f be
       0.16361098 0.05976844 0.085449934 -0.20231326
000070 49 ef a6 3d 9c 21 c0 3d 93 6b f6 3d 66 fc b6 bd
       0.08151109 0.093814105 0.12032237 -0.0893486
000080 12 3e 3c bd 9e da 58 3d 62 2e 0a be 71 31 1d be
       -0.045957632 0.052942865 -0.13494256 -0.15350892
000090 44 5b 49 be f7 2f a9 3d aa 9b fc 3d e0 29 5d 3d
       -0.19663721 0.08261102 0.12334378 0.053995013
0000a0 62 a1 82 3d d8 bc ae 3d 9e 7a f0 bd 7a 9c 84 3c
       0.063784376 0.08532113 -0.11742137 0.016187895
0000b0 1b ef 31 bd 76 5d a3 bd 9a df 2f 3e 5f 28 de bd
       -0.04344092 -0.07976811 0.17175141 -0.10847544
0000c0 ac 03 cd 3c e5 df 35 be 4b 31 00 bc 36 27 ac bd
       0.025026165 -0.1776119 -0.007824252 -0.084059164
0000d0 cf 6a 94 3d 8d 72 b2 bd 0e 36 02 3e 9a ea 1c be
       0.072469346 -0.08713255 0.12715933 -0.15323868
0000e0 0b 05 ef 3d ef 10 f3 bd a7 59 cd 3d f5 30 07 bd
       0.11670884 -0.11868464 0.100268655 -0.033005673
0000f0 7f fd b6 bb de b1 df bc 14 1d 00 3e b1 05 95 3d
       -0.0055844183 -0.027306493 0.12511092 0.07276476

weight f4 [32, 64, 3, 3]
000000 1b 1f f4 bc b7 d6 4d 3c 9b f4 9b bc 26 1e 17 3d
       -0.029799988 0.012563399 -0.019037535 0.036893986
000010 bf 69 8f 3c b3 df 7c 39 b8 ee 6d bc 1a cf d2 3c
       0.017506478 0.00024115927 -0.014522247 0.02573352
000020 2d 30 84 bc af 77 f1 3c c0 88 0e 3d e2 42 18 3d
       -0.016136253 0.029476015 0.034798384 0.03717316
000030 e7 db b7 3c 69 e4 b9 bc 5e 22 2f 3d 67 6d e0 bb
       0.022443725 -0.022691922 0.042757384 -0.0068489793
000040 74 a3 3b bb 2a a9 36 3b 32 22 00 bd 30 5e 8d 3b
       -0.0028631361 0.0027871826 -0.03128261 0.0043142065
000050 b8 82 70 3b 60 01 e2 bc 97 a8 96 bc 9c c8 13 3b
       0.0036699008 -0.027588546 -0.018390937 0.0022549992
000060 e5 59 c9 bc 4e 36 2e 3d 12 8f 86 bd 9c 2f 61 bc
       -0.024578998 0.042532258 -0.06570257 -0.013744261
000070 af 27 2e 3d ac fa 36 3d 22 38 a5 bb 7d 1f 73 bc
       0.042518314 0.044672653 -0.005042092 -0.01483905
000080 0d 67 5a 3b b6 e7 e8 3c 52 5b 55 bc 78 78 1f bd
       0.0033325583 0.0284308 -0.013022261 -0.038933247
000090 ba cc 0f be 89 b1 85 bb 47 e6 a0 3d 40 6e f2 bd
       -0.1404294 -0.0040800017 0.07856422 -0.11837435
0000a0 a6 17 34 3d 9e 24 83 3c 6b 84 3b bd 78 13 b9 bc
       0.043967865 0.016008671 -0.04578058 -0.022592291
0000b0 e1 a5 48 bd e0 2c af 3c 40 26 ce 3c 14 8a cf 3c
       -0.04898632 0.021383703 0.025164723 0.025334395
0000c0 7b 55 c9 bc d4 57 74 3c 7b b6 1d 3c 3d 4e 0d bd
       -0.024576893 0.014913518 0.009626026 -0.034498442
0000d0 c4 e2 25 bb 32 9e e9 bc fe 65 71 3c 45 b0 98 bb
       -0.0025312165 -0.028517816 0.0147337895 -0.004659685
0000e0 a2 53 d9 3c fe a9 bc 3c 9d b8 22 bc 4e b4 18 bc
       0.026529137 0.023030277 -0.009931711 -0.009320332
0000f0 31 a6 e5 bc e1 f0 03 3d 04 a9 20 3d 43 3c 98 bc
       -0.028033348 0.032212142 0.039223686 -0.018583423
000100 1d e5 93 3c 61 b1 64 bc 3f 35 13 bc bf dd 43 3d
       0.018053586 -0.013958306 -0.008984863 0.047818895
000110 4b 69 fc 3c 5d e0 b3 bb ea 08 70 3c f4 4f 8e 3c
       0.030811926 -0.0054893927 0.014650563 0.017372109
000120 fd e3 8e bc 21 e7 15 bc cd 5c 93 bb 12 dc a1 3c
       -0.017442698 -0.009149344 -0.0044971467 0.019758258
000130 59 85 0b bd 9b db e6 bc ee d6 f9 3a c6 7d 23 bd
       -0.034062717 -0.028180888 0.0019061246 -0.03991487
000140 08 fc 3c 3c d1 73 fb bb 02 46 ed bb 8a 6b ec 3c
       0.011534698 -0.0076737185 -0.0072410116 0.028859872
000150 ff 67 d9 bc 59 3e 60 bb 15 0b 06 3d 75 17 75 3c
       -0.026538847 -0.003421685 0.032725412 0.014959206
000160 56 a6 d9 bc f4 b5 3f 3d bf 4f be 3c eb cf a3 bb
       -0.026568573 0.046804383 0.023231385 -0.004999151
000170 28 b4 1a 3d 84 e0 2c bc 7f 7e 11 3d b5 e0 2c 3d
       0.037769467 -0.010551576 0.035521027 0.042206485
000180 21 51 ca bc 15 c8 e0 bc 70 f7 3b bd 54 d6 b7 bc
       -0.024696888 -0.027439157 -0.04589027 -0.022441067
000190 c4 7b 4e bd ad 27 12 bc 7c 72 bc 3c 5f 80 03 3d
       -0.050411 -0.008920592 0.02300381 0.032104846
0001a0 49 34 42 3c 79 95 f1 3c 8e e4 5d 3d 85 6f 34 bd
       0.011853286 0.02949022 0.054173045 -0.044051666
0001b0 73 fc d2 bc 3b a4 5a 3c 1d 92 48 3d 41 9b 1f 3c
       -0.025755143 0.01334482 0.04896747 0.009741605
0001c0 9c 05 a9 3b dd e4 82 bc f2 b9 9a bc ad 67 fc bc
       0.0051581394 -0.015978271 -0.018887494 -0.030811155
0001d0 6c ad 1e 3d 08 74 de bb b7 c4 16 bd 38 77 92 3b
       0.038739607 -0.0067887343 -0.036808696 0.0044697784
0001e0 d0 28 46 3b 60 af a8 bb bc 5e 74 3c de 8f b7 3c
       0.0030236728 -0.0051478595 0.014915165 0.022407468
0001f0 26 7f 20 bd 0f bf 02 bd f1 2a 0a bc fb cb 3d bd
       -0.03918376 -0.03192049 -0.00843309 -0.04633711
000200 af 08 25 bd a6 a3 0a 3d 00 ca 23 bc 4b d3 bc bc
       -0.040291484 0.033847474 -0.009996891 -0.023049971
000210 dc 68 7c bc 22 e2 05 bd 3e 1f 0c 3d 0a 87 f6 ba
       -0.01540586 -0.03268636 0.034209482 -0.0018808555
000220 de 45 35 bc 67 ad 0d bd b6 d4 09 3d 1c e2 eb 3b
       -0.011064021 -0.034589197 0.033650123 0.007198585
000230 0d d1 6d bb 3f 56 3a bb 3f b3 3c bc 9a 7c 76 3b
       -0.0036287934 -0.0028432754 -0.011517345 0.003761089
000240 54 69 81 3d 3b fe a3 bc 78 c1 77 bc 6a 33 31 bc
       0.06318918 -0.020018687 -0.01512181 -0.010815481
000250 b9 60 76 bb 96 1e 2d 3c 97 06 56 3c 66 2e 65 3d
       -0.0037594272 0.010566374 0.013063095 0.055952452
000260 92 6d 59 bd e2 d8 16 bc b4 8a 43 bc 98 c3 2d 3d
       -0.05308301 -0.009206982 -0.011934925 0.04242286
000270 b8 1a bf bc eb 26 00 3d 16 74 89 3c d8 fb 5c 3c
       -0.02332817 0.031287115 0.016778987 0.013487779
000280 d5 59 c0 3c 9d 0b 45 bc 25 34 0c 3d e5 1e d8 bc
       0.023480335 -0.012026695 0.034229416 -0.02638192
000290 63 88 07 bc b8 8f 26 3d 00 e7 b0 3c c1 88 14 3b
       -0.008272263 0.040664405 0.021594524 0.002266452
0002a0 52 77 88 bb 33 17 98 bc e2 c7 f4 3c 7e cc 00 3c
       -0.0041646147 -0.01856575 0.029880468 0.007861255
0002b0 33 b0 48 3c 7d a2 95 3c f3 ce 21 3d 24 c0 33 bc
       0.01224904 0.018265957 0.039504003 -0.010971103
0002c0 0c 71 ea bb 9f 9d 05 3d 3b f0 cf 3c 34 bc 98 bc
       -0.0071545895 0.032621022 0.025383106 -0.01864443
0002d0 83 7a 0a bd 13 5e 09 3c 2b 52 b0 3c 1b 4a 7c bb
       -0.033808243 0.008384245 0.021523556 -0.0038496319
0002e0 40 bf 64 3c 3a dd 45 bd 6c 9d 9a 3c 7e f8 e1 bc
       0.013961613 -0.04830668 0.018873893 -0.02758431
0002f0 fc f1 32 3c 99 70 2b 3d 03 cc a4 3c a8 64 1d 3d
       0.010921951 0.04185543 0.020116812 0.03842607
000300 9d dd 8f bc 78 c9 f7 bc d2 72 18 bd 58 14 11 3d
       -0.017561728 -0.030247435 -0.037218876 0.035419792
000310 f8 ad af 3c 8f e3 e4 bc c4 bf 8b bc 88 59 7c bc
       0.02144526 -0.02794054 -0.017059214 -0.015402205
000320 db 41 b0 bd c5 1a 22 3d cc 1a 11 3d 2b 42 e3 3c
       -0.08606311 0.03957631 0.035425946 0.027741512
000330 e3 78 e8 3c d3 62 5f 3d aa 06 07 3d b4 71 a3 3c
       0.028377956 0.054537605 0.03296534 0.019951679
000340 f3 bc c8 3b bd e2 5c 3b 8b 92 03 bd 2d 39 39 3c
       0.00612604 0.0033704482 -0.032122176 0.011305136
000350 be 6e f2 bb b3 c9 f6 3c 45 20 44 3b 43 29 92 bb
       -0.0073984554 0.030125475 0.002992646 -0.004460485
000360 f9 68 1c bd 7b 8a 23 bd eb e9 51 3c b6 22 0b 3d
       -0.038186047 -0.039926987 0.012812118 0.03396865
000370 a9 9a 97 3c d2 7f d1 bc 94 07 6c ba 42 b1 8a bc
       0.018506365 -0.025573645 -0.0009003815 -0.016930226
000380 22 dd ec 3b d2 94 92 3c 6a cb bb 3b 32 1e 29 3d
       0.0072285095 0.017893229 0.005731036 0.041288562
000390 e2 a3 14 3d f4 7f 28 3d 88 f2 2e bd cd 4c 7c 3d
       0.036289103 0.04113765 -0.042711765 0.06159668
0003a0 f4 ac 98 bd 53 19 20 bd 84 7a 34 3d c5 ad 79 bc
       -0.07454863 -0.03908665 0.044062153 -0.015239184
0003b0 78 9d cd 3c f8 72 e6 bc 88 a4 71 bc c5 9d f9 3b
       0.025099501 -0.028130993 -0.0147487 0.0076176845
0003c0 b9 ca 21 3d cd b1 d3 3c e3 48 e8 bc fa 51 90 3b
       0.039499972 0.025841618 -0.028355068 0.0044043036
0003d0 e6 b0 b8 bc 13 37 01 3c fb cc 0d bd c3 8c 27 bc
       -0.02254529 0.007886666 -0.034619313 -0.010226431
0003e0 6e 30 08 3d 73 11 1f bd 14 d5 24 bd 93 b8 3a 3c
       0.03324931 -0.038835 -0.04024227 0.011396545
0003f0 ad 7e 1a 3c 1d c2 03 bc 13 0d 42 3d fc 02 b1 bc
       0.009429616 -0.008041886 0.04737575 -0.021607868

bias f4 [32]
000000 5c 61 15 3d 43 a1 8f 3c 6d 2c 05 bd 79 38 47 3c
       0.036469802 0.01753295 -0.03251307 0.01215946
000010 4e 7e 86 b9 61 ac 5d 3c 60 61 05 3d 43 ba 26 bd
       -0.00025652576 0.013529868 0.032563567 -0.040704977
000020 74 b4 e6 bb 1c 93 4d bc d1 28 9c 3c 87 17 b9 bc
       -0.0070405547 -0.012547281 0.019062432 -0.022594227
000030 ea dc 58 3b 80 0b df bc d6 dd 42 bc 33 bf e1 bb
       0.003309066 -0.027227163 -0.01189371 -0.006889248
000040 15 16 90 3c 4d 6d 0d bd cf fd 8e 3b bf 94 52 bc
       0.017588655 -0.034528065 0.0043637524 -0.012852847
000050 04 5d 0b 3d b7 fa 99 bc 2b eb 25 bd 24 88 13 3c
       0.034024253 -0.018796308 -0.040507477 0.009004626
000060 35 f5 31 bd e7 60 c4 bc 92 bc ce 3c 97 25 d2 bc
       -0.04344674 -0.023971988 0.025236402 -0.02565269
000070 f5 84 41 3c 35 7c 92 3c 84 6f c7 3c 7e a2 e2 3c
       0.011811485 0.017881492 0.024345167 0.027665373

weight f4 [9, 32, 3, 3]
000000 d6 e8 5c 3d 90 2f 5d 3d eb d1 e4 bb 43 13 9e bc
       0.053932987 0.054000437 -0.006983032 -0.019296294
000010 fb 29 62 ba 2f 86 d2 3c 9c f1 43 3c b3 0a dc bc
       -0.00086274714 0.02569875 0.01195946 -0.02686057
000020 c5 4e 80 3d fc e8 1a bd aa 8a 7d 3d 50 8d d1 bb
       0.06265024 -0.037819847 0.06189982 -0.0063950196
000030 1d e1 38 3d b4 02 78 3d 99 f5 cc 3c 51 55 d2 bc
       0.04513656 0.060549453 0.025019454 -0.025675448
000040 5a 5e 80 3d 9b 07 3c bb ad f2 18 3d 27 d6 9b bc
       0.06267996 -0.0028691057 0.03734081 -0.019023014
000050 59 3f c2 3c 42 f2 44 bd c9 1e f4 bc 6a de 6c 3d
       0.023711847 -0.048082598 -0.029799836 0.057829298
000060 82 33 58 3d 02 5e 35 bd 8a b9 e6 bc a8 aa 52 bd
       0.052783497 -0.044279106 -0.028164644 -0.05143228
000070 78 3b 7e 3c 50 72 c1 bb 1a f5 2b 3c 21 25 11 3d
       0.015517108 -0.0059035197 0.0104954485 0.0354358
000080 f5 7b 03 3d f0 cb 00 ba 0c 43 a1 3c 3b b6 16 bd
       0.032100637 -0.00049132016 0.01968529 -0.036794882
000090 ec eb 01 3d 2e fe 81 bd d9 b0 5f bc fe 73 72 3d
       0.031719133 -0.06347309 -0.013653004 0.05919265
0000a0 8a ac a7 3d 21 85 a0 3d 74 c9 a9 bd 99 7a 05 be
       0.08187206 0.07837892 -0.08290377 -0.13035049
0000b0 73 9a df bc 04 90 fa bc 43 85 ea 3c f9 7e 0a bd
       -0.027295327 -0.03058625 0.028627997 -0.033812497
0000c0 99 10 56 3d a5 98 c1 3c ea 06 11 bd 73 22 67 3b
       0.052261923 0.023632357 -0.035406984 0.0035268336
0000d0 e9 c9 de 3c f2 58 90 3d 03 78 d3 bc a5 aa 22 bd
       0.027195888 0.07048215 -0.025814062 -0.03971352
0000e0 31 0c de bc e9 4a 72 3c 34 54 43 3d 8c 4e f0 3b
       -0.027105423 0.014788368 0.047687724 0.0073335823
0000f0 c5 8b 29 3d 3c 1e 43 bd 51 6e 5a bd d8 94 f2 3b
       0.04139306 -0.047636256 -0.053327862 0.0074029975
000100 d1 c3 17 3d cb d0 61 3d 61 4a 18 3c 4f fd d1 3a
       0.03705198 0.05513076 0.009295077 0.0016020926
000110 cc 6c 10 3d a6 81 2b 3d a0 5d 44 bd 2d 30 bc bc
       0.035260007 0.04187169 -0.04794085 -0.02297219
000120 8a 03 3d 3d 80 8e 03 bc 24 fe 24 bd 6d 55 18 bd
       0.046145953 -0.00802958 -0.04028143 -0.037190843
000130 5a 78 94 bc 8f f3 c8 3b 5f 8d cd 3a 3d 72 23 bd
       -0.018123794 0.00613255 0.0015682391 -0.039903868
000140 d6 55 89 3d 87 67 ff 3b df 36 84 3d b8 39 56 bc
       0.06705825 0.007794324 0.06455778 -0.013075285
000150 63 1c 52 3d 65 74 ff 3c 4d 20 2b bd be 8e 39 3d
       0.051296603 0.03118343 -0.04177885 0.045302145
000160 9e cf 43 3d 9b f9 02 bd a3 9b 7e 3d 49 7b c6 3a
       0.04780542 -0.031976324 0.062160145 0.0015142943
000170 72 64 28 bc 2c 70 3f bb a4 09 d7 bc c3 a5 84 3d
       -0.010277854 -0.0029211147 -0.026249714 0.06476929
000180 e4 b7 36 bc 00 5a d5 bc 27 d3 85 3d af 98 72 bd
       -0.011152241 -0.026043892 0.06534415 -0.05922764
000190 99 c5 0b bd 7b 13 93 3c 33 a9 5c 3d ed 2a 8d bc
       -0.03412399 0.017953625 0.0538723 -0.017232383
0001a0 28 fa c9 bc 18 d8 f2 bc d6 eb 2e 3d 9c 85 1a 3c
       -0.024655417 -0.029644057 0.04270538 0.009431269
0001b0 ec 31 1b bd 74 41 06 bd 70 79 6d bd d2 5b ad 3c
       -0.037889406 -0.032777265 -0.05797714 0.021161947
0001c0 a6 11 fe bc 9e c8 94 3b 06 fc fc 3c bf 84 27 3d
       -0.031014275 0.004540517 0.030881893 0.04089808
0001d0 38 16 51 bd e9 68 00 3d 3f 46 73 3d ad 33 5a 3d
       -0.05104658 0.03135005 0.059393164 0.053271938
0001e0 7a 2d c7 3c ac 4e cc 3b bb c3 b6 bc 44 10 de bc
       0.024313677 0.0062349644 -0.022310128 -0.027107365
0001f0 87 0a dd bc 41 96 a1 bb bc 33 3e 3d 03 50 7c 3d
       -0.026982559 -0.0049312417 0.046436056 0.061599743
000200 95 b3 8a 3c f1 d7 00 bc 65 06 a4 3c b0 78 8b bc
       0.016931335 -0.007863984 0.02002258 -0.017025322
000210 bb d3 03 bd 72 cb d1 bb b6 17 8b 3c 92 1c 15 3c
       -0.032184344 -0.0064024264 0.01697908 0.00910105
000220 80 ed 10 3d 24 cc ab 3c cd c8 4c 3d ff 6f a6 3c
       0.035382748 0.020971365 0.049996186 0.020317076
000230 ad 9f 1f bd 31 3d 82 3b 1d c6 db 3c 9c a6 2e bd
       -0.038970638 0.0039745797 0.026827866 -0.04263936
000240 81 21 9c 3b 39 aa 2d 3d 4a 15 03 bd 3d 44 09 3d
       0.004764736 0.042398665 -0.032002725 0.033512343
000250 9c 86 d7 bc 61 91 13 3d be 55 d7 3c 15 aa 08 3d
       -0.026309304 0.036027316 0.026286002 0.033365328
000260 14 20 e9 bc 96 72 b8 3c 5b 8e 45 bd dc 80 6a bd
       -0.028457679 0.022515576 -0.048231464 -0.057251796
000270 06 dd c3 3c 22 95 2e bd 6d 3c 44 3c d2 a8 e6 3c
       0.023909103 -0.042622693 0.011977297 0.028156672
000280 2d 41 48 3d 7b 4c 1c bd 40 ca 5b 3c 3d b1 4d 3d
       0.04889028 -0.038158875 0.013414919 0.050217856
000290 96 5a 9e 3c 98 35 50 bb d7 dc 8d 3d 24 65 17 3d
       0.019330304 -0.0031770226 0.069268875 0.03696169
0002a0 94 6e 85 3c 49 13 9b bc 74 b7 12 bd ab 59 65 3d
       0.01628808 -0.018930094 -0.035819486 0.055993717
0002b0 25 97 d4 3b e8 cd 7d bb f1 83 33 3b 65 64 a7 bc
       0.0064877444 -0.0038727466 0.0027391876 -0.020433614
0002c0 c2 de 21 3d 43 c7 8f 3c 43 80 a7 3c 46 55 24 3b
       0.03951908 0.01755107 0.020446902 0.002507524
0002d0 97 f4 bb 3c 36 12 72 3d e2 cc 23 3d f4 13 79 3d
       0.022943778 0.0590994 0.039990313 0.060810044
0002e0 35 d1 02 3d 61 3c 33 3d e1 c2 30 bc a4 17 fb bc
       0.031937797 0.043758754 -0.01078865 -0.030650921
0002f0 79 a0 29 3d 69 75 0e 3c 59 95 67 3b 35 33 87 3c
       0.041412804 0.008694985 0.003533682 0.01650391
000300 50 be 09 3d 22 5b 13 3c 33 31 15 3d a9 af 78 3d
       0.03362876 0.008993896 0.036423873 0.060714398
000310 33 b7 7f 38 06 99 89 bb 86 ed ae bc 7e b2 31 3d
       6.0967355e-05 -0.00419915 -0.021353494 0.043383114
000320 0a e7 22 bc eb 38 a1 3c 5f da 0b bd 77 0e c9 3c
       -0.009942779 0.01968046 -0.0341438 0.02454303
000330 74 c2 1c bd a7 ca 7f 3c 6c 94 e6 bc 47 5a 31 bd
       -0.038271382 0.015612281 -0.028146945 -0.043298986
000340 c8 8f 37 3c 8d 3b 8e 3c 8b 3c 55 bc ed d9 a7 bb
       0.011203714 0.01736238 -0.013014923 -0.0051224143
000350 cf 59 43 3d 6d 6b 2a 3c 2e 05 67 3d 62 b0 8d bc
       0.04769307 0.010401589 0.056401424 -0.01729602
000360 21 1d f0 bb 9d 87 20 3d fb 5b 31 bd c1 8c d3 3c
       -0.007327691 0.03919183 -0.04330061 0.025823953
000370 0c 46 e5 bc ff e4 a5 bc 36 63 a5 3c 81 3a 2e 3d
       -0.027987503 -0.020250795 0.020188909 0.042536262
000380 09 09 b5 bc 12 f6 49 3c 06 03 03 bb be c7 0e bd
       -0.022099035 0.012326734 -0.0019990816 -0.034858458
000390 1b 1e 16 bb 77 89 58 3c 1c ce a9 bc 1a 65 b9 bc
       -0.0022906128 0.013216368 -0.020728163 -0.022631217
0003a0 90 47 60 3d da a0 eb bc 1f df 8a bc 2b b4 fa 3d
       0.054755747 -0.028763223 -0.016952096 0.122413956
0003b0 65 e0 f0 bc 28 21 72 3d 2a 17 dd 3d 09 f2 53 3d
       -0.029403875 0.05911365 0.10795434 0.051744495
0003c0 3f 0a 17 3c 1d 83 88 3d 74 33 a4 3c e5 91 cf 3c
       0.009218751 0.06665633 0.020044066 0.025338123
0003d0 7e c1 8b bc ce 9c b0 3c 85 27 4b 3d 2e 24 03 bc
       -0.017060038 0.021559145 0.049598236 -0.008004231
0003e0 bb cd a5 3c 6e f3 b9 bc 3e 4c 3a 3d e1 93 5e bd
       0.020239701 -0.022699084 0.045482866 -0.054340247
0003f0 06 cc bb bc 60 7d 94 3d a6 35 ac bd e2 59 3b bc
       -0.022924434 0.07250476 -0.0840867 -0.011435004

bias f4 [9]
000000 4a 0c 60 3d ef 4c 90 3b ab c5 33 3d bb ed 48 3c
       0.05469922 0.0044037024 0.043889683 0.012263711
000010 29 64 94 bc d6 cb d7 bb 90 82 91 bc 8b d4 be 3c
       -0.018114166 -0.0065855784 -0.017762452 0.023294708
000020 68 ea 8a 3c
       0.016957477
