.best_processed/logs_scale_3_crop_420_leaky/epoch_24_model.pth (torch_old, 93460 bytes, 6 tensors)

weight f4 [64, 1, 5, 5]
0.13574092 0.15333663 -0.059958894 0.17176832 -0.052499793 0.027977284 -0.10501687 0.10870203
0.1667764 -0.15691099 0.16420941 0.030488616 0.14596628 0.02530773 0.092143536 -0.036225136
0.15423314 0.031047674 -0.096929274 0.04653631 -0.10244724 -0.02756338 -0.08041698 0.13248569
-0.16072595 -0.091121405 -0.05319179 -0.11797813 0.020112496 -0.19383025 0.18304676 -0.16754314
0.15941714 0.035824127 -0.0602007 0.12569168 0.03961634 0.17610013 0.028112916 -0.05709986
0.053334 -0.050301835 0.094010115 0.18363774 0.11788476 -0.08985071 0.11493547 0.03758978
0.10004179 -0.12354806 -0.08082983 0.032018065 -0.17429279 0.13082083 0.010287578 0.09350798
0.061072014 0.009591873 0.14495371 -0.16251221 -0.03917258 -0.23995782 0.05767884 -0.023731828
0.120569 0.015434842 0.36058155 -0.29286152 -0.31711796 -0.06368574 0.012038529 0.056215525
0.4087619 -0.07030703 -0.059684467 -0.011381642 -0.06136178 0.06676346 0.020542284 0.05496329
-0.03017613 -0.17547913 0.14486922 -0.10134536 0.080153026 -0.026197582 0.14507052 -0.17901716
-0.122233406 0.075181134 0.059529793 -0.055655565 0.22452824 0.18266183 -0.09363216 -0.13259995
0.1978169 -0.072587915 -0.067831114 -0.12236346 0.047773797 0.15547164 0.013013612 0.025514673
0.09605849 -0.024828406 -0.23410301 -0.08270814 -0.38149127 -0.12441805 0.101035886 0.049361516
0.63680017 -0.57341623 -0.017744118 -0.014054219 0.06851202 -0.19426273 -0.10868332 0.008065414
0.023443889 -0.0044464986 0.025978263 -0.06316441 0.03382613 -0.09978555 -0.044101994 -0.13120744
0.17118776 -0.030302403 0.16856293 0.096142836 -0.15967542 0.1500061 -0.05668174 -0.06436922
-0.14826533 -0.19943382 0.081085026 -0.037999902 0.084427506 -0.15838142 0.16606739 -0.14553647
-0.017292248 0.030795492 0.10171289 0.13914984 0.18101376 -0.16203937 0.06045073 -0.080176085
-0.0091577 -0.14512457 0.19514108 -0.13401112 0.12058964 0.09630313 0.07405638 -0.09286529
0.20418994 0.075449646 0.07330001 -0.16715293 0.11329136 -0.014861393 -0.07423923 0.21330267
0.059345048 -0.081760824 -0.08628072 0.005034473 0.13211435 -0.03397771 -0.079126045 -0.072359055
-0.15306368 0.06912143 0.15207626 -0.19148399 0.043049388 0.10296934 0.03757088 -0.07290627
0.103459485 0.10283328 0.07755345 -0.028479578 -0.052055363 0.0220734 -0.04089539 -0.060513623
0.13100027 0.1716822 -0.023703672 -0.05317477 -0.0019519873 -0.015837936 0.04344949 0.051299162
-0.13796839 -0.034111843 0.19750851 0.10484488 0.012302498 -0.0924946 -0.08667954 -0.17367382
-0.03827889 0.09865288 0.14201377 0.124897614 -0.1797079 -0.07760156 0.0032897515 0.21085055
0.06396024 -0.038894277 0.13317372 -0.042821754 -0.10325573 0.17906514 -0.057474565 0.0016541134
-0.15540609 0.05102734 0.010936896 -0.011183126 -0.16767728 -0.13194951 -0.14005394 0.18105121
0.16269265 0.257745 0.1687584 0.0683319 0.009642211 -0.16338862 -0.17108122 -0.19232644
0.071856655 -0.103342265 0.07508932 -0.06191325 0.03310069 -0.060776178 -0.06122261 0.076494195
-0.09264558 0.09522355 -0.040181298 -0.12557879 -0.001254955 -0.08249399 -0.044986047 -0.17542614
00000000: abff 0a3e 4704 1d3e 7597 75bd 09e4 2f3e
00000010: 060a 57bd 9e30 e53c 1613 d7bd 2b9f de3d
00000020: 6fc7 2a3e 46ad 20be 8326 283e 43c3 f93c
00000030: 2f78 153e 2852 cf3c c0b5 bc3d cf60 14bd
00000040: 4bef 1d3e b157 fe3c db82 c6bd dc9c 3e3d
00000050: dccf d1bd 99cc e1bc a8b1 a4bd 54aa 073e
00000060: 5895 24be dc9d babd a2df 59bd 859e f1bd
00000070: f6c2 a43c 707b 46be 9c70 3b3e 6e90 2bbe
00000080: 3f3e 233e 52bc 123d 0295 76bd 52b5 003e
00000090: be44 223d 9853 343e 0f4d e63c 8be1 69bd
000000a0: c174 5a3d 4c09 4ebd 6088 c03d 880b 3c3e
000000b0: 916d f13d a603 b8bd 4a63 eb3d bef7 193d
000000c0: b6e2 cc3d c406 fdbd 1c8a a5bd 6025 033d
000000d0: cf79 32be e5f5 053e 3b8d 283c 1d81 bf3d
000000e0: a626 7a3d 3b27 1d3c bf6e 143e 9a69 26be
000000f0: 6d73 20bd 81b7 75be a640 6c3d 4069 c2bc
00000100: e1ec f63d 6be2 7c3c 259e b83e f2f1 95be
00000110: 495d a2be ab6d 82bd 403d 453c 4042 663d
00000120: 3d49 d13e 22fd 8fbd b377 74bd 117a 3abc
00000130: 7d56 7bbd 48bb 883d 4b48 a83c 3021 613d
00000140: ee33 f7bc cdb0 33be 9958 143e 288e cfbd
00000150: 4527 a43d 509c d6bc 5e8d 143e 4650 37be
00000160: 8255 fabd 91f8 993d 83d5 733d 17f7 63bd
00000170: bbea 653e b40b 3b3e 38c2 bfbd 48c8 07be
00000180: 8390 4a3e f9a8 94bd 0aeb 8abd b299 fabd
00000190: 75ae 433d f533 1f3e 0b37 553c 2604 d13c
000001a0: 50ba c43d f164 cbbc b3b8 6fbe e362 a9bd
000001b0: d352 c3be e4ce febd e7eb ce3d 4d2f 4a3d
000001c0: 5605 233f 68cb 12bf 1d5c 91bc ab43 66bc
000001d0: 0850 8c3d cfec 46be 5c95 debd cc24 043c
000001e0: 660d c03c efb3 91bb 5ed0 d43c 585c 81bd
000001f0: 458d 0a3d 5e5c ccbd 4ba4 34bd 3e5b 06be
00000200: d84b 2f3e bf3c f8bc c39b 2c3e 89e6 c43d
00000210: f481 23be 339b 193e 1d2b 68bd 02d4 83bd
00000220: ded2 17be 6138 4cbe e80f a63d c9a5 1bbd
00000230: 54e8 ac3d bd2e 22be 920d 2a3e 8307 15be
00000240: 79a8 8dbc d446 fc3c d94e d03d 4c7d 0e3e
00000250: ac5b 393e a6ed 25be 2f9b 773d 5c33 a4bd
00000260: 2e0a 16bc 899b 14be 10d3 473e 363a 09be
00000270: b4f7 f63d 933a c53d dfaa 973d 2830 bebd
00000280: 2b17 513e 5885 9a3d 511e 963d 232a 2bbe
00000290: 4d05 e83d 337d 73bc bd0a 98bd 046c 5a3e
000002a0: cb13 733d 3872 a7bd f2b3 b0bd 38f8 a43b
000002b0: fc48 073e 362c 0bbd d60c a2bd fc30 94bd
000002c0: babc 1cbe 898f 8d3d e1b9 1b3e 6114 44be
000002d0: 8e54 303d 97e1 d23d ece3 193d e24f 95bd
000002e0: 91e2 d33d 419a d23d 58d4 9e3d 014e e9bc
000002f0: 0138 55bd 46d3 b43c ed81 27bd 22dd 77bd
00000300: ef24 063e 75cd 2f3e 342e c2bc cacd 59bd
00000310: d3d9 ffba 8fbe 81bc 18f8 313d 121f 523d
00000320: 9647 0dbe dcb8 0bbd ac3f 4a3e eab8 d63d
00000330: 6b90 493c cf6d bdbd 0b85 b1bd 8dd7 31be
00000340: 53ca 1cbd 850a ca3d 0f6c 113e 52ca ff3d
00000350: 5905 38be 91ed 9ebd df98 573b 35e9 573e
00000360: 96fd 823d 9b4f 1fbd b15e 083e dd65 2fbd
00000370: bd77 d3bd da5c 373e 736a 6bbd d6ce d83a
00000380: c622 1fbe 0b02 513d ab30 333c 6e39 37bc
00000390: 98b3 2bbe c61d 07be 4d6a 0fbe 7d65 393e
000003a0: e798 263e 27f7 833e 01cf 2c3e 98f1 8b3d
000003b0: 5dfa 1d3c 594f 27be ea2f 2fbe 39f1 44be
000003c0: 9529 933d 1ca5 d3bd 6ec8 993d bf98 7dbd
000003d0: 9794 073d 71f0 78bd 8fc4 7abd fda8 9c3d
000003e0: f7bc bdbd 9104 c33d 2595 24bd ba97 00be
000003f0: 4d7d a4ba 9cf2 a8bd 4a43 38bd e9a2 33be

bias f4 [64]
-0.19199604 0.09454498 -0.044243544 0.109965295 0.032136943 0.16554557 -0.014575943 0.04675521
0.08674618 0.120488994 0.044534873 0.014681029 -0.12727909 -0.12614122 0.16877052 -0.135941
0.031145517 -0.0058088684 0.18803003 -0.032855943 -0.08400742 -0.061958756 0.13051806 0.12590684
0.14562617 0.090762526 0.07364509 -0.20851159 0.08400011 0.09715675 0.13159105 -0.018917413
-0.032106794 0.048711676 -0.13700505 -0.15755156 -0.19317028 0.030887343 0.11195139 0.054123808
-0.018522805 0.08779627 -0.10952846 0.017969573 -0.03252637 0.013810701 0.15929915 -0.2127417
0.020019626 -0.18105385 0.036539122 -0.0816998 0.06852162 -0.06634508 0.12922491 -0.14418566
0.1495505 -0.18502429 0.094891414 0.0048624096 -0.0162463 -0.006610363 0.12014367 0.043280724
00000000: 9c9a 44be cca0 c13d b838 35bd 7c35 e13d
00000010: 07a2 033d c784 293e f0cf 6ebc 6482 3f3d
00000020: fba7 b13d efc2 f63d 336a 363d b388 703c
00000030: 7355 02be 2a2b 01be 2ed2 2c3e 1e34 0bbe
00000040: e224 ff3c 5258 bebb f28a 403e f493 06bd
00000050: 150c acbd 77c8 7dbd 87a6 053e b9ed 003e
00000060: 071f 153e b4e1 b93d 3dd3 963d 1084 55be
00000070: 4008 ac3d 1efa c63d cebf 063e b1f8 9abc
00000080: 6a82 03bd e585 473d 0d4b 0cbe 3255 21be
00000090: 6ece 45be 7407 fd3c c546 e53d edb0 5d3d
000000a0: 23bd 97bc 88ce b33d 7550 e0bd ed34 933c
000000b0: 5f3a 05bd 4746 623c 511f 233e f6d8 59be
000000c0: 3300 a43c 2e66 39be 0caa 153d 3a52 a7bd
000000d0: 1055 8c3d eedf 87bd 8953 043e 68a5 13be
000000e0: c423 193e 0277 3dbe 6e56 c23d d954 9f3b
000000f0: f616 85bc be9b d8bb e20d f63d 2147 313d

weight f4 [32, 64, 3, 3]
-0.028703919 0.015044079 -0.011823906 0.042105358 0.022597205 0.007625981 -0.012010058 0.03268018
-0.012339084 0.028748866 0.03562523 0.03677337 0.02732357 -0.020166839 0.04906395 -0.0069399644
0.0027716102 0.0031600674 -0.048877977 -0.12257765 0.08659045 0.12603612 -0.00611897 -0.028770074
-0.031762768 0.06209156 -0.13016888 -0.038397547 0.06089072 0.051276755 -0.0035389604 -0.014800641
0.012367377 0.04228352 -0.011095116 -0.039140757 -0.0372455 -0.058329877 0.049952704 -0.03674306
-0.020424912 0.012817427 0.0039500403 -0.043717805 -0.08478511 0.017936861 0.03234664 0.023091758
-0.026524859 0.024428211 0.022085212 -0.02733397 0.009908499 -0.029651897 0.014208733 -0.017868077
0.029055834 0.005587849 0.0032665762 -0.014157289 -0.031175936 0.0040799044 0.054776866 -0.019474093
0.016510487 -0.01146762 -0.006261721 0.051498443 0.033112656 -0.0058067776 0.01609066 0.02020878
0.010877867 0.01803349 0.0007256172 0.040480345 0.004654779 0.016778432 -0.02083119 -0.021953119
0.03512642 -0.020457229 -0.019291088 0.021506391 -0.023126462 0.00043063544 0.023286164 0.01745503
-0.03549075 0.043905664 0.029576173 -0.020094156 0.04829154 -0.020476177 0.054273654 0.03654113
-0.019506412 -0.033660345 -0.03893682 -0.03914664 -0.09604049 -0.031903796 0.035751887 0.04455808
-0.023546783 0.017429642 -0.03556026 0.050885774 -0.028894637 0.013345922 0.041845694 0.004503288
0.0019241672 -0.012529794 -0.023895865 -0.04084743 0.024617052 -0.017076747 -0.050063346 -0.008122706
-0.01085151 -0.020591825 8.580341e-05 0.010060335 -0.05226088 -0.045046307 -0.013582796 -0.053475488
-0.0334184 0.03040298 -0.0070982715 -0.023987021 -0.017696688 -0.041904554 0.024638342 -0.025586957
0.017428676 -0.025311016 0.014024149 0.011857476 -0.01576538 -0.03013737 -0.0075894054 -0.009583276
0.07857636 -0.0064501925 0.002922771 0.0024296339 0.0069932616 0.014973836 0.031789154 0.07357312
-0.036380637 -0.0070368107 -0.018608326 0.035727575 -0.02760734 0.03499331 0.018583396 0.012488084
0.02475435 -0.017619627 0.031996973 -0.028809983 -0.010936464 0.042034887 0.020441798 0.0039133346
-0.005710354 -0.016785543 0.029680213 -0.00023790143 0.010454291 0.009899748 0.03646052 -0.01320086
-0.0057410025 0.028121518 0.020513562 -0.020319613 -0.03621745 -0.008717832 0.011397323 -0.019014606
-0.0004367742 -0.053772707 0.009925535 -0.040177044 0.009022528 0.041280065 0.017714243 0.03979511
-0.02356181 -0.030313894 -0.031222852 0.034931887 0.021251295 -0.03474415 -0.014901705 -0.0077447235
-0.08403492 0.016466 0.016684607 0.008315337 0.0069703553 0.042803872 0.023701642 0.037869222
-0.014001177 0.0062919534 -0.0454142 0.00657323 6.4915424e-05 0.023381151 -0.0031807343 -0.0016496328
-0.035380326 -0.025776742 -0.0013731136 0.047892906 0.020078722 -0.034806747 -0.024540128 0.014101064
-0.016814433 -0.05067839 -0.00084055663 0.0004545884 -0.06578209 -0.027261488 -0.041400734 -0.035197433
-0.027741896 -0.027291588 0.03825114 -0.015498378 0.022194825 -0.02919589 -0.0151034985 0.0090171695
0.038497273 0.020947594 -0.02957391 0.0051536956 -0.02802183 0.005986928 -0.031377308 -0.00894047
0.031700242 -0.033777192 -0.036345903 0.013541156 0.005007344 -0.013686538 0.047033936 -0.02415368
00000000: 7b24 ebbc 717b 763c 0eb9 41bc ab76 2c3d
00000010: c61d b93c 5de3 f93b d6c5 44bc a7db 053d
00000020: df29 4abc be82 eb3c c3eb 113d ac9f 163d
00000030: aed5 df3c ed34 a5bc 48f7 483d a468 e3bb
00000040: e7a3 353b 2219 4f3b 4634 48bd fe09 fbbd
00000050: 5556 b13d 9d0f 013e a481 c8bb 38af ebbc
00000060: ad19 02bd b853 7e3d fe4a 05be bf46 1dbd
00000070: 8c68 793d 9307 523d e7ed 67bb 637e 72bc
00000080: 8aa0 4a3c 7c31 2d3d 4ac8 35bc 0f52 20bd
00000090: bd8e 18bd 4feb 6ebd 359b 4c3d e47f 16bd
000000a0: 2552 a7bc 2f00 523c 576f 813b 7111 33bd
000000b0: d1a3 adbd 53f0 923c e97d 043d ed2a bd3c
000000c0: a94a d9bc ac1d c83c 0cec b43c 7deb dfbc
000000d0: 4257 223c 89e8 f2bc bfcb 683c 1360 92bc
000000e0: 8006 ee3c 461a b73b 0e14 563b f9f3 67bc
000000f0: ad64 ffbc b8b0 853b b55d 603d 2288 9fbc
00000100: 0041 873c afe2 3bbc 1f2f cdbb 08f0 523d
00000110: 23a1 073d c846 bebb 8fd0 833c e28c a53c
00000120: 1539 323c f8ba 933c 5937 3e3a b8ce 253d
00000130: 1e87 983b ec72 893c 2ca6 aabc 07d7 b3bc
00000140: b9e0 0f3d eb95 a7bc 5808 9ebc 2c2e b03c
00000150: b573 bdbc e9c6 e139 a0c2 be3c dafd 8e3c
00000160: c05e 11bd 6dd6 333d bb49 f23c 809c a4bc
00000170: 5acd 453d a8bd a7bc 0d4e 5e3d 27ac 153d
00000180: e9cb 9fbc 6edf 09bd 377c 1fbd 3a58 20bd
00000190: e0b0 c4bd 8ead 02bd 9270 123d 8982 363d
000001a0: 2fe5 c0bc 9cc8 8e3c a3a7 11bd 9a6d 503d
000001b0: 72b4 ecbc dba8 5a3c 6466 2b3d 5190 933b
000001c0: 5634 fc3a c449 4dbc 43c1 c3bc a24f 27bd
000001d0: b3a9 c93c 89e4 8bbc 390f 4dbd 1915 05bc
000001e0: 88ca 31bc 30b0 a8bc 5bf1 b338 1ad4 243c
000001f0: 810f 56bd 7a82 38bd 608a 5ebc 1d09 5bbd
00000200: bbe1 08bd ac0f f93c 9e98 e8bb 6e80 c4bc
00000210: a5f8 90bc 1ca4 2bbd 59d6 c93c bd9b d1bc
00000220: 95c6 8e3c 0c59 cfbc 8bc5 653c dc45 423c
00000230: 6626 81bc a5e2 f6bc 8cb0 f8bb 2c03 1dbc
00000240: a5ec a03d 235c d3bb f68b 3f3b 7e3a 1f3b
00000250: bb27 e53b d254 753c 5835 023d 81ad 963d
00000260: dd03 15bd 0c95 e6bb 7d70 98bc 1457 123d
00000270: ca28 e2bc 2555 0f3d 353c 983c d29a 4c3c
00000280: a2c9 ca3c 0957 90bc 420f 033d ea02 ecbc
00000290: db2e 33bc c62c 2c3d 8f75 a73c 6e3b 803b
000002a0: ec1d bbbb d681 89bc eb23 f33c 2e75 79b9
000002b0: 7948 2b3c 8d32 223c a057 153d 6b48 58bc
000002c0: 051f bcbb 195f e63c 0f0c a83c 5175 a6bc
000002d0: c058 14bd 3dd5 0ebc d6bb 3a3c 85c4 9bbc
000002e0: d7fe e4b9 c540 5cbd b69e 223c af90 24bd
000002f0: 3ad3 133c 4915 293d 761d 913c 3200 233d
00000300: b204 c1bc d854 f8bc 11c7 ffbc bd14 0f3d
00000310: 3217 ae3c e24f 0ebd 4826 74bc 73c7 fdbb
00000320: 801a acbd b4e3 863c 28ae 883c 0d3d 083c
00000330: 9467 e43b 1d53 2f3d f229 c23c c21c 1b3d
00000340: 3165 65bc bb2c ce3b 3d04 3abd 4064 d73b
00000350: 3423 8838 d489 bf3c de73 50bb 7e38 d8ba
00000360: f6ea 10bd bf29 d3bc 0cfa b3ba 5a2b 443d
00000370: 227c a43c 8591 0ebd 6108 c9bc 2608 673c
00000380: 6cbe 89bc 2594 4fbd cd58 5cba d255 ee39
00000390: c3b8 86bd 7c53 dfbc d193 29bd 2f2b 10bd
000003a0: f942 e3bc 9c92 dfbc 3aad 1c3d e9ec 7dbc
000003b0: ecd1 b53c 382c efbc aa74 77bc c0bc 133c
000003c0: 51af 1d3d 4a9a ab3c fc44 f2bc 55e0 a83b
000003d0: 098e e5bc fe2d c43b 7e85 00bd 0d7b 12bc
000003e0: 1dd8 013d f459 0abd 71df 14bd badb 5d3c
000003f0: a514 a43b 803d 60bc a8a6 403d f0dd c5bc

bias f4 [32]
0.038043946 0.0240048 -0.019165205 0.016520675 0.010538316 0.01609224 0.028826216 -0.04044776
-0.003842819 -0.010589964 0.04300967 -0.01843996 0.0050832704 -0.02290279 0.012030199 -0.036244296
0.022193877 -0.036195602 -0.0044965367 -0.013402248 0.03352843 -0.021606695 -0.032766268 0.006583263
-0.043888625 -0.022474255 0.04817377 -0.037764266 -0.017428674 0.025447289 0.018890178 0.04263859
00000000: f8d3 1b3d b7a5 c43c 5900 9dbc 5e56 873c
00000010: e7a8 2c3c e0d3 833c f524 ec3c 8dac 25bd
00000020: ced7 7bbb 8781 2dbc e82a 303d 660f 97bc
00000030: 9091 a63b a29e bbbc 501a 453c e674 14bd
00000040: efcf b53c d741 14bd af57 93bb 1a95 5bbc
00000050: 1b55 093d 8600 b1bc ec35 06bd 6ab8 d73b
00000060: 8fc4 33bd ee1b b8bc dc51 453d b4ae 1abd
00000070: 94c6 8ebc d576 d03c 93bf 9a3c cda5 2e3d

weight f4 [9, 32, 3, 3]
0.057290066 0.053290296 -0.006953252 -0.02097853 0.0017449635 0.027914451 0.012513975 -0.028183257
0.059728827 -0.03745237 -0.0670987 0.04507021 -0.11081409 -0.1641653 0.032189704 0.0022878805
0.030200236 -0.00459179 0.05626841 -0.16112559 0.112629734 0.018605001 -0.017437987 0.055209983
0.004341196 -0.016474478 -0.01676557 -0.051156454 0.012298631 -0.0074785114 0.0074688727 0.034140553
0.02838221 -0.004117313 0.018054422 -0.041160405 0.0073499293 -0.07704285 0.034869723 -0.050351035
0.13919318 0.03889914 -0.028230483 -0.085930325 -0.019332089 -0.027963214 0.03207305 -0.02789906
0.05501242 0.026116233 -0.03027609 0.007429241 0.031100735 0.07063351 -0.021695286 -0.03834748
-0.027150258 0.00070213183 0.052025747 0.0007668649 0.051356487 -0.04363112 -0.06007214 0.0044732927
0.033989288 0.052493364 0.00027162262 -0.00931098 0.026468998 0.028056359 -0.062801376 -0.035710614
0.046637863 -0.010052007 -0.039185766 -0.039733876 -0.019045264 0.006081237 0.0005034421 -0.042718127
0.06535419 0.0012427582 0.06210419 -0.019781422 0.045762923 0.027608847 -0.048022054 0.034154855
0.042592052 -0.039009437 -0.0661149 -0.15299132 0.036996357 -0.06974684 -0.1418011 0.05812782
0.070261076 0.075319774 -0.012746262 -0.04698271 0.033987656 0.00136012 0.026649121 0.019785875
-0.053712998 -0.036021866 0.052591883 0.0038388472 -0.021785898 -0.056663927 -0.076190636 0.057193995
-0.033592906 0.028585928 0.030138882 0.031866975 -0.03661859 0.030499823 0.058132365 0.050592832
0.024084372 0.0062055686 -0.022101963 -0.02679454 -0.026124934 -0.0060944534 0.08320092 0.033959463
-0.03743699 0.0021359124 0.051101882 -0.015560112 -0.08671082 -0.022194743 -0.005334131 -0.015048836
0.057434924 0.00216493 0.025422644 0.03074641 -0.0042411387 -0.03064369 0.009144904 -0.008400242
0.008431462 0.041453358 -0.026510773 0.03508561 -0.0258744 0.03902939 0.02581205 0.03223351
-0.030889958 -0.06341602 0.36001435 -0.007045959 -0.036442645 -0.08565684 -0.04299702 -0.010583038
0.023377538 0.002528033 0.0084491335 0.049077235 0.0052822377 -0.020451289 0.05813902 0.02079907
-0.0062525133 -0.030136466 -0.051712945 0.057351355 0.005201141 -0.011525907 -0.00075768324 -0.020405397
0.03625474 0.0155259725 0.019983454 -0.002389354 0.019620141 0.046497688 0.035979837 0.05615423
0.020082721 0.03724318 -0.014935344 -0.035250027 0.038966723 0.0026376517 -0.0032207079 0.010689103
0.02368627 0.0013842835 0.028015273 0.05104769 -0.004104023 -0.017182466 -0.032444295 0.08844283
-0.026434487 -0.025237072 0.029498955 0.025872022 -0.05096201 0.023200216 -0.0138935875 -0.09773991
0.017016668 -0.01002482 0.08233824 0.0068768444 0.04298912 -0.048925094 -0.035395578 -0.0027604543
-0.010680289 0.03718977 -0.04540487 0.025233816 -0.028459743 -0.021552488 0.020892425 0.043068137
-0.02090474 0.004957312 -0.010980697 -0.044321552 -0.003045197 0.010503889 -0.023084436 -0.06370113
0.013137152 -0.06756596 -0.033592276 0.05070409 -0.042334814 -0.037624773 -0.069254905 0.013597429
0.057220027 -0.012989069 0.035295207 0.06941625 -0.08911216 0.016954606 0.039254572 -0.03440711
0.033223443 -0.013583318 0.015539593 -0.03883711 -0.06251518 -0.0015493274 -0.022919778 -0.060686767
00000000: fda8 6a3d ed46 5a3d 1bd8 e3bb 2bdb abbc
00000010: 42b7 e43a d9ac e43c 6a07 4d3c 93e0 e6bc
00000020: 37a6 743d a867 19bd 0b6b 89bd 8a9b 383d
00000030: 7ff2 e2bd f31a 28be 5ad9 033d 44f0 153b
00000040: 7c66 f73c ba76 96bb b479 663d 1bfe 24be
00000050: 6baa e63d 8469 983c 1cda 8ebc dd23 623d
00000060: 9740 8e3b 7cf5 86bc f357 89bc 6e89 51bd
00000070: 3280 493c 4d0e f5bb 72bd f43b f7d6 0b3d
00000080: cf81 e83c 86ea 86bb dee6 933c d097 28bd
00000090: add7 f03b a4c8 9dbd 8ed3 0e3d e33c 4ebd
000000a0: a888 0e3e b454 1f3d 9d43 e7bc 3dfc afbd
000000b0: 545e 9ebc 1c13 e5bc 085f 033d 928c e4bc
000000c0: b454 613d b6f1 d53c 9005 f8bc fe70 f33b
000000d0: f8c6 fe3c 4da8 903d 50ba b1bc 3f12 1dbd
000000e0: 386a debc 450f 383a f318 553d 6f07 493a
000000f0: 2e5b 523d 8cb6 32bd 340e 76bd b394 923b
00000100: 5a38 0b3d 4803 573d 9268 8e39 158d 18bc
00000110: 83d5 d83c 73d6 e53c 029e 80bd 4b45 12bd
00000120: 5807 3f3d 2cb1 24bc 4181 20bd fdbf 22bd
00000130: d004 9cbc 1d45 c73b 6df9 033a 34f9 2ebd
00000140: 6bd8 853d 0ce4 a23a f760 7e3d a60c a2bc
00000150: e771 3b3d f32b e23c c6b2 44bd f6e5 0b3d
00000160: 0175 2e3d 5cc8 1fbd 4067 87bd c2a9 1cbe
00000170: 7e89 173d 6ed7 8ebd 4f34 11be 7017 6e3d
00000180: 0ae5 8f3d 4141 9a3d b3d5 50bc f170 40bd
00000190: a436 0b3d 0e46 b23a 424f da3c fd15 a23c
000001a0: 2902 5cbd aa8b 13bd 966a 573d 2b95 7b3b
000001b0: 5778 b2bc 6f18 68bd d609 9cbd 4044 6a3d
000001c0: b798 09bd 092d ea3c d1e5 f63c f286 023d
000001d0: 60fd 15bd c4da f93c 341c 6e3d 6e3a 4f3d
000001e0: 974c c53c 1558 cb3b 2d0f b5bc 3980 dbbc
000001f0: f503 d6bc fbb3 c7bb 3e65 aa3d 1419 0b3d
00000200: 8757 19bd aafa 0b3b 3550 513d d7ef 7ebc
00000210: 7195 b1bd c0d1 b5bc efc9 aebb 658f 76bc
00000220: e240 6b3d 80e1 0d3b 2643 d03c e5df fb3c
00000230: 40f9 8abb 7a08 fbbc 82d4 153c 2ba1 09bc
00000240: 1d24 0a3c ffca 293d 1f2d d9bc eeb5 0f3d
00000250: 8df6 d3bc 48dd 1f3d cb73 d33c 4907 043d
00000260: f00c fdbc 42e0 81bd cd53 b83e cae1 e6bb
00000270: e244 15bd da6c afbd a51d 30bd 7b64 2dbc
00000280: 4082 bf3c 5bad 253b 3c6e 0a3c 3605 493d
00000290: 9f16 ad3b 7689 a7bc 2e23 6e3d d062 aa3c
000002a0: e2e1 ccbb c0e0 f6bc f4d0 53bd 41e9 6a3d
000002b0: 556e aa3b 28d7 3cbc 439f 46ba 3829 a7bc
000002c0: da7f 143d a660 7e3c 57b4 a33c b596 1cbb
000002d0: 6bba a03c 5c74 3e3d 985f 133d fa01 663d
000002e0: 8584 a43c 4e8c 183d 60b3 74bc 5562 10bd
000002f0: 929b 1f3d 74dc 2c3b 8312 53bb 5921 2f3c
00000300: b509 c23c d970 b53a 4980 e53c 6217 513d
00000310: 0a7b 86bb 3ec2 8cbc 4fe4 04bd 8421 b53d
00000320: 238d d8bc fabd cebc cba7 f13c 90f1 d33c
00000330: 8abd 50bd 610e be3c eea1 63bc dd2b c8bd
00000340: 8a66 8b3c 253f 24bc f4a0 a83d 2757 e13b
00000350: 5c15 303d ae65 48bd f4fa 10bd bde8 34bb
00000360: 61fc 2ebc 4d54 183d 75fa 39bd 26b7 ce3c
00000370: 6824 e9bc d88e b0bc 9726 ab3c 3768 303d
00000380: 6b40 abbc f270 a23b 62e8 33bc 848a 35bd
00000390: ee91 47bb 8118 2c3c 921b bdbc bd75 82bd
000003a0: 363d 573c 0660 8abd 0e98 09bd 18af 4f3d
000003b0: 4567 2dbd 6f1c 1abd 84d5 8dbd c0c7 5e3c
000003c0: 8c5f 6a3d 1bd0 54bc b591 103d 1b2a 8e3d
000003d0: 7080 b6bd 63e4 8a3c 67c9 203d 78ee 0cbd
000003e0: 4e15 083d 918c 5ebc c799 7e3c a913 1fbd
000003f0: f507 80bd cd12 cbba 42c2 bbbc b092 78bd

bias f4 [9]
0.054619756 0.01699445 0.050422996 0.017862918 -0.0039647226 0.0047169747 -0.0042508207 0.030049114
0.00995492
00000000: f7b8 5f3d f237 8b3c 5888 4e3d 4155 923c
00000010: 81ea 81bb da90 9a3b 784a 8bbb 8f29 f63c
00000020: f619 233c
