processed/9_logs-models_scale_3/epoch_23_model.pth (torch_old, 93448 bytes, 6 tensors)

weight f4 [64, 1, 5, 5]
000000 54 e8 ef 3d 65 b5 0c 3e a3 3c 95 bd 43 e4 26 3e
       0.11714235 0.13741072 -0.07286956 0.16298012
000010 2c 97 7c bd f2 1e 6f 3c 09 bd e9 bd 73 8a e4 3d
       -0.061667606 0.01459478 -0.11413009 0.111592196
000020 fb 93 2c 3e ae 5c 24 be f6 12 21 3e 89 f9 11 3d
       0.16853325 -0.1605098 0.1572989 0.035638366
000030 cb 24 24 3e fe d2 ba 3c 9f 1f b0 3d e9 0a 4b bd
       0.1602966 0.022805687 0.08599781 -0.04957095
000040 d6 6c 16 3e a5 63 c0 3c 62 9e e3 bd 2a 3d ff 3c
       0.14689955 0.023485014 -0.111141935 0.031157095
000050 9c 78 e1 bd 2d 47 20 bd a7 e3 c4 bd 33 ec e5 3d
       -0.110093325 -0.03913038 -0.09613734 0.11226692
000060 31 c1 38 be 88 47 cb bd ba f8 6a bd 23 51 f6 bd
       -0.18042447 -0.09925753 -0.05736611 -0.12027194
000070 47 60 76 3c 8b ce 47 be a3 2c 31 3e 2a 08 35 be
       0.015037603 -0.19512384 0.17302184 -0.17678896
000080 97 3f 23 3e 0f a8 fb 3c 2f c2 8a bd bc 0b fb 3d
       0.15942226 0.030719785 -0.06775319 0.122580975
000090 87 3b 26 3d cf c3 3a 3e 25 e5 b4 3c 9a 33 82 bd
       0.040584113 0.18238758 0.02208192 -0.063574985
0000a0 d6 dc 49 3d d1 20 53 bd c8 23 c4 3d d2 07 35 3e
       0.04928287 -0.051544968 0.09577137 0.17678764
0000b0 5c 7c e1 3d e8 94 c9 bd 78 33 e4 3d 01 7c 11 3d
       0.11010048 -0.09842855 0.111426294 0.03551865
0000c0 bc 96 be 3d fb 48 08 be 90 04 40 be fd 05 6a bd
       0.09306094 -0.1330909 -0.1875174 -0.057134617
0000d0 ee d8 1b be 31 7f 37 3e 7d 0d a2 3d 55 1f d9 3d
       -0.15219471 0.17919613 0.07912729 0.10601679
0000e0 f7 50 8e 3d 2d 19 8d 3b f9 8d 3b 3e 7a c4 fb bd
       0.069490366 0.0043059797 0.18315877 -0.12293334
0000f0 68 fa b6 3c 27 b8 12 be 08 73 74 3d 1e 61 87 bd
       0.0223362 -0.14328061 0.059680015 -0.066103205
000100 45 4d 90 3d 14 d5 bd bc d8 d6 40 3e 42 a8 08 be
       0.07045988 -0.023172893 0.18831956 -0.13345435
000110 e4 c7 ee bd 34 9d dd bd 3a 2d 55 3e 0e ae a5 3d
       -0.1165922 -0.10821 0.20818034 0.08089839
000120 45 44 4d 3e 8a 9c 1b be a1 b7 2c be 69 51 f2 bd
       0.20045574 -0.15196434 -0.16866924 -0.11831934
000130 2a bf 07 be 92 2f c9 3d 24 19 dd 3d ed ef 3a 3e
       -0.13256517 0.098235264 0.10795811 0.18255587
000140 23 e0 f0 bd 62 95 29 be 76 22 23 3e 8e 7b ac bd
       -0.11761501 -0.16560891 0.15931115 -0.08422004
000150 fd 34 25 3e 22 3e c0 bc d8 7f 2f 3e 21 62 6d be
       0.16133495 -0.023467127 0.17138612 -0.23181964
000160 e3 27 0b be 7e dc c5 3d 1d 56 9f 3d c0 37 29 bd
       -0.13589434 0.09661196 0.07780097 -0.041312933
000170 87 aa 1d 3e 84 94 3b 3e a1 aa 10 be 68 82 9f bd
       0.15397082 0.18318373 -0.1412759 -0.07788545
000180 be 11 65 3e 99 10 7b bd 4a 1d 4f bd 62 4d 1d be
       0.2237005 -0.061295126 -0.05056504 -0.1536155
000190 0a b8 0d be 68 57 d7 3c 55 f5 82 bd 81 dd 27 be
       -0.13839737 0.026286796 -0.063944496 -0.16393091
0001a0 48 43 a7 3b 06 73 1f be a2 9c 4a be be a1 0b be
       0.005104456 -0.15571222 -0.19786313 -0.13635918
0001b0 42 16 46 be 1d b6 09 be d3 b0 2e 3e c1 f9 d0 3c
       -0.19344428 -0.13448377 0.1705964 0.025509717
0001c0 b8 a2 07 3d 6b 2c 59 be 7b 88 14 be 2c 8d 9f bd
       0.033114165 -0.2120835 -0.14505188 -0.07790598
0001d0 26 70 8f 3c 4c f1 51 be a3 d1 db bd a7 f9 05 be
       0.017509531 -0.20502204 -0.107333444 -0.13083516
0001e0 d0 11 d6 3b 5b bf ad bd ed a3 fc bc 91 3a 19 be
       0.006532885 -0.08483764 -0.030839885 -0.14963748
0001f0 ea a0 06 be c6 f0 c8 bd 56 22 6d bd ae a5 25 be
       -0.13147321 -0.09811549 -0.057894073 -0.16176483
000200 99 5d 2b 3e ef 42 1d bd 39 d5 34 3e 14 e4 7d 3d
       0.16734923 -0.03839391 0.17659463 0.06198509
000210 8c 54 4c be 37 58 07 3e c0 22 7c bd fa 89 9f bd
       -0.19954127 0.13217245 -0.061556578 -0.07789989
000220 98 92 46 be c0 8b 7d be 6d 56 4b 3d ec 7b 5a bd
       -0.19391859 -0.24760342 0.04964297 -0.053340837
000230 13 f6 b0 3d 76 1a 29 be d1 ae 13 3e 4e de 19 be
       0.08640685 -0.16514 0.14422156 -0.15026209
000240 ee 92 f8 bc ee cc 33 3d 7c 66 df 3d 36 d0 26 3e
       -0.030343499 0.043896608 0.10908219 0.16290364
000250 34 9b 45 3e ac 35 23 be de 8d 5a 3d dd 7d b0 bd
       0.19297487 -0.15938443 0.05335795 -0.086177565
000260 cc d1 6a bc 23 38 16 be 7d 3b 4a 3e fd f0 17 be
       -0.014332246 -0.14669852 0.19749255 -0.14838023
000270 4b 90 ec 3d db 23 c3 3d cd 7b 8e 3d c8 94 c0 bd
       0.11550959 0.09528323 0.06957207 -0.09403378
000280 52 e8 48 3e 59 66 83 3d 5b e9 7a 3d 9b 5f 36 be
       0.19619873 0.06416006 0.0612577 -0.17809908
000290 17 9f ce 3d 1d 53 d7 bc e1 8c b7 bd be a5 4d 3e
       0.10088938 -0.026284749 -0.089624174 0.20082757
0002a0 1b ac 3e 3d e1 c7 cb bd b0 7f bf bd 77 1d e1 bb
       0.04655085 -0.09950233 -0.09350526 -0.0068699676
0002b0 ee a0 f6 3d 5b 6a 34 bd 9c 73 d1 bd 6f 68 b1 bd
       0.12042414 -0.04404674 -0.10227129 -0.08662497
0002c0 d6 37 23 be dc 49 8d 3d 67 cb 17 3e 22 0d 4d be
       -0.15939268 0.06898853 0.14823686 -0.20024541
0002d0 b5 92 0a 3d b7 39 da 3d 1c 57 25 3d ef 6a a0 bd
       0.033831317 0.106555395 0.040366277 -0.07832896
0002e0 3f 95 c6 3d 33 b0 c8 3d 17 82 a1 3d 13 6c c3 bc
       0.09696435 0.09799232 0.07886141 -0.023855245
0002f0 be 19 6b bd b6 b9 42 3c c1 b7 52 bd 74 5d 92 bd
       -0.057397597 0.011885097 -0.051444773 -0.07146731
000300 1d e7 01 3e 54 fc 26 3e d7 68 1b bd 8c 37 81 bd
       0.12685819 0.16307193 -0.03794178 -0.06309423
000310 7f 3a 17 bc 5b 04 83 bc df 8e 0f 3d 69 79 31 3d
       -0.009230255 -0.015993288 0.035048362 0.043328676
000320 12 cb 1f be b0 3a 4d bd 81 e7 42 3e ca 0c ce 3d
       -0.15604809 -0.050104797 0.19033624 0.10061033
000330 25 63 3a 3c e3 e9 c7 bd 5f 0d d8 bd 46 0f 32 be
       0.011376177 -0.09761407 -0.10549425 -0.17388639
000340 09 07 53 bd aa 7e b8 3d 16 f8 12 3e 1f 50 da 3d
       -0.05152038 0.09008534 0.1435245 0.10659813
000350 66 ab 3d be 6c c6 d8 bd 45 1a 24 bc d2 c1 57 3e
       -0.18522415 -0.10584721 -0.010016029 0.2107003
000360 7e a5 49 3d 90 44 2b bd 9f 9e d1 3d a4 fb 5a bd
       0.04923009 -0.041813433 0.10235333 -0.05346264
000370 56 f5 e7 bd 18 e8 29 3e dc 39 96 bd 3a 03 83 bc
       -0.11326091 0.16592443 -0.073352545 -0.01599275
000380 36 e2 31 be ce 12 1f 3e a6 ae 2a 3e f7 56 a4 3d
       -0.17371449 0.15534517 0.16668186 0.080244
000390 58 2a 08 be ed 2f 43 be 4d 9f 1a be ec 35 28 3e
       -0.13297403 -0.19061251 -0.15099831 0.1642682
0003a0 f6 2c d4 3d 17 88 34 3e bc 85 de 3d 53 61 72 3d
       0.10360138 0.17630039 0.108653516 0.059174847
0003b0 f9 71 62 bb 72 63 41 be ca 07 3f be e1 89 3e be
       -0.0034552796 -0.18885592 -0.18655315 -0.18607284
0003c0 4c 35 c0 3d 42 37 c5 bd 99 a6 2b bd 8a c0 ed bd
       0.093851656 -0.0962968 -0.041906927 -0.116089895
0003d0 b7 39 c8 bc 1b 98 06 be 2a 17 f7 bd d3 eb a0 3d
       -0.024441583 -0.13143961 -0.12064965 0.0785748
0003e0 d6 10 38 bd 96 08 14 3e 2b 71 86 bd ae 9f 40 be
       -0.04493793 0.144564 -0.06564554 -0.18810913
0003f0 b5 af 20 bd 9a 3b 05 be d9 15 56 bd 20 34 64 be
       -0.039230067 -0.13011017 -0.05226693 -0.22285509

bias f4 [64]
000000 8d b1 5b be e3 9f da 3d 80 5b 5f be b1 f1 53 bd
       -0.21454449 0.10675027 -0.21812248 -0.051744167
000010 52 6f c6 3c d5 0d 1d 3e f4 97 a0 bd 97 cb 75 3d
       0.024223004 0.15337308 -0.07841483 0.06000861
000020 11 c0 62 3d 5d c9 1b 3e b1 12 8a bc 3a 81 b0 3d
       0.05535895 0.15213533 -0.016854616 0.08618398
000030 fd 85 1d be 1f 73 18 be c1 aa 72 3e 62 21 3e be
       -0.15383144 -0.14887665 0.2369795 -0.18567422
000040 f2 72 9a bc 83 cc 69 bc 0d c4 58 3e e1 c8 68 bd
       -0.018853638 -0.014269951 0.21168537 -0.056832198
000050 c6 90 2a be 00 63 c0 bd 4e c3 f3 3d 03 ed f0 3d
       -0.16656789 -0.09393883 0.11902486 0.117639564
000060 0d e6 55 3e aa 97 21 bd e8 68 c3 3d 9b 49 7f be
       0.20888539 -0.03945128 0.09541494 -0.24930422
000070 3c f4 e8 3d 95 37 42 3e 23 3a 0b 3e cd 70 00 be
       0.11374709 0.18966515 0.13596396 -0.1254303
000080 b0 55 9e bd 26 14 71 3d ee 56 2e be 66 27 53 be
       -0.07731187 0.058857106 -0.17025349 -0.20620498
000090 75 1d 67 be 6d c3 ec 3c 14 55 2b 3e d6 9b 9b 3d
       -0.2256983 0.02890178 0.16731673 0.07598083
0000a0 1e c9 2d 3b 39 af 0c 3e 21 34 14 be 51 45 1a 3c
       0.002651758 0.13738717 -0.1447301 0.00941594
0000b0 7b 27 c4 bd 22 bb 1a be cd be 3d 3e 99 2d 1e be
       -0.09577843 -0.15110448 0.18529816 -0.15447082
0000c0 16 55 6b 3c be 5b 56 be cb 66 f0 bb 49 36 d1 bd
       0.014363548 -0.20933434 -0.0073364726 -0.10215432
0000d0 f7 7e af 3d 01 85 1f be cb d2 5c 3e df 72 75 be
       0.085691385 -0.1557808 0.21564786 -0.23969601
0000e0 34 a5 0b 3e 8b 21 77 be a7 24 ef 3d 0e 1d c3 bd
       0.13637239 -0.2413389 0.11676913 -0.09527026
0000f0 a4 ef b7 ba af 4d 76 bd 19 d1 31 3e 35 f4 a9 3d
       -0.001403321 -0.06013268 0.1736492 0.08298532

weight f4 [32, 64, 3, 3]
000000 e7 80 d1 bc 8e 88 a0 39 a6 42 9b bc 20 54 13 3d
       -0.02557416 0.0003061932 -0.018952679 0.0359689
000010 7e a5 08 3c 23 c4 c7 bb f4 0a 25 bc 0a 25 c9 3c
       0.008340238 -0.0060963794 -0.010073412 0.024553794
000020 ea 9a e3 bc f1 74 2f 3d 48 31 4c 3d f0 a2 3f 3d
       -0.02778383 0.042836133 0.049851686 0.04678625
000030 b1 9b 39 3d 16 46 9a 39 bb 3c 75 3d ed 8b 1e 3c
       0.045314495 0.00029425387 0.05987237 0.009676916
000040 4c 65 c1 3c 88 0c 6f 3c 41 30 5b 3c 32 6f e5 3a
       0.023607872 0.01459039 0.013378204 0.0017504452
000050 95 66 4e bc a4 0d 94 bb 70 f8 83 bd d5 22 c3 bc
       -0.0125977 -0.0045182277 -0.0644387 -0.02382032
000060 d2 9d 5a bd 39 51 a2 bb d0 7e 60 bd 33 8a 85 bc
       -0.053373165 -0.00495353 -0.054808438 -0.01630125
000070 76 39 1e 3d d2 2d 0c 3d cb 2e bd bc 6b a9 25 bd
       0.038629018 0.034223385 -0.023093602 -0.040444773
000080 c8 5b 98 3b 99 e0 5e 3c a0 21 ad bc a4 00 88 bc
       0.004649613 0.013603353 -0.021134198 -0.016601868
000090 79 c6 2f bd bf 29 e0 b9 4a 7f c5 3c 26 d0 1a bd
       -0.042913888 -0.00042755713 0.024108548 -0.037796162
0000a0 ef c3 a9 3a bc f3 60 3b 04 6a a9 3c 7d 84 9b bc
       0.001295207 0.0034324965 0.020680435 -0.018984074
0000b0 ba 61 4c bc 0d ed ba 3c ff ef 2c 3d 23 db fb 3c
       -0.012474472 0.022818113 0.042221066 0.030744141
0000c0 7c 68 b4 bc 15 c6 b9 3c 91 c6 92 3c fa 88 11 bd
       -0.022022478 0.02267746 0.01791695 -0.03553102
0000d0 b4 81 3c 3b 47 a4 9f bc 21 8d d3 3c 8f da 7d bc
       0.0028763833 -0.019487513 0.025824131 -0.015494003
0000e0 f1 e1 02 bb bd 07 7d 3c 4f 0d 4a bc b2 2d 3a bd
       -0.0019971097 0.0154437395 -0.012332275 -0.045453735
0000f0 81 a7 ae bb cb 2f c8 3c 89 94 ff 3c 79 38 11 bc
       -0.0053300266 0.024436852 0.031198757 -0.008863562
000100 83 7b f9 3c e5 ab 2f bb 0a 6c ff 3b a0 65 85 3d
       0.030454403 -0.0026805338 0.0077948617 0.06513524
000110 78 e4 2d 3d df a4 9f 3b 44 0f 01 3d 3d 29 eb 3c
       0.042454213 0.004871949 0.0315087 0.028706187
000120 1d 69 8a 38 ad 4c bb bc 91 d2 f4 bc ce 99 5d 3c
       6.599932e-05 -0.02286371 -0.029885562 0.013525439
000130 07 a0 23 bc 29 ee 2a 3c 33 9f e1 bc 88 61 0f 3b
       -0.009986884 0.010432758 -0.027541732 0.0021878202
000140 16 d6 d3 3c eb 17 79 3c fc 86 b1 3c 1d 6b 4e 3d
       0.02585892 0.015203456 0.02167081 0.05039512
000150 cd ae 2c bc e3 c5 97 3c 2a d5 2a 3d e7 f4 27 3d
       -0.010539723 0.018526977 0.041707195 0.04100504
000160 70 21 99 ba e6 5a 60 3d d9 01 00 3d 0e 48 c7 bd
       -0.0011682939 0.054774188 0.031251762 -0.0973054
000170 27 e5 2a 3d 56 87 42 bd 4e 17 00 3e 27 aa 21 bd
       0.041722443 -0.047492348 0.1250889 -0.03946891
000180 92 42 09 3c 2d a8 5d bd 28 f2 97 bc ff b5 37 bc
       0.008377688 -0.054115463 -0.018548086 -0.011212825
000190 cd ad 30 bd 67 d9 8f bc cf 4c 61 3c 47 4a f0 3c
       -0.0431345 -0.01755972 0.013751223 0.029332293
0001a0 51 09 8c 3c cf a6 96 3c b8 7e 80 3c 77 9a 09 bd
       0.017094286 0.018390087 0.015685424 -0.033594575
0001b0 db fe 43 bd 2d 62 dc ba bb e7 aa 3c 77 13 fe 3b
       -0.04785047 -0.0016813927 0.02086245 0.0077537852
0001c0 7f dd d5 bc 89 77 f7 bc eb 4a 7e bc a2 3b 24 bd
       -0.026106594 -0.030208366 -0.0155207915 -0.040095933
0001d0 6a a6 bc 3c 3a 55 ca bc 4d 0b 73 bd d8 5e 75 bc
       0.023028571 -0.024698842 -0.05933695 -0.014976226
0001e0 5d 29 81 bc 3c 97 e0 bc 53 79 93 bb 47 59 bd 3b
       -0.015766794 -0.027415864 -0.004500547 0.005778465
0001f0 ad 3b 6e bd 26 db 45 bd 3f cf 17 3c 2c 7b a5 bc
       -0.05816238 -0.0483047 0.00926572 -0.020200334
000200 50 55 1b bc c8 b3 45 3d 2e 78 f9 3b 5d e8 2b 3b
       -0.009480789 0.048267156 0.0076132035 0.0026231029
000210 fb 14 9d bc c9 c6 71 bc 32 c0 41 3d 55 82 c1 bc
       -0.019175043 -0.014756867 0.047302432 -0.023621717
000220 31 2e 36 bd ec f5 66 bd 82 a5 77 3c 64 34 32 bd
       -0.044477645 -0.056386873 0.015115144 -0.043506995
000230 9e d4 1f bd 46 d6 29 bc 50 70 16 bd 27 65 03 bd
       -0.039021127 -0.010366028 -0.036728203 -0.03207889
000240 0f 1a f8 3c 28 fc 02 bd 1e 79 15 bb cc 70 0c bd
       0.030285863 -0.031978756 -0.0022807787 -0.03428726
000250 ee 56 c2 bc 9d 96 d7 3c 92 90 11 bc 48 72 ed 3c
       -0.023723092 0.026316935 -0.008884566 0.028985158
000260 d1 13 c1 bc 62 b0 e6 bb e0 7b 2a bd 0e 78 0c 3d
       -0.02356902 -0.0070400694 -0.041622043 0.03429418
000270 53 da 1c bd 9f dc 06 3c 1a 9e 15 bc e4 2f cf 3c
       -0.038294148 0.008231311 -0.009131933 0.02529139
000280 14 97 0d 3c 53 07 9e bc 9a 10 5b 3d 0c 38 94 bb
       0.008641977 -0.019290602 0.05348263 -0.004523283
000290 47 bd 41 3c ca ab 80 3d 62 0e 4f 3d 4a 96 e2 3c
       0.011824912 0.06282766 0.050550826 0.027659554
0002a0 04 7a 48 3c 85 b4 ee 3b cf 48 52 3d a5 af 5f 3b
       0.012236122 0.007284703 0.051338967 0.0034131792
0002b0 81 e3 1c 3c 3c 83 a4 3a c5 c9 4c 3d 74 f2 83 bc
       0.0095757255 0.0012551318 0.04999711 -0.016106822
0002c0 1e 50 80 bc d7 26 10 3d 1d e5 fc 3b 1c 86 b3 bc
       -0.015663203 0.03519329 0.007717742 -0.021914534
0002d0 27 e1 5e bd 56 90 0a bd bc 07 6f 3b 1d 6a c1 bc
       -0.05441394 -0.033829056 0.0036473116 -0.023610169
0002e0 3b cd 7f bc 9a af 81 bd ed fb 09 bb 14 69 69 bd
       -0.015612896 -0.063323215 -0.00210547 -0.056984976
0002f0 54 4d 4d 3b d5 3d 33 3d c0 bf 9d ba 5d 92 19 3d
       0.0031326609 0.04376014 -0.0012035295 0.0374931
000300 0a 72 12 bd b8 08 73 bd e5 9f 6d bd c5 7d d5 3c
       -0.035753287 -0.059334487 -0.058013815 0.026060948
000310 d0 0f a1 3b e7 ef 2e bd 08 86 68 3c a5 6c 1e 3d
       0.004915215 -0.042709257 0.014192112 0.03867783
000320 b2 51 ff bc 79 56 be 3c 77 b8 8f 3c a1 40 bb 3c
       -0.031166885 0.023234593 0.017544014 0.022857966
000330 65 18 0e 3d 0f 7b 4e 3d a1 d0 b5 3c 08 b7 49 3d
       0.034691233 0.050410327 0.022194209 0.049246818
000340 ba 2d 90 3b 81 98 e3 3c c8 b4 f8 bc 97 c7 89 3c
       0.0043999823 0.02778268 -0.03035964 0.016818805
000350 b8 4c 60 39 62 c9 16 3d b0 01 5b 3c a4 15 54 3c
       0.00021390885 0.036813147 0.013367102 0.012944613
000360 75 86 15 bd 8c e8 89 bc 7c d4 54 3d d6 fa 0a 3d
       -0.03650518 -0.01683452 0.051960453 0.033930622
000370 68 13 fb 3c 1c 85 87 3b 52 de dc bb da bf 95 bb
       0.030648902 0.004135741 -0.00674037 -0.0045699896
000380 6f de d2 3c c1 f9 f8 bc 50 fb 35 3c 39 cc 35 3c
       0.02574083 -0.03039253 0.011107281 0.011096054
000390 25 b4 64 bd b6 68 95 bc a2 98 f7 bc a7 91 09 bd
       -0.05583586 -0.018238407 -0.030224148 -0.03358617
0003a0 25 90 c9 b9 6b f8 a1 bc 1d a4 64 3d eb 73 9d 39
       -0.00038445104 -0.019771775 0.055820573 0.0003003174
0003b0 81 3f 19 3d a7 b5 5c bc fe f0 5e bb 18 8e be 3c
       0.037414078 -0.013471044 -0.0034018154 0.023261115
0003c0 fb 89 45 3d c9 08 08 3d 95 64 6c bc 08 14 6b bc
       0.04822729 0.033211503 -0.0144282775 -0.014348038
0003d0 67 da 74 bd 50 0f 3d bc 4d 81 7c bd 48 06 26 bd
       -0.059778597 -0.011539295 -0.06164675 -0.040533334
0003e0 26 be 4b 3b e4 19 49 bd 95 d0 89 bd 4f 33 52 3b
       0.003108868 -0.049096957 -0.06729237 0.003207404
0003f0 52 8b 95 3c 0c 1c 8c bb 1e cf 6b 3d e0 ce 75 bc
       0.01825491 -0.0042758044 0.05757057 -0.015002936

bias f4 [32]
000000 c9 4b 92 3d 33 64 31 bd b8 5b 0a bd 29 2c 30 3d
       0.07143361 -0.043308448 -0.033778876 0.043010864
000010 4e 3e d0 bc 4c 34 1a 3d e4 ca 35 3d 8f 4d 43 bd
       -0.025420334 0.03764753 0.044382945 -0.047681388
000020 ef d5 22 bb b0 36 36 3c d3 6d f8 bb 86 19 7b bc
       -0.0024846753 0.011121437 -0.0075814514 -0.0153259095
000030 6e 44 5e 3c 71 66 05 bc 9d 54 35 3d 49 d1 05 bd
       0.01356612 -0.0081421 0.044270147 -0.032670293
000040 ef 5a 5c 3d 13 0f 42 bd 7e 41 f9 bc 62 58 15 3c
       0.05379766 -0.047377657 -0.030426737 0.00911531
000050 2c d2 2c 3d c8 73 32 bd 5c dc 9f bc 3e 7c e1 bc
       0.042192623 -0.04356745 -0.019514255 -0.027525064
000060 cc f3 47 bd 4d 15 3a bd cf 9d 2e 3d c7 9c 8a bc
       -0.048816487 -0.04543047 0.042630967 -0.01692046
000070 2b 2d 21 bd 36 2e 64 3b 7a 43 11 bc 62 7c 0e 3d
       -0.039349716 0.0034817583 -0.008866185 0.03478659

weight f4 [9, 32, 3, 3]
000000 53 3e 8d 3d e2 cc 8e 3d 77 e3 78 39 a4 ac e3 bb
       0.06896653 0.06972672 0.0002373586 -0.0069480706
000010 f5 d8 77 3c da 32 12 3d e4 a8 79 3c 9c 70 a7 bc
       0.01512741 0.035693027 0.015238021 -0.020439439
000020 71 3c 88 3d 50 03 1d bd d7 0d b9 3c 72 34 a8 bc
       0.06652153 -0.038333237 0.022589607 -0.02053282
000030 c1 cb a2 3b f5 c9 a0 bc 97 40 aa ba 11 75 39 bd
       0.004968137 -0.01962755 -0.001298922 -0.04527766
000040 48 9d f6 3b 90 d0 33 bd ba 62 2a 3d 84 64 5f bd
       0.0075260736 -0.043900073 0.04159806 -0.05453922
000050 f1 44 b4 3d 0e 60 80 bd ab f4 8d bd ac c8 b0 3d
       0.08802212 -0.06268321 -0.06931432 0.08632025
000060 af b0 27 3d 5b 7f 51 bd 8f 9f 0f bd fa 43 4d bd
       0.040939983 -0.051146846 -0.035064276 -0.050113656
000070 bb 65 aa 3c 4a 8e bd bb e8 50 59 3c b0 af 25 3d
       0.020800462 -0.0057847844 0.013263918 0.04045075
000080 38 da 23 3d 0c 16 19 3b f3 7f 99 3c d3 00 2e bd
       0.04000303 0.0023359088 0.018737769 -0.042481255
000090 da 76 07 3d 8b b1 92 bd 36 0f cd bc 1f f8 3a bd
       0.03307233 -0.0716277 -0.025031667 -0.045646783
0000a0 88 ba 5a 3c 73 7d 00 3d 8e 40 d5 3b 95 43 81 bd
       0.013350137 0.031369638 0.0065079397 -0.063117184
0000b0 37 aa ba bc ee 32 e6 bc 8a f8 14 3d 6d 45 17 bd
       -0.022786243 -0.028100457 0.036369838 -0.036931444
0000c0 a4 f9 70 3d 95 7d e2 3c 07 aa 1f bd 2a cd 94 3b
       0.058831826 0.027647773 -0.03898051 0.004541059
0000d0 c5 c3 e5 3c 09 a6 7f 3d 1a 81 38 3c f3 8b fe bc
       0.028047452 0.062414203 0.011261249 -0.031072592
0000e0 60 85 c9 bc 90 6d b6 3c 9b 53 41 3d 0f ef 5a bc
       -0.024599731 0.02226904 0.047198873 -0.01336266
0000f0 d3 80 12 3d ee 46 48 bd 48 de 8e bd 55 1e 3c 3c
       0.035767388 -0.04889577 -0.069759905 0.011481841
000100 fa 86 7e 3d 66 19 f6 3c 41 64 fd 3b 84 02 7d bd
       0.062140442 0.030041408 0.0077328985 -0.061769977
000110 0f 4c c2 3c 72 17 79 3d a7 96 8d bd 48 1c 42 bc
       0.023717908 0.060813375 -0.069135 -0.011847563
000120 52 fa 57 3d d1 8f 84 3c 97 bb 50 bd db 96 bd bc
       0.05272896 0.016181858 -0.05096015 -0.023143223
000130 3b 44 f4 ba 93 e7 58 3c 9c f6 d3 3c 7d 96 ca bc
       -0.0018636057 0.013238805 0.025874428 -0.024729962
000140 0e a6 ab 3d 05 b0 ef 3b 1a 5d 82 3d 87 ac 8c bc
       0.08381282 0.0073146843 0.06365414 -0.017172111
000150 67 4a 75 3d 0d d5 47 3d 96 bc 3d bd c9 78 1e 3d
       0.05988541 0.048787165 -0.046322428 0.03868941
000160 ac 46 20 3d 42 34 4f bd 35 d9 0d 3d 4c d9 0a bd
       0.039129898 -0.050586946 0.034630973 -0.033898637
000170 2f c0 19 bd 1b 4a 01 bd 3a d2 84 bd 4b 3f 0a 3d
       -0.037536796 -0.031564813 -0.0648541 0.033751767
000180 ab b5 07 bd 20 82 52 bd 57 12 46 3d f8 8f 30 bd
       -0.033132236 -0.051393628 0.048357334 -0.04310605
000190 45 cd 93 bb c4 1d 10 bc 38 4a f8 3c b3 28 0f bd
       -0.004510554 -0.008796159 0.030308828 -0.034950923
0001a0 f4 63 89 bd c6 ea 00 bd ba 5a 92 3d 05 48 df 3c
       -0.06708518 -0.031473897 0.07146211 0.027256021
0001b0 b5 3b ed 3c 4b 73 6c bd f7 12 a1 bd 2b dc ae 3c
       0.028959135 -0.05772714 -0.078649454 0.021345219
0001c0 b4 a5 d1 ba 26 c0 2a 3d c8 06 5e 3b 4a e0 35 3d
       -0.0015994818 0.041687153 0.0033878554 0.04440335
0001d0 a8 e8 1c bd c3 f0 11 3d b3 63 84 3d ab 8e 3f 3d
       -0.038307816 0.03563 0.064643286 0.04676692
0001e0 fe 11 bd 3c cf 75 4b 3b ac 22 bb bc 30 27 02 bd
       0.023079868 0.0031045561 -0.022843681 -0.031775653
0001f0 a6 3c 32 bd a7 e1 97 bc a8 5f 7d 36 a8 f6 af 3a
       -0.04351487 -0.018540217 3.7755617e-06 0.001342495
000200 9a 9d d4 bc 4a 45 95 bd 76 5c 22 bd 36 5e 81 bd
       -0.025954057 -0.072886065 -0.03963896 -0.063167974
000210 0b e4 a2 bd da bb 1a bd 44 74 96 bc b3 b9 fe 3c
       -0.07953652 -0.037776805 -0.018365987 0.031094408
000220 93 1a 71 3d 63 4c 01 3c d2 64 02 3d d3 24 ad 3a
       0.058863234 0.007891747 0.03183443 0.0013209827
000230 c3 6d 36 bd c5 d9 3d bc 60 27 9c bb 52 9c b0 bc
       -0.04453827 -0.011587565 -0.004765436 -0.021558914
000240 d3 9d ad 3c 89 25 6d 3d be 4b 75 bc ee 63 43 3d
       0.02119342 0.057897124 -0.014971672 0.047702722
000250 c3 d7 2f bc 20 15 65 3d 85 07 04 3d 29 70 35 3d
       -0.010732594 0.05592835 0.032233734 0.044296417
000260 f3 24 a7 bc 6d 94 1e 3d 7f 7f 15 bd 0a 91 83 bc
       -0.020403361 0.03871577 -0.036498543 -0.016060371
000270 2f eb c3 3c 7a 9f 61 bd 64 a0 05 3d 4f a2 4e 3c
       0.023915855 -0.05508373 0.032623664 0.01261194
000280 3a 4a 55 3d fd 3a 16 bd 88 0b c1 ba 15 d1 3d 3d
       0.05207274 -0.03667735 -0.0014728168 0.046341974
000290 8a b6 27 bc e1 f7 a2 3d af b4 34 3e 1d e5 c7 bc
       -0.010236392 0.079574354 0.1764705 -0.024401242
0002a0 a8 72 e1 37 8c 54 f8 bc 9e a7 a7 bc 28 42 92 3d
       2.6875481e-05 -0.030313753 -0.020465668 0.071415246
0002b0 42 47 22 3c 05 03 65 3b 4a 89 d8 3b f6 90 b0 bc
       0.0099046845 0.0034944427 0.006608163 -0.021553498
0002c0 8e f6 34 3d fe 26 58 3c 3d f8 99 3c 11 ce 88 bb
       0.044180445 0.01319289 0.018795127 -0.0041749557
0002d0 b1 7d 1f 3c 3e 7a 74 3d c4 de b0 3c 86 c9 60 3d
       0.009734557 0.05968689 0.021590598 0.054879688
0002e0 94 20 57 3d f6 5c 1b 3d e0 cc 12 3b 22 dd 3c bc
       0.052521303 0.03793045 0.0022399947 -0.011527332
0002f0 5d e8 31 3d 0e 2f b8 3c 5a 36 3f 3c d7 ac e1 bb
       0.04343449 0.022483375 0.011670673 -0.006887059
000300 85 23 b9 3c 07 a5 9e bc 8e a8 a3 bb 29 68 04 3d
       0.022599945 -0.0193658 -0.0049944585 0.032325897
000310 e6 9b 92 bc 15 65 02 3c 02 f5 14 bd 06 a9 1c 3d
       -0.017896604 0.00795867 -0.03636647 0.03824713
000320 f9 45 17 bd b5 fe d4 3a b2 b6 cc bc 78 4d a8 3c
       -0.036931966 0.0016250225 -0.02498946 0.020544752
000330 01 ec 43 bd ed a7 2c bc 6a 3b f5 bc 3b da 5d bd
       -0.047832493 -0.0105380835 -0.029935557 -0.0541632
000340 7c cf fd 3b b9 ca a8 3c 26 27 1a bd 8f a2 1b bd
       0.0077456813 0.020604478 -0.03763499 -0.037996825
000350 a5 23 1b 3d fe e7 35 bc f3 bc e6 3c 4e 5e cc bc
       0.03787579 -0.0111026745 0.02816627 -0.024947312
000360 c8 34 09 bb 75 ba ef 3c 19 d7 13 bd ac 86 7e 3c
       -0.0020936 0.029263714 -0.036093805 0.015535038
000370 dd cf ed bc c7 13 60 bc 28 d6 b8 3b 1b a7 32 3d
       -0.029029781 -0.01367659 0.005640764 0.043616395
000380 fe 9c 64 bc 5a b7 88 bb 03 85 38 bc 43 09 0f bd
       -0.0139534455 -0.004172248 -0.011262181 -0.034920942
000390 93 79 c9 bb d0 52 c5 bb b3 60 16 bd 80 38 fb bc
       -0.006148526 -0.006021835 -0.036713313 -0.03066659
0003a0 fb 73 20 3d e3 23 34 bd 18 38 fd bc 5a 93 52 3d
       0.039173108 -0.043979537 -0.030910537 0.051410057
0003b0 93 7d 61 bd 95 f3 e4 bc 5a a4 db bc c0 52 2e bd
       -0.055051398 -0.02794818 -0.026811767 -0.042559385
0003c0 71 94 3b 3d 6a d3 ec bc c8 8c c1 3c 0a cf ce bc
       0.04579586 -0.028909404 0.0236267 -0.025245208
0003d0 15 97 a9 bc e8 6d 36 3c 83 a3 7b 3d f8 56 01 bd
       -0.020701924 0.011134602 0.061435234 -0.03157708
0003e0 b3 38 6b 3c 43 a6 e1 bb 52 5f f7 3c a5 fd 55 bd
       0.01435678 -0.006886275 0.03019682 -0.052243847
0003f0 af af e7 bc 37 9a ba 3b 53 85 5d bd 9c 2b 82 bd
       -0.028282015 0.0056946534 -0.054082226 -0.06355974

bias f4 [9]
000000 13 fa bb 3d f1 74 ee 3c 46 a1 9b 3d 43 4a 50 3d
       0.09178557 0.029108496 0.0759912 0.05085207
000010 a9 94 ab 3b f5 b5 58 3c 9b 1e 60 3c 31 f3 73 3d
       0.0052362275 0.013226976 0.013679172 0.059558097
000020 da 62 4c 3d
       0.04989896
