processed/9_logs-models_scale_3/epoch_2_model.pth (torch_old, 93448 bytes, 6 tensors)

weight f4 [64, 1, 5, 5]
0.12298773 0.14168988 -0.0676524 0.16392499 -0.06429945 0.016355341 -0.1130048 0.107049085
0.16398591 -0.16270411 0.15571211 0.03210327 0.14865164 0.020454638 0.083105855 -0.050549056
0.14343098 0.022719199 -0.10898342 0.031674284 -0.11788489 -0.04113946 -0.09633431 0.1117698
-0.18095297 -0.10948429 -0.06993271 -0.13011341 0.004920728 -0.20790744 0.16286889 -0.18300146
0.1480602 0.020796245 -0.07724667 0.11313902 0.030532781 0.1653919 0.014980203 -0.0721804
0.039825596 -0.05951894 0.08514214 0.17015812 0.10402363 -0.105914526 0.103183344 0.027430087
0.087410666 -0.13829643 -0.17235543 -0.054688197 -0.13735491 0.1846826 0.080340706 0.10692872
0.07458377 0.008708177 0.17641239 -0.12264437 0.029111661 -0.12992898 0.06024837 -0.06367727
0.06822525 -0.020264192 0.185801 -0.11470707 -0.11182736 -0.10511647 0.19961888 0.08580818
0.20255032 -0.15045406 -0.17671075 -0.13511653 -0.118263744 0.09457937 0.087861314 0.18502572
-0.09258536 -0.12745485 0.11502951 -0.07003974 0.1473306 -0.030457344 0.123911835 -0.16116321
-0.10093074 0.0822724 0.063750625 -0.032978024 0.13520056 0.15481898 -0.12240053 -0.09151168
0.1996057 -0.06041485 -0.05804425 -0.17645204 -0.07343659 0.08678514 0.0056182323 -0.11190844
0.04315562 -0.088808246 -0.123814866 -0.06393091 -0.12866442 -0.084816135 0.2373404 0.082222596
0.09739917 -0.14634229 -0.090408884 -0.019921517 0.074969776 -0.13833112 -0.043987725 -0.07423714
0.053302515 -0.029732384 0.03105104 -0.08963792 -0.08903464 -0.10254168 -0.06356508 -0.1677439
0.16461435 -0.04040034 0.17860736 0.055446513 -0.19164631 0.1305473 -0.05897133 -0.07609736
-0.1842917 -0.22959602 0.04680203 -0.050457418 0.08916268 -0.16293724 0.14077333 -0.14691606
-0.032956675 0.05314646 0.111010045 0.16422312 0.18738604 -0.15655424 0.05602825 -0.077826604
-0.00840326 -0.1408754 0.19798945 -0.13942751 0.119055554 0.0902484 0.07353049 -0.09120725
0.19487101 0.06335122 0.05383656 -0.16685161 0.101238884 -0.023655556 -0.08217144 0.19184229
0.05370252 -0.09619606 -0.09677325 -0.0060015684 0.1246563 -0.0398636 -0.10082134 -0.09341776
-0.16499284 0.058787595 0.14036809 -0.2033782 0.030026603 0.0968625 0.03145432 -0.08125719
0.09277992 0.091628656 0.07010874 -0.03289411 -0.0603524 0.009691234 -0.055000365 -0.07279209
0.12120519 0.15962723 -0.03726481 -0.06513126 -0.0130312545 -0.02108031 0.033379655 0.038803034
-0.16020124 -0.053018596 0.18507919 0.09841781 0.012549855 -0.10107064 -0.10599269 -0.16982423
-0.051482536 0.08672333 0.14230576 0.10299416 -0.17581421 -0.109569296 -0.014124006 0.21006115
0.04557734 -0.042472854 0.09596745 -0.05746109 -0.11191458 0.16351336 -0.07568775 -0.022236638
-0.17672223 0.14416921 0.159478 0.073722266 -0.13580798 -0.19237608 -0.15174867 0.15857033
0.09672663 0.17211457 0.11045749 0.05829406 -0.004864238 -0.17060722 -0.17890202 -0.18422464
0.09548188 -0.09357797 -0.04659253 -0.1165064 -0.029015377 -0.12506168 -0.11999734 0.073250785
-0.049622636 0.13786004 -0.065332755 -0.15868965 -0.045366395 -0.10981553 -0.0675908 -0.19308499
00000000: fee0 fb3d 2717 113e 578d 8abd f4db 273e
00000010: 6eaf 83bd a3fb 853c 106f e7bd 8d3c db3d
00000020: eceb 273e e89b 26be ff72 1f3e b87e 033d
00000030: 2338 183e 7c90 a73c 6733 aa3d 870c 4fbd
00000040: 92df 123e 9d1d ba3c b332 dfbd e5bc 013d
00000050: a26d f1bd da81 28bd ec4a c5bd 91e7 e43d
00000060: bc4b 39be 4d39 e0bd e138 8fbd 733c 05be
00000070: 0f3e a13b b0e5 54be 1ac7 263e bc64 3bbe
00000080: 189d 173e e35c aa3c 8133 9ebd 6eb5 e73d
00000090: e21f fa3c 7f5c 293e 866f 753c 51d3 93bd
000000a0: 2a20 233d 22ca 73bd 015f ae3d ee3d 2e3e
000000b0: 570a d53d b7e9 d8bd ca51 d33d 10b5 e03c
000000c0: 5d04 b33d 949d 0dbe f17d 30be bb00 60bd
000000d0: c4a6 0cbe 6f1d 3d3e ab89 a43d 72fd da3d
000000e0: 60bf 983d beac 0e3c 73a5 343e f92c fbbd
000000f0: 947b ee3c 1a0c 05be ffc6 763d 3b69 82bd
00000100: aeb9 8b3d 1701 a6bc 9e42 3e3e 8aeb eabd
00000110: be05 e5bd 4e47 d7bd e468 4c3e 33bc af3d
00000120: 5a69 4f3e a110 1abe aaf3 34be fd5b 0abe
00000130: 4334 f2bd d4b2 c13d a2f0 b33d 6277 3d3e
00000140: 659d bdbd 8683 02be 9794 eb3d ff70 8fbd
00000150: d5dd 163e ae81 f9bc 7dc5 fd3d f807 25be
00000160: c7b4 cebd 6f7e a83d b08f 823d f713 07bd
00000170: 0472 0a3e de88 1e3e 21ad fabd 7a6a bbbd
00000180: 7065 4c3e 9075 77bd cfbf 6dbd d8af 34be
00000190: ec65 96bd 68bc b13d 2619 b83b 4130 e5bd
000001a0: f3c3 303d 19e1 b5bd a692 fdbd 35ee 82bd
000001b0: 9bc0 03be 15b4 adbd 5d09 733e 5264 a83d
000001c0: 3779 c73d c1da 15be 4b28 b9bd 7332 a3bc
000001d0: c189 993d aca6 0dbe 792c 34bd a409 98bd
000001e0: bd53 5a3d 5491 f3bc c05e fe3c 1694 b7bd
000001f0: cb57 b6bd 5f01 d2bd 692e 82bd 0fc5 2bbe
00000200: aa90 283e d47a 25bd d9e4 363e e21b 633d
00000210: ee3e 44be 31ae 053e ec8b 71bd efd8 9bbd
00000220: f7b6 3cbe 381b 6bbe 7cb3 3f3d 70ac 4ebd
00000230: ec9a b63d 05d9 26be e226 103e 2a71 16be
00000240: 94fd 06bd 1ab0 593d 3c59 e33d 1b2a 283e
00000250: 20e2 3f3e c14f 20be e17d 653d 8e63 9fbd
00000260: d4ad 09bc a441 10be bfbd 4a3e 16c6 0ebe
00000270: 66d3 f33d 27d4 b83d 2797 963d deca babd
00000280: 448c 473e 49be 813d ba83 5c3d 26db 2abe
00000290: 5556 cf3d 4cc9 c1bc 8049 a8bd 4e72 443e
000002a0: 2cf7 5b3d 7102 c5bd 0e31 c6bd cea8 c4bb
000002b0: cd4b ff3d 0448 23bd 6b7b cebd d051 bfbd
000002c0: e2f3 28be 43cb 703d a7bc 0f3e 6042 50be
000002d0: 5afa f53c d95f c63d 3fd6 003d 2b6a a6bd
000002e0: 6603 be3d cea7 bb3d 2c95 8f3d f9bb 06bd
000002f0: 1434 77bd fbc7 1e3c 1048 61bd 0514 95bd
00000300: 6d3a f83d 5275 233e fca2 18bd 8a63 85bd
00000310: 0b81 55bc 9db0 acbc 1bb9 083d eeef 1e3d
00000320: cb0b 24be 072a 59bd 6685 3d3e 478f c93d
00000330: e89d 4d3c 20fe cebd b212 d9bd 67e6 2dbe
00000340: 5adf 52bd 009c b13d 9ab8 113e 9aee d23d
00000350: a408 34be de65 e0bd 6068 67bc 451a 573e
00000360: 4eaf 3a3d 04f8 2dbd 958a c43d 525c 6bbd
00000370: 7933 e5bd 0c70 273e 2e02 9bbd 9c29 b6bc
00000380: acf6 34be 18a1 133e 334e 233e b3fb 963d
00000390: 3f11 0bbe 3cfe 44be 0164 1bbe 4360 223e
000003a0: 9d18 c63d cd3e 303e 8937 e23d c1c5 6e3d
000003b0: 3064 9fbb a9b3 2ebe 1732 37be 62a5 3cbe
000003c0: 018c c33d cfa5 bfbd cfd7 3ebd e89a eebd
000003d0: a8b1 edbc 2b10 00be 2ac1 f5bd 8204 963d
000003e0: 1b41 4bbd 2f2b 0d3e 2ecd 85bd 8a7f 22be
000003f0: 1dd2 39bd f7e6 e0bd 0c6d 8abd 12b8 45be

bias f4 [64]
-0.18754712 0.09885648 -0.1737236 -0.017265236 0.042472403 0.13004394 -0.06002613 0.05187573
0.040540047 0.11682749 0.0041117687 0.08420497 -0.11983208 -0.13339922 0.16502374 -0.12623852
-0.024491884 -0.021533113 0.19895107 -0.041057717 -0.14299618 -0.058320932 0.10105195 0.07777107
0.16309983 -0.035965048 0.08554018 -0.19775026 0.072761185 0.0890601 0.121906176 -0.1056043
-0.057186306 0.050490677 -0.14473881 -0.16005841 -0.19246955 0.021898445 0.11481179 0.04940657
0.0094204685 0.07204915 -0.12748514 0.008264334 -0.036279693 -0.08092628 0.17531429 -0.14826143
0.020155655 -0.16832642 -0.00288645 -0.09269556 0.0699642 -0.105995305 0.123918615 -0.15988885
0.120640464 -0.13070154 0.0958938 -0.07082549 -0.012552394 -0.030257853 0.124341495 0.055126682
00000000: 5a0c 40be 4475 ca3d 99e4 31be d36f 8dbc
00000010: 8bf7 2d3d 3d2a 053e f6dd 75bd a57b 543d
00000020: 520d 263d 4043 ef3d 04bc 863b a873 ac3d
00000030: 866a f5bd ce99 08be fcfb 283e ac44 01be
00000040: 34a3 c8bc 3666 b0bc d4b9 4b3e 232c 28bd
00000050: 976d 12be eee1 6ebd 53f4 ce3d 7046 9f3d
00000060: a403 273e 1650 13bd b12f af3d 0b7f 4abe
00000070: d103 953d 2465 b63d f2a9 f93d 1147 d8bd
00000080: 303c 6abd 50cf 4e3d 6936 14be 5ae6 23be
00000090: bd16 45be 5e64 b33c 7222 eb3d 8b5e 4a3d
000000a0: 4f58 1a3c 818e 933d 778b 02be 2167 073c
000000b0: 049a 14bd adbc a5bd 9785 333e d8d1 17be
000000c0: 791d a53c c35d 2cbe 982a 3dbb 2bd7 bdbd
000000d0: 6449 8f3d 1114 d9bd 0bc9 fd3d e7b9 23be
000000e0: 5912 f73d a0d6 05be f863 c43d f40c 91bd
000000f0: 8ea8 4dbc 51df f7bc c1a6 fe3d 84cc 613d

weight f4 [32, 64, 3, 3]
-0.028635731 0.010191116 -0.019636653 0.032409355 0.011687607 -0.0043806164 -0.016477702 0.022537654
-0.022603007 0.030119848 0.033960942 0.036669947 0.027385345 -0.020062212 0.044892874 -0.0020365748
0.001981312 0.0049892073 0.01996506 0.02071778 -0.0018668418 0.008301069 -0.047826514 -0.009579921
-0.04413978 0.0065101096 -0.0424209 -0.017974438 0.02584338 0.03453097 -0.026625866 -0.031049434
0.0016522006 0.012387707 -0.017481687 -0.018827736 -0.029552674 0.014131819 0.037983418 -0.024139123
0.013868748 0.015189029 0.03017391 -0.009692051 -0.0036094072 0.023642182 0.0344865 0.028641328
-0.014424342 0.028846763 0.016184676 -0.021462636 0.008910836 -0.024596438 0.024063919 -0.019338816
-0.001706492 0.021997156 -0.032143567 -0.04044246 -0.023234274 0.018691737 0.02240874 -0.017526252
0.017731763 -0.0151702985 -0.0055796523 0.049824167 0.03217418 -0.004498283 0.015943993 0.019700358
0.0044103037 -0.019231068 -0.029351152 0.020749839 -0.004697252 0.00957298 -0.022656232 0.0083108265
0.023740362 0.015664902 0.008035209 0.033942204 -0.005319827 0.005629475 0.030973181 0.034347184
-0.021407107 0.037023623 0.032238897 -0.025620895 0.024732329 -0.009270521 0.04802911 0.027745394
-0.0146219805 -0.024123786 -0.035838775 -0.010563848 -0.041946985 -0.016829625 0.008246241 0.023135796
0.017628297 0.018925367 0.013842008 -0.030979222 -0.029278236 0.014728378 0.0412877 0.01091011
0.0031375652 -0.013108111 -0.015897386 -0.034359626 0.036536645 -0.012634784 -0.044450838 -0.0010217201
-0.0032738014 -0.012484425 0.008413105 0.016685737 -0.045633614 -0.037400912 0.00031637252 -0.035931922
-0.031111961 0.04139035 -0.0034662094 -0.015101247 -0.011321181 -0.026293613 0.039895087 -0.013192418
-0.024110299 -0.04551231 0.024473423 -0.010280398 -0.016914947 -0.00685744 -0.028116869 -0.014337144
0.031070895 -0.030487945 -0.0016617691 -0.039642524 -0.028357811 0.028288374 -0.0054563526 0.03517822
-0.014771448 -0.014772642 -0.01498257 0.039262433 -0.024535194 0.036229357 0.018691307 0.0156038245
0.021522395 -0.01653295 0.03655054 -0.023150014 -0.0039909924 0.046679977 0.028920682 0.009352446
0.000627577 -0.010977975 0.037472524 0.0028078535 0.012482465 0.01480028 0.037663322 -0.008922443
-0.004904333 0.037363067 0.029415961 -0.014080263 -0.050672945 -0.008255245 0.015307312 -0.0069767856
0.011500097 -0.044873904 0.0087877475 -0.038719025 0.0130554475 0.036288388 0.01508616 0.04061646
-0.023061326 -0.03314828 -0.036288645 0.03111869 0.018334324 -0.02805684 0.017165078 0.032747336
-0.04699743 0.022931756 0.00097509247 -0.0023589877 0.02857996 0.03356845 0.0144309765 0.034956265
0.009768442 0.010032863 -0.037020706 0.0011205176 -0.013896153 0.026351042 -0.0008714324 0.0022748294
-0.039929107 -0.029164206 0.03272665 0.024783252 0.0205117 -0.009718538 -0.006000003 -0.015018872
0.021822 -0.023155788 0.019235754 0.022090767 -0.043853223 -0.0067609567 -0.016164176 -0.026961047
0.009693616 -0.012753088 0.044439718 -0.013753949 0.025900012 -0.026069835 -0.012037433 0.011386445
0.04213172 0.028447757 -0.024369994 -0.0023773937 -0.030638272 0.0062088887 -0.038199656 -0.011991143
0.03079056 -0.03862832 -0.047048688 0.009638087 0.01966251 -0.0049757557 0.05198195 -0.015856182
00000000: 7b95 eabc a3f8 263c 0cdd a0bc acbf 043d
00000010: 607d 3f3c 468b 8fbb 3ffc 86bc e3a0 b83c
00000020: f129 b9bc e6bd f63c a11a 0b3d 3a33 163d
00000030: 3b57 e03c 8259 a4bc 97e1 373d 0e78 05bb
00000040: e6d8 013b 817c a33b c48d a33c 55b8 a93c
00000050: d1b0 f4ba 3501 083c bce5 43bd 1af5 1cbc
00000060: eacb 34bd c252 d53b 8ac1 2dbd 213f 93bc
00000070: 7fb5 d33c 5970 0d3d 7d1e dabc 625b febc
00000080: a78e d83a cff5 4a3c c135 8fbc a03c 9abc
00000090: 7318 f2bc 2589 673c 8094 1b3d 69bf c5bc
000000a0: bf39 633c 68db 783c 472f f73c 69cb 1ebc
000000b0: ce8b 6cbb 40ad c13c b741 0d3d 38a1 ea3c
000000c0: 1354 6cbc 0c50 ec3c ba95 843c 69d2 afbc
000000d0: c1fe 113c 787e c9bc b221 c53c 706c 9ebc
000000e0: 5fac dfba 6133 b43c f9a8 03bd fea6 25bd
000000f0: ce55 bebc 6a1f 993c 8992 b73c 3793 8fbc
00000100: 3442 913c d88c 78bc 84d5 b6bb 6d14 4c3d
00000110: 13c9 033d 5566 93bb fa9c 823c a562 a13c
00000120: 4f84 903b 798a 9dbc d471 f0bc 91fb a93c
00000130: 68eb 99bb fdd7 1c3c 9099 b9bc 222a 083c
00000140: 267b c23c ae53 803c 1ca6 033c fb06 0b3d
00000150: f151 aebb 7677 b83b 78bb fd3c a2af 0c3d
00000160: f55d afbc 15a6 173d ef0c 043d e9e2 d1bc
00000170: 749b ca3c 62e3 17bc 2cba 443d 4f4a e33c
00000180: 0891 6fbc 3f9f c5bc aecb 12bd fd13 2dbc
00000190: 9ad0 2bbd 48de 89bc 3e1b 073c 4887 bd3c
000001a0: 3869 903c 5f09 9b3c 97c9 623c 23c8 fdbc
000001b0: e9d8 efbc 4b4f 713c 4b1d 293d 51c0 323c
000001c0: 9c9f 4d3b 67c3 56bc 3c3b 82bc aebc 0cbd
000001d0: 73a7 153d 2002 4fbc 1512 36bd 3deb 85ba
000001e0: 468d 56bb 798b 4cbc 1fd7 093c 87b0 883c
000001f0: 50ea 3abd b331 19bd cdde a539 5a2d 13bd
00000200: 83de febc ed88 293d 5829 63bb 386b 77bc
00000210: 7a7c 39bc b465 d7bc 0869 233d 0325 58bc
00000220: f682 c5bc 1e6b 3abd 7d7c c83c 1d6f 28bc
00000230: 3791 8abc 60b4 e0bb 5955 e6bc 57e6 6abc
00000240: 6488 fe3c dbc1 f9bc b8cf d9ba 3360 22bd
00000250: a44e e8bc 05bd e73c 34cb b2bb 0a17 103d
00000260: f203 72bc f408 72bc 7479 75bc a5d1 203d
00000270: 08fe c8bc 3c65 143d 831e 993c 2fa7 7f3c
00000280: bc4f b03c 1c70 87bc 05b6 153d 19a5 bdbc
00000290: dfc6 82bb 8133 3f3d 11eb ec3c 003b 193c
000002a0: fb83 243a f7dc 33bc ca7c 193d f703 383b
000002b0: 4183 4c3c e07c 723c db44 1a3d 702f 12bc
000002c0: 87b4 a0bb 040a 193d bef9 f03c e7b0 66bc
000002d0: 6f8e 4fbd 0241 07bc 85cb 7a3c 859d e4bb
000002e0: e76a 3c3c b3cd 37bd 7cfa 0f3c d797 1ebd
000002f0: 84e6 553c 22a3 143d f12b 773c 725d 263d
00000300: 1beb bcbc 7ec6 07bd 67a3 14bd 9fec fe3c
00000310: dd31 963c 75d7 e5bc c79d 8c3c 1222 063d
00000320: 6180 40bd 61db bb3c 599d 7f3a 3f99 1abb
00000330: 8520 ea3c 127f 093d e76f 6c3c 4d2e 0f3d
00000340: d10b 203c e160 243c 06a3 17bd 55de 923a
00000350: b1ac 63bc 24de d73c d770 64ba 4e15 153b
00000360: b48c 23bd c6e9 eebc 610c 063d 3f06 cb3c
00000370: 2708 a83c 813a 1fbc ac9b c4bb b711 76bc
00000380: 0dc4 b23c 35b1 bdbc 4d94 9d3c b2f7 b43c
00000390: 709f 33bd 048b ddbb bc6a 84bc 6add dcbc
000003a0: f9d1 1e3c 54f2 50bc 6c06 363d 3e58 61bc
000003b0: 432c d43c 6890 d5bc a738 45bc 368e 3a3c
000003c0: 4f92 2c3d 450b e93c 95a3 c7bc 0cce 1bbb
000003d0: 1dfd fabc ef73 cb3b 3e77 1cbd 8076 44bc
000003e0: 7c3c fc3c bb38 1ebd 20b6 40bd 11e9 1d3c
000003f0: 4613 a13c aa0b a3bb 06eb 543d d3e4 81bc

bias f4 [32]
0.046820246 -0.016038772 -0.02125813 0.022328362 -0.022969214 0.019331722 0.033346687 -0.039631512
-0.0057594646 -0.004964221 0.01727942 -0.0267497 0.0032392545 -0.021864666 -0.025717586 -0.031044906
0.02847062 -0.03975639 0.002896673 -0.005939652 0.03294647 -0.04091038 -0.02242568 -0.019193789
-0.03990356 -0.034266196 0.031681586 -0.028384976 -0.027265139 0.02308038 0.01170335 0.026439922
00000000: 96c6 3f3d be63 83bc 8825 aebc f8e9 b63c
00000010: ef29 bcbc 8f5d 9e3c 8996 083d a754 22bd
00000020: e4b9 bcbb e7aa a2bb 928d 8d3c 3022 dbbc
00000030: ac49 543b 871d b3bc b0ad d2bc e351 febc
00000040: 383b e93c 99d7 22bd 1cd6 3d3b 6aa1 c2bb
00000050: e1f2 063d a591 27bd 0fb6 b7bc 4b3c 9dbc
00000060: ea71 23bd b65a 0cbd 8dc4 013d 9c87 e8bc
00000070: 245b dfbc 1113 bd3c 68bf 3f3c 8998 d83c

weight f4 [9, 32, 3, 3]
0.0615154 0.05780247 -0.006654752 -0.015095576 -0.0014373749 0.02284777 0.012976904 -0.027440526
0.06054403 -0.029319717 0.032631025 -0.008372133 0.0119475825 -0.0057374453 0.012651922 -0.04315414
0.016154595 -0.042790286 0.052494872 -0.014903834 0.037454825 -0.051646758 -0.041478995 0.060231548
0.05222845 -0.053560577 -0.031964086 -0.04693404 0.018060615 -0.0058229626 0.010509644 0.03107312
0.027615981 0.0014588933 0.018191347 -0.038610872 0.040339984 -0.06286382 -0.037094243 -0.038620364
-0.037502084 0.011412482 0.019649314 -0.03176707 -0.02223545 -0.026151402 0.033133604 -0.033612914
0.056857135 0.025393156 -0.039512184 0.004975276 0.028039245 0.06684276 -0.0058950773 -0.035023678
-0.033607673 0.031610206 0.045812633 -0.0019128779 0.045770887 -0.04785737 -0.059570335 0.0053932
0.041117676 0.055401687 -0.003835987 -0.017351722 0.021933002 0.03221634 -0.063057385 -0.030277012
0.0620756 0.0063670417 -0.03438146 -0.030018963 -0.012680683 0.008322388 0.013262868 -0.032297943
0.075423725 0.0152187 0.06595751 -0.016367368 0.05743268 0.032065906 -0.04413332 0.045828532
0.045212764 -0.038273904 0.040671233 -0.023104463 -0.033259038 -0.027476605 -0.0504793 0.042656384
-0.029931799 -0.046337802 0.046790708 -0.061257716 -0.031237464 0.014044495 0.037973315 -0.029020283
-0.039525326 -0.02986465 0.04913874 0.009662491 -0.022298872 -0.038515426 -0.071711354 0.026937976
-0.026026782 0.008988454 0.03589708 0.055716097 -0.04058737 0.042596053 0.06598349 0.052103262
0.028811177 0.0065299533 -0.025383798 -0.026120285 -0.030020997 -0.010000989 0.025550393 0.045397203
0.016135307 -0.03172702 -0.00480607 -0.034041964 -0.04049776 -0.019027917 -0.005097786 -0.011371274
0.018164458 0.0014602363 0.026553607 -0.00043954086 -0.060178265 -0.015790261 0.008176602 -0.06417912
0.008293169 0.04618771 -0.028399479 0.035935845 -0.024865028 0.037376218 0.028590145 0.034504388
-0.026561202 0.017455049 -0.050626088 -0.03685267 0.014899344 -0.053731654 0.020776741 0.018791748
0.04651263 -0.04594015 0.019912077 0.050085858 0.0041332906 0.01464016 0.07820439 0.020252906
0.024754003 -0.014124652 -0.050994236 0.06415814 0.012741795 -0.002577031 0.008181881 -0.016123902
0.042185903 0.01929855 0.021378469 0.0023959903 0.03504035 0.072954625 0.04924131 0.07304742
0.047665574 0.05273742 -0.0017842874 -0.025236648 0.045649976 -0.013108979 -0.016989263 -0.004438297
0.01669515 -0.012022996 0.009967797 0.04829001 -0.0147750005 -0.02143045 -0.012539126 0.050971135
-0.015331394 0.018474165 -0.028465737 0.021766184 -0.042053003 0.013960844 -0.027318237 -0.06658001
-0.0092411665 0.011292555 -0.047751255 -0.039420217 0.032057907 -0.014200074 0.029329957 -0.040394768
-0.015950456 0.029134575 -0.057005 0.014723902 -0.037359145 -0.026396034 0.005997377 0.028525148
-0.03301018 -0.0075804563 -0.017810956 -0.046816785 -0.019649187 -0.0078856535 -0.037277266 -0.039028868
0.03321612 -0.047583595 -0.0043614763 0.050576344 -0.02207373 -0.03293624 -0.023865568 -0.046111498
0.048834164 -0.019459944 0.023867141 0.013685185 -0.010612018 0.025858104 0.043133046 -0.008143245
0.012163195 -0.02298039 0.049125537 -0.06432593 -0.036245864 -0.011818306 -0.05737232 -0.06431017
00000000: 92f7 7b3d 48c2 6c3d 1b10 dabb 6f53 77bc
00000010: 4c66 bcba 3f2b bb3c 159d 543c f4ca e0bc
00000020: 04fd 773d e72f f0bc 1ca8 053d 452b 09bc
00000030: cbbf 433c 2e01 bcbb 024a 4f3c 65c2 30bd
00000040: a456 843c de44 2fbd dd04 573d 362f 74bc
00000050: 3b6a 193d 8d8b 53bd e1e5 29bd 5bb5 763d
00000060: 80ed 553d 5662 5bbd c6ec 02bd e83d 40bd
00000070: dbf3 933c 8dce bebb a430 2c3c 0e8d fe3c
00000080: e93a e23c 5638 bf3a 0506 953c 6f26 1ebd
00000090: 8a3b 253d bfbe 80bd 22f0 17bd 6330 1ebd
000000a0: c99b 19bd 6bfb 3a3c 99f7 a03c 301e 02bd
000000b0: 1e27 b6bc 773b d6bc 1ab7 073d b2ad 09bd
000000c0: 07e3 683d 4f05 d03c 87d7 21bd a407 a33b
000000d0: 8fb2 e53c dbe4 883d 7e2b c1bb fd74 0fbd
000000e0: 33a8 09bd b479 013d 07a6 3b3d 88b9 faba
000000f0: 417a 3b3d 1706 44bd 0600 74bd 71b9 b03b
00000100: 026b 283d e1ec 623d 2f65 7bbb 3325 8ebc
00000110: d7ac b33c 48f5 033d 3b24 81bd 7f07 f8bc
00000120: fc42 7e3d 9ea2 d03b 93d3 0cbd 54ea f5bc
00000130: a4c2 4fbc a05a 083c 804c 593c d94a 04bd
00000140: c177 9a3d db57 793c bb14 873d dc14 86bc
00000150: 883e 6b3d 8a57 033d 24c5 34bd b3b6 3b3d
00000160: 0531 393d 19c5 1cbd e196 263d 9245 bdbc
00000170: a13a 08bd 9e16 e1bc 62c3 4ebd 76b8 2e3d
00000180: 8833 f5bc b5cc 3dbd 9da7 3f3d 5fe9 7abd
00000190: b6e5 ffbc e21a 663c e889 1b3d f2bb edbc
000001a0: 4fe5 21bd b6a6 f4bc b445 493d 6d4f 1e3c
000001b0: 20ac b6bc 5ac2 1dbd 67dd 92bd 08ad dc3c
000001c0: 1e36 d5bc 4f44 133c d108 133d 9036 643d
000001d0: f13e 26bd 3379 2e3d 5a22 873d 3b6a 553d
000001e0: 6b05 ec3c 38f9 d53b aff1 cfbc 35fa d5bc
000001f0: 98ee f5bc 30db 23bc 0f4f d13c 6bf2 393d
00000200: 312e 843c 31f4 01bd 3d7c 9dbb 966f 0bbd
00000210: fbe0 25bd 6fe0 9bbc 540b a7bb 944e 3abc
00000220: a1cd 943c 6665 bf3a f386 d93c 2d72 e6b9
00000230: 7c7d 76bd 945a 81bc 28f7 053c 5870 83bd
00000240: 12e0 073c 532f 3d3d 06a6 e8bc 7731 133d
00000250: beb1 cbbc ce17 193d e135 ea3c 7954 0d3d
00000260: e196 d9bc e4fd 8e3c 4d5d 4fbd d3f2 16bd
00000270: 611c 743c b915 5cbd fc33 aa3c 27f1 993c
00000280: 0784 3e3d bd2b 3cbd a71e a33c d426 4d3d
00000290: 8e70 873b 48dd 6f3c a029 a03d 6ce9 a53c
000002a0: e8c8 ca3c 166b 67bc 55df 50bd 5865 833d
000002b0: f6c2 503c 68e3 28bb 4c0d 063c 4616 84bc
000002c0: 20cb 2c3d fe17 9e3c e621 af3c 0c06 1d3b
000002d0: 7886 0f3d 3c69 953d 42b1 493d e399 953d
000002e0: fa3c 433d 3103 583d c0de e9ba 16bd cebc
000002f0: 78fb 3a3d 0bc7 56bc 112d 8bbc 226f 91bb
00000300: 44c4 883c 1afc 44bc f94f 233c bfcb 453d
00000310: d812 72bc e98e afbc e870 4dbc 1cc7 503d
00000320: 8730 7bbc 2257 973c fa30 e9bc ff4e b23c
00000330: c53f 2cbd 06bc 643c 7fca dfbc 1a5b 88bd
00000340: 4368 17bc 6904 393c d296 43bd 1877 21bd
00000350: 274f 033d 6da7 68bc 6145 f03c fc74 25bd
00000360: 88aa 82bc a2ab ee3c 137e 69bd 853c 713c
00000370: e705 19bd 7f3c d8bc a585 c43b 92ad e93c
00000380: af35 07bd 7a65 f8bb 48e8 91bc f5c2 3fbd
00000390: 55f7 a0bc d432 01bc 0cb0 18bd bcdc 1fbd
000003a0: a00d 083d 04e7 42bd b7ea 8ebb 2429 4f3d
000003b0: f8d3 b4bc 27e8 06bd b981 c3bc 69df 3cbd
000003c0: 5506 483d 766a 9fbc 0685 c33c d437 603c
000003d0: 08de 2dbc 60d4 d33c 47ac 303d 3f6b 05bc
000003e0: 2348 473c 5f41 bcbc dc37 493d 50bd 83bd
000003f0: 8b76 14bd 91a1 41bc 3dff 6abd 0db5 83bd

bias f4 [9]
0.06888151 0.007028583 0.052407723 0.02179492 -0.018920034 -0.00782646 -0.012348351 0.03980991
0.022038503
00000000: c011 8d3d 0750 e63b 7ba9 563d 438b b23c
00000010: 30fe 9abc 8d3a 00bc bd50 4abc b70f 233d
00000020: 178a b43c
