.processed/9_logs_scale_3_crop_64/epoch_10_model.pth (torch_old, 93448 bytes, 6 tensors)

weight f4 [64, 1, 5, 5]
0	0x3e0c4379	0.13697614
1	0x3e1e2132	0.1544235
2	0xbd789728	-0.06069103
3	0x3e3033d1	0.17207266
4	0xbd5b86b8	-0.053595275
5	0x3ce54b45	0.027989993
6	0xbdde7846	-0.10862784
7	0x3ddd842b	0.10816225
8	0x3e2d00e8	0.16894877
9	0xbe1dd924	-0.15414864
10	0x3e2a464f	0.16628383
11	0x3cf1b2d5	0.02950422
12	0x3e17eac0	0.14835644
13	0x3cc0f471	0.023554059
14	0x3db62d52	0.08895363
15	0xbd1d5d31	-0.038418952
16	0x3e1c3b85	0.1525708
17	0x3ced2f72	0.028953288
18	0xbdc24b43	-0.09487011
19	0x3d33630e	0.043795638
20	0xbdc838a4	-0.09776428
21	0xbcdf0bae	-0.027227249
22	0xbda8e358	-0.082464874
23	0x3e017f04	0.12646109
24	0xbe2a650d	-0.1664011
25	0xbdb8faae	-0.09032188
26	0xbd526dc1	-0.0513742
27	0xbdf20c72	-0.1181878
28	0x3ca49a79	0.02009319
29	0xbe46f55f	-0.19429539
30	0x3e3b3fee	0.18286106
31	0xbe2b6ec2	-0.1674147
32	0x3e2332d9	0.15937366
33	0x3d0b74b3	0.03404684
34	0xbd822af2	-0.063558474
35	0x3e00d973	0.1258295
36	0x3d22640f	0.039646205
37	0x3e329521	0.174397
38	0x3cd2bedb	0.025725773
39	0xbd7adf91	-0.061248366
40	0x3d5b717e	0.05357503
41	0xbd4afcc9	-0.04955748
42	0x3dbce826	0.09223966
43	0x3e39c313	0.18140821
44	0x3dec1ad0	0.115285516
45	0xbdb91182	-0.090365425
46	0x3de8b613	0.11362853
47	0x3d11edc4	0.03562714
48	0x3dca7611	0.09885801
49	0xbdfd8944	-0.12379697
50	0xbdeb9256	-0.11502521
51	0xbb982994	-0.0046436284
52	0xbe193977	-0.14963327
53	0x3e47001d	0.19433637
54	0xbd5bd09c	-0.053665742
55	0x3d38e484	0.045139804
56	0x3c38c5fb	0.011277671
57	0x3ddcd58e	0.1078292
58	0x3e8626e3	0.26201543
59	0xbe7e1e1d	-0.24816175
60	0x3c8f1cc7	0.017469777
61	0xbe51cab3	-0.2048748
62	0x3e9eeb5f	0.3103895
63	0xbdf89933	-0.121385954
64	0xbd746d6b	-0.05967466
65	0xbd647abc	-0.05578111
66	0x3e301acd	0.17197724
67	0xbd3e53ee	-0.04646676
68	0xbe11e21d	-0.14246412
69	0xbe97be18	-0.29637218
70	0x3ddacd9d	0.10683749
71	0xbd79995e	-0.060937278
72	0x3e4818a2	0.19540647
73	0xbd2b4937	-0.04181787
74	0xbeade2ce	-0.339621
75	0xbe1aa35c	-0.15101379
76	0xbdf120d3	-0.11773839
77	0x3da0aff9	0.07846064
78	0x3d772c6e	0.060345106
79	0x3e0d93d2	0.1382592
80	0xbdacb6f1	-0.08433331
81	0xbdfbd2d8	-0.12296075
82	0x3e191ff5	0.14953597
83	0xbd961644	-0.073284656
84	0x3dfabdc5	0.12243227
85	0xbd3e12c9	-0.046404634
86	0x3e3680ed	0.17822619
87	0xbde2f9d2	-0.11082806
88	0xbd8310a2	-0.06399657
89	0x3d90c1f1	0.070682414
90	0x3d36cc26	0.044628285
91	0xbcb531d9	-0.022118496
92	0x3e33e41e	0.17567489
93	0x3e20801f	0.15673874
94	0xbe06b00a	-0.13153091
95	0xbe009c2d	-0.12559576
96	0x3e506a7c	0.2035312
97	0xbd53a798	-0.0516735
98	0xbd71d4f5	-0.059040982
99	0xbe3f7981	-0.18698694
100	0xbd3af157	-0.045640316
101	0x3e0db20b	0.13837449
102	0x3d653336	0.05595704
103	0xbe224643	-0.15847115
104	0x3d22d57a	0.03975437
105	0xbe03a579	-0.12856092
106	0xbe5f31a2	-0.21796277
107	0xbd50c5c4	-0.050969854
108	0xbe0b9ce0	-0.13634062
109	0xbd21d767	-0.039512064
110	0x3e690cc2	0.22758773
111	0x3e1c889b	0.15286486
112	0x3ef2728c	0.47353017
113	0xbe744f85	-0.2385846
114	0xbdb01401	-0.085975654
115	0xbdbba0b6	-0.091615126
116	0x3d662ab6	0.056193076
117	0xbd59bfbb	-0.053161364
118	0xbe06d510	-0.13167214
119	0xbdbb819c	-0.091555804
120	0x3d91fc36	0.071281835
121	0xbd7dbc18	-0.06194696
122	0x3d0c3982	0.03423453
123	0xbbfa3bd9	-0.007636529
124	0xbdbde25b	-0.092716895
125	0xbdd75cc9	-0.10515744
126	0xbd7a08d7	-0.061043587
127	0xbe0f9c50	-0.14024472
128	0x3e284c4e	0.16435358
129	0xbd26bc09	-0.040706668
130	0x3e30677f	0.1722698
131	0x3da3a783	0.07990935
132	0xbe2f1592	-0.17098072
133	0x3e140556	0.1445516
134	0xbd7bb7a0	-0.061454415
135	0xbd870000	-0.06591797
136	0xbe212a91	-0.15738894
137	0xbe47bb34	-0.19505006
138	0x3d8bb24b	0.06821116
139	0xbd1c9c6e	-0.03823512
140	0x3db9f2d6	0.090795204
141	0xbe1e0995	-0.15433343
142	0x3e29f887	0.16598712
143	0xbe10f9a9	-0.14157738
144	0xbcc5da1b	-0.024151852
145	0x3d28de90	0.041227877
146	0x3de23ed2	0.11047138
147	0x3e20a079	0.15686215
148	0x3e3e2d14	0.18571883
149	0xbe288107	-0.1645547
150	0x3d8849fd	0.06654737
151	0xbd97b413	-0.07407393
152	0xbb86707c	-0.0041027647
153	0xbe0b5c5a	-0.13609448
154	0x3e46f681	0.19429971
155	0xbe099697	-0.13436352
156	0x3df96725	0.121778764
157	0x3dc7c103	0.09753611
158	0x3da5c559	0.08094282
159	0xbdb869e2	-0.090045705
160	0x3e4be7e9	0.19912685
161	0x3d8cce58	0.068752944
162	0x3d82b3da	0.0638196
163	0xbe2071a1	-0.15668346
164	0x3de50668	0.111828625
165	0xbc84bfe4	-0.016204782
166	0xbd9f328b	-0.07773312
167	0x3e4d599b	0.20053713
168	0x3d7f8f41	0.062392477
169	0xbdba4b65	-0.090964116
170	0xbdb88381	-0.090094574
171	0x3b27f51c	0.0025628274
172	0x3dffb4df	0.1248567
173	0xbd1b79e2	-0.037958033
174	0xbdc1fd55	-0.094721474
175	0xbd8d4876	-0.068985865
176	0xbe18e19b	-0.14929812
177	0x3d93a4c9	0.07209165
178	0x3e1d6841	0.15371801
179	0xbe43bc4d	-0.191148
180	0x3d38b823	0.04509748
181	0x3ddac355	0.10681788
182	0x3d1f652e	0.03891485
183	0xbd8e9020	-0.069610834
184	0x3dd129a0	0.102130175
185	0x3dd7616f	0.10516631
186	0x3da7a9c0	0.08186674
187	0xbcda93a1	-0.026681723
188	0xbd56c17f	-0.052430626
189	0x3cadfddb	0.021239212
190	0xbd1ec683	-0.038763534
191	0xbd728e9e	-0.05921804
192	0x3e064c12	0.13114956
193	0x3e312c26	0.17301998
194	0xbcc162c0	-0.023606658
195	0xbd4d1e91	-0.05007798
196	0x38be7edb	9.083535e-05
197	0xbc5bc6fa	-0.013414139
198	0x3d393f65	0.045226473
199	0x3d56d376	0.05244776
200	0xbe003680	-0.1252079
201	0xbca398cf	-0.019970326
202	0x3e5840a6	0.21118411
203	0x3dda4db8	0.10659355
204	0x3c3a4af5	0.01137041
205	0xbd82d397	-0.06388014
206	0xbd9557d7	-0.07292145
207	0xbe0f45ba	-0.13991442
208	0xbce4ff24	-0.027953692
209	0x3dbad437	0.09122508
210	0x3e166897	0.14688335
211	0x3e20305b	0.15643446
212	0xbe516441	-0.204484
213	0xbdc866f1	-0.097852595
214	0xba7b8b9a	-0.00095956924
215	0x3e567ada	0.20945302
216	0x3d7827cb	0.060584825
217	0xbd3c94c7	-0.046040323
218	0x3deb734e	0.11496602
219	0xbd36fbaf	-0.044673618
220	0xbde84b21	-0.11342455
221	0x3e41d5ec	0.18929261
222	0xbd667222	-0.05626119
223	0xbc190aa5	-0.009340917
224	0xbe198e7a	-0.14995757
225	0x3e0b456b	0.136007
226	0x3e0adc9e	0.13560721
227	0x3da11b84	0.07866576
228	0xbe16c493	-0.14723425
229	0xbe3c4bf9	-0.18388356
230	0xbe238445	-0.15968426
231	0x3e1ad28f	0.15119384
232	0x3e17266f	0.14760755
233	0x3e41efef	0.18939184
234	0x3e064cca	0.1311523
235	0x3d58a3c7	0.052890565
236	0x3d11cf02	0.03559781
237	0xbe17e48a	-0.14833274
238	0xbe1b71c0	-0.15180111
239	0xbe2c36fc	-0.1681785
240	0x3dd23010	0.102630734
241	0xbdbc6dca	-0.09200628
242	0x3ce7c7fc	0.028293602
243	0xbdd53337	-0.10410159
244	0x3c3e4747	0.0116136735
245	0xbdd5e14d	-0.10443363
246	0xbdd6533c	-0.104650944
247	0x3d95207c	0.072815865
248	0xbd060c5c	-0.03272663
249	0x3e14294f	0.14468883
250	0xbd65db8e	-0.056117587
251	0xbe13cfa1	-0.14434673
252	0xbcee6255	-0.029099623
253	0xbdc78849	-0.09742791
254	0xbd7b0e72	-0.061293073
255	0xbe463a45	-0.19358166

bias f4 [64]
0	0xbe35f40c	-0.17768878
1	0x3dcbfa04	0.09959796
2	0xbcd4ef6a	-0.025993068
3	0x3baadae0	0.00521408
4	0x3d7d2dea	0.061811365
5	0x3e1ab383	0.15107541
6	0xbd00814d	-0.03137331
7	0x3d5ebbde	0.054378383
8	0x3d9adf24	0.07562092
9	0x3e044cc5	0.1291991
10	0x3c55aa06	0.013041025
11	0x3dc5e96c	0.09663662
12	0xbdf152f7	-0.117834024
13	0xbe06ad3d	-0.13152023
14	0x3e2d689a	0.16934434
15	0xbe17659e	-0.14784858
16	0x3c95720d	0.01824286
17	0xbc4883d6	-0.012238463
18	0x3e4748e8	0.19461405
19	0xbd0cba85	-0.034357566
20	0xbdd2bcba	-0.10289903
21	0xbd6a2f1b	-0.05717383
22	0x3e04f1b9	0.12982835
23	0x3dc5757d	0.0964155
24	0x3e211ef4	0.15734464
25	0x3d425db2	0.047452636
26	0x3dae4743	0.08509686
27	0xbe4df8c4	-0.20114428
28	0x3da4b5e1	0.08042503
29	0x3dc52b14	0.09627357
30	0x3de2085d	0.110367514
31	0xbd3fcdf1	-0.04682726
32	0xbd460585	-0.048345108
33	0x3d71f662	0.05907286
34	0xbe0add84	-0.13561064
35	0xbe1cb8a0	-0.15304804
36	0xbe40571e	-0.18783233
37	0x3de7c5fd	0.1131706
38	0x3dfb41fb	0.12268444
39	0x3d52832b	0.051394623
40	0x3d901b4f	0.07036459
41	0x3dae747a	0.0851831
42	0xbdf1a058	-0.11798161
43	0x3c3a04d4	0.01135369
44	0xbd251cb0	-0.04031056
45	0xbd912e37	-0.07088893
46	0x3e2a860a	0.16652694
47	0xbd76623b	-0.060152274
48	0x3cc051ae	0.023476448
49	0xbe3d22f6	-0.18470368
50	0x3c7f28bf	0.0155736795
51	0xbdaba59a	-0.08381195
52	0x3d8fa22b	0.07013353
53	0xbd9a363a	-0.07529874
54	0x3e04f6bb	0.12984745
55	0xbe1767d8	-0.14785707
56	0x3df7e0fa	0.12103458
57	0xbdc5642c	-0.09638247
58	0x3dc6cb52	0.09706749
59	0xbba81fc7	-0.0051307413
60	0xbc33ba21	-0.01096967
61	0xbcdb9f1e	-0.026809271
62	0x3e018e1b	0.12651865
63	0x3d999d87	0.07500749

weight f4 [32, 64, 3, 3]
0	0xbcf47c3c	-0.029844396
1	0x3c228ea8	0.009921707
2	0xbcb2966f	-0.021800248
3	0x3d1a38ec	0.03765194
4	0x3c910d11	0.017706426
5	0xbaefb0da	-0.0018286959
6	0xbc757358	-0.014981113
7	0x3cce4114	0.025177516
8	0xbc9425d8	-0.018084452
9	0x3cf09a61	0.029370489
10	0x3d189fe1	0.037261847
11	0x3d195c34	0.037441447
12	0x3cd41d2b	0.025892815
13	0xbcb58ec4	-0.022162803
14	0x3d3cafed	0.046066213
15	0xbc034bb1	-0.008013652
16	0xbadd5d6a	-0.0016888801
17	0x3b12293a	0.0022302405
18	0x3a8d95e0	0.0010802113
19	0xbcc819e0	-0.0244264
20	0x3d636bca	0.055522718
21	0xbbb627f5	-0.0055589625
22	0x3c8599a2	0.01630861
23	0x3cecffb9	0.028930532
24	0x3dcd3a07	0.100208335
25	0x3ca38a8d	0.019963527
26	0xbdc9265b	-0.09821769
27	0xbc659c04	-0.014014248
28	0x3d956e39	0.07296414
29	0x3d623397	0.05522498
30	0x3ccb0074	0.02478049
31	0xbc224c87	-0.009905941
32	0x3c3e4416	0.011612913
33	0x3d65bae3	0.056086432
34	0xbba8e6ec	-0.005154481
35	0xbd32255a	-0.043492652
36	0xbd4b6dda	-0.04966531
37	0xbcd34f12	-0.02579454
38	0x3d9ebf9a	0.07751389
39	0xbd4041f4	-0.046937898
40	0x3c51e5b2	0.012811111
41	0x3d585ea1	0.05282462
42	0x3c9d1d99	0.019179152
43	0x3ab0f514	0.0013500773
44	0xbd7ba671	-0.061438028
45	0x3ca11208	0.019661918
46	0x3cd0e230	0.02549848
47	0x3ca76e25	0.020438263
48	0xbcece59e	-0.028918084
49	0x3c349559	0.011021935
50	0x3c9857c5	0.01859654
51	0xbc957837	-0.0182458
52	0xbbb99c4e	-0.005664385
53	0xbc857483	-0.016290909
54	0x3ca655f9	0.020304667
55	0xbb2dd3b9	-0.0026523902
56	0x3d0bb34a	0.03410653
57	0x3cdd4afa	0.02701329
58	0x3c1642d1	0.009171204
59	0xbc9422f8	-0.01808308
60	0xbce82137	-0.02833615
61	0x3c322974	0.010874141
62	0x3d45207f	0.048126694
63	0xbca4a17e	-0.020096537
64	0x3c992c66	0.018697929
65	0xbc384935	-0.011247923
66	0xbc05b2da	-0.008160317
67	0x3d4ab690	0.04949051
68	0x3cff96e8	0.031199887
69	0xbbfd0de5	-0.0077226036
70	0x3c6ab534	0.014325429
71	0x3c9591e2	0.018258039
72	0xbc3cb2e4	-0.01151726
73	0x3c19b565	0.009381627
74	0x3c6537c5	0.013990347
75	0x3c9ee46c	0.01939603
76	0xbcd39c38	-0.025831327
77	0xbbfb4ceb	-0.0076690814
78	0xbc91f468	-0.017816737
79	0xbd16fb62	-0.03686083
80	0x3d0e3411	0.034717623
81	0xbc8de710	-0.017322093
82	0xbc1acdb0	-0.009448454
83	0x3d2bef10	0.041976035
84	0xbca67dc3	-0.02032364
85	0x3b4b1e4b	0.0030993398
86	0x3cdf7fe1	0.027282657
87	0x3c1a68fd	0.009424445
88	0xbcd632da	-0.026147295
89	0x3d4641bd	0.048402537
90	0x3cc6a669	0.024249272
91	0xbc9c22ed	-0.019059623
92	0x3d45e420	0.04831326
93	0xbca8eafd	-0.020619864
94	0x3d2e36e3	0.042532813
95	0x3d2241c0	0.039613485
96	0xbca8a944	-0.020588525
97	0xbcf2dd8c	-0.029646657
98	0xbcddb7ad	-0.027065123
99	0xbc1271af	-0.008938237
100	0xbdd203ea	-0.10254653
101	0xbbaf4ce4	-0.0053497422
102	0x3d02d689	0.031942878
103	0x3d6f6cfa	0.058453538
104	0x3d30ee60	0.043196082
105	0x3d17b1b8	0.03703472
106	0x3d30e689	0.043188605
107	0xbd603d5f	-0.054746028
108	0xbcddc433	-0.027071094
109	0x3c80b6a3	0.015712088
110	0x3d42c5d2	0.047551937
111	0x3c2326e8	0.009958006
112	0x3b3df0aa	0.0028982558
113	0xbc5effe6	-0.013610816
114	0xbcad9502	-0.021189217
115	0xbd0a19e6	-0.033716105
116	0x3d25e50a	0.04050163
117	0xbc768c50	-0.015048102
118	0xbd433341	-0.0476563
119	0xbb7e23fa	-0.0038778768
120	0xbbc03c78	-0.0058665834
121	0xbc7786b3	-0.015107798
122	0x3bb7f082	0.0056133876
123	0x3c789d12	0.015174167
124	0xbd40713c	-0.04698299
125	0xbd224747	-0.039618757
126	0xbc756418	-0.0149774775
127	0xbd5a37b3	-0.053275775
128	0xbd1e0d7e	-0.038587086
129	0x3d0aa896	0.033852182
130	0xbc12edc8	-0.008967824
131	0xbca77ac6	-0.020444285
132	0xbc8fdaa2	-0.017560307
133	0xbd02cd52	-0.03193409
134	0x3cf25b3b	0.029584518
135	0xbbb98e81	-0.0056627397
136	0x3b185ec1	0.0023249837
137	0xbccaabf2	-0.024740193
138	0x3d1eadd6	0.03874
139	0x3c6391a6	0.013889706
140	0xbb212d27	-0.0024593563
141	0xbb690423	-0.0035555444
142	0xbbd0fb17	-0.0063775885
143	0x397aa803	0.00023904447
144	0x3d96ba40	0.07359743
145	0xbb9269ba	-0.00446817
146	0x3b40e396	0.0029432527
147	0x3bab1c49	0.0052218777
148	0x3cb8e3e6	0.022569608
149	0x3c98733b	0.018609634
150	0x3cd68571	0.026186677
151	0x3d9267c6	0.071486995
152	0xbd59adaf	-0.053144153
153	0xba984318	-0.0011616675
154	0xbc4b6281	-0.012413622
155	0x3d1ce947	0.038308408
156	0xbcd9617c	-0.026535742
157	0x3cebc54b	0.0287806
158	0x3c9fe3df	0.019517837
159	0x3c66f81d	0.014097241
160	0x3cae4e8d	0.02127769
161	0xbc36173f	-0.011113941
162	0x3d0807ef	0.03321069
163	0xbcd92f24	-0.026511736
164	0xbc18991c	-0.009313848
165	0x3d30a67b	0.04312752
166	0x3cb4749b	0.022028258
167	0x3bbd8696	0.005783866
168	0xbbc0be6b	-0.0058820746
169	0xbc9b90b3	-0.018989896
170	0x3cf4871e	0.029849585
171	0x3bbe6ace	0.005811072
172	0x3c692dcc	0.01423211
173	0x3c42f476	0.011899104
174	0x3d234975	0.039864976
175	0xbc36880e	-0.011140836
176	0xbbeaeb49	-0.0071691615
177	0x3cf57c0f	0.029966382
178	0x3c9f32e7	0.019433452
179	0xbc8f36e7	-0.017482234
180	0xbd0a142d	-0.033710647
181	0xba296116	-0.00064613053
182	0x3cbf49b3	0.023350572
183	0xbc99f4ab	-0.018793425
184	0x3c09b483	0.008404854
185	0xbd2b4e77	-0.041822877
186	0x3c918863	0.01776523
187	0xbcb9beac	-0.022673927
188	0x3c72f9c4	0.014830057
189	0x3d3223cd	0.043491174
190	0x3c9ad42a	0.018899996
191	0x3d28c852	0.041206665
192	0xbc91fdfa	-0.0178213
193	0xbcede7e4	-0.029041238
194	0xbd06ba1c	-0.03289233
195	0x3d192feb	0.037399214
196	0x3cc0dd4d	0.023543024
197	0xbcdade42	-0.026717309
198	0xbcdeefda	-0.02721398
199	0xbcad481b	-0.021152547
200	0xbdb35772	-0.08756913
201	0x3d3c5f0a	0.045989074
202	0x3d4819c9	0.048852716
203	0x3d325f84	0.043548122
204	0x3ccb848e	0.02484348
205	0x3d6b6712	0.057471342
206	0x3cf8c10a	0.030365486
207	0x3cab409d	0.020904833
208	0xbb6e2a90	-0.0036341287
209	0x3c908878	0.017643198
210	0xbd0c3bc9	-0.034236703
211	0x3c98fe58	0.018675968
212	0x3c1d8b96	0.009615799
213	0x3cf63996	0.030056756
214	0xbb35faa1	-0.0027767795
215	0x3b4813a2	0.003052928
216	0xbd020644	-0.031744257
217	0xbce211b4	-0.027596332
218	0x3cf64dff	0.030066488
219	0x3d390668	0.045172125
220	0x3cffe65c	0.031237774
221	0x39fdfe39	0.0004844533
222	0x3bd21609	0.006411318
223	0x3ad319ea	0.0016105745
224	0x3c64990f	0.013952508
225	0xbd25d4bc	-0.040486082
226	0x3c94f9fa	0.018185604
227	0x3c6e351c	0.014539029
228	0xbd924aa2	-0.07143141
229	0xbc16c552	-0.009202318
230	0xbd067109	-0.032822642
231	0xbbb7c99a	-0.0056087496
232	0xbbd86530	-0.0066038594
233	0xbccebfb3	-0.025237894
234	0x3d251f36	0.04031297
235	0xbc65ae5a	-0.014018619
236	0x3cb34266	0.021882247
237	0xbced4c78	-0.028967127
238	0xbc8c4cdc	-0.017126493
239	0x3bc94810	0.0061426237
240	0x3d1b25df	0.037877914
241	0x3ca26f13	0.019828355
242	0xbce75ee7	-0.028243495
243	0x3b93f4cf	0.0045152674
244	0xbcbe00e1	-0.023193778
245	0x3bde86b3	0.0067909597
246	0xbd1367ed	-0.035987783
247	0xbc12f3c2	-0.008969249
248	0x3d04d9da	0.032434322
249	0xbd0ea5ff	-0.034826275
250	0xbd0e8600	-0.03479576
251	0x3c8a4ea5	0.016883204
252	0x3b94a8d4	0.0045367274
253	0xbc803ae1	-0.015653076
254	0x3d5551b3	0.052079868
255	0xbcce7ddf	-0.025206504

bias f4 [32]
0	0x3d1a3679	0.037649605
1	0xbc1f1fd5	-0.009712179
2	0xbd028070	-0.03186077
3	0x3c5ea8a5	0.013590013
4	0xbc5b2b11	-0.013376967
5	0x3c6f8e31	0.014621303
6	0x3d06bc47	0.0328944
7	0xbcbc8477	-0.023012383
8	0xbbcdea5a	-0.0062840404
9	0xbc4946d8	-0.012284957
10	0x3cc128ee	0.023579087
11	0xbc6175b6	-0.013760975
12	0xba88bd0c	-0.0010432317
13	0xbcc6e327	-0.024278237
14	0xbc15e05b	-0.009147729
15	0xbc3a7219	-0.011379742
16	0x3ca7d46b	0.020487031
17	0xbc79e184	-0.015251521
18	0x3affa275	0.0019503372
19	0xbc39f6c6	-0.011350339
20	0x3d0bb89f	0.034111615
21	0xbc9aa9e7	-0.018879844
22	0xbc80e25a	-0.015732933
23	0x3cc83a1f	0.024441777
24	0xbd31861a	-0.04334078
25	0xbcc221db	-0.023697784
26	0x3d181dcf	0.037137803
27	0xbd1377ab	-0.036002796
28	0x3cb8cd1c	0.022558741
29	0x3cc1ad22	0.023642126
30	0x3d1b46e1	0.037909392
31	0x3d07f47a	0.033192135

weight f4 [9, 32, 3, 3]
0	0x3d53981e	0.051658742
1	0x3d59e4d7	0.053196754
2	0xbb5cc7f5	-0.003368852
3	0xbcda3238	-0.026635274
4	0xbb126e36	-0.0022343523
5	0x3cd92e28	0.026511267
6	0x3bfaf777	0.0076588946
7	0xbcf69707	-0.030101312
8	0x3d728dc1	0.05921722
9	0xbcad89f0	-0.021183938
10	0x3d03bc84	0.032162204
11	0xbc96b243	-0.018395549
12	0x3c8d0294	0.017213143
13	0xbc353fad	-0.011062545
14	0x3b8d3bb0	0.004310094
15	0xbd301000	-0.04298401
16	0x3bd65ee4	0.0065420736
17	0xbd35e4a8	-0.044407517
18	0x3d168572	0.036748357
19	0xbca21ef3	-0.019790148
20	0x3cc036aa	0.023463566
21	0xbd4973f3	-0.049182843
22	0xbcfc5613	-0.030802762
23	0x3d6a120f	0.05714613
24	0x3d56eede	0.052473895
25	0xbd37986f	-0.044823106
26	0xbcecc634	-0.028903104
27	0xbd619f65	-0.05508365
28	0x3c38692f	0.0112555465
29	0xbc2bb04f	-0.010479047
30	0x3c140a62	0.009035679
31	0x3d147741	0.036246542
32	0x3d07e50e	0.033177428
33	0xba10e606	-0.000552744
34	0x3cb2b38f	0.021814136
35	0xbd2553d1	-0.040363137
36	0x3d0ba3dc	0.034091815
37	0xbd56de79	-0.05245826
38	0x3bb92cb3	0.0056510805
39	0x3d7e31fe	0.062059395
40	0x3e10856a	0.14113393
41	0x3c421945	0.011846845
42	0xbca7de75	-0.020491818
43	0xbd89fe69	-0.06737978
44	0xbc4cf196	-0.01250877
45	0xbcf1e525	-0.02952821
46	0x3d0488c3	0.03235699
47	0xbcf23aff	-0.029569147
48	0x3d5b16b1	0.053488437
49	0x3cd1abde	0.025594648
50	0xbd057b60	-0.032588363
51	0x3b215f26	0.0024623363
52	0x3cf07c6a	0.0293562
53	0x3d8db402	0.069190994
54	0xbccbc6c1	-0.024875047
55	0xbd33f085	-0.04393055
56	0xbcfe4dec	-0.031043015
57	0x3c40a7f6	0.011758795
58	0x3d5ffd4e	0.05468493
59	0x3c07e89a	0.008295203
60	0x3d3ecd0d	0.04658227
61	0xbd1b4dd7	-0.03791603
62	0xbd6adfab	-0.057342213
63	0xbcd1b618	-0.025599524
64	0x3c246d37	0.0100358045
65	0xbd7fbda4	-0.062436715
66	0x3cda2d7b	0.026633015
67	0xbe4c098a	-0.19925514
68	0x3dfb299b	0.12263795
69	0x3c9e96e5	0.019359061
70	0xbde378b4	-0.11107007
71	0x3d36ac36	0.044597827
72	0x3d39470a	0.045233764
73	0xbbfd94f4	-0.007738704
74	0xbd1622df	-0.03665435
75	0xbd1bf4df	-0.038075324
76	0xbc858efd	-0.016303534
77	0x3bc6d02c	0.0060672965
78	0x3a6a726c	0.0008943442
79	0xbd2a2e06	-0.041547798
80	0x3d885c3e	0.06658219
81	0x3b784d31	0.0037887807
82	0x3d80324a	0.06259592
83	0xbc35974b	-0.011083434
84	0x3d3b1082	0.04567004
85	0x3d02023b	0.03174041
86	0xbd324f52	-0.043532677
87	0x3d2d7b94	0.04235418
88	0x3d341d71	0.04397339
89	0xbd14f7fd	-0.036369313
90	0x3d6e4297	0.058168974
91	0xbc0fbdfa	-0.008773321
92	0xbcc10038	-0.023559675
93	0xbb83ea53	-0.0040257364
94	0xbd1b72e5	-0.03795137
95	0x3d7002be	0.058596365
96	0xbc388d17	-0.011264107
97	0xbd145abf	-0.036219355
98	0x3d6661c2	0.056245573
99	0xbd569b45	-0.05239417
100	0xbd049376	-0.032367192
101	0x3cc97a57	0.024594469
102	0x3d583102	0.052781112
103	0xbc80a489	-0.015703456
104	0xbcd205d5	-0.025637547
105	0xbcfc0cd0	-0.030767828
106	0x3d3f7689	0.046743903
107	0x3c0cd95e	0.008596746
108	0xbc9a277c	-0.018817656
109	0xbcff231c	-0.031144671
110	0xbd835634	-0.06412926
111	0xbb3954b4	-0.0028279247
112	0xbd3f0fa8	-0.04664579
113	0x3a1f33b9	0.0006073076
114	0xbc911d88	-0.017714277
115	0x3cec8a57	0.02887456
116	0xbd4ece0e	-0.050489478
117	0x3cf0e4bd	0.029405946
118	0x3d70db3a	0.05880282
119	0x3d5e1c1f	0.054226037
120	0x3cbce765	0.023059556
121	0x3c042443	0.008065286
122	0xbc9cc329	-0.019136028
123	0xbceedac2	-0.029157046
124	0xbce21ad2	-0.02760068
125	0xbbd1ed80	-0.006406486
126	0x3d3633ed	0.044483114
127	0x3d5ab513	0.053395342
128	0x3caa8d1f	0.020819245
129	0xbc58a7a7	-0.013223565
130	0x3d1eaeca	0.03874091
131	0xbca80063	-0.020507997
132	0xbd5919ff	-0.053003307
133	0xbb8a9cf4	-0.004230136
134	0xbcafb552	-0.021448765
135	0x3c2713b1	0.010197566
136	0x3d252399	0.04031715
137	0x3c7bebb2	0.015376018
138	0x3d411f0a	0.04714874
139	0x3cd0df49	0.025497096
140	0xbd1f4f81	-0.03889418
141	0xbba061c9	-0.0048944694
142	0x3cdf4377	0.02725385
143	0xbd1c6eb6	-0.03819152
144	0x3b99d50b	0.004694586
145	0x3d3506ec	0.044196054
146	0xbcdfe5e4	-0.0273313
147	0x3cfc2bad	0.030782545
148	0xbcee8d3d	-0.029120082
149	0x3d21dec2	0.03951908
150	0x3caef603	0.021357542
151	0x3d0a6376	0.03378626
152	0xbcf9c665	-0.03049011
153	0xbce60ae5	-0.028081367
154	0x3d4940b0	0.049133956
155	0xbd350f17	-0.044203844
156	0x3cd9f494	0.026605882
157	0x3cdc61d4	0.026902117
158	0xbdc28a2e	-0.09499012
159	0xbc81a908	-0.01582767
160	0x3dda18ef	0.10649287
161	0xbc904efd	-0.01761579
162	0x3c3c33d9	0.011486971
163	0x3d47aa7e	0.04874658
164	0x3c6538dc	0.013990607
165	0x3bcfac4a	0.006337677
166	0x3dbd2e35	0.09237329
167	0x3ce2fe69	0.027709203
168	0x3c9839eb	0.018582305
169	0xbc267e10	-0.010161892
170	0xbd1aa0d0	-0.03775102
171	0x3d6b91e3	0.057512175
172	0x3be24afb	0.006905911
173	0xbb4b9d7b	-0.0031069207
174	0x3af5fe40	0.0018767789
175	0xbca2020f	-0.019776372
176	0x3d276392	0.040866442
177	0x3c863297	0.016381545
178	0x3cc5c560	0.024141967
179	0xbb36acc1	-0.0027873965
180	0x3caf0860	0.021366298
181	0x3d6bb608	0.057546645
182	0x3d2007e7	0.039070036
183	0x3d6f1af5	0.058375318
184	0x3ceadf8c	0.028671049
185	0x3d3575a9	0.044301663
186	0xbc6446e3	-0.013932916
187	0xbd014599	-0.031560514
188	0x3d1e2012	0.038604803
189	0x3c1445f8	0.009049885
190	0x3b4c6c37	0.003119243
191	0x3ca82ef1	0.020530196
192	0x3cf14408	0.029451385
193	0x3bdf3b9a	0.006812525
194	0x3cffaa24	0.031209059
195	0x3d5a491b	0.053292375
196	0xb976374d	-0.0002348099
197	0xba99a15a	-0.001172106
198	0xbc52b8db	-0.012861456
199	0x3e023929	0.12717117
200	0xbc363451	-0.011120872
201	0xbdb83858	-0.08995122
202	0x3c0343f3	0.008011806
203	0x3d6a474f	0.05719691
204	0xbd642fc0	-0.0557096
205	0xbc13cd51	-0.009021119
206	0xbbc611ba	-0.0060445936
207	0xbcf04e87	-0.02933432
208	0x3cc62a97	0.02419023
209	0xbca7b1e0	-0.02047056
210	0x3c74dc00	0.01494503
211	0x3c91ad7b	0.017782917
212	0x3b10ad2f	0.0022075882
213	0xbcc1657a	-0.023607958
214	0x3c8670b5	0.016411165
215	0xbd5e9074	-0.05433698
216	0xbbeed1e0	-0.0072882026
217	0x3d2055ab	0.0391442
218	0xbd346cc6	-0.044049047
219	0x3cd4ae14	0.025961913
220	0xbce5285e	-0.02797335
221	0xbcaa4da9	-0.020788984
222	0x3ca8b659	0.020594763
223	0x3d2eff34	0.04272385
224	0xbcb7c6f5	-0.022433737
225	0x3c3258cc	0.010885429
226	0xbb94684d	-0.004529035
227	0xbd1b40d3	-0.037903618
228	0xbb3a41cd	-0.0028420568
229	0x3c3950ef	0.0113108
230	0xbcc07f85	-0.023498306
231	0xbcc0c7f0	-0.023532838
232	0x3d5b7c24	0.053585187
233	0xbcfacad1	-0.030614289
234	0xbce174fb	-0.027521601
235	0x3d833423	0.06406429
236	0xbcf7b88c	-0.030239366
237	0x3d146ab8	0.036234587
238	0x3db37b22	0.0876372
239	0x3c45c2bc	0.012070354
240	0x3d68b074	0.056808904
241	0x3b57d5ba	0.0032933787
242	0x3ce69b54	0.028150238
243	0x3cf11e44	0.029433377
244	0xbcab640f	-0.020921735
245	0x3cbe2e35	0.023215393
246	0x3d454363	0.048159968
247	0xbc12f58a	-0.008969674
248	0x3c9e9150	0.0193564
249	0xbcfb63e8	-0.030687287
250	0x3d2dc6bc	0.042425856
251	0xbd623c16	-0.055233084
252	0xbd3472fc	-0.04405497
253	0xbd86a20b	-0.06573876
254	0x3d2a17fc	0.04152678
255	0xbde86a80	-0.11348438

bias f4 [9]
0	0x3d584e07	0.052808788
1	0x3c6472f6	0.013943424
2	0x3d46d4b3	0.04854269
3	0x3c7b5ba1	0.01534167
4	0xbbdc3279	-0.006719884
5	0x3bf0a700	0.0073441267
6	0xbc4c6469	-0.0124751115
7	0x3cafa611	0.021441491
8	0x3c2ce2c7	0.010552115
