.processed/9_logs_scale_3_crop_64/epoch_19_model.pth (torch_old, 93460 bytes, 6 tensors)

weight f4 [64, 1, 5, 5]
0.1288088 0.14765435 -0.0653532 0.1682656 -0.055408392 0.022119684 -0.11204777 0.10653508
0.16835906 -0.15373531 0.16092582 0.026393812 0.14723678 0.023028221 0.08899911 -0.0438898
0.15004097 0.028952839 -0.0942191 0.043600053 -0.10138991 -0.029280394 -0.08081754 0.12610416
-0.16424939 -0.09104645 -0.051107403 -0.11901088 0.021125482 -0.19168286 0.1808212 -0.16868037
0.15927058 0.03363035 -0.061844677 0.123999745 0.039893124 0.17564467 0.025011009 -0.061221603
0.050691087 -0.050731305 0.092339404 0.17929313 0.11454917 -0.0946429 0.11099115 0.03213733
0.095604 -0.12638092 -0.09587844 0.014857968 -0.12951207 0.13572629 -0.07128476 0.04768285
0.014997673 0.1250636 0.23292737 -0.2618966 0.02667322 -0.21637882 0.37518102 -0.17929184
-0.116467044 -0.06082386 0.14124744 -0.028853994 -0.12154506 -0.20693655 0.098234184 -0.0957639
0.19951001 0.0017812327 -0.24605465 -0.12514478 -0.101940945 0.068124615 0.047161654 0.119461976
-0.06834421 -0.12540433 0.15865687 -0.07968097 0.1152265 -0.05176898 0.17931914 -0.11255467
-0.06542014 0.05582452 0.043541342 -0.025437796 0.18254723 0.14671713 -0.13115506 -0.13530432
0.19464324 -0.06530576 -0.05572673 -0.19300301 -0.018211901 0.12638511 0.05097501 -0.15106866
0.055631146 -0.11190715 -0.23722188 -0.046323404 -0.10111018 0.0057208785 0.1965333 0.12838922
0.5250279 -0.26851702 -0.03152821 -0.09519892 0.04067148 -0.07364286 -0.1718296 -0.096995205
0.07997342 -0.0648078 0.011332626 0.036419548 -0.05883535 -0.107871346 -0.05884116 -0.13945068
0.15623902 -0.04434723 0.16813006 0.081882626 -0.17045832 0.14070465 -0.063769855 -0.06867661
-0.15639396 -0.19751601 0.06492844 -0.037859276 0.09171897 -0.14923865 0.17070146 -0.1416676
-0.020368664 0.037150603 0.109407954 0.15262465 0.18211499 -0.16331722 0.06840362 -0.073310085
-0.003199441 -0.13440478 0.19585823 -0.1327417 0.122789145 0.09883824 0.08349056 -0.087787434
0.19979964 0.06856745 0.06711225 -0.15635091 0.115048796 -0.016021827 -0.077022985 0.20162821
0.06328821 -0.08851045 -0.08981759 0.0011369977 0.12259319 -0.039918788 -0.09271353 -0.070364885
-0.15068763 0.070813686 0.15142351 -0.19268195 0.042149007 0.10526251 0.03658764 -0.072603665
0.099264495 0.10232842 0.08061499 -0.029164512 -0.05630326 0.017239103 -0.04276208 -0.06222189
0.12851803 0.1697539 -0.027778126 -0.054346435 -0.004465067 -0.017897239 0.040678687 0.046861954
-0.11929938 -0.019490246 0.18936495 0.08472349 0.0022302594 -0.050433055 -0.06750231 -0.14582445
-0.03254933 0.087948024 0.14538398 0.16145939 -0.21544614 -0.094247825 0.0032523577 0.19585282
0.052249383 -0.056887716 0.11555178 -0.030423963 -0.117242076 0.1816517 -0.064784914 -0.0051880097
-0.13901147 0.12034436 0.113047235 0.055855032 -0.14806293 -0.16997701 -0.16903326 0.13751346
0.14086474 0.19034772 0.13899766 0.034296725 0.037715822 -0.17015721 -0.16941614 -0.17304812
0.09679227 -0.080676615 0.04761965 -0.10349177 0.022572283 -0.08451665 -0.0877919 0.06338843
-0.037186906 0.12467365 -0.044837512 -0.13526501 -0.026008619 -0.09899697 -0.06032831 -0.19248486
00000000: 74e6 033e b432 173e e6d7 85bd d14d 2c3e
00000010: e9f3 62bd 5734 b53c 4d79 e5bd 102f da3d
00000020: 5166 2c3e ca6c 1dbe bdc9 243e d637 d83c
00000030: 3dc5 163e aea5 bc3c 2a45 b63d cac5 33bd
00000040: 57a4 193e 812e ed3c f2f5 c0bd f895 323d
00000050: 83a5 cfbd 70dd efbc ab83 a5bd 7321 013e
00000060: fe30 28be 9076 babd ff55 51bd fabb f3bd
00000070: 590f ad3c 8348 44be 3129 393e 8cba 2cbe
00000080: d417 233e fabf 093d d850 7dbd 94f3 fd3d
00000090: f966 233d 32dc 333e e3e3 cc3c 81c3 7abd
000000a0: 75a1 4f3d a1cb 4fbd 711c bd3d 9e98 373e
000000b0: c198 ea3d 23d4 c1bd 544f e33d 6fa2 033d
000000c0: 08cc c33d 006a 01be ea5b c4bd d66e 733c
000000d0: d09e 04be d5fb 0a3e bffd 91bd 184f 433d
000000e0: cdb8 753c ac10 003e 8384 6e3e 5017 86be
000000f0: cc81 da3c 6992 5dbe ba17 c03e 4898 37be
00000100: 4686 eebd 7122 79bd 2ba3 103e 365f ecbc
00000110: 9eec f8bd 2de7 53be 012f c93d dd1f c4bd
00000120: 5a4c 4c3e 4078 e93a c0f5 7bbe f425 00be
00000130: 6ac6 d0bd eb84 8b3d 942c 413d 7ba8 f43d
00000140: 0df8 8bbd fe69 00be f276 223e c72f a3bd
00000150: dffb eb3d b60b 54bd 709f 373e 1083 e6bd
00000160: fffa 85bd 40a8 643d 6858 323d ed62 d0bc
00000170: a9ed 3a3e 043d 163e 834d 06be 378d 0abe
00000180: 8f50 473e 07bf 85bd b641 64bd 95a2 45be
00000190: 2031 95bc 196b 013e 2ccb 503d beb1 1abe
000001a0: 7cdd 633d 932f e5bd 4bea 72be 9cbd 3dbd
000001b0: db12 cfbd 3576 bb3b 0740 493e 7778 033e
000001c0: 3a68 063f 107b 89be b923 01bd a7f7 c2bd
000001d0: 2397 263d 11d2 96bd 19f4 2fbe 6ca5 c6bd
000001e0: 1bc9 a33d f4b9 84bd 7bac 393c aa2c 153d
000001f0: 56fd 70bd a7eb dcbd 6e03 71bd 29cc 0ebe
00000200: 1ffd 1f3e 71a5 35bd 492a 2c3e 14b2 a73d
00000210: a08c 2ebe e114 103e c599 82bd 53a6 8cbd
00000220: bd25 20be a341 4abe 34f9 843d 5412 1bbd
00000230: 28d7 bb3d 04d2 18be 5dcc 2e3e 5011 11be
00000240: 2fdc a6bc 3b2b 183d 4711 e03d a349 1c3e
00000250: 5a7c 3a3e a13c 27be 3217 8c3d 9923 96bd
00000260: b6ad 51bb 68a1 09be 0f8f 483e 71ed 07be
00000270: e078 fb3d b46b ca3d 19fd aa3d e6c9 b3bd
00000280: 4798 4c3e 176d 8c3d 2672 893d 741a 20be
00000290: b49e eb3d 3540 83bc 3abe 9dbd a077 4e3e
000002a0: 409d 813d f844 b5bd 49f2 b7bd 5007 953a
000002b0: 2312 fb3d e281 23bd 97e0 bdbd 771b 90bd
000002c0: dc4d 1abe c406 913d c40e 1b3e 6b4e 45be
000002d0: 70a4 2c3d df93 d73d ecdc 153d 3bb1 94bd
000002e0: 2f4b cb3d 9091 d13d 7919 a53d 6aea eebc
000002f0: 3f9e 66bd 0539 8d3c 4a27 2fbd 61dc 7ebd
00000300: 3b9a 033e f7d3 2d3e f48e e3bc 5e9a 5ebd
00000310: b24f 92bb 3b9d 92bc b29e 263d 52f2 3f3d
00000320: 3c53 f4bd 02aa 9fbc e3e8 413e 8283 ad3d
00000330: 8b29 123b e492 4ebd a73e 8abd 0153 15be
00000340: 7252 05bd 181e b43d 8adf 143e 9c55 253e
00000350: ea9d 5cbe 0105 c1bd 8225 553b a48d 483e
00000360: 7303 563d 1803 69bd 69a6 ec3d ad3b f9bc
00000370: 9d1c f0bd e702 3a3e f4ad 84bd 2e00 aabb
00000380: 0659 0ebe 1b77 f63d 4f85 e73d 3fc8 643d
00000390: cf9d 17be 740e 2ebe 0e17 2dbe 54d0 0c3e
000003a0: d93e 103e 83ea 423e 6755 0e3e b97a 0c3d
000003b0: e87b 1a3d b13d 2ebe 6d7b 2dbe 8733 31be
000003c0: 073b c63d c839 a5bd d20c 433d 7ef3 d3bd
000003d0: 82e9 b83c 1117 adbd 3dcc b3bd cbd1 813d
000003e0: 4c51 18bd e654 ff3d 8aa7 37bd e982 0abe
000003f0: 0710 d5bc ecbe cabd d11a 77bd c01a 45be

bias f4 [64]
-0.17446999 0.09277938 -0.016271163 0.0045243083 0.03624896 0.14928822 -0.029682621 0.046746977
0.074626096 0.11568268 0.011926866 0.084224075 -0.1146505 -0.12247379 0.16020529 -0.14559539
0.015387478 -0.0106717395 0.18435949 -0.035246287 -0.10152491 -0.06576019 0.116959155 0.09387346
0.15140894 0.06455816 0.08839077 -0.20440467 0.07442143 0.08780916 0.10991803 -0.05349759
-0.0516195 0.057898406 -0.13527457 -0.14903443 -0.1840291 0.12882304 0.11206582 0.04417196
0.063082136 0.063957594 -0.117347695 -0.0036536907 -0.041110434 -0.070744924 0.15675834 -0.033780478
0.0174149 -0.18231909 0.009078091 -0.08356559 0.06430896 -0.07430186 0.11976718 -0.13915466
0.12018731 -0.10375138 0.0898626 -0.014990854 -0.019290084 -0.025925279 0.11314362 0.06142598
00000000: 43a8 32be 1e03 be3d 1a4b 85bc a640 943b
00000010: ca79 143d 03df 183e f828 f3bc c279 3f3d
00000020: 91d5 983d 0aeb ec3d e768 433c ac7d ac3d
00000030: e2cd eabd 8ad3 fabd db0c 243e f516 15be
00000040: c31b 7c3c 85d8 2ebc bcc8 3c3e 695e 10bd
00000050: 4bec cfbd 47ad 86bd 4888 ef3d bb40 c03d
00000060: f20a 1b3e 1237 843d 3806 b53d 754f 51be
00000070: 436a 983d 4ad5 b33d b41c e13d 4a20 5bbd
00000080: f86e 53bd e126 6d3d 6b85 0abe 7b9c 18be
00000090: 2072 3cbe 30ea 033e c482 e53d a8ed 343d
000000a0: 3531 813d 33fc 823d fd53 f0bd c272 6fbb
000000b0: 6a63 28bd b7e2 90bd 4285 203e 665d 0abd
000000c0: b1a9 8e3c dbb1 3abe 46bc 143c 7024 abbd
000000d0: 6bb4 833d 932b 98bd 7f48 f53d 8f7e 0ebe
000000e0: c424 f63d 9b7b d4bd e209 b83d 339c 75bc
000000f0: 3d06 9ebc 4061 d4bc d8b7 e73d cf99 7b3d

weight f4 [32, 64, 3, 3]
-0.031545963 0.009439374 -0.021212358 0.03729878 0.018099401 0.00017453359 -0.014549617 0.025247129
-0.017110238 0.031403627 0.03982799 0.037692323 0.028132536 -0.021538036 0.046300933 -0.007815395
-0.0010962145 0.0005231572 -0.054940082 -0.045835763 0.05511125 0.0084567545 0.006418876 0.040629715
0.10376085 0.00422115 -0.077715136 -0.018276006 0.07959166 0.04767896 0.016310783 -0.015572224
0.010375479 0.05721746 0.0049230615 -0.04201957 -0.043454148 -0.017500563 0.05787804 -0.063387945
0.0025290158 0.058235347 0.027057732 0.0067121433 -0.07558569 0.020279704 0.030103968 0.021092674
-0.02177407 0.0035234806 0.018232152 -0.010013899 -0.0050059333 -0.019816168 0.023606619 -0.00027906
0.03562489 0.023806425 0.013913054 -0.01442793 -0.027306851 0.011888547 0.052964583 -0.01895065
0.020201217 -0.009297503 -0.008094886 0.049625468 0.030502366 -0.009010262 0.01361992 0.019073138
-0.011953223 0.012826867 0.02014806 0.012679327 -0.02377033 -0.0036197358 -0.016263291 -0.03067827
0.0408529 -0.020384394 -0.019723296 0.03606451 -0.02951382 -0.0035420796 0.021838041 0.0057399315
-0.028577568 0.042104166 0.024314817 -0.021471037 0.051473394 -0.028653715 0.03617739 0.033050377
-0.0132550625 -0.03791391 -0.023503609 -0.0045770565 -0.10781544 -0.00027428954 0.036457863 0.05955522
0.039222926 0.039388347 0.042517513 -0.05858093 -0.026984641 0.015653174 0.04887215 0.008710144
0.0012589678 -0.014136495 -0.025468975 -0.039118953 0.038868707 -0.019132055 -0.051921755 -0.0077286996
-0.0098807 -0.019077426 0.0012781273 0.011257256 -0.05089298 -0.042956427 -0.02070191 -0.05648224
-0.037535954 0.03621446 -0.008275203 -0.02277615 -0.019710978 -0.032985836 0.02614762 -0.01274935
0.006292649 -0.019557886 0.0374558 0.015665375 -0.0029743668 -0.010721994 -0.0010926301 0.0013469101
0.07260978 -0.0033184756 0.0065866024 0.00825825 0.025534544 0.018738156 0.027469167 0.06692334
-0.055388164 0.004878032 -0.012459981 0.03097081 -0.027055146 0.025521336 0.019083 0.0118619
0.015385934 -0.01954117 0.03395752 -0.026238814 -0.011765388 0.043886572 0.020779647 0.004436054
-0.006638586 -0.019877907 0.026848389 0.0045658625 0.014538759 0.012366207 0.04077583 -0.0106561035
-0.009635651 0.025776554 0.012888596 -0.025215998 -0.024066841 0.008836629 0.030348698 -0.009293774
0.018282866 -0.03155814 0.026089115 -0.014249486 0.024572335 0.045123167 0.019279685 0.043223258
-0.015989115 -0.029769218 -0.030020243 0.036657162 0.018099215 -0.028367199 -0.02876644 -0.025800394
-0.089120016 0.04089406 0.049726654 0.045394264 0.022834463 0.05546764 0.030327585 0.019446734
-0.008368644 0.017364021 -0.037287068 0.01846026 0.0017671931 0.028616665 -0.007936722 -0.0018127548
-0.037711535 -0.03550767 0.01747575 0.03783467 0.024663024 0.008695799 0.010952583 0.008964311
0.0074417717 -0.08864806 0.037510425 0.07585097 -0.06513003 -0.022250595 -0.02756927 0.06092126
-0.007695576 -0.056137644 0.038535498 -0.011762592 0.021877192 -0.029156284 -0.01691553 0.0038902394
0.03713748 0.01712343 -0.029847395 0.005190437 -0.025049683 0.0025743165 -0.037952617 -0.011161709
0.026565714 -0.03414773 -0.038210187 0.012364433 -0.0014828993 -0.016612513 0.049764894 -0.034067348
00000000: 5736 01bd 9ba7 1a3c 8ac5 adbc 9bc6 183d
00000010: 3245 943c 0103 3739 8461 6ebc 11d3 ce3c
00000020: c52a 8cbc 17a1 003d ad22 233d 4463 1a3d
00000030: 3476 e63c 8970 b0bc 0ca6 3d3d 240c 00bc
00000040: dbae 8fba 7c24 093a da08 61bd 48be 3bbd
00000050: 56bc 613d 338e 0a3c 6f55 d23b 586b 263d
00000060: 9280 d43d 9351 8a3b 1d29 9fbd 90b7 95bc
00000070: f400 a33d 034b 433d 319e 853c a422 7fbc
00000080: eafd 293c db5c 6a3d a251 a13b b61c 2cbd
00000090: fafc 31bd 575d 8fbc 8611 6d3d 8ad1 81bd
000000a0: d8bd 253b 3088 6e3d 2da8 dd3c 8af1 db3b
000000b0: accc 9abd 9f21 a63c 999c f63c 8bca ac3c
000000c0: 895f b2bc 32ea 663b 985b 953c 5611 24bc
000000d0: d008 a4bb 8455 a2bc ab62 c13c cd4e 92b9
000000e0: 68eb 113d b105 c33c 94f3 633c 2063 6cbc
000000f0: 9eb2 dfbc 2ec8 423c 64f1 583d 653e 9bbc
00000100: 067d a53c 8e54 18bc 6aa0 04bc 1344 4b3d
00000110: 19e0 f93c c79f 13bc 1626 5f3c 453f 9c3c
00000120: 73d7 43bc c827 523c 8b0d a53c f4bc 4f3c
00000130: ffb9 c2bc 1739 6dbb 983a 85bc ff50 fbbc
00000140: 5f55 273d 2cfd a6bc c092 a1bc 61b8 133d
00000150: f7c6 f1bc 3c22 68bb b1e5 b23c 0916 bc3b
00000160: 811b eabc 6b75 2c3d de2f c73c 07e4 afbc
00000170: c4d5 523d 32bb eabc be2e 143d d55f 073d
00000180: c32b 59bc 9e4b 1bbd a48a c0bc 22fb 95bb
00000190: 57ce dcbd 85ce 8fb9 d754 153d 2df0 733d
000001a0: 38a8 203d ad55 213d d826 2e3d 8ff2 6fbd
000001b0: e50e ddbc 163b 803c 2a2e 483d feb4 0e3c
000001c0: f303 a53a c29c 67bc 50a4 d0bc 323b 20bd
000001d0: cb34 1f3d d4ba 9cbc e8ab 54bd 0841 fdbb
000001e0: a9e2 21bc 4348 9cbc d686 a73a 5b70 383c
000001f0: 2875 50bd 14f3 2fbd 0d97 a9bc ec59 67bd
00000200: 4dbf 19bd 9d55 143d b894 07bc 0c95 babc
00000210: eb78 a1bc 281c 07bd 8933 d63c a6e2 50bc
00000220: 9132 ce3b dc37 a0bc 416b 193d ac54 803c
00000230: 98ed 42bb 4dab 2fbc 9536 8fba ce8a b03a
00000240: 70b4 943d c87a 59bb 6dd4 d73b 9c4d 073c
00000250: d22d d13c c380 993c 0507 e13c 1b0f 893d
00000260: b3de 62bd e6d7 9f3b f324 4cbc 7fb6 fd3c
00000270: c1a2 ddbc 1f12 d13c f453 9c3c 6a58 423c
00000280: 4915 7c3c ce14 a0bc 0a17 0b3d c8f2 d6bc
00000290: 9dc3 40bc 68c2 333d 143a aa3c 515c 913b
000002a0: 7f88 d9bb fed6 a2bc 27f1 db3c 3b9d 953b
000002b0: fa33 6e3c a29b 4a3c 8f04 273d f096 2ebc
000002c0: d9de 1dbc 5a29 d33c b12a 533c c891 cebc
000002d0: d327 c5bc 82c7 103c d59d f83c ea44 18bc
000002e0: f3c5 953c 1c43 01bd d7b8 d53c ad76 69bc
000002f0: ec4b c93c 12d3 383d 6ef0 9d3c df0a 313d
00000300: 9bfb 82bc 93de f3bc 03ed f5bc d225 163d
00000310: ce44 943c 5462 e8bc 99a7 ebbc 595b d3bc
00000320: 8e84 b6bd 8880 273d 2dae 4b3d 56ef 393d
00000330: 570f bb3c 0932 633d 8e71 f83c c24e 9f3c
00000340: a31c 09bc fe3e 8e3c 53ba 18bd f939 973c
00000350: 29a1 e73a 7f6d ea3c 0609 02bc f599 edba
00000360: 6977 1abd 7e70 11bd 4e29 8f3c 87f8 1a3d
00000370: 1c0a ca3c d378 0e3c 7672 333c 0cdf 123c
00000380: 1bda f33b 1d8d b5bd 88a4 193d c157 9b3d
00000390: e562 85bd e146 b6bc f3d8 e1bc 9288 793d
000003a0: 2c2b fcbb 96f0 65bd 66d7 1d3d e3b7 40bc
000003b0: cc37 b33c 29d9 eebc 7092 8abc 63f3 7e3b
000003c0: 781d 183d 6f46 8c3c 8682 f4bc 8b14 aa3b
000003d0: fe34 cdbc ddb5 283b 3474 1bbd 9adf 36bc
000003e0: 57a0 d93c 7dde 0bbd 4982 1cbd 3194 4a3c
000003f0: d85d c2ba f716 88bc 46d6 4b3d 348a 0bbd

bias f4 [32]
0.038878877 -0.0012985944 -0.027271282 0.015871475 -0.01651975 0.01793615 0.030591395 -0.0025814131
-0.0034892883 -0.011200029 0.028165316 -0.014565034 -0.0012520943 -0.021362772 -0.015131673 -0.018816441
0.022750087 -0.02102537 -0.0006431745 -0.010394357 0.034646645 -0.019781359 -0.009864981 0.019566363
-0.043143697 -0.024147363 0.037938595 -0.034844898 0.057011355 0.023729052 0.03760774 0.03257424
00000000: 753f 1f3d 9935 aaba 0668 dfbc e504 823c
00000010: 6d54 87bc d5ee 923c ce9a fa3c ed2c 29bb
00000020: 8bac 64bb 5480 37bc f3ba e63c 2ea2 6ebc
00000030: 501d a4ba fb00 afbc d6ea 77bc f024 9abc
00000040: 645e ba3c 663d acbc b69a 28ba 184d 2abc
00000050: a4e9 0d3d 840c a2bc bba0 21bc a349 a03c
00000060: 72b7 30bd b1d0 c5bc 8065 1b3d 86b9 0ebd
00000070: bd84 693d 6e63 c23c 930a 1a3d 916c 053d

weight f4 [9, 32, 3, 3]
0.052826703 0.053491913 -0.0034056832 -0.026770312 0.0011601993 0.027960341 0.008623499 -0.029971464
0.057699148 -0.031567894 0.019502547 -0.0346208 -0.007984305 -0.033275723 -0.024039416 -0.047259744
-0.02113763 -0.038040247 0.03713928 -0.022813847 0.040631596 -0.036757797 -0.035339795 0.07125248
0.03090589 -0.02390886 -0.030681837 -0.053557474 0.010117783 -0.011103217 0.011624105 0.03954199
0.035715282 0.0006309607 0.023858497 -0.043207843 0.038543742 -0.0438897 0.017337266 0.08735605
0.15882663 -0.011145269 -0.035477236 -0.061811008 -0.018593334 -0.027314475 0.03479813 -0.0280552
0.056911014 0.027696215 -0.03099322 0.004494938 0.030990884 0.06894202 -0.024360886 -0.04057778
-0.031864855 0.0061862627 0.05804987 0.006030239 0.047894854 -0.041125827 -0.06596646 -0.051718764
-0.0743994 -0.0236959 0.0540528 -0.111778535 0.1678557 -0.005040032 -0.054047 0.023629515
0.045605477 -0.0071627405 -0.033671085 -0.03648309 -0.0123013025 0.006312489 0.0024009177 -0.0425674
0.06697327 0.0010373653 0.060868405 -0.012679441 0.044047568 0.03385451 -0.04616628 0.03677457
0.03890301 -0.041451994 0.042833164 -0.027076393 -0.021448333 -0.010595674 -0.06524163 0.08320537
-0.01844377 -0.036535054 0.066505626 -0.046515256 -0.027837537 0.025219502 0.053275388 -0.012016115
-0.024531804 -0.028872212 0.048268616 0.011100718 0.00058368145 -0.009710008 -0.055312544 0.012762249
-0.040961772 0.012574921 -0.0003820388 0.030878596 -0.04051091 0.03120841 0.06062063 0.054948032
0.02590674 0.012118174 -0.014853483 -0.026401982 -0.024743237 -0.005736272 0.053488523 0.05784506
0.021202441 -0.0224662 0.03646864 -0.027400246 -0.05288369 -0.0031738314 -0.03367815 0.015119248
0.040292993 0.011958967 0.04075903 0.022865092 -0.04645728 -0.0081746895 0.02712956 -0.033763085
0.005601885 0.045620214 -0.026699623 0.031530317 -0.028472014 0.04332624 0.021811182 0.034975525
-0.0317671 -0.01797161 0.050479792 -0.041943725 0.030751068 0.026315732 -0.11643868 -0.013562381
0.09443818 -0.014127681 0.010077106 0.035192344 0.008070151 0.009617349 0.10224325 0.015759597
0.009765392 -0.018835638 -0.04431355 0.059409 0.009667744 -0.006523296 0.00256296 -0.019322349
0.041640062 0.01615919 0.024241246 -0.007210898 0.01944275 0.056825664 0.037625637 0.055520095
0.027498627 0.045868598 -0.01698594 -0.034479767 0.032806322 0.007995581 5.955908e-05 0.023186719
0.027358716 0.007062294 0.0250988 0.05222445 -0.0022888437 -0.0003974873 -0.008886811 0.13042691
-0.014060058 -0.09251861 0.013597117 0.052669298 -0.05347209 -0.013707216 -0.0070027336 -0.023068499
0.022448799 -0.022059377 0.01866478 0.020808663 0.009723211 -0.02757401 0.01619701 -0.0502151
-0.00802076 0.03841218 -0.045097083 0.025470322 -0.028464934 -0.02156857 0.01987588 0.042368572
-0.023088792 0.0047701905 -0.007250345 -0.040636275 -0.0083077885 0.0069074817 -0.028950032 -0.023932714
0.054567087 -0.029077701 -0.028979983 0.07420814 -0.023867639 0.048568457 0.11809236 0.0119359195
0.04735445 -0.0057976684 0.013261889 0.029208738 -0.029183563 0.019048689 0.048091643 -0.011070121
0.017551828 -0.030705074 0.03928224 -0.056199964 -0.05296619 -0.07057887 0.03773353 -0.112461984
00000000: d060 583d 561a 5b3d e231 5fbb 6a4d dbbc
00000010: d411 983a 160d e53c 9449 0d3c b786 f5bc
00000020: f155 6c3d 564d 01bd cec3 9f3c 8ace 0dbd
00000030: 9ad0 02bc 204c 08bd 4fee c4bc 6f93 41bd
00000040: d328 adbc 17d0 1bbd 5c1f 183d 1be4 babc
00000050: 516d 263d 588f 16bd 76c0 10bd d2ec 913d
00000060: 592e fd3c 83dc c3bc 7a58 fbbc 155f 5bbd
00000070: 0fc5 253c 44ea 35bc 0873 3e3c c8f6 213d
00000080: 304a 123d 0e67 253a e572 c33c b5fa 30bd
00000090: 0be0 1d3d b0c5 33bd e206 8e3c bbe7 b23d
000000a0: 73a3 223e a59a 36bc 9450 11bd 8a2d 7dbd
000000b0: 0c51 98bc 9bc2 dfbc 7c88 0e3d 05d4 e5bc
000000c0: 861b 693d 2ce3 e23c 7ee5 fdbc 464a 933b
000000d0: 98e0 fd3c 7931 8d3d 7b90 c7bc e334 26bd
000000e0: b984 02bd 22b6 ca3b b3c5 6d3d 5099 c53b
000000f0: 652d 443d 8e73 28bd 6c19 87bd 0ed7 53bd
00000100: b65e 98bd e71d c2bc 7866 5d3d 25ec e4bd
00000110: 5de2 2b3e da26 a5bb 6360 5dbd af92 c13c
00000120: cfcc 3a3d 6cb5 eabb b1ea 09bd 4b6f 15bd
00000130: 678b 49bc ffd8 ce3b b758 1d3b 275b 2ebd
00000140: 4829 893d 34f8 873a 2651 793d 6ebd 4fbc
00000150: 396b 343d 07ab 0a3d da18 3dbd eea0 163d
00000160: c358 1f3d 91c9 29bd d471 2f3d 50cf ddbc
00000170: 6ab4 afbc 7a99 2dbc 679d 85bd 9467 aa3d
00000180: 6417 97bc c8a5 15bd 1a34 883d c886 3ebd
00000190: 8c0b e4bc 2199 ce3c 4b37 5a3d 3ddf 44bc
000001a0: ecf6 c8bc 6b85 ecbc 50b5 453d c9df 353c
000001b0: 3302 193a ba16 1fbc 688f 62bd c118 513c
000001c0: 88c7 27bd 0b07 4e3c 614c c8b9 1cf5 fc3c
000001d0: c5ee 25bd c8a8 ff3c 564d 783d 3011 613d
000001e0: 5f3a d43c 4e8b 463c 065c 73bc f848 d8bc
000001f0: 54b2 cabc 56f7 bbbb c816 5b3d f1ee 6c3d
00000200: beb0 ad3c 090b b8bc 2460 153d 7b76 e0bc
00000210: 919c 58bd 0e00 50bb 1af2 09bd b9b6 773c
00000220: 440a 253d 8bef 433c f1f2 263d 934f bb3c
00000230: fd49 3ebd 22ef 05bc d03e de3c 294b 0abd
00000240: 0490 b73b 43dc 3a3d 2bb9 dabc ef25 013d
00000250: 243e e9bc db76 313d 5dad b23c 7f42 0f3d
00000260: 381e 02bd 3339 93bc e6c3 4e3d 2fcd 2bbd
00000270: aae9 fb3c 1794 d73c 6777 eebd c034 5ebc
00000280: ce68 c13d ca77 67bc 721a 253c d925 103d
00000290: ab38 043c 1692 1d3c e964 d13d 451a 813c
000002a0: 06ff 1f3c 324d 9abc 2082 35bd da56 733d
000002b0: 7565 1e3c 5fc1 d5bb 55f7 273b e749 9ebc
000002c0: c58e 2a3d 4760 843c 9495 c63c 6649 ecbb
000002d0: 6746 9f3c 07c2 683d 571d 1a3d 0a69 633d
000002e0: cd44 e13c b6e0 3b3d 1926 8bbc a83a 0dbd
000002f0: ec5f 063d e6ff 023c 13cf 7938 13f2 bd3c
00000300: 631f e03c d16a e73b 009c cd3c 4ee9 553d
00000310: 6d00 16bb d865 d0b9 fd99 11bc a28e 053e
00000320: 285c 66bc 667a bdbd 71c6 5e3c c3bb 573d
00000330: 8d05 5bbd 3b94 60bc 3077 e5bb 26fa bcbc
00000340: 8be6 b73c deb5 b4bc e1e6 983c ee76 aa3c
00000350: 1a4e 1f3c e4e2 e1bc 98af 843c 59ae 4dbd
00000360: 8169 03bc 1756 1d3d b8b7 38bd 23a7 d03c
00000370: 4b2f e9bc 92b0 b0bc bed2 a23c ab8a 2d3d
00000380: b524 bdbc 424f 9c3b 4d94 edbb 3972 26bd
00000390: 641d 08bc 2858 e23b 9e28 edbc 8a0e c4bc
000003a0: bd81 5f3d 5c34 eebc 6e67 edbc 70fa 973d
000003b0: 1186 c3bc b8ef 463d 68da f13d e08e 433c
000003c0: bdf6 413d 5efa bdbb 6548 593c 2a47 ef3c
000003d0: 5e12 efbc ff0b 9c3c befb 443d 745f 35bc
000003e0: dac8 8f3c 3589 fbbc 6ae6 203d ef31 66bd
000003f0: 13f3 58bd a88b 90bd 798e 1a3d 7852 e6bd

bias f4 [9]
0.051893573 0.022575086 0.050116945 0.02323952 0.004695154 0.019461522 -0.0006261422 0.020078888
0.010758285
00000000: 5b8e 543d 63ef b83c 6d47 4d3d ce60 be3c
00000010: ced9 993b c56d 9f3c b123 24ba 7b7c a43c
00000020: 8543 303c
